experiments/basic/weights/2_BGRU.pth (torch, 234827 bytes, 57 tensors)

lstm.weight_ih_l0 f4 [60, 58]
00000000: a93e 443f a5ad 27be bbbd e53d 6621 5bbe
00000010: 0be5 24be cc98 413e 97ef 3dbd 27d5 0e3e
00000020: 576a d43c 3057 ed3d 98aa 8ebc ea36 04be
00000030: 209f 563d 58ea 0d3e 5894 5c3b e598 6bbe
00000040: 3095 3cbe d7b3 2f3d 72b1 66be 39f3 4fbd
00000050: 4e9b 69be 4c3e 51bd 87be 8bbe 6cb0 55be
00000060: 83ec e9bd bec7 f13b b008 2e3e d2e2 b93d
00000070: 16d9 cabd c8ce 31be 49ed 003d 2177 7fbc
00000080: fc42 9fbe 1c2a 16bd edea 8fbe d245 2c3d
00000090: 1200 52be b821 94be 3de9 13be 993a 8ebd
000000a0: 1cbf 3e3b 579f d1bc 9404 17be e9c1 6f3e
000000b0: f665 2a3d 4ba4 293e 9922 23bc f683 8fbc
000000c0: bfef 783e f72a cfbd ccd5 7c3e 0b7d 433e
000000d0: dd16 503e 9e5f e0bd 16d5 9b3d 7177 653e
000000e0: 809e 053e 0e3d 89bd fffd 1d3f 3380 2d3e
000000f0: a154 39be a077 6bbe b408 24be 22bc df3d
00000100: d74b 8d3d 7ae9 aa3c f250 45be d46d 5d3d
00000110: cdcb 6c3c 5dab 95bd 0cc1 da3d 0315 293e
00000120: ec6a 833d 718e 0d3e 3f3b 413e 19e0 b2bd
00000130: a6f5 7cbd 38a7 5f3e d32a 103e 4e4f cebd
00000140: 5f50 933d 8e36 c5bd 4e43 28be 8af8 233e
00000150: ff5e a83d 418b 04be 86d0 453e ed8e 1cbd
00000160: 0f1e 49bc 74a3 de3d 8127 573e 88f2 033e
00000170: ab80 09be 09b3 703c 9e2c 2b3e a72a a93b
00000180: cf27 36be 0ca5 d73a b331 903d 3410 643e
00000190: 94b6 4e3d a32f 9ebd 1460 623e 1d02 e73d
000001a0: d72d cd3a b622 ab3e 6d02 0d3e f6db a53d
000001b0: 3641 193e 2605 883e f8b5 393e 5ca6 713e
000001c0: c1cc 0a3d f95e 55bc 0d58 1b3e 9f90 833d
000001d0: aef1 6f3e 1a53 25be 53bc cd3d aea1 f93d
000001e0: d0e5 a03d 0d3a 17be e2bc 083d a9f5 a7bd
000001f0: f2ab 57be e6db f53d d4d3 273e 6788 cebd
00000200: 77a5 283e 7ed8 b83d 19eb 42bd 41dd 6dbe
00000210: d28a 66bd 397b 0e3e 0301 05be 1bec ab3d
00000220: 8f2c 83bd bc5e 03bd 4d61 b8bd 4b46 9ebe
00000230: baf1 fa3b 4c1b 0dbd 7b46 45be a335 afbe
00000240: abdb d3bc b49d 80be cd1a 74be a78c fb3c
00000250: 2338 e0bd 33f0 ab3d 93c1 bbbd abda f3bd
00000260: c32b 09bd 9e8a bc3d ea45 593d 7a60 16be
00000270: 3824 0abe de0f 213e a40f 31be 99c6 8a3c
00000280: 56bc 0c3d d299 a43d 4dad d03d 6c19 70bc
00000290: 9b46 f43d 5655 203e 104b e73d 26c2 743e
000002a0: c521 883e 0cea cdbc 63c4 7ebc 68ff aebc
000002b0: 1604 01bd 16e4 4e3e 7901 1e3f a4b6 c6bd
000002c0: 8058 b43d 3729 193e 862b 34bd 5912 513e
000002d0: 3768 6f3d 8c3e 3e3e 64c2 11be 193e 9abd
000002e0: b04b 713d 3e9b 4f3e 952e 10be f6bc 6bbd
000002f0: b26b 2abe 1844 70be 2093 1cbe 1525 9fbd
00000300: e3e8 0f3e 656f 39be 9423 c0bd 1035 b43c
00000310: a0c1 c5bd 691c 27be 7943 133e 3737 b0bc
00000320: d471 efbd cb42 083d 0918 adbd 606a 77be
00000330: 09c4 45be a312 80be b076 0dbd d7ae 553d
00000340: 31c4 5f3d 4039 053d ad46 723d bdfe 0a3e
00000350: 03c0 58be 5ce5 2fbe b3bb 6ebe a44f 193e
00000360: 103c 453e d150 a6bd b991 173e 2e6d 05bd
00000370: 99b8 4bbe b265 8c3e 4209 203d 382e be3b
00000380: 4b53 1f3e babd 4e3e e2e2 413e b4a0 873e
00000390: 7441 dcbd a0ff 363e 4257 343e 7b11 b8bd
000003a0: cb9d 15be 2698 663e 28d5 e63d 3df5 89bc
000003b0: 0c66 0dbe fda6 51bc 24b2 5e3e a90c 3fbe
000003c0: bd91 99bd fddd 703e aba3 94bd 1658 713e
000003d0: 88fd 8a3e edb8 4abd 235e 523e 17c2 c03d
000003e0: e416 873e d366 a03d 3914 993e cdec 0ebd
000003f0: 45e1 0b3e fd9d 133d 4468 c5bc d4b1 4a3e
0.7665811 -0.16374834 0.11217829 -0.21399459 -0.16102998 0.18905944 -0.04637107 0.13948499
0.025929613 0.11588895 -0.01741533 -0.12911573 0.052397847 0.13858926 0.0033657756 -0.23007543
-0.18416286 0.042896118 -0.22528628 -0.050769065 -0.2281315 -0.0510848 -0.27293798 -0.20868081
-0.11422064 0.0073785475 0.16995502 0.09076466 -0.09904687 -0.17364037 0.031476293 -0.015592367
-0.31105793 -0.036661252 -0.28108922 0.042058773 -0.2050784 -0.28931975 -0.14444442 -0.0694477
0.002910561 -0.025588674 -0.1474784 0.23413815 0.041601144 0.16566579 -0.009956979 -0.017518979
0.24310206 -0.10115617 0.24690932 0.19090669 0.20321222 -0.109557375 0.07609002 0.22408845
0.13048744 -0.067010984 0.6171569 0.16943435 -0.1809869 -0.22994852 -0.16018945 0.10924555
0.06899231 0.020863283 -0.1926916 0.05405982 0.014452887 -0.073080756 0.10681352 0.16511922
0.06416878 0.13823868 0.18870257 -0.087341495 -0.061757706 0.21841133 0.14078836 -0.1007372
0.07193064 -0.09629546 -0.16431925 0.16012779 0.08221244 -0.12943746 0.19317827 -0.038222242
-0.012275233 0.1087102 0.21011163 0.12885487 -0.13427989 0.014691123 0.16716239 0.0051625553
-0.17788623 0.0016452386 0.070407294 0.22271806 0.05046709 -0.0772393 0.22106963 0.112797
0.001565392 0.3342492 0.13770457 0.08098595 0.14966282 0.26566428 0.18135822 0.23598617
0.033886675 -0.0130231315 0.15170307 0.06424069 0.23432037 -0.16144982 0.100456856 0.12189041
0.07856333 -0.14768238 0.033383258 -0.08201153 -0.21061686 0.12004833 0.163894 -0.100846104
0.1646937 0.090256676 -0.047587488 -0.23228933 -0.056284733 0.13914193 -0.12988667 0.08394643
-0.06404983 -0.032072768 -0.09002934 -0.30913004 0.0076582106 -0.03444986 -0.19265167 -0.3422061
-0.025861582 -0.25120318 -0.23838349 0.030706717 -0.10948207 0.08395424 -0.09167781 -0.11906942
-0.033489 0.09206127 0.05304519 -0.1468524 -0.13490379 0.15728709 -0.17291123 0.016940402
0.0343593 0.080371514 0.101893045 -0.014654499 0.119275294 0.15657553 0.11293614 0.23902187
0.26588264 -0.025136016 -0.015549752 -0.021362022 -0.031498037 0.20204195 0.61721 -0.09702805
0.088059425 0.14957128 -0.04398682 0.20417155 0.058448996 0.18578547 -0.1423431 -0.075313754
0.05891007 0.20274064 -0.1408027 -0.057553254 -0.16642645 -0.23463476 -0.15290499 -0.07770745
0.14053683 -0.181089 -0.09381786 0.021997958 -0.09656072 -0.16319431 0.14381208 -0.021510703
-0.11691633 0.033266824 -0.0845185 -0.24161673 -0.19313063 -0.2501422 -0.034537017 0.052168693
0.054630462 0.0325253 0.059149433 0.13573737 -0.21166997 -0.17177337 -0.23313789 0.14971787
0.19261193 -0.08120883 0.14801683 -0.032574825 -0.19894637 0.27421337 0.03907133 0.0058038495
0.15559117 0.20189562 0.18934205 0.26489794 -0.10754672 0.1787095 0.17611411 -0.08987709
-0.14610974 0.22518978 0.11271125 -0.016840572 -0.13808459 -0.012796161 0.21747643 -0.18657173
-0.074985005 0.23522182 -0.0725778 0.23568758 0.27146554 -0.049492765 0.20543723 0.0941202
0.26384652 0.07832112 0.2989824 -0.0348938 0.13660152 0.03603934 -0.02409757 0.19794399

lstm.weight_hh_l0 f4 [60, 20]
00000000: 427a e43d f056 213e 8908 aabc 6021 43be
00000010: bbaf 933d d1dc a13e b724 a03d 9c3a a8bd
00000020: d6ab b7ba 674f f63d 0e96 15be 7c76 10be
00000030: 81f1 c5bd 077f eb3b 8819 3cbd 9d2b c4bc
00000040: 2927 8cbe 563a 9b3c 926e 07bd abca 3b3d
00000050: c0e9 4cbe c115 c5bd 25df 743d 508d ad3d
00000060: 821c b4bd 644c 3b3e 6557 c6bb 36f3 62be
00000070: 1ea8 383e db4d 503e 54d1 8c3d 77f8 043d
00000080: d6a3 06bd 5c94 cabc 641d 4e3e a14f 883c
00000090: 2814 0fbe 8e74 453d 87b7 a8bd 529a e53d
000000a0: 441d 733e a0aa 23be 0f77 123d 6d6e 873e
000000b0: 2866 1abe 6e88 06be 859f 013e 5097 6bbe
000000c0: 4980 a93e 0f5f b2bd c02d 42be f283 42be
000000d0: 5e55 12be d13e fabd a2d3 8dbd 7e43 da3d
000000e0: 3f1b 073e 72b7 7ebc eff1 073e c867 b83d
000000f0: 2062 86be f716 d2bd dc12 1abe 3417 80bc
00000100: 37c2 62bd ae43 91bb c68d 913e edde 68be
00000110: 5cea 453d 6175 6bbd e6dc 06be 7188 27be
00000120: 8be7 97bd 678e a43d e719 fb3d 935e b8bc
00000130: 77c4 3ebe d4dd 16be 2490 063e e209 5c3e
00000140: 3244 9cbe 5740 04be fba5 403e c901 46bd
00000150: fae9 4f3e a5a2 75bd b8a0 8fbd b98e 54bd
00000160: 19fd 34be b5ee 9abc d4b3 95bd 4bbe f03d
00000170: 0484 8ebe bcf7 233e 61fc 913d af49 113e
00000180: 0273 05be 518d 893e 4869 1abc 5447 8a3d
00000190: 3c2f 073e 2b21 de3d 61d8 df3d 4558 dcbd
000001a0: a3a7 98bd d35e 983d f5da 22bd 6cf6 33be
000001b0: e221 8c3e 070e 8c3e fca0 65bd ef1c afbd
000001c0: b506 4bbd 9484 2dbe 3653 433c 0f3a 29be
000001d0: 3950 a7bd 9d15 49be a943 613e 60dd 3b3d
000001e0: f028 01be 0113 83bd 4a70 a6be c208 e8bd
000001f0: 387e 75bd e221 363e fff1 613e fea3 65be
00000200: 7f15 543e 64bd 943e 3245 d3bd 1a42 b43d
00000210: ce13 2dbe 5943 613e 8545 d1bc ec1d 103e
00000220: 9f30 b4be 2ce3 4cbe 926f 94bd b5af 9cbe
00000230: 3dc8 803d 8488 d4bd 0ddd 553d d45e d33c
00000240: 6dc0 86be f9a0 a8be 7b53 003e 83b3 7abe
00000250: f5a4 973d 85fe 853e 1617 b5bc 1f9d 0abd
00000260: 86db 5e3e 0b84 ee3d b019 703e 103f bdbc
00000270: cc8f 663d bd5b 87bd 34c9 29bd 2ec5 043b
00000280: 04a5 4b3e 0367 be3c dd6a 673e b0b0 6ebd
00000290: 0760 02bd 6d82 6cbe f15c 8d3e 923f 22bd
000002a0: ce46 c83d ad1c 2abe 41e9 57bd fc6a 5dbe
000002b0: 9c5c 1abe 943a 9ebe ceeb 9cbe 43a8 d7bd
000002c0: d49d bb3d 5ba7 0e3e 03e3 4a3e b432 183d
000002d0: 4c33 dbbd 79e8 0e3e 9f80 41bc b457 23be
000002e0: c95e 67bc 8702 313e c2c7 393e faa9 40be
000002f0: 0f87 11be 9681 3f3e 518c afbc d5d0 8b3e
00000300: 7bd1 ebbd b41f 553e c1b3 0bbd d573 bcbd
00000310: 6080 15be ccb9 bebc fcb2 acbd 1c61 97bb
00000320: 2795 efbc 25c2 f63d 83df d5bd 7905 9e3e
00000330: bf94 eabc 14d4 b43c 6f2c 143d 2464 61bc
00000340: 0914 543e 41df 43be 4648 403e 0175 333e
00000350: fa9f 34be a7e4 683d d601 33be f6d6 673d
00000360: af69 a93b 93d2 693e 1015 893d 27fa e5bb
00000370: 2bf0 f03d efa6 0ebe 001f b2bd 41df 203e
00000380: c11b 253e fa5a 31be f90e 123e b67c 5ebe
00000390: cbf7 583e 27db 0b3e 0ebc 6ebe eabc 2d3e
000003a0: 6968 263e 2f37 08be c981 7e3e 76cb b9bd
000003b0: d349 0c3d 8cc4 3c3e 5710 173e b733 ebbd
000003c0: 4c7d 893c 0b2e 56bd 78bd 583e 8cbe 2fbe
000003d0: dc90 9e3e 4746 25be 9ec6 f3ba 4eb8 29bc
000003e0: 4736 99be 2baa f8bd fc2c 233e 8197 8bbd
000003f0: d924 c9bd 05d3 28be d934 dcbd ff52 de3d
0.11156131 0.1575582 -0.020756023 -0.190557 0.07211252 0.31613782 0.07819503 -0.08214304
-0.0014013003 0.120268635 -0.14608023 -0.14107698 -0.09665204 0.0071867737 -0.045922786 -0.023946578
-0.27373627 0.018948715 -0.033064432 0.045847576 -0.20011044 -0.0962329 0.05978312 0.08474219
-0.087945 0.1829086 -0.0060528987 -0.2216309 0.18032882 0.203422 0.06875864 0.032463517
-0.03287109 -0.024728946 0.20128399 0.016639533 -0.13972533 0.04820686 -0.0823813 0.11211075
0.23741633 -0.15983057 0.035758074 0.26451436 -0.15078032 -0.13137981 0.12658508 -0.2300694
0.33105686 -0.08709537 -0.18962765 -0.18995646 -0.14290377 -0.122190125 -0.069251314 0.10657404
0.13193987 -0.015546666 0.13275884 0.0900417 -0.26246738 -0.102582864 -0.15046257 -0.015636064
-0.055361 -0.004433117 0.28428477 -0.2274129 0.048319206 -0.057484988 -0.13170204 -0.16360642
-0.0741721 0.080349736 0.122608 -0.022506034 -0.18629633 -0.14733058 0.13140923 0.21488145
-0.3052078 -0.12915169 0.18813317 -0.048341546 0.20304099 -0.059969563 -0.070130765 -0.051893923
-0.17674674 -0.018912653 -0.0730969 0.117550455 -0.27835095 0.16012472 0.071282156 0.14188264
-0.13032153 0.26865628 -0.009424515 0.06751886 0.13201612 0.1084617 0.10929943 -0.107590236
-0.07453849 0.07439961 -0.039759595 -0.17574471 0.273696 0.27354452 -0.05606173 -0.085504405
-0.049566943 -0.16945106 0.0119216945 -0.16526054 -0.08169598 -0.19637151 0.21998467 0.045865417
-0.12613273 -0.06400109 -0.32507545 -0.113297954 -0.059934825 0.17786363 0.2206497 -0.2242584
0.20711325 0.29050744 -0.10315932 0.0880167 -0.16902086 0.21998347 -0.025545845 0.14073914
-0.35193345 -0.20008534 -0.07247843 -0.30602804 0.062881924 -0.10377601 0.052212764 0.025802054
-0.26318684 -0.32935312 0.12531845 -0.24482541 0.0740451 0.26170745 -0.022105735 -0.03384125
0.21763429 0.11646279 0.23447299 -0.02310136 0.05628948 -0.066092946 -0.041451648 0.002025913
0.19887167 0.02324248 0.22599359 -0.05827397 -0.03182986 -0.23096628 0.2760997 -0.039611407
0.0977913 -0.16612501 -0.052712683 -0.21622843 -0.1507439 -0.30904067 -0.30648655 -0.1053014
0.09160963 0.13931029 0.1981316 0.03715773 -0.107031435 0.13955869 -0.011810451 -0.15951425
-0.01412172 0.1728612 0.18142608 -0.18814841 -0.14211677 0.18701777 -0.021429213 0.27307764
-0.115145646 0.20812875 -0.034106974 -0.09201781 -0.14599752 -0.023281954 -0.08432576 -0.0046197306
-0.029245926 0.12048749 -0.10443022 0.3086355 -0.02863538 0.022073783 0.036175188 -0.013756786
0.20710768 -0.19128133 0.1877757 0.17525102 -0.17639151 0.056858685 -0.17481169 0.056601487
0.005170069 0.22834234 0.066934705 -0.007018346 0.117645584 -0.13930868 -0.08697319 0.15710165
0.16123869 -0.17319861 0.14263524 -0.21727261 0.21188276 0.13657819 -0.23313925 0.16966596
0.16250767 -0.13302301 0.24854197 -0.0907201 0.03425009 0.18434352 0.14752327 -0.11484473
0.016783379 -0.052290004 0.21166027 -0.17162532 0.30969894 -0.1614009 -0.0018598621 -0.010358883
-0.29924223 -0.12141832 0.15935129 -0.068160065 -0.09821481 -0.16486748 -0.107522674 0.10855674

lstm.bias_ih_l0 f4 [60]
00000000: a459 bc3d 42ca 0f3e c6a4 d0bc e8bf 56be
00000010: 3485 0dbe 864f 04be fc72 983d 1880 143e
00000020: d15a 9d3e ae6e d23d cf51 5239 dead c83e
00000030: 07b9 043d 8bbd 163e 899c 763d 84f1 75be
00000040: 72e3 bc3d b57f 1bbe 5e51 62be c11a c13d
00000050: d09e a5be 74b2 8dbe caa7 97bd b53a 58bd
00000060: 4901 abbe bc1f 82be cb2f 92bd 0e6b ae3d
00000070: 0386 e4bd a0ce 46be 7478 fe3d 32bd 58be
00000080: d595 0fbc 3f64 7f3c 6d18 8dbe 95d9 04bc
00000090: 4388 9cbe a96a c6be f15e 5cbe 1cf2 8bbe
000000a0: 03da 003e 94a1 13be b1b1 e23d d83d 033e
000000b0: 5572 6dbd eded d13a 5fd8 103e daf8 01be
000000c0: 7f44 01be 0eb1 8ebc 4e2d 82bd 8af6 e13d
000000d0: a4a0 433d d8c6 7cbe 18c9 ed3c 6718 953d
000000e0: eb52 b9bd 326b b53e 43a6 e63d a652 afbd
0.09196785 0.14041999 -0.025469195 -0.20971644 -0.13820344 -0.12920961 0.074438065 0.14501989
0.3073335 0.10275017 0.00020057637 0.3919515 0.03240302 0.14720742 0.060207877 -0.24017912
0.09223069 -0.15185435 -0.22101352 0.09428931 -0.32347727 -0.2767521 -0.0740505 -0.052790362
-0.33399418 -0.25414836 -0.07138022 0.08516513 -0.11158373 -0.19414759 0.12425318 -0.21165922
-0.00876375 0.015587865 -0.27557698 -0.008108516 -0.3057271 -0.3875325 -0.21520592 -0.27333152
0.12583165 -0.14417106 0.11069048 0.1281656 -0.057970364 0.0016016342 0.14145039 -0.12692586
-0.12623785 -0.01741841 -0.063562974 0.11033352 0.04776062 -0.24685228 0.029026553 0.07280045
-0.090490185 0.35433346 0.11262181 -0.08560686

lstm.bias_hh_l0 f4 [60]
00000000: 92ba 54be 5fc9 7e3e 1489 013e 83d0 2bbd
00000010: 3ee0 2f3e 2fa8 403e 80b0 643d 3cf7 6a3d
00000020: 361b 20bd d08c 9bbd 2c52 f4bb 7fcf a53e
00000030: ef1d 11be 2303 943d 0eb2 2a3c 768a d33d
00000040: bf2c be3d f125 48be 8a0d 3a3e 0c3c 033e
00000050: 6276 8ebe c7ac cdbd d200 d6be 6f1d 9cbe
00000060: d22a 4abe 9087 06be 236b 6b3d ee06 413d
00000070: 2cbd e4be ed9c c3be 36f3 bbbd 3d27 c5be
00000080: d09e d1be 9cb7 03be a7b4 4bbe 40bb 41be
00000090: 0c85 c6bd 408b a3be b930 1fbe a9e4 e23d
000000a0: b318 5fbd 178c 023d ba60 bcbd a042 013e
000000b0: 294b 7c3e 3147 9bbe 3141 633c 26e2 c03d
000000c0: 6397 82be be73 693d 3f19 c83d 83b9 963c
000000d0: a999 71be 8d7d 45be 66aa 21be 4206 693c
000000e0: 9356 8a3e 62ba aebd 6375 8fbb f216 ad3e
-0.20774296 0.24881504 0.12649947 -0.0419469 0.17175385 0.18814157 0.055832386 0.057364687
-0.03908845 -0.07595217 -0.0074560847 0.3238487 -0.14171575 0.07227161 0.010418428 0.10329144
0.092858784 -0.19545723 0.18169227 0.12815875 -0.27824694 -0.1004272 -0.417975 -0.30491206
-0.19742897 -0.1313765 0.05747522 0.04712575 -0.44675577 -0.38205662 -0.09177248 -0.385065
-0.40941477 -0.1286301 -0.19893132 -0.18919086 -0.096933454 -0.31942177 -0.1554593 0.1107877
-0.054466914 0.03187188 -0.09198137 0.12623072 0.24638046 -0.30327752 0.013870523 0.094181344
-0.25506124 0.056995146 0.0977044 0.018399006 -0.23593773 -0.19286175 -0.15787658 0.014222683
0.27019176 -0.085316435 -0.0043780073 0.33806568

lstm.weight_ih_l0_reverse f4 [60, 58]
00000000: 8216 823e 4119 083e 7f2d 5cbe 7218 80bd
00000010: 07a5 303d ec3f 613e 1a57 20be bca4 0e3e
00000020: 4c61 6ebd c1b1 383e db6c 0d3e ab9e 4e3e
00000030: 9db3 3dbe ec30 4e3e 33b6 3ebe cf34 fdbd
00000040: 3f96 42be 1d86 883d d357 2cbe c03f b8bd
00000050: 3533 f13d b979 1ebe 18f2 0a3c acb4 9abc
00000060: 4569 39bb 328b ad3d 488a c0bc 9017 0bbe
00000070: e4e3 69be f724 e43d fdfe 67be 10eb 8fbd
00000080: 3486 38bd e60b 273d 6de2 09be 326c be3c
00000090: d506 dbbc 003a 533d 4855 fdbd c166 cb3d
000000a0: b667 a13d 5759 f83d b75a e13d 9849 0bbe
000000b0: efe0 403e 1a6f 5f3e 5dd7 933d e76b 0b3d
000000c0: b1d0 733e ec14 d53d d99d b53d f880 813e
000000d0: ddd2 163d 567d c9bd a08d 3b3d 8c9d dd3c
000000e0: 5e10 8f3e 3bea 603e b679 d2bd 7669 6fbd
000000f0: dd01 6ebc 345e 783d 4ab4 a4bd 9452 6b3d
00000100: 384f 0a3e d72b 14bd 776a 433e 88a0 4c3d
00000110: 38aa 333e faac b63d 8178 403e f002 afbc
00000120: f336 d6bd 7c63 753e d920 923c 6e36 103e
00000130: 3d4c c5bc 0f58 3e3e a040 2cbe 4209 223e
00000140: 48af 823e df32 8f3d 48ac 9e3d f614 39be
00000150: 39a4 d93c ac31 883e 6273 443e cf99 143c
00000160: 568b 02be 9a4c 483e 97ef 72bc 62ff 70bc
00000170: 0f19 573e 9ea6 22be 527f 02bd 5e6d 2a3d
00000180: 7e91 2a3e d4cb 0dbe d9a3 5fbd 5589 8a3c
00000190: 1550 683e 5860 ffbd 8e39 f53d a52d 1ebe
000001a0: 5417 0d3e f668 ea3c ae87 08be 327e 3f3e
000001b0: 0653 493e 2956 963e f20e ecbd d2c0 433e
000001c0: ee49 903e b854 86bd 82c2 bd3d add5 f3bc
000001d0: ce2a 673f fa3a 3a3e 032a 2e3a 3a8e e3bd
000001e0: 7015 7cbc 7d9f 9f3c 57f8 fb3c 5884 51bc
000001f0: 4a13 4abe 5a66 573e 45a0 0fbe 7a9e 103e
00000200: 0668 043e 5f89 6f3d a634 243e 7c61 8c3e
00000210: cadc 2bbe 4f16 1bbe 7780 9e3d 4241 edbd
00000220: bbe4 dc3d cc45 6ebe 683b f1bd 39fb 0dbe
00000230: 3d19 b23d cf69 2cbd 174a 4bbe b455 05be
00000240: 19f8 c03d 8a35 2a3d 66d3 e4bd 39d4 43be
00000250: eed8 31be 6794 373e fff9 d5bc c823 803d
00000260: e097 05be 1934 533e 092f d13b e5bc fbbd
00000270: 91f4 323d 3155 493e d78f 143d f4b5 d63c
00000280: 91e7 243e 6501 aabc b8e6 43bd 1756 0e3e
00000290: 1f05 8dbc b054 31bc 5ba6 b73e fee4 c23e
000002a0: f3bb 9e3d f2f4 db3d cc87 d03d 7dd3 f63d
000002b0: d569 973e d7dc 5c3e ecd2 203f bce2 0a3e
000002c0: d7a3 78be 9faf 523d 5791 33be 6be7 6fbe
000002d0: 38e9 f33d d792 22be 63c4 093e d8bd 093d
000002e0: aa3c cdbd 6865 30be bc85 0a3e 3617 19be
000002f0: afba 3cbe e345 86be 5d7f d9bc 3db7 84bb
00000300: 4728 d83c c650 42be 37a9 ecbc ba32 a9bc
00000310: bf07 283e 5663 933d 1655 9dbe dbf4 5cbe
00000320: e76e 713d 8727 eabd b285 c13d b79d ccbd
00000330: 3a1b 19bd dfaa 0bbe 7d5b 41be 95b2 963d
00000340: 8e24 cebc 3363 dabd 4298 2d3e 385f 8dbe
00000350: 6486 b33c 024b 19bc 16fb 4cbe 3af6 8dbe
00000360: 9b0b fabd a8cd 89be d8b2 13be 3d22 483d
00000370: fad0 9abd 99fb ac3d fdb7 f93d fecc 753d
00000380: 6d18 153e f3b7 d2bd 4c13 2dbe b0a4 75bd
00000390: 058c 86bd d958 2ebe f98b 38be 7044 78be
000003a0: 2ec4 4dbe 9c60 193d cbb0 b63d 38e8 12be
000003b0: 51d3 33be 0930 d2bd ff62 e0bd f502 c6bd
000003c0: b123 d23c 329a 313c 31ff 473d 7bc3 453d
000003d0: 48fb 44be 7fed 15bd 7554 f43d d88f e43c
000003e0: 4573 3f3e 38c4 19bd 63f8 273e ac04 8cbd
000003f0: 8a76 64bd 7b4d 413e 642a e4bd 0bdf 7dbd
0.25407797 0.13290884 -0.2150173 -0.062546626 0.043126132 0.2199704 -0.15658227 0.13930029
-0.05819826 0.18036558 0.13811056 0.20177715 -0.18525548 0.2013585 -0.18624191 -0.12363588
-0.19002627 0.06666205 -0.16830377 -0.08996534 0.11777345 -0.15476121 0.008480571 -0.01888498
-0.0028291505 0.08473815 -0.023503438 -0.13583207 -0.2284084 0.11139863 -0.22655864 -0.070272565
-0.04504986 0.04078283 -0.13465281 0.02324495 -0.026736656 0.051568985 -0.12369782 0.09931708
0.078811094 0.12126415 0.110036306 -0.13602293 0.18835805 0.21819726 0.07218812 0.03403845
0.23810078 0.10404381 0.08867998 0.25293708 0.03682219 -0.09838359 0.04578936 0.027052663
0.27942175 0.21964352 -0.10277121 -0.058450185 -0.014526811 0.060636714 -0.080422 0.0574518
0.13506782 -0.03617462 0.19083582 0.049957782 0.17545402 0.089197114 0.18795969 -0.021363705
-0.104596995 0.23963732 0.017837929 0.14083263 -0.024084205 0.18588279 -0.16821527 0.15823844
0.25524354 0.06992125 0.07747704 -0.18074402 0.026567565 0.26600397 0.1918464 0.009069874
-0.12748465 0.19560471 -0.0148276305 -0.0147093255 0.21005653 -0.15883872 -0.031859703 0.041608207
0.16657063 -0.13847286 -0.054599617 0.016911188 0.22686799 -0.12469548 0.11973868 -0.154471
0.1377843 0.028614502 -0.13333008 0.18700483 0.19660577 0.2936261 -0.11526288 0.19116524
0.28181404 -0.065591276 0.09265615 -0.029764974 0.9029969 0.1818656 0.00066438335 -0.11111112
-0.0153859705 0.01948523 0.030758066 -0.012787901 -0.1973392 0.21035138 -0.14025982 0.14122954
0.12930307 0.058480617 0.16035709 0.27418125 -0.16783443 -0.15145229 0.077393465 -0.115847126
0.107858144 -0.23268813 -0.11778909 -0.13865365 0.0869622 -0.042093094 -0.19852482 -0.13020974
0.09422321 0.041554965 -0.111731336 -0.19123925 -0.17367908 0.17927705 -0.026120184 0.06256825
-0.13046217 0.20625342 0.006383781 -0.12291888 0.043690268 0.19661404 0.03626999 0.026209809
0.1610396 -0.020752618 -0.047827452 0.13900028 -0.017214356 -0.010823414 0.35869107 0.38065332
0.07750692 0.10740079 0.10182151 0.12052057 0.2957293 0.21568619 0.6282184 0.13563055
-0.2428125 0.051437017 -0.17535912 -0.23428123 0.11909717 -0.15876327 0.13453822 0.033628315
-0.100213364 -0.17226183 0.13527578 -0.1495026 -0.18430589 -0.26225194 -0.02654999 -0.004050164
0.026386393 -0.18976125 -0.028889282 -0.020654071 0.16409205 0.07196681 -0.30728978 -0.2157778
0.058943655 -0.114333205 0.094493285 -0.09991019 -0.03737948 -0.13639401 -0.18882556 0.073582806
-0.025163915 -0.10663452 0.16952613 -0.2761171 0.021914668 -0.009356262 -0.20017657 -0.27726918
-0.12209245 -0.26914716 -0.14423692 0.048860777 -0.0755939 0.08446426 0.12193296 0.06000995
0.14560099 -0.10288992 -0.16901892 -0.05997151 -0.06569675 -0.1702608 -0.18022145 -0.24244857
-0.20094368 0.03744565 0.08920439 -0.14346397 -0.1756108 -0.10263068 -0.10956382 -0.09668533
0.025651785 0.010839986 0.048827354 0.048282128 -0.19236481 -0.036603447 0.119301714 0.027900621
0.18696316 -0.037540644 0.16403346 -0.068368286 -0.05577711 0.18877213 -0.11140898 -0.06198029

lstm.weight_hh_l0_reverse f4 [60, 20]
00000000: 124e 79be dac7 a23d d158 973d 612a 253d
00000010: c805 e9bd 5b90 863d 49aa 8cbe fcb8 2abd
00000020: ca4d 553d 83a7 163e 5a70 793c 030d 11be
00000030: 94f0 50bd e08e dbbd 36e0 91be f01e 363d
00000040: 53c0 4cbe 058e 31be f8a9 0f3e 0376 7e3e
00000050: 449f aebd b872 39be 5d89 123e c0c0 1e3e
00000060: cf8a 2ebd 7b50 f13d dfef 2e3e ea9a 65be
00000070: 5ac9 0abe 34a2 b2bd cff1 1d3e 9855 50be
00000080: ad70 5bbe bb17 113e f2c8 833d b683 713d
00000090: bbc8 4bbd ecc6 21be d67f 883d 07fb 54be
000000a0: f21a 8b3d f655 1b3d 73a0 153d 5475 a33e
000000b0: 706f 24bd cb41 003e b49d 78bd 2a99 d7bd
000000c0: 3956 443d 4b6d c33c c41e efbd 3141 79bd
000000d0: a439 64be 1607 40be fff0 70be 1e33 8b3c
000000e0: bdc0 c83d b15f 693e 0bee 35bc 8394 183c
000000f0: fb2d b13b 0267 84bc 2776 fd3d 419d 2bbe
00000100: 24bf 96bd 7c5c ac3e d4bb f43c 6781 bf3a
00000110: 9c34 873e 5d58 d4bd 43b9 c7bd 39e5 c3bc
00000120: 982c 323e 95fc 053d 7f6c adbd eba4 b7be
00000130: 9462 0ebd 135b 763d ea5d 0dbe 4854 3dbe
00000140: 64cb 15be 3a01 f83d f2c9 533e 5f5d 1f3e
00000150: 1a8b 23be 9e30 42be da69 d9bc 78d5 66be
00000160: 9009 b53d 014e 25be be98 643e 95da dc3d
00000170: cd3b 163e d1aa ca3d 017c 59bd e861 9b3b
00000180: 296d 193e e301 9bbd 1d09 833d 6197 21bd
00000190: d7cc eb3c a3b5 f13d df91 81bd 0f17 4a3d
000001a0: 43fe 4dbe d436 933d b129 a2bd 7945 28bd
000001b0: fc32 1d3e d059 f03d 8c68 edbd 2f97 803e
000001c0: 92ba 9bbc fe40 d7bd 0bb5 1e3e d354 8fbe
000001d0: e9cf 093e c811 01bc 835f ea3d 7ae3 873d
000001e0: 3668 cbbd e863 613d 0e4c 90bb 9822 e23d
000001f0: eca5 4fbd f75c 32bc 7bbb 1ebe 0a89 2cbd
00000200: ac37 40bd ac6e cdbd 601a 74be a909 55be
00000210: f4af 073e 50f6 1e3e 7237 393e 7262 7f3e
00000220: be8c 9abe e21a c93d 889b 4cbe 2d1f f2bd
00000230: e5c7 2b3c ae3c 173e c498 9b3e e94c ea3d
00000240: 35c3 c8ba 32e8 b63e 7ccb cf3c ca00 40be
00000250: 2500 8fbe 7dd5 89bd b830 9f3c 1e7b a7bd
00000260: e915 f33c a106 cf3d f21a 5b3d 8386 33be
00000270: 49c7 a2bc 61a3 3a3e 240c bb3d d018 2f3e
00000280: 0b0f 26bc 33b3 663b ce35 9a3b a1d7 df3c
00000290: f3a3 33be c2d1 8c3d 9463 7c3e 602a a5bd
000002a0: 80ef 2f3e 0e6a 913b 3078 203e 2efc f13c
000002b0: 2fe6 7d3c 522f 313e b5d5 12be c9a7 c1bd
000002c0: 3679 aabe c269 b8bd e80b 1abe df7d dfbd
000002d0: a455 97be 989d 2ebe 03ba a03d fbde 19be
000002e0: 59be 0dbe 2fdf a33d abb1 c7bb d480 d43d
000002f0: d064 34bd 05d4 953e 0410 463e d6f8 8e3e
00000300: ba39 7cbe cff0 4d3e dc72 e1bd 5f68 90bd
00000310: f020 aabd 9fd9 f53c ee30 073e c789 1e3e
00000320: b714 80bd 5e52 c9bd 3ec9 7cbd 7211 8f3d
00000330: c255 023d 4d7b 97bd 5743 d23d 3c44 af3d
00000340: f699 c4bd 0a32 e83d 9ea5 7d3e eb68 f6bd
00000350: 096b 48be a983 273e a7e2 013e 6999 2a3e
00000360: 77c8 a9be 3a45 2fbd 8ea7 123e d33c 3f3e
00000370: 7e91 40be a065 f63c cd38 cb3d 1a59 1a3d
00000380: c9f1 4ebe 0dc6 5f3e 944f d3bd 4d7b 6dbc
00000390: 2f91 1e3d 1c9e 91be e08d ecbd 791b 86be
000003a0: 97f3 12be 7c34 9b3d 959e 913c 58fe 44bd
000003b0: 67bd 4cbe aa3b 813d edad 51be 1633 3cba
000003c0: 09a4 12bd f83f 523e 53b0 cd3d f50f 86bd
000003d0: 8f8f b0bd 511f 163e 2112 a23e 86ce 903d
000003e0: 99ed 4d3e 0f50 a43d 3601 4d3e 9de7 b13e
000003f0: 00f1 79bc d0e9 46bd 61ff 63bd 976d 8f3d
-0.24346188 0.07948275 0.07389987 0.04032362 -0.11378056 0.06570502 -0.27473667 -0.04168032
0.05207614 0.14712338 0.015224541 -0.1416512 -0.051010683 -0.107206106 -0.28491372 0.044463098
-0.19995241 -0.17339332 0.14029682 0.24849705 -0.08526471 -0.18110168 0.14310212 0.15503216
-0.042612847 0.117829286 0.17083691 -0.22422376 -0.13553372 -0.08722344 0.15424274 -0.20345151
-0.21429701 0.14169209 0.06434812 0.0589635 -0.04975198 -0.15798539 0.06665008 -0.20798884
0.06792249 0.037923776 0.03652997 0.31925452 -0.040145338 0.12525098 -0.060697272 -0.105272606
0.04793379 0.023855826 -0.1167579 -0.060853187 -0.22287613 -0.18752703 -0.23529433 0.016992148
0.09802387 0.2279041 -0.011104117 0.009312752 0.0054070926 -0.0161624 0.123760514 -0.16759206
-0.07360676 0.3366431 0.02987472 0.0014610708 0.26407325 -0.103684165 -0.09752133 -0.023913013
0.17399824 0.032711584 -0.084679596 -0.3586801 -0.03476198 0.06014545 -0.13805357 -0.18489182
-0.14628369 0.12109609 0.20682505 0.15562962 -0.15971032 -0.18963858 -0.026539732 -0.2254237
0.088397145 -0.16143037 0.22323892 0.10783879 0.1467125 0.09895862 -0.053096775 0.004741896
0.14983048 -0.07568719 0.063982226 -0.039451007 0.028784199 0.118022226 -0.06326651 0.049338397
-0.20116524 0.07188192 -0.07918108 -0.04108188 0.1535148 0.117358804 -0.11592206 0.25115344
-0.019009862 -0.10510443 0.1549875 -0.27994403 0.13458218 -0.007877775 0.11443999 0.066351846
-0.09931986 0.05502692 -0.0044035977 0.110417545 -0.050695345 -0.010886422 -0.15501206 -0.042122878
-0.046928093 -0.100308746 -0.23838186 -0.20804466 0.13250715 0.15523648 0.18087557 0.24939898
-0.30185503 0.098195806 -0.19981205 -0.118223526 0.01048467 0.14769241 0.30389988 0.11440451
-0.0015316965 0.35724026 0.025365584 -0.18750301 -0.27929798 -0.06730173 0.01943241 -0.081777796
0.029673534 0.10108686 0.053492494 -0.17531781 -0.019870417 0.18226387 0.09133175 0.17099309
-0.010135422 0.0035202026 0.004706121 0.0273245 -0.1754301 0.06875946 0.24647361 -0.08064723
0.17181206 0.0044376915 0.15670848 0.029539194 0.015496775 0.17303208 -0.14339335 -0.094558306
-0.33295602 -0.09004547 -0.15043604 -0.1091268 -0.29557526 -0.17052305 0.07847979 -0.15026467
-0.13842143 0.08001553 -0.0060941777 0.103761345 -0.044041455 0.2926332 0.19342047 0.27924222
-0.24631396 0.20111392 -0.11008236 -0.07051157 -0.083070636 0.030010996 0.13202259 0.15482245
-0.06253951 -0.098301634 -0.061715357 0.06985749 0.031820066 -0.07396565 0.1026675 0.085579365
-0.09599678 0.11337669 0.24770209 -0.1203173 -0.1957208 0.16358818 0.12684117 0.16660084
-0.33160755 -0.04279063 0.1432173 0.18675546 -0.18805501 0.030077755 0.09922943 0.03768263
-0.20209421 0.21852894 -0.10317913 -0.014494729 0.038712677 -0.2844094 -0.11550498 -0.26192835
-0.14350735 0.0757837 0.017775813 -0.048094124 -0.19994126 0.06310208 -0.20476504 -0.0007179243
-0.035800967 0.20532215 0.10043397 -0.06546012 -0.08621132 0.14660384 0.31654456 0.07070641
0.20110168 0.080230825 0.20019993 0.3474702 -0.015255213 -0.048562825 -0.05566347 0.070033245

lstm.bias_ih_l0_reverse f4 [60]
00000000: 3ea7 0b3e 99ca 593e f170 6c3d 0ecd a83d
00000010: dbe2 9d3d ecfc 41bd 16f9 2d3e e67e 93be
00000020: 6cb1 0abd beaf 26be 3cee 70be f220 59be
00000030: efd4 963c 8def 0bbe 0cd3 8fbd 1494 aebe
00000040: fd05 893d 2823 d53c 9883 613b 6f6b 4ebd
00000050: d4aa 7c3d ddcc 74bc 634a 2abe d10b ffbd
00000060: 30ac 493e 8026 203e 9db8 ebbc c1b3 f9bd
00000070: 0804 133d 4ffa 383d 5c3f e23c 5e3d 48be
00000080: 672a 3abe bf54 a5bd 66c9 3f3c b8c2 28be
00000090: 6d6a a43e a7b7 193d 858d a7bd b55a 77bd
000000a0: 672d 84bd ced5 a7bd 81db a33c c06b 7f3d
000000b0: af5c f3bd e2dc 7abd 6515 a03c f2fe 60bd
000000c0: a533 49bd 7edc 4c3d 03d7 aebd 419c 7bbd
000000d0: 4b7b 36be 17d5 8a3c 6bb2 663d b9e1 9b3c
000000e0: 40ca 5c3e c396 0fbe 6f44 03be 89ac 683d
0.13638017 0.21268691 0.057724897 0.08242236 0.07709285 -0.047360346 0.1698955 -0.28807753
-0.03386061 -0.16277978 -0.23528379 -0.21203974 0.018412082 -0.136656 -0.07022676 -0.3409735
0.06690595 0.02601774 0.0034410711 -0.050395425 0.061686352 -0.014941421 -0.16629939 -0.12453426
0.1969459 0.15639687 -0.028774554 -0.121924885 0.035892516 0.045160588 0.027618103 -0.1955466
-0.18180238 -0.08072805 0.011705732 -0.1648053 0.32112446 0.03752866 -0.081812896 -0.06038924
-0.06453972 -0.08195077 0.020002129 0.062358618 -0.11882912 -0.061245807 0.019541452 -0.054930635
-0.049121518 0.050014965 -0.08537104 -0.061428312 -0.1782047 0.016947312 0.056322496 0.019028531
0.21561527 -0.14022355 -0.12819074 0.056805167

lstm.bias_hh_l0_reverse f4 [60]
00000000: 64fa 39be c57c 213e d60d 003e 3b48 23bd
00000010: 3c1b 03be fe68 163e b334 153c 698f 58be
00000020: 064c 09bb d40e 333d 7f59 193d 15e7 2c3d
00000030: 8f40 013e ca11 68bd b125 de3d 0bd5 f3bd
00000040: 3c10 e5bd fd1f 3e3e 17c7 173e d768 1ebe
00000050: 6d5f 69bd a204 473e 088f ecbd e141 43be
00000060: 75ed 9d3d 303c 2a3d dc1d c5bd 9c23 d83d
00000070: 0636 8cbe 0bb6 dabd 912c fdbd c431 053d
00000080: b8af 2cbe 200a 123e 97b2 88bd 6038 483e
00000090: bbf0 0fbd 6a5c b73d 0432 38be 1cf1 22bc
000000a0: 5608 593d 7148 683e 9e8a fd3c 53fb 533e
000000b0: ecd9 05be c060 72be da62 4e3e 66fa 02bd
000000c0: cea3 c9bd 093c d9bd 1b4a 4dbd 7a79 a13c
000000d0: ee9e 93bd eb94 26be 39ef 153e 35f2 adbd
000000e0: 5920 d8bd 7e4b 3b3e 4469 2e3e 9476 e2bd
-0.18161923 0.15770252 0.12505278 -0.039863806 -0.12803358 0.14688489 0.009106803 -0.21148457
-0.0020949855 0.043715313 0.037438866 0.042212564 0.12622283 -0.05665759 0.10847033 -0.11905869
-0.11184737 0.1856689 0.1482204 -0.1546968 -0.05697577 0.19435361 -0.115507185 -0.190681
0.07711307 0.041561306 -0.09624836 0.10553667 -0.27384967 -0.10679253 -0.12362016 0.032518163
-0.16863906 0.14261675 -0.06674688 0.19552755 -0.035141688 0.089531735 -0.1798783 -0.00994518
0.052986465 0.22683884 0.030949887 0.20701341 -0.13071412 -0.2366972 0.20154896 -0.03197708
-0.098456964 -0.10607154 -0.0501195 0.019711245 -0.07208048 -0.16267745 0.14642037 -0.08493463
-0.10553045 0.18290517 0.17032343 -0.11057773

lstm.weight_ih_l1 f4 [60, 40]
00000000: 85a0 3abd 5cfa 69bc fbdf d4bd 94b4 3d3e
00000010: 3d2c d73d 51ee 833e 2cd5 573e eb92 023e
00000020: 9667 733e f0b0 133d ecb0 ccbd 650d aa3d
00000030: e3a1 46be a8ad 943e c40b 893e 49cd 59be
00000040: b275 d8bd ae5c 68be e5a9 1c3e b99e 09be
00000050: b27f 373e 7e1b 823d 6d73 06bb 819c d23d
00000060: faec 8b3e dd50 e5bc 6f34 07be cb60 2f3e
00000070: ebc4 893d 243a 9d3d 8d98 553e d973 913e
00000080: 4123 aabc 46da 65be d3eb babd d85a 00be
00000090: 277a 4cbc cb8a d7bd 0e5e 3cbd c459 753d
000000a0: ea6c 813a f0c7 8abe 0b35 e83d a1f9 ef3d
000000b0: 6923 adbc 2905 553e 7a5d 113d d244 583e
000000c0: 680a 6dbe 8ebd e7bd a23d 63be 78a9 1fbd
000000d0: 8420 f3bd 6267 773e a2e3 263e ca2b 03be
000000e0: 823e f2bd 366a 363e 6b7c e63d 9fbf 903c
000000f0: 9d7b 13be bc2a d7bc dc2c 223e 084d f83c
00000100: 45f7 773d cb80 973e 65a9 0bbe f12c 9d3c
00000110: d170 083e fa15 543e 57ef c8bd a4e8 3b3d
00000120: e474 afbd 72fc 3abe 617c 153e ba37 fd3d
00000130: 919d 85be a3aa 68be 5589 63be 466a 06be
00000140: abf7 ce3d 092d 843e 2d3c 96bc dc8e 9d3d
00000150: b4de 4ebe d231 153e 5421 eebd f618 e83c
00000160: fe02 51bd 407b 643e 8754 63be 7eef 0f3e
00000170: 3d54 4cbe beca b33c 9d2d 473d 4624 13be
00000180: 1c14 c93d 9960 403e cb52 9f3d 5981 47be
00000190: 275a b9be 3a27 f7bd baf5 8f3d 846e 633e
000001a0: 18c9 2b3d aebc a83e 2db0 73bc 6fe9 18be
000001b0: 5465 c23d 150c 4d3e 84b8 2cbd c9d4 603e
000001c0: 5bc1 833e f7c5 dd3c 11ff 87be d99c 5b3d
000001d0: 9f02 913e cac9 42be 7980 06bd dbb9 cf3d
000001e0: b448 f03d a6ec 7ebe 3d7e d73d 0c24 9ebd
000001f0: 33ad b0bd 648d 3abd 219a 77bd d1d9 1d3e
00000200: 1829 473e 5812 e33d 9f06 e03d a15b b6bd
00000210: c45f b63b 0149 cfbc 4e02 0a3e 9603 313e
00000220: 9dda 01be c741 4abe e6d5 79be eff7 03be
00000230: 821a 86be 4e32 743d f199 62be 8c5f 8abd
00000240: f32e c0bc e651 e73d f1a7 65be 1160 34bd
00000250: 241c 7abc 42da bbbd 21c5 233b 90f5 a0bd
00000260: 9097 94bd 0c72 863e d2e7 e43d f32f c6bd
00000270: 42f2 29be a5f0 c5be b565 f13c 39fb 84bc
00000280: 184d 073d 1c63 183d 99a7 0fbe 00cf 7d3e
00000290: 05f1 0dbe 80bc 3bbe 8332 0a3d 6fe6 59be
000002a0: 1b66 7a3e d68a 823e a347 6d3d d632 48bd
000002b0: 79d4 c03d 72f9 f33b 4e5d 2ebd 144d 3abd
000002c0: 2060 6a3d 1abe 88bd 3599 dbbb 467e 623d
000002d0: 6f1c 85be a489 b73d 81f2 a7bd a44c 40bb
000002e0: b778 a83e e0de d8bd 8a18 03be 40de 9c3d
000002f0: 68a6 bcbd 1296 4dbd 5c2b d53d 1e79 2abb
00000300: 7783 4d3e 0547 723e 5e1f 903d 2f08 383e
00000310: e1d5 97bc 219f 5c3d 344a 053d 41e3 4a3e
00000320: 0f1b 70be ec26 443c edce 4b3d 3eec 453e
00000330: 66d0 ebbd 56ea d7bd 45ab 86be 032c 723e
00000340: e3ec 84be 89a4 cd3d 369e 37be 840e 313c
00000350: f919 5fbe de3c 8cbd 68c2 5c3e 639d 753e
00000360: cedc 07be 3ec8 703d ee15 c7bd 7538 cb3d
00000370: 3270 3c3b 57fc 27be 0d7e 193b 45c1 ee3d
00000380: 0aaf 94bc e6c8 193e 2441 033e 5cc0 c1bd
00000390: 3a5c 0abd 17fa bcbd 81e9 913c f960 b8bd
000003a0: 5a98 1c3e 5a76 f53d 9b99 7cbe 089b ecbc
000003b0: 4a88 3fbd c491 edbd c454 093e f9e0 f03c
000003c0: ebc3 0a3e 9d6d aa3d f251 4dbe 58c8 97be
000003d0: 35e1 823d 3880 333e 3b00 0abe c572 19be
000003e0: bba4 d03d 109d b9bd 1894 263e f492 7b3e
000003f0: 95a8 edbd 7591 80bd 997f c03b b38d 38bd
-0.04556324 -0.014280882 -0.103942834 0.18525916 0.10506485 0.25767758 0.21077412 0.12751357
0.23769984 0.036057413 -0.09994683 0.08303336 -0.19397692 0.2903874 0.2676679 -0.21269716
-0.105693236 -0.22691604 0.15299185 -0.13439454 0.17919806 0.063529 -0.0020515576 0.10283757
0.27329236 -0.02799266 -0.13203596 0.17126767 0.06727012 0.07677105 0.20858975 0.28408697
-0.020768763 -0.22446546 -0.09127011 -0.12534654 -0.012480295 -0.105245195 -0.045988135 0.05990006
0.0009874378 -0.27105665 0.11338242 0.11717535 -0.021135049 0.2080275 0.035489537 0.21120003
-0.23148501 -0.113154516 -0.2219148 -0.038979977 -0.11871436 0.24160531 0.16297773 -0.12809673
-0.11828329 0.17813954 0.112541996 0.017669497 -0.14402623 -0.026265495 0.15837425 0.030310169
0.06053855 0.2959045 -0.13638838 0.019186469 0.13324286 0.20711508 -0.098112755 0.04587616
-0.08567217 -0.18260363 0.14598228 0.123641446 -0.26096776 -0.22721343 -0.22220357 -0.13126478
0.10105833 0.2581561 -0.01833924 0.07693264 -0.20202142 0.14569786 -0.116274506 0.028332215
-0.051028244 0.22312641 -0.22200213 0.14056203 -0.1995401 0.021947261 0.048627485 -0.14369306
0.09818289 0.18786849 0.077794634 -0.19482936 -0.36201593 -0.12068029 0.070292905 0.22210127
0.041939825 0.3295645 -0.014873547 -0.14932798 0.09491983 0.2002414 -0.042168155 0.21956171
0.25733456 0.027071936 -0.26561788 0.05361638 0.28322312 -0.19022289 -0.032837365 0.10142871
0.11732617 -0.24894962 0.10522125 -0.07721719 -0.08626785 -0.045544997 -0.060449723 0.15415122
0.1944927 0.11087483 0.10938763 -0.089041956 0.0055656154 -0.025303366 0.13477442 0.17286524
-0.1268105 -0.19751655 -0.24398002 -0.12887548 -0.261921 0.059618287 -0.22129036 -0.06756505
-0.023459887 0.11294918 -0.22427346 -0.04403693 -0.015265498 -0.09172489 0.0024989324 -0.07859337
-0.07255471 0.26258886 0.11177029 -0.09677114 -0.1659632 -0.3866016 0.029467443 -0.016233074
0.033032507 0.037203893 -0.14028777 0.24785995 -0.13861473 -0.18333626 0.033739578 -0.2127931
0.24453013 0.25496548 0.057929646 -0.048876606 0.09415526 0.0074455077 -0.04256945 -0.045483664
0.05722058 -0.06676884 -0.0067016133 0.055296205 -0.25998256 0.089618 -0.08200551 -0.0029342556
0.32904598 -0.10589385 -0.1280233 0.07659578 -0.09211427 -0.050191946 0.10408661 -0.0026012133
0.20069681 0.23659904 0.07037233 0.17971872 -0.018534603 0.053862695 0.03254147 0.19813253
-0.23447822 0.01197217 0.049757887 0.193284 -0.11514358 -0.10542743 -0.26302543 0.23649602
-0.2596198 0.10041148 -0.17931446 0.010806683 -0.21787252 -0.06847547 0.21558535 0.2398582
-0.13267824 0.058784716 -0.0972098 0.09922878 0.0028753397 -0.16404854 0.002342108 0.11657957
-0.018149871 0.15018043 0.12817818 -0.09460518 -0.03377936 -0.09227388 0.017811539 -0.09002871
0.15292493 0.119854644 -0.24667971 -0.028882518 -0.046760835 -0.11600068 0.13411242 0.02940415
0.135513 0.08321688 -0.20050791 -0.29645038 0.06390611 0.1752938 -0.1347665 -0.14985187
0.1018767 -0.090631604 0.16267431 0.24567777 -0.1160442 -0.06277744 0.005874586 -0.04505701

lstm.weight_hh_l1 f4 [60, 20]
00000000: e2ec 6c3e 89ae 6a3e e9e7 d33d 9d96 283e
00000010: 895c 443e 543e 9d3c b956 26bd 13e2 323e
00000020: 38eb e03d 658a ed3d e828 70bd fae7 a6bc
00000030: 00e6 b33d a9d7 3ebd 81d2 083d 4480 9cbe
00000040: ff56 7d3e 124d 8b3e ef9e a0bc a02f 5bbd
00000050: 685a 5b3e 467e 05be 3b4b c9bd cef8 d73c
00000060: b9fc 5a3d 21b6 abbd cd23 d4bb 210d 8a3e
00000070: 7153 39be 94b5 1d3e 22b3 1f3e 257c 7b3e
00000080: 185f 8ebc 9883 113e f55e 6fbd 63d9 1d3d
00000090: 6193 543e 28a3 e5bd 68f6 14bb a7aa 483e
000000a0: 70e3 babc 1016 213e abe6 7cbe 560b ee3d
000000b0: 24ea 15bd 2c05 6a3e 8f76 593d 2ad8 623e
000000c0: db21 883d 7aa7 c3bd 8a54 43be 83f7 efbd
000000d0: 5385 80bc e234 043e 3661 34be 7419 b23d
000000e0: 4fc7 593e fd7b 17bd 6b7a 94bd 4d47 07bd
000000f0: 9a76 933e d754 6d3d 9080 1fbe 8bc2 47be
00000100: 7a0f a43d 4e4f 9c3c a157 ea3d afbd 683e
00000110: ef33 3e3d 1578 a4bd 1715 93be 75d5 843d
00000120: ba56 31be 6009 40bd 74db 613e 3d65 deba
00000130: 395a f8bd 861b 35be 5b04 7bbe cc37 5ebe
00000140: a852 343e d1dd 0f3e a25f 073e b0ae 27be
00000150: fc75 03bd 011c 933d 13fe b03b 4d4e 06bd
00000160: bcca 173e 19bd 04be a26a 86bd a61a 0cbe
00000170: 157b a6bc 9787 863e 9918 133e f2dd d1bd
00000180: dec7 713e 2a09 9d3d 896c a53d ac9e e6bd
00000190: 485f 12be 1ba4 31bd f80e fd3d cf5c 96bd
000001a0: bacb aa3d 98ee 80be 6cda 6f3e 947c 21be
000001b0: 1b9e 75bc 852d e6bd 82f2 f63d 203a 6f3e
000001c0: 2f18 23bc cd09 423e 5ecc 603d 8988 63be
000001d0: 1c1b 1dbe 3cbc abbc e99a 9b3d a00e c83c
000001e0: 4553 5fbe 4b93 413e 2aa1 49be 5d9c 17be
000001f0: 3ac1 6bbe 2751 b03c 1b83 eaba 8d1e 2abe
00000200: 60db cd3d ac1f 77be ca5b 70be 2a9e 093c
00000210: 9de1 0cbd 8e38 7cbe 0fb8 18be 1926 563b
00000220: 512a 08be ae17 4dbe 0d6a 5f3e 0826 373e
00000230: 7664 053c 3d7a 6ebd 8638 a33e fb24 0ebd
00000240: 526f 4d3e 16e7 a7be b0e9 b73d 357e 2c3e
00000250: 08f4 37be cfa0 803e bf9d b3bd e784 59bc
00000260: ecfe d93c 1303 0bbe ca8f 2b3e 7d5c 57bd
00000270: 8c36 0f3e dd4c 4bbd 4e32 c13d a423 843e
00000280: f9de 0dbe 13e5 a0bd 8099 56be d598 823e
00000290: 4e06 2bbe b726 f6bb 1bf2 7bbd 5dd1 b93e
000002a0: cad8 cf3c 0db3 17be b745 21be 01ee 443d
000002b0: 2bf5 cc3e 1640 a6bc 877c 263d 7b27 ad3d
000002c0: 5d56 c23d d232 b63d 2cd0 f6bd 814a 143e
000002d0: 7b0e 8c3d 11ae 393e 0b47 8bbe 0578 f8bd
000002e0: b80c fdbd c068 223e 8c06 7dbc a752 ac3e
000002f0: ec80 803e 9a08 35be 1e4b 8ebe 4e9a 9f3e
00000300: 72ba 61be 56f7 00be 3fa5 45be 63b0 0d3c
00000310: d7e3 85bc e5d2 433e 9313 053d 12ab 7d3d
00000320: 5aae 0dbe 8d68 de3d 7329 343e c4b2 6fbd
00000330: ae93 653e e606 f5bd ef89 4abe c898 593e
00000340: db0e 6e3c 0304 04bd 84a8 90be 499c 283e
00000350: 56f5 373e f518 31bd 1374 973d 1560 8ebe
00000360: 9695 153e e988 62be 2e51 cabd 07bf 643e
00000370: af4e 4c3d 4acb a8bc 6608 073e 0938 82be
00000380: dabb a0bd fa2f 5e3e 50f3 b539 0ba2 793e
00000390: 77d0 ae3b 91c2 cd3d 2451 343e 311e 373e
000003a0: b832 dabd e5b0 333e 8209 d9bd a305 163d
000003b0: 637a aebd cfea 083e 11be 2bbe 66fc 0b3e
000003c0: 1bad 2e3e 6faa df3b dcd7 073d c8a8 113e
000003d0: 9bd5 483d 484a 8d3d 869c aa3c 2d30 d83d
000003e0: ba22 7dbe 52d4 923c 35ff 0abe bcfa a03e
000003f0: 368b b9bd 9290 3cbe ac2b 19bd 671a 303e
0.23137239 0.22918142 0.10346968 0.16463704 0.19175924 0.01919476 -0.04061005 0.17469053
0.109823644 0.11598662 -0.05863276 -0.020374287 0.087841034 -0.04659239 0.033403877 -0.3056661
0.24740218 0.27207237 -0.019607035 -0.053512216 0.21421206 -0.1303645 -0.09828802 0.026363757
0.05346367 -0.08384348 -0.0064739943 0.26963142 -0.18098237 0.15401298 0.15595677 0.24559076
-0.017379329 0.14210355 -0.058440167 0.038537394 0.20759346 -0.1121276 -0.0022729877 0.19596349
-0.022813529 0.15731072 -0.24697368 0.11623256 -0.036600247 0.22853535 0.053091582 0.22152773
0.066470824 -0.09553428 -0.19075218 -0.11717131 -0.015688574 0.12910798 -0.17615208 0.08696261
0.21267436 -0.03698348 -0.07249912 -0.033026982 0.28801423 0.057942238 -0.15576386 -0.19507806
0.080107644 0.019080784 0.11442495 0.22728609 0.046436246 -0.08030716 -0.28727028 0.06486026
-0.1731824 -0.04688394 0.22056371 -0.0016967427 -0.121265836 -0.1768628 -0.2451338 -0.21700972
0.17609656 0.1404946 0.13220075 -0.16375232 -0.03209494 0.07183076 0.0054013818 -0.032789517
0.14823431 -0.1296276 -0.06563307 -0.1368204 -0.020322362 0.26275322 0.14364852 -0.10247411
0.236114 0.076677635 0.08077342 -0.11260733 -0.1429416 -0.043369394 0.12356371 -0.073419206
0.08339639 -0.25182033 0.23423165 -0.15770179 -0.014991309 -0.11239151 0.120579734 0.23362017
-0.009954496 0.18949051 0.0548824 -0.22220053 -0.15342373 -0.02096378 0.07597906 0.024421036
-0.21809109 0.18903844 -0.19690385 -0.14805742 -0.23022929 0.021523071 -0.0017891856 -0.16613217
0.10051608 -0.24133176 -0.23472515 0.008399526 -0.03439485 -0.24630949 -0.14913963 0.0032676517
-0.13297392 -0.20028564 0.21817799 0.17885602 0.008141628 -0.058222044 0.3187906 -0.034703236
0.20061997 -0.32793492 0.08980119 0.16845019 -0.17964184 0.25122687 -0.08770322 -0.013276315
0.026610814 -0.13575391 0.1675407 -0.052578438 0.13985652 -0.04963385 0.09433423 0.25808442
-0.13854589 -0.078561924 -0.20956993 0.25507227 -0.16701624 -0.0075119394 -0.061510187 0.36292544
0.025371928 -0.14814396 -0.1574925 0.04807854 0.40030798 -0.02029423 0.040646102 0.08454796
0.09489129 0.08896412 -0.120514244 0.14481546 0.068386994 0.18132807 -0.2720264 -0.12132267
-0.123559415 0.15860271 -0.015443455 0.3365681 0.2509836 -0.17679062 -0.27791685 0.31172413
-0.2204378 -0.12594351 -0.19301318 0.008648011 -0.016343994 0.19123419 0.03248937 0.061930723
-0.13836041 0.10859785 0.17593937 -0.058520094 0.22419617 -0.119642064 -0.1977918 0.21249688
0.014529909 -0.03223039 -0.28253567 0.16465868 0.17964682 -0.04323669 0.07395186 -0.2780768
0.14607844 -0.2212254 -0.09878765 0.22338496 0.049879726 -0.020604748 0.13186797 -0.25433376
-0.0784833 0.21697989 0.00034704292 0.2437822 0.0053349095 0.10046876 0.17609078 0.17882611
-0.10654205 0.17547949 -0.105975166 0.03662647 -0.08519437 0.13370822 -0.16771723 0.13670501
0.17058222 0.006825737 0.033164844 0.14224541 0.049031835 0.06898934 0.02082659 0.10556064
-0.24720278 0.017923508 -0.13573916 0.31441295 -0.090597555 -0.18414524 -0.037395164 0.17197572

lstm.bias_ih_l1 f4 [60]
00000000: 02fa 77be 9fbe 44be 26f8 5abe 7ef2 31be
00000010: dcc7 0dbe cdfe 34be 0781 40bd 0d2f 2cbe
00000020: a2bf 20be 16e3 4cbe bffa 393e fd64 073e
00000030: 4086 0ebe 92c7 b33d 6851 1c3d b9f5 72be
00000040: c2c9 e8bc 88b9 08be 2d48 08be 30f0 95be
00000050: 6911 fbbe ef1b 71bd e7ab 29be a4ac 2abd
00000060: b727 4ebd 5eae 04bc b8e7 ffbe 5763 76bd
00000070: f80d a5be b63c 12bd ad23 10be deab 91be
00000080: 10c8 bbbd 7ad7 0bbe 66ee 98be 651f 81be
00000090: 052f ffbd 892b 21be aa14 77bd 6460 7abe
000000a0: 9937 77bd d46a 5ebd f427 e0bd eb54 fdbc
000000b0: 8a7c 283e 4372 75bd 17d3 113c f9e9 9d3d
000000c0: d270 8fbd 9d03 a93d 429a 19be 6bad a6bd
000000d0: b63b 893c e52f 703d b945 18be cbc0 a4bd
000000e0: 2489 1d3d 9bee 8dbd 304f 413e c97e ccbd
-0.24216464 -0.19213341 -0.21383724 -0.1737766 -0.13845772 -0.17675324 -0.04699805 -0.16814823
-0.15698102 -0.20008501 0.18162058 0.13222118 -0.139184 0.087782994 0.038163573 -0.23726548
-0.028416518 -0.13352025 -0.13308783 -0.2928481 -0.4903672 -0.05886453 -0.16569482 -0.04166855
-0.050330844 -0.008098213 -0.49981475 -0.06015333 -0.3223722 -0.03570243 -0.14076109 -0.28451437
-0.09169018 -0.13656417 -0.29869384 -0.25219265 -0.1246014 -0.15739264 -0.06032244 -0.24450833
-0.060355756 -0.054301098 -0.109451205 -0.030924281 0.16453758 -0.05992342 0.008900425 0.07710642
-0.07003941 0.08252642 -0.15000251 -0.081385456 0.016752105 0.058639426 -0.14870347 -0.08044585
0.038460866 -0.06930276 0.18877864 -0.0998512

lstm.bias_hh_l1 f4 [60]
00000000: 3dd4 69be 2bc2 b53c c655 88be 7577 95bd
00000010: 6e41 55be 986c 9c3d 38fa 3f3e e110 03be
00000020: 9bc9 2b3d a5f8 123e fab6 32be cb22 50be
00000030: c03d 9e3d 21fc eabd 7bcc 1cbe 373e 433d
00000040: 839b 88bd b8d6 62bd 7eb7 33bd 195d 80be
00000050: d630 8bbe 6474 04be 7d9d f0bc 7c4f 96be
00000060: f6c5 42bc 5dbc a3bd 8a95 bfbe 9c02 5bbe
00000070: 886e 20be 475f adbe 1677 a73d 6030 4abe
00000080: bb37 9bbe 5f2c 823c 91da 2a3d 5d87 6ebe
00000090: 78bb 10be f76f 4abe 2f3e 8fbe 835e 7cbc
000000a0: 3a12 4bbe b014 f63d e973 28be 6e65 923d
000000b0: f6ca 58be 0cf4 553e 6d53 22be b933 013e
000000c0: eff5 323d c504 05be 075d 3c3e ecdb 2d3e
000000d0: 070f 16be 1a91 bfbd 0850 50bd a385 083e
000000e0: 37cf d9bd ead5 5cbd 8ed5 42bd 1226 393d
-0.22834869 0.022187313 -0.2662794 -0.07298175 -0.2082574 0.076379 0.18747795 -0.12799408
0.041940313 0.14352663 -0.17452613 -0.20325772 0.07726622 -0.11473871 -0.15312378 0.047666755
-0.066702865 -0.055380553 -0.043876164 -0.25071028 -0.27185696 -0.12935024 -0.029371971 -0.29357517
-0.011888018 -0.07994912 -0.37418777 -0.21387714 -0.15667164 -0.33861753 0.08177011 -0.19745016
-0.30315956 0.015890298 0.041712347 -0.23293824 -0.14134014 -0.19769274 -0.2797713 -0.015403393
-0.19831172 0.120156646 -0.16450466 0.071482524 -0.21171173 0.20893878 -0.15852137 0.12617387
0.04369157 -0.129901 0.18394862 0.16978425 -0.1465417 -0.09353848 -0.050857574 0.13332228
-0.10635226 -0.05391494 -0.047566943 0.045202322
