experiments/basic/weights/2_BLSTM.pth (torch, 304659 bytes, 57 tensors)

lstm.weight_ih_l0 f4 [80, 58]
0	0xbf2d2e1d	-0.6764849
1	0xbec1db3c	-0.37862575
2	0x3e23d3bb	0.15998738
3	0x3eb12f4e	0.34606403
4	0xbda84093	-0.082154416
5	0x3e4c1863	0.19931178
6	0x3d8c7dd9	0.06859941
7	0xbd39b1b4	-0.045335487
8	0xbdb87e42	-0.09008457
9	0x3d7b6585	0.061376113
10	0x3f03db7b	0.51506776
11	0x3e26ad01	0.16276933
12	0x3c45d75c	0.012075271
13	0x3e73c396	0.23805079
14	0x3f0f815a	0.5605675
15	0x3beecd0c	0.007287627
16	0x3e8fd675	0.28093305
17	0x3e968846	0.29400843
18	0x3cffa117	0.031204743
19	0x3df085f6	0.11744301
20	0x3dd26c20	0.102745295
21	0x3c4f83e0	0.012665719
22	0x3dab879a	0.08375473
23	0xbe0f2b8a	-0.13981453
24	0xbd9d1cd2	-0.07671513
25	0x3d1730d0	0.036911786
26	0x3e3230bf	0.17401408
27	0xbcaff909	-0.021481054
28	0x3d639907	0.05556586
29	0xbd8f0a47	-0.06984382
30	0x3e0bbf7a	0.13647261
31	0xbd53c6ca	-0.051703252
32	0x3e7ffbdc	0.2499842
33	0xbc8a0492	-0.016847882
34	0x3d889f7f	0.066710465
35	0x3ceb6cd6	0.02873842
36	0x3e60d032	0.2195442
37	0xbcaddd74	-0.021223761
38	0xbe51f38f	-0.20503066
39	0xbe502763	-0.20327525
40	0xbd67c759	-0.056586597
41	0x3ec93c21	0.39303687
42	0x3ee6ba64	0.4506408
43	0x3e2f8df9	0.17144002
44	0xbdc86cbf	-0.09786367
45	0xbc1fdbda	-0.009757007
46	0x3ea43139	0.32068804
47	0xbcdea000	-0.027175903
48	0x3e4f5533	0.20247345
49	0xbd50d310	-0.050982535
50	0x3eabfacf	0.3358979
51	0x3e99e6ba	0.30058843
52	0x3e87bece	0.2651276
53	0x3e0b102c	0.13580388
54	0x3e84f6eb	0.25969633
55	0x3d5450a9	0.051834736
56	0x3d2ed36f	0.042682108
57	0x3b3e528b	0.0029040899
58	0x3f936277	1.1514424
59	0xbd5e6f75	-0.054305512
60	0xbd9f25a2	-0.0777085
61	0xbdb87977	-0.090075426
62	0xbca6d264	-0.020363994
63	0xbe0ff3aa	-0.14057794
64	0xbd9419a9	-0.07231457
65	0xbe0ce9f5	-0.13761123
66	0xbe438e25	-0.19097193
67	0xbcc7b728	-0.024379328
68	0x3e78c967	0.24295579
69	0x3e23a9cb	0.1598274
70	0xbe8e3088	-0.277714
71	0x3da9b0f3	0.082857035
72	0xbe3ebcd1	-0.18626715
73	0xbdec5128	-0.11538917
74	0xbe0e19e6	-0.13877067
75	0xbeaeee20	-0.3416605
76	0xbe92dab4	-0.28682482
77	0xbe8703c8	-0.26370072
78	0x3cad8ec1	0.021186234
79	0xbdb59deb	-0.08868011
80	0x3d88eb67	0.066855244
81	0xbeae0bad	-0.33993283
82	0x3dae271f	0.085035555
83	0xbe330f0e	-0.17486212
84	0x3df4eded	0.11959443
85	0x3c5fed31	0.013667391
86	0xbe801645	-0.2501699
87	0xbe7ba9a6	-0.24576434
88	0xbe87a6fd	-0.2649459
89	0xbd67c39a	-0.056583025
90	0xbe4a729a	-0.1977028
91	0xbe52bdc4	-0.20580202
92	0x3d964cf6	0.07338898
93	0xbeb4364e	-0.3519768
94	0xbe6f9908	-0.2339822
95	0xbe7f218b	-0.2491514
96	0xbe13b3d0	-0.14424062
97	0xbe06771a	-0.13131371
98	0xbe10ba8b	-0.1413366
99	0x3e253418	0.16133153
100	0xbe1cbe4d	-0.15306969
101	0x3bddb5f5	0.0067660757
102	0xbe61d290	-0.2205298
103	0x3c07a9f0	0.008280262
104	0x3e407c84	0.18797499
105	0xbd4d531e	-0.050128095
106	0x3e263f2e	0.16235039
107	0xbc7152ed	-0.014729244
108	0xbe49c67e	-0.19704625
109	0xbcc08a26	-0.023503374
110	0xbe941ecd	-0.2892975
111	0x3dc53d93	0.09630885
112	0x3d311ff7	0.043243375
113	0xbe355517	-0.1770824
114	0xbe5608ba	-0.20901766
115	0x3dc2987c	0.0950174
116	0x3f839c4d	1.0282074
117	0xbd874bc1	-0.06606246
118	0x3e3a7247	0.18207656
119	0xbe3ba785	-0.18325622
120	0xbe65ef53	-0.22454576
121	0xbdd7c2dc	-0.10535213
122	0xbe9dabd7	-0.30795166
123	0xba7f1a44	-0.0009731392
124	0x3c10f692	0.008847849
125	0xbd994f1c	-0.07485792
126	0x3e86f86e	0.26361412
127	0xbec1d19b	-0.3785523
128	0xbd6762d8	-0.05649075
129	0xbd845d35	-0.0646309
130	0xbdecb6eb	-0.11558326
131	0xbe9677f5	-0.29388395
132	0xbdefb0c0	-0.11703634
133	0xbd8cd403	-0.068763755
134	0xbe44322e	-0.19159767
135	0xbe872154	-0.26392615
136	0xbe654950	-0.22391248
137	0xbe8971bd	-0.26844588
138	0xbf0af84f	-0.5428514
139	0xbe877651	-0.26457456
140	0x3dcc590d	0.099779226
141	0xbdbff957	-0.0937373
142	0x3e1b208c	0.15149134
143	0xbe31fe8f	-0.17382263
144	0xbe4cb3cd	-0.19990464
145	0xbc10f576	-0.008847585
146	0xbe1d3959	-0.15353908
147	0x3d411b8e	0.04714542
148	0xbe063e36	-0.13109669
149	0xbe68dd61	-0.227407
150	0xbe8c88ca	-0.27448112
151	0xbde1a403	-0.11017611
152	0x3dafe205	0.08588032
153	0x3c8edfcf	0.017440705
154	0xbdc3ae70	-0.09554756
155	0x3cb8734b	0.022515913
156	0xbc8ce047	-0.017196788
157	0x3df54236	0.11975519
158	0x3db2274d	0.08698902
159	0xbe13e30d	-0.14442082
160	0xbe0a7835	-0.13522418
161	0xbe8dbdef	-0.2768397
162	0xbd000b73	-0.03126092
163	0x3c84d9d5	0.016217152
164	0x3e933f4b	0.28759226
165	0x3ea935e1	0.3304892
166	0x3ede1bb1	0.43380502
167	0x3e891bae	0.2677893
168	0x3ec665ca	0.38749534
169	0x3e4c0526	0.19923839
170	0xbce365ac	-0.027758442
171	0x3ae97969	0.0017812672
172	0xbc8cffb8	-0.01721178
173	0x3e923497	0.28555748
174	0xbefcc320	-0.4936762
175	0xbd89fcaa	-0.06737645
176	0x3a5d042e	0.0008431104
177	0xbd0a7ff7	-0.033813443
178	0xbe3fbac0	-0.18723583
179	0xbe0e5690	-0.13900208
180	0x3e9a5e3f	0.3015003
181	0xbe00ca5c	-0.12577194
182	0x3e6cd2a4	0.23127228
183	0x3e8952d6	0.2682101
184	0x3f14f929	0.5819269
185	0x3e4bf75b	0.19918577
186	0x3e4d20da	0.20032063
187	0xbd8264bb	-0.06366869
188	0x3f052854	0.5201466
189	0xbdc6d81a	-0.09709187
190	0x3e64a6b7	0.22329222
191	0x3e77b1b6	0.24188885
192	0x3e6900b9	0.22754182
193	0x3dbb54b9	0.09147019
194	0x3dd8daae	0.10588585
195	0xbd7531c2	-0.059861906
196	0x3e0e829d	0.13917013
197	0xbe1d7858	-0.15377939
198	0xbc6892d6	-0.014195165
199	0xbe9c81a7	-0.30567667
200	0x3ef55f5b	0.47924313
201	0x3e1b8921	0.1518903
202	0x3e88bee4	0.26708138
203	0xbdaff3f7	-0.085914545
204	0xbd79baa7	-0.06096902
205	0x3e3b1cd3	0.18272714
206	0xbe182160	-0.14856482
207	0x3ce41d94	0.027846135
208	0x3e71b3cf	0.23603748
209	0x3e4b98af	0.19882463
210	0x3e8eee19	0.2791603
211	0x3e8f3eb3	0.27977523
212	0xbdcee826	-0.101028726
213	0xbc5d83e4	-0.013520215
214	0x3e528426	0.20558223
215	0x3d6211ac	0.055192634
216	0x3dfa2647	0.12214332
217	0x3d48af38	0.048995227
218	0x3e70110b	0.23444001
219	0x3e49d5d7	0.1971048
220	0x3e76c036	0.2409676
221	0x3e981926	0.29706687
222	0x3e2f75d9	0.17134799
223	0x3e6fdb84	0.23423582
224	0x3e682e89	0.22674002
225	0xbccfa7df	-0.025348602
226	0x3c79979f	0.015233903
227	0x3e97a641	0.2961903
228	0x3edd2513	0.43192348
229	0xbd91b216	-0.07114045
230	0x3de262ad	0.11053977
231	0xbe3dad3c	-0.18523115
232	0x3fb3081f	1.3986853
233	0xbd5610b8	-0.052262038
234	0xbea19604	-0.31559765
235	0x3b1d43ce	0.0023996714
236	0xbdb23438	-0.08701366
237	0xbdd7c307	-0.105352454
238	0xbe0b608c	-0.13611048
239	0xbe85a4b2	-0.26102215
240	0xbe6d964a	-0.23201862
241	0xbe43a230	-0.19104838
242	0x3eb2ad4b	0.34897837
243	0x3d861ec4	0.06548837
244	0xbe943de8	-0.2895348
245	0xbeff0857	-0.4981105
246	0xbe9c3348	-0.30507874
247	0xbe08a815	-0.13345368
248	0xbdf7b809	-0.12095649
249	0xbebdd58b	-0.37076983
250	0xbeaad7f9	-0.333679
251	0xbe65e7da	-0.22451726
252	0xbebfb068	-0.37439275
253	0x3c22dc64	0.0099402405
254	0xbd6b44de	-0.057438724
255	0x3b4d9e91	0.003137503

lstm.weight_hh_l0 f4 [80, 20]
0	0xbe99c9ec	-0.30036867
1	0x3e9fc448	0.31204438
2	0xbded007a	-0.115723565
3	0xbe917733	-0.28411254
4	0xbe8c2b70	-0.2737689
5	0xbe81ea8f	-0.25374267
6	0xbe4710ca	-0.19439998
7	0xbec1e6f3	-0.37871513
8	0x3db702f4	0.0893611
9	0x3dce1bed	0.1006392
10	0xbe9b3e52	-0.30320984
11	0x3d77b7b8	0.060477942
12	0x3d6b6fc2	0.057479627
13	0x3e2cf028	0.16888487
14	0xbd57bf2c	-0.05267255
15	0x3e4b1158	0.19830835
16	0xbe4768d8	-0.19473588
17	0x3e98056e	0.29691643
18	0xbe7757dc	-0.2415461
19	0x3c5b1ef5	0.01337408
20	0x3ec56dd4	0.38560355
21	0x3d8ab4b2	0.06772746
22	0x3e81d7b4	0.2535988
23	0x3e930c68	0.28720403
24	0x3ccd491b	0.025059273
25	0x3ba1fa09	0.0049431366
26	0xbe1aecde	-0.1512942
27	0xbe727579	-0.23677625
28	0x3dbee049	0.09320123
29	0x3c86ccd5	0.016455093
30	0x3d27615a	0.040864326
31	0x3cafff1a	0.021483947
32	0xbc67eca2	-0.014155539
33	0x3e1026d8	0.14077318
34	0x3e074856	0.13211188
35	0x3e5e3096	0.21698222
36	0x3e8da3e9	0.27664116
37	0x3d258be6	0.04041662
38	0xbdcfc93b	-0.101458035
39	0xbe6ed724	-0.23324257
40	0x3e095eb3	0.13415031
41	0x3eaf8505	0.34281173
42	0x3e64be1c	0.22338146
43	0x3e2d8540	0.16945362
44	0xbf03d9d9	-0.51504284
45	0x3d8995a9	0.067179985
46	0xbe5ec1d2	-0.21753624
47	0x3eece21c	0.46266258
48	0x3dbec2ad	0.09314475
49	0x3d0a4d6c	0.03376524
50	0xbd8d38f8	-0.068956316
51	0xbd1b626f	-0.03793567
52	0x3e2e023a	0.16993037
53	0x3e13e6cd	0.14443512
54	0xbe7ecc4f	-0.24882625
55	0x3df64324	0.12024525
56	0x3ec72457	0.38894913
57	0xbcb557d6	-0.02213661
58	0x3e84f3ba	0.259672
59	0x3e50a593	0.20375662
60	0xbeba578b	-0.36394915
61	0x3e3fcac4	0.18729693
62	0xbd62e682	-0.05539561
63	0xbef5e214	-0.48024046
64	0x3df80c16	0.1211168
65	0xbe703ec3	-0.23461442
66	0xbe039c4a	-0.12852588
67	0xbeb9117d	-0.36146155
68	0x3e971064	0.29504693
69	0x3ea3a632	0.31962734
70	0x3cede001	0.029037477
71	0x3e1c01d2	0.1523507
72	0x3d41972d	0.047263313
73	0x3e28983f	0.16464327
74	0x3e1023cc	0.14076155
75	0xbe07989e	-0.13241813
76	0x3c0a4c87	0.008441097
77	0x3e88f3f4	0.2674862
78	0xbd092f5d	-0.033492435
79	0xbda10a6e	-0.078633174
80	0x3cdf2282	0.027238134
81	0xbe02eebd	-0.12786384
82	0x3e831672	0.25603062
83	0x3e6289a0	0.22122812
84	0xbe0a9ed8	-0.13537157
85	0xbdad3009	-0.084564276
86	0x3d9d88d7	0.07692116
87	0x3e2db8c2	0.16965011
88	0x3c80884e	0.015689995
89	0x3dc6ef03	0.097135566
90	0x3e72eb38	0.23722541
91	0xbcdf50b5	-0.027260164
92	0x3d7563b3	0.059909534
93	0xbe70ee34	-0.23528367
94	0xbd935447	-0.07193809
95	0xbe21c464	-0.15797573
96	0xbd9cf76c	-0.076643795
97	0x3e2181e4	0.15772206
98	0x3c74069e	0.014894156
99	0xbe1f2df1	-0.15544869
100	0xbe25a333	-0.16175537
101	0x3e569882	0.20956615
102	0xbe16d773	-0.14730625
103	0xbd8c6e59	-0.06856985
104	0xbe2937fb	-0.16525261
105	0x3e3c48cd	0.18387146
106	0x3dcfcc42	0.10146381
107	0xbe2a1ad9	-0.16611804
108	0xbe75387f	-0.23947333
109	0xbdd9585d	-0.10612557
110	0xbd93840f	-0.072029226
111	0x3e939592	0.2882505
112	0xbe22aa91	-0.15885378
113	0x3dc40fa6	0.09573297
114	0xbec2d9d4	-0.38056815
115	0xbc37acd5	-0.01121064
116	0x3dbb84f5	0.09156219
117	0x3dd30bae	0.10304962
118	0xbc7270cf	-0.0147974035
119	0x3e544277	0.2072848
120	0xbcda1880	-0.02662301
121	0x3e649170	0.22321105
122	0x3da8e7fd	0.08247373
123	0x3e9ea248	0.30983186
124	0xbe2354ad	-0.1595027
125	0xbe48476f	-0.195585
126	0x3e1675bd	0.14693351
127	0xbe6446b1	-0.22292592
128	0x3e88ec9d	0.26743022
129	0xbe00af35	-0.12566836
130	0xbd7af6d1	-0.06127054
131	0x3ed4d090	0.4156537
132	0xbcdaa7d7	-0.02669136
133	0xbdde5043	-0.108551525
134	0x3d441aa1	0.047876958
135	0x3d3fd161	0.04683054
136	0x3e0333d9	0.12812747
137	0xbdce83b7	-0.10083716
138	0xbe3b6774	-0.18301183
139	0x3d41f418	0.047351927
140	0x3d5cb8ec	0.053887293
141	0x3e6af604	0.2294541
142	0xbdd48611	-0.10377134
143	0x3d0362e0	0.032076716
144	0xbe230cdd	-0.15922876
145	0x3e53e21f	0.20691727
146	0x3cca74c5	0.024713883
147	0xbe404652	-0.18776825
148	0x3d515e3e	0.051115267
149	0xbea9d099	-0.3316696
150	0x3d6b4517	0.057438936
151	0x3d37a0a3	0.04483093
152	0x3cd0ed3e	0.02550375
153	0xbe63144e	-0.22175714
154	0x3dca6407	0.0988236
155	0x3e880a6b	0.26570448
156	0xbcdfe977	-0.027333004
157	0x3d6ccf0d	0.057814647
158	0xbe5a7629	-0.21334137
159	0x3f03d38f	0.5149469
160	0x3de7a266	0.11310272
161	0xbdfede1e	-0.12444709
162	0x3e6d78f9	0.23190679
163	0x3d54f432	0.051990695
164	0xbd8f9dda	-0.0701253
165	0x3e8e1367	0.27749178
166	0x3d07b310	0.03312975
167	0x3cc8058c	0.024416707
168	0x3e1f9467	0.15583955
169	0x3e13493f	0.1438341
170	0x3d38b00a	0.04508976
171	0xbe7d5659	-0.2473997
172	0x3db11aab	0.08647665
173	0x3e5bd6bd	0.21468635
174	0xbd642a82	-0.0557046
175	0xbd9cd297	-0.07657354
176	0x3dd00dcb	0.10158881
177	0x3e39e246	0.18152723
178	0xbdd2e100	-0.102968216
179	0xbe833f96	-0.2563445
180	0x3d6d2e4b	0.057905477
181	0x3e3bba7c	0.18332857
182	0x3d26efdb	0.040756088
183	0xbbd001a3	-0.0063478514
184	0xbe279f3e	-0.1636934
185	0x3ea0e606	0.31425494
186	0xbd3e69fe	-0.0464878
187	0x3e3370d8	0.17523515
188	0x3c4ee09b	0.012626792
189	0xbecf27ad	-0.40459958
190	0xbe5d1a34	-0.21592027
191	0x3d7bdf50	0.061492264
192	0x3b25297b	0.0025201726
193	0xbcfffd54	-0.031248726
194	0xbdbb1e3a	-0.09136625
195	0x3e91d8c0	0.2848568
196	0x3cfdf027	0.030998303
197	0xbe7cd049	-0.2468883
198	0x3dd9cc02	0.106346145
199	0x39b3a650	0.00034265453
200	0xbc84c78a	-0.016208429
201	0x3cbaef1e	0.022819098
202	0xbd2d73c0	-0.042346716
203	0xbccaa00f	-0.024734525
204	0x3e1cfbf1	0.15330483
205	0x3cd50352	0.02600256
206	0x3c046534	0.008080769
207	0xbe5398b8	-0.20663726
208	0xbd6266d9	-0.055273864
209	0x3cb9a316	0.022660773
210	0xbcb45895	-0.022014895
211	0x3ea8f4fc	0.32999408
212	0xbb1c8df7	-0.0023888329
213	0x3e948ade	0.29012197
214	0x3e280cfb	0.16411202
215	0xbe71a6ae	-0.2359874
216	0xbd8a9482	-0.06766607
217	0xbd6ffdba	-0.058591582
218	0x3e851f05	0.2600023
219	0x3dbe5b76	0.092947885
220	0x3d87e150	0.06634772
221	0x3b0cf24c	0.0021506725
222	0x3b0ebf0f	0.002178136
223	0x3e91bf05	0.2846605
224	0xbdb261f6	-0.08710091
225	0x3dcaf578	0.09910101
226	0xbd24c31f	-0.040225144
227	0x3e3ffd46	0.1874896
228	0x3efd9f7a	0.49535733
229	0x3db62b6f	0.08895003
230	0x3db1213f	0.08648919
231	0xbe0c96ff	-0.13729475
232	0x3e69f291	0.22846438
233	0xbe81d251	-0.2535577
234	0xbe0b9a18	-0.13633001
235	0xbc5f83b1	-0.0136422375
236	0x3e82a291	0.25514653
237	0xbd8e6105	-0.06952099
238	0x3e51f62c	0.20504063
239	0xbe5ff697	-0.2187141
240	0x3ea8ca94	0.32967055
241	0x3eb2539c	0.34829414
242	0x3e3e2d22	0.18571904
243	0x3ef29521	0.473794
244	0xbe32a0a3	-0.1744409
245	0x3eb18d7c	0.34678257
246	0xbe90ccc8	-0.28281236
247	0x3dc70645	0.09717993
248	0x3e0d6ba9	0.138106
249	0xbe83c8a9	-0.2573903
250	0x3d0f0bc9	0.03492335
251	0xbe3c7a4c	-0.18406028
252	0x3d6ce535	0.057835776
253	0xbd1b7bb8	-0.037959784
254	0xbd91bf70	-0.07116592
255	0x3ee1a2c2	0.44069487

lstm.bias_ih_l0 f4 [80]
0	0x3c0acda0	0.008471876
1	0xbde63cba	-0.112420514
2	0xbd1faa8d	-0.03898101
3	0x3e95c845	0.29254356
4	0xbde6cddd	-0.11269734
5	0x3e6165c3	0.22011475
6	0xbe85d834	-0.26141512
7	0xbc91e081	-0.017807247
8	0x3d961ed3	0.07330098
9	0x3d2e9194	0.042619303
10	0x3dbf648a	0.09345348
11	0xbd345367	-0.04402485
12	0xbe8b9dbf	-0.27268788
13	0x3e90d9c2	0.28291136
14	0x3dd170ac	0.102265686
15	0x3d81d76f	0.06339919
16	0x3d99de3d	0.07513092
17	0xbe1e9921	-0.15488102
18	0xbe6c6249	-0.23084368
19	0x3e0bbbb0	0.13645816
20	0xbda0c8e8	-0.0785082
21	0xbe09df54	-0.13464099
22	0xbe000766	-0.12502822
23	0x3eb5f773	0.3554035
24	0xbe8baf8d	-0.27282372
25	0xbe820c76	-0.25400132
26	0x3bfe0a99	0.007752728
27	0xbe97ffcb	-0.29687342
28	0xbcf27558	-0.02959697
29	0xbc713e07	-0.014724261
30	0xbe05638f	-0.1302626
31	0xbea7cc6c	-0.3277315
32	0xbea0105f	-0.3126249
33	0x3db648ff	0.08900642
34	0xbe522b6d	-0.20524378
35	0xbe66ac6b	-0.2252671
36	0xbe8a8bf1	-0.27059892
37	0x3e10e4b8	0.1414975
38	0x3cbedaa3	0.023297613
39	0xbe2c47ac	-0.16824216
40	0xbe71265b	-0.23549788
41	0xbdf32e39	-0.11874051
42	0xbe320a1e	-0.17386672
43	0x3e050eb8	0.12993896
44	0x3d94bd28	0.07262641
45	0x3da58abc	0.08083102
46	0xbd3af542	-0.045644052
47	0xbc80cab6	-0.01572166
48	0xbe3430f1	-0.17596795
49	0x3daf5f44	0.08563092
50	0xbdd54f50	-0.10415518
51	0xbe01e777	-0.12685953
52	0xbe072e83	-0.13201337
53	0x3e364c7d	0.17802615
54	0xbe003be1	-0.12522842
55	0x3ddbd19e	0.10733341
56	0x3e03cdd3	0.12871484
57	0xbe3be727	-0.18349896
58	0xbcf39311	-0.029733213
59	0x3da6e87d	0.08149812
60	0x3e90aede	0.28258413
61	0xbe948d5a	-0.29014093
62	0xbe6e3499	-0.23262252
63	0xbc8dbfc3	-0.017303353
64	0xbead5ec3	-0.3386136
65	0x3e22dc8e	0.15904447
66	0xbd326a8a	-0.043558635
67	0x3dad8b1b	0.08473798
68	0xbe3086a2	-0.17238858
69	0x3e4bbb01	0.19895555
70	0xbd0b8841	-0.03406549
71	0xbe5bacad	-0.2145259
72	0xbe2036cb	-0.15645902
73	0xbe283d1d	-0.16429563
74	0x3db98626	0.0905879
75	0xbdd8ea36	-0.10591547
76	0xbde7a5ec	-0.11310944
77	0xbe38f410	-0.18061852
78	0x3e3e3e5b	0.18578474
79	0xbe40d4a5	-0.18831117

lstm.bias_hh_l0 f4 [80]
0	0x3e14610e	0.14490148
1	0xbe979955	-0.2960917
2	0x3d842047	0.06451469
3	0x3e214c55	0.15751775
4	0xbd8a4ecf	-0.06753313
5	0xbe000294	-0.12500983
6	0xbe9075c2	-0.28214842
7	0xbe05ca31	-0.13065411
8	0x3cebae7c	0.028769724
9	0xbba3fe79	-0.0050047007
10	0x3db25517	0.08707636
11	0xbeb9dcd3	-0.36301288
12	0xbe9739a5	-0.29536167
13	0xbd37b63c	-0.044851527
14	0xbe5d8367	-0.21632157
15	0xbd2cdf3f	-0.04220509
16	0x3e6d2e26	0.23162135
17	0x3e671077	0.22564875
18	0x3d8a5a46	0.067554995
19	0xbdad6977	-0.084673814
20	0x3d60d180	0.054887295
21	0xbb2dafba	-0.0026502446
22	0xbe47f60a	-0.1952745
23	0x3e22b95a	0.15891019
24	0x3cca5cb7	0.024702413
25	0x3d5e3588	0.05425027
26	0xbe1e0fcc	-0.15435714
27	0xbda133cd	-0.07871208
28	0xbe6fc70a	-0.23415771
29	0x3c8d550b	0.017252466
30	0xbe4470bb	-0.19183628
31	0xbec9ec94	-0.39438307
32	0xbc315815	-0.010824223
33	0xbde922d2	-0.113835946
34	0xbd7a18ab	-0.06105868
35	0xbe2f5a57	-0.17124306
36	0xbdee45f7	-0.116344385
37	0x3d2d62b1	0.042330448
38	0x3b7297b0	0.0037016682
39	0xbd91094a	-0.0708185
40	0xbda5ebdb	-0.081016265
41	0x3e242bc5	0.16032322
42	0x3e761c03	0.24034123
43	0xbe6c52a0	-0.23078394
44	0x3cf892d8	0.030343458
45	0xbe17640a	-0.14784256
46	0x3b91576b	0.00443547
47	0xbe1f2854	-0.15542728
48	0x3d7d1b8a	0.06179384
49	0xbe2f5adf	-0.17124508
50	0x3e20c2eb	0.15699355
51	0x3e8e07a0	0.27740192
52	0x3ddcc2e0	0.10779357
53	0xbde8c277	-0.11365216
54	0x3e70093d	0.23441024
55	0xbd4a7e8e	-0.0494371
56	0xbe43c1a9	-0.19116844
57	0x3d3c6fe1	0.046005134
58	0x3e175732	0.14779356
59	0x3d725cba	0.059170462
60	0x3d44dc19	0.048061464
61	0xbeb29c71	-0.3488498
62	0xbe0f5833	-0.13998489
63	0xbce19bea	-0.027540166
64	0xbea5d65e	-0.32390112
65	0xbe34f222	-0.17670491
66	0xbd64afec	-0.055831835
67	0xbe6e7ce1	-0.23289825
68	0xbe60f6d8	-0.21969163
69	0xbda7d609	-0.08195121
70	0xbe6ee121	-0.23328067
71	0xbe5a7301	-0.21332933
72	0xbe93d3fe	-0.28872675
73	0xbe2a4681	-0.16628458
74	0xbe746fd4	-0.23870784
75	0xbea8de8f	-0.329823
76	0x3e109bda	0.14121953
77	0xbdb2ab24	-0.08724049
78	0xbe4f469a	-0.20241776
79	0x3d8e028a	0.06934078

lstm.weight_ih_l0_reverse f4 [80, 58]
0	0xbf894cc0	-1.0726547
1	0x3de394c1	0.11112357
2	0xbd71d0b5	-0.05903693
3	0x3c80eb5b	0.015737226
4	0xbcc0f50d	-0.02355435
5	0xbdd5e433	-0.10443916
6	0xbdbe11cb	-0.092807375
7	0x3db37672	0.08762826
8	0xbe767185	-0.24066742
9	0xbd2fbdc3	-0.04290558
10	0x3eb81579	0.35953882
11	0x3dec21fb	0.11529919
12	0x3e801702	0.25017554
13	0x3e2ae4bc	0.16688818
14	0xbd30dbcd	-0.04317837
15	0x3d9d5ed7	0.07684105
16	0xbe299097	-0.16559063
17	0x3d970a5a	0.07375021
18	0xbdc75ace	-0.097341165
19	0x3ca9d625	0.020731995
20	0xbe539bcd	-0.20664902
21	0xbeca43d2	-0.39504868
22	0xbedcaff9	-0.43103006
23	0xbe845865	-0.2584869
24	0xbf10f09d	-0.56617147
25	0xbea6990f	-0.3253865
26	0xbe8c9320	-0.27455997
27	0xbe75a869	-0.23990025
28	0xbe86fd3b	-0.26365075
29	0xbd38b760	-0.045096755
30	0xbd59fa4c	-0.053217217
31	0xbca8a0d1	-0.020584496
32	0xbe53b2f7	-0.20673738
33	0xbe8c471d	-0.27398005
34	0x3baf9e93	0.0053594797
35	0xbce36385	-0.027757416
36	0x3e6faa52	0.23404816
37	0x3e377440	0.1791544
38	0xbe5b8393	-0.2143691
39	0xbe621daa	-0.22081628
40	0xbec2f262	-0.38075548
41	0x3d3ea725	0.04654612
42	0xbeb34d9b	-0.35020146
43	0x3e50296d	0.20328303
44	0x3d6adb1d	0.05733787
45	0xbe0e448e	-0.13893339
46	0x3d887774	0.06663409
47	0x3e8a8091	0.27051213
48	0x3e471754	0.19442493
49	0xbe13ab8b	-0.14420907
50	0xbe9ae326	-0.30251426
51	0xbe8eef4d	-0.27916947
52	0xbeae65a0	-0.3406191
53	0x3d04fcfb	0.032467823
54	0xbe2beef5	-0.16790374
55	0xbe5dd77b	-0.2166423
56	0x3e2ee41d	0.17079206
57	0xba82617f	-0.0009947269
58	0x3b893426	0.004187125
59	0x3dac729b	0.08420297
60	0xbe7919fc	-0.24326319
61	0xbe1f2291	-0.1554053
62	0xbda72473	-0.08161249
63	0xbcf54b51	-0.02994314
64	0x3dbb6133	0.09149399
65	0x3d0ec4a6	0.034855507
66	0x3df976b4	0.12180844
67	0xbd5e7040	-0.05430627
68	0xbd83817f	-0.06421184
69	0x3e41f9db	0.18942969
70	0x3d0793ff	0.033100124
71	0x3eac4f30	0.33654165
72	0x3e48b7c3	0.1960135
73	0x3e18bbe0	0.14915419
74	0x3c5fbee7	0.0136563545
75	0xbd6b299e	-0.057412736
76	0xbd942441	-0.072334774
77	0x3d86b21a	0.06576939
78	0xbdb5f834	-0.088852316
79	0x3d0c3a1f	0.034235116
80	0xbe11e1b0	-0.14246249
81	0x3df777f9	0.1208343
82	0x3e3ad666	0.18245849
83	0xbeb4a7e0	-0.35284328
84	0xbf0301ba	-0.5117451
85	0x3d5576c1	0.052115206
86	0xbdc012bf	-0.093785755
87	0xbd681b14	-0.05666645
88	0x3d2c2743	0.04202963
89	0x3e1d60c1	0.1536894
90	0x3d977616	0.0739557
91	0x3e1d1464	0.1533981
92	0xbcd5f692	-0.02611855
93	0xbe5af65e	-0.21383044
94	0x3d16a721	0.03678048
95	0xbddcaf5c	-0.10775635
96	0xbe27b234	-0.16376573
97	0xbda6902c	-0.08132967
98	0x3e6993a9	0.22810234
99	0xbd8597fe	-0.06523131
100	0xbea414ff	-0.3204727
101	0xbcc2db0e	-0.023786094
102	0x3e92072f	0.28521106
103	0xbda14b95	-0.07875744
104	0xbcddd2fa	-0.02707814
105	0x3e64e0ed	0.22351427
106	0x3e222f28	0.15838301
107	0xbcc4e41a	-0.024034549
108	0x3ed9176b	0.4240068
109	0xbcc0a694	-0.02351693
110	0x3de33bf5	0.1109542
111	0x3e87fa9f	0.26558396
112	0x3e3945a9	0.1809298
113	0x3e2d1539	0.16902627
114	0x3e2dcb66	0.16972122
115	0xbdc7050a	-0.09717758
116	0x3f50e77c	0.8160322
117	0x3d132a3a	0.035928942
118	0x3dfa6c9a	0.12227745
119	0x3de92354	0.113836914
120	0xbd0b8c84	-0.034069553
121	0xbd4f640a	-0.050632514
122	0xbdaf9241	-0.085728176
123	0x3e19a130	0.15002894
124	0xbdf5d198	-0.120028675
125	0xbe36ec4b	-0.17863576
126	0x3f1884d6	0.5957769
127	0xbe4f7bb8	-0.20262039
128	0x3e03a79c	0.12856907
129	0xbdb4667b	-0.08808609
130	0x3dc6a966	0.09700279
131	0xbe01c748	-0.12673676
132	0x3e7dcc8b	0.24785058
133	0xbdaf11b6	-0.085483
134	0xbda87def	-0.08227145
135	0x3de00dad	0.109401084
136	0xbe81d71c	-0.25359428
137	0x3db4215f	0.087954275
138	0xbf00e27c	-0.5034559
139	0xbe6b1a6a	-0.22959295
140	0x3d59afd5	0.053146202
141	0xbd58bac9	-0.052912507
142	0x3ead8cda	0.33896524
143	0xbe08da65	-0.13364561
144	0x3d270065	0.04077186
145	0xbd43d8bf	-0.047814127
146	0x3d458192	0.04821927
147	0x3dc071ac	0.09396681
148	0x3cbe4926	0.02322824
149	0x3e259b3f	0.16172503
150	0x3e133f5f	0.14379643
151	0xbd023a34	-0.031793788
152	0x3d98e1eb	0.074649654
153	0xbccd31df	-0.025048194
154	0xbdb03f6e	-0.08605848
155	0xbe1f8c1a	-0.15580788
156	0xbd9404fc	-0.07227513
157	0xbcc26692	-0.02373055
158	0x3eb6b350	0.3568368
159	0xbe574c0f	-0.21025108
160	0x3eea5311	0.457665
161	0x3d123277	0.03569266
162	0xbc3990ae	-0.011325998
163	0xbcb4385b	-0.021999529
164	0xbb3808eb	-0.0028081487
165	0xbdebcd98	-0.11513823
166	0xbe8de5e5	-0.27714458
167	0x3e77601b	0.24157755
168	0x3df1d990	0.11809075
169	0xbe361eff	-0.17785262
170	0x3e0db32f	0.13837884
171	0x3d87f7f8	0.06639093
172	0xbd6d4917	-0.057931032
173	0x3e93d8de	0.28876394
174	0x3fca9e09	1.5829479
175	0x3e3d1763	0.18465953
176	0x3dc7a2a7	0.0974782
177	0x3d320846	0.04346492
178	0x3e51faac	0.2050578
179	0x3e889087	0.26672766
180	0xbddf9666	-0.10917358
181	0x3d90e87d	0.070755936
182	0xbe3df4c9	-0.1855041
183	0x3cf72c30	0.030172437
184	0x3e878466	0.264682
185	0xbe8d9c14	-0.2765814
186	0xbd472a12	-0.048624106
187	0x3dfa3f82	0.122191444
188	0x3e3c322f	0.18378519
189	0xbdd16162	-0.102236524
190	0xbe3ffac4	-0.18748003
191	0x3e16479f	0.14675759
192	0xbe56f719	-0.20992698
193	0xbd6803d6	-0.056644283
194	0xbd9904a9	-0.07471592
195	0x3c36952a	0.011143962
196	0xbe6eb01a	-0.23309365
197	0xbe181d5d	-0.14854951
198	0xbe043a06	-0.12912759
199	0x3e0128bf	0.126132
200	0x3ee5e21d	0.44899073
201	0xbe19786f	-0.14987348
202	0x3e6f8d79	0.23393811
203	0xbdd28b93	-0.10280528
204	0x3d3a5a96	0.045496546
205	0xbda7376d	-0.081648685
206	0xbe12ed05	-0.14348228
207	0xbe634b56	-0.22196707
208	0xbe853006	-0.260132
209	0xbd3b8072	-0.045776792
210	0x3dfa3e2d	0.1221889
211	0xbe648390	-0.22315812
212	0x3d9007ba	0.07032724
213	0xbd11a23d	-0.035555113
214	0x3d168e0e	0.036756568
215	0xbe67760e	-0.22603628
216	0x3e0f4d4c	0.1399433
217	0xbe461cf2	-0.1934698
218	0x3e31fda2	0.1738191
219	0xbe602013	-0.21887235
220	0xbe44cefb	-0.19219582
221	0x3da98087	0.08276468
222	0xbdf6bd05	-0.12047771
223	0x3dbb69a9	0.091510125
224	0x3d5fb1bf	0.05461287
225	0x3d98b98b	0.074572645
226	0xbe43c0a0	-0.1911645
227	0xbe244b97	-0.1604446
228	0x3d962f22	0.073332086
229	0xbe14dbb2	-0.14536932
230	0xbe69e8bc	-0.22842687
231	0xbe06f330	-0.13178706
232	0x3ee2373d	0.44182768
233	0xbeadc6a4	-0.33940613
234	0xbea3b8d5	-0.31976953
235	0x3c4a10f6	0.012333145
236	0x3dbcbe16	0.092159435
237	0x3e85db07	0.26143667
238	0x3ddb8434	0.10718575
239	0xbe3fd9a3	-0.18735366
240	0xbb681d7a	-0.003541796
241	0xbd038ddf	-0.03211772
242	0xbd0e7cad	-0.03478687
243	0xbdc147f4	-0.09437552
244	0xbcdcc648	-0.026950017
245	0x3d48cd7a	0.049024083
246	0xbdfc2646	-0.123119876
247	0xbd0eaa9f	-0.034830686
248	0x3d157af4	0.03649421
249	0x3c7f20e7	0.015571809
250	0x3c810d81	0.01575351
251	0xbe57bb6a	-0.21067587
252	0xbe0e0d04	-0.13872153
253	0xbe74ff2a	-0.23925462
254	0xbdacf3b1	-0.08444918
255	0xbe121241	-0.14264776

lstm.weight_hh_l0_reverse f4 [80, 20]
0	0x3e8461c6	0.25855845
1	0xbe3b0506	-0.18263635
2	0xbea31957	-0.3185527
3	0xbe748d60	-0.23882055
4	0xbe12402a	-0.14282289
5	0x3d8d89bb	0.069110356
6	0xbd5e056e	-0.054204397
7	0x3d7d58db	0.061852317
8	0x3eb5def5	0.35521665
9	0x3ca53840	0.020168424
10	0x3e8c753e	0.274332
11	0xbe7b81aa	-0.24561182
12	0x3eedd091	0.46448186
13	0x3e783c71	0.24241807
14	0xbe45777b	-0.1928386
15	0xbd5a2b2f	-0.05326384
16	0xbe7212f2	-0.2364004
17	0xbda09f91	-0.07842935
18	0x3e358ce1	0.17729522
19	0xbe912e90	-0.28355837
20	0x3e8e5113	0.2779623
21	0xbe0fcf38	-0.14043891
22	0x3e8469fd	0.25862113
23	0x3e1ab410	0.15107751
24	0xbd4868ef	-0.048928197
25	0x3e229dc4	0.15880495
26	0xbdc89945	-0.09794859
27	0xbdbea590	-0.09308922
28	0xbcafb14c	-0.021446846
29	0xbeaf8bdb	-0.3428639
30	0xbdd64c7f	-0.10463809
31	0xbef62846	-0.480776
32	0xbe428575	-0.18996222
33	0xbdeb084f	-0.11476194
34	0xbe521ae4	-0.2051807
35	0xbcd6fcb2	-0.026243541
36	0x3e945903	0.2897416
37	0xbd703b11	-0.05865008
38	0x3e0d4d57	0.13799034
39	0x3e0eb1c6	0.13935003
40	0xbd1cca67	-0.038278963
41	0x3a48f11e	0.0007665324
42	0x3e060ade	0.13090083
43	0x3e54dd50	0.20787549
44	0xbe0b270e	-0.13589117
45	0x3d83b35b	0.06430694
46	0xbcbceb0b	-0.023061296
47	0x3d623a64	0.055231467
48	0x3d56c6f4	0.05243583
49	0x3e5a46c9	0.21316065
50	0xbd63df2c	-0.055632755
51	0xbe021cd1	-0.12706305
52	0xbe435810	-0.19076562
53	0x3d563b49	0.052302632
54	0xbe1392af	-0.14411424
55	0xbe388f27	-0.18023358
56	0xbe9e01a0	-0.30860615
57	0x3dc7aa48	0.097492754
58	0x3e4b2b2f	0.19840692
59	0x3e33e698	0.17568433
60	0x3e48c79e	0.19607398
61	0xbcbdc6bf	-0.023166059
62	0x3e395672	0.18099383
63	0xbd52de57	-0.05148157
64	0x3e366034	0.17810136
65	0xbd7bcd1e	-0.061474912
66	0x3d8afdd9	0.06786699
67	0xbd8cd2d1	-0.068761475
68	0xbe5cd435	-0.21565326
69	0x3d4ced19	0.0500308
70	0x3dd09aff	0.10185813
71	0x3e0d2bb1	0.13786198
72	0xbc4f3a67	-0.012648202
73	0xbdcbe419	-0.099556156
74	0x3e396958	0.18106592
75	0xbd0fffbe	-0.035156004
76	0x3d73ae1d	0.05949222
77	0x3e51cc37	0.20488058
78	0x3db00d36	0.0859627
79	0x3e094d75	0.13408454
80	0xbe3c632b	-0.18397205
81	0x3e9b26c8	0.30303025
82	0x3bac5b69	0.0052599204
83	0x3d01e998	0.031716913
84	0xbe013c2f	-0.12620614
85	0x3d88544b	0.066567026
86	0x3d86a7db	0.06574985
87	0x3e9bcb91	0.30428746
88	0xbecb79d1	-0.39741376
89	0x3eaa1def	0.33225963
90	0x3dfb2c04	0.12264255
91	0xbdf33c0e	-0.11876689
92	0xbe44a4ea	-0.19203535
93	0xbc634bfd	-0.0138730975
94	0x3eb3dcd4	0.35129416
95	0xbc44b5fa	-0.012006277
96	0xbef42569	-0.47684792
97	0x3d56612f	0.052338775
98	0xbe4aa4f8	-0.19789493
99	0x3dbb8f1b	0.091581546
100	0x3ce60b33	0.028081512
101	0xbe4d85b3	-0.20070533
102	0xbd6426dd	-0.055701125
103	0x3d944d72	0.07241334
104	0x3d1ecaf7	0.03876778
105	0xbe6d896e	-0.23196957
106	0x3e5363f2	0.20643595
107	0xbe37b194	-0.17938834
108	0xbe0cca76	-0.13749108
109	0x3df4d7b8	0.119552076
110	0xbca503c4	-0.020143397
111	0x3e3f9a76	0.18711266
112	0x3e4be034	0.19909745
113	0x3dc98fcf	0.098418824
114	0xbdb2b5e7	-0.08726101
115	0xbd3e89bc	-0.046518072
116	0xbef86105	-0.4851152
117	0x3d07286a	0.032997526
118	0xbdb0a775	-0.0862569
119	0x3e5efbd2	0.2177575
120	0x3eaf91cf	0.3429093
121	0xbe89d0b0	-0.26917028
122	0xbebf2273	-0.3733097
123	0x3b9ff946	0.0048820106
124	0xbe43af63	-0.19109873
125	0xbe1575fd	-0.1459579
126	0x3ee74d2d	0.45176068
127	0x3e17fb53	0.14841966
128	0xbcf3f74d	-0.029781008
129	0x3c204b23	0.009783539
130	0x3d73421f	0.05938923
131	0x3d806695	0.06269566
132	0x3f2b5949	0.66933113
133	0x3e2e01f1	0.16992928
134	0xbe836977	-0.256664
135	0xbe4b934b	-0.19880407
136	0xbecbefc7	-0.39831373
137	0xbe51b2a8	-0.20478308
138	0xbd73b499	-0.059498403
139	0x3b68c743	0.003551916
140	0xbe3e4215	-0.18579896
141	0x3ea53e19	0.3227394
142	0x3e506dfc	0.20354456
143	0xbcdd8457	-0.027040644
144	0x3e82edd8	0.25572085
145	0x3e6b3a00	0.22971344
146	0xbd1c6a9e	-0.038187616
147	0xbe137d4d	-0.14403267
148	0xbdb26379	-0.08710379
149	0x3e565563	0.2093101
150	0xbe80ef1d	-0.2518243
151	0xbe782786	-0.24233827
152	0xbf221bb0	-0.633235
153	0x3e607d46	0.21922788
154	0xbe0055c4	-0.12532717
155	0x3d69d356	0.05708631
156	0xbdd8948a	-0.105752066
157	0xbb714a85	-0.0036818099
158	0x3dc39ff8	0.09551996
159	0x3de5bd63	0.11217763
160	0x3e907215	0.28212038
161	0xbe555758	-0.208341
162	0xbce93973	-0.028469777
163	0x3e0ebfbe	0.13940331
164	0xbe5aaa38	-0.21353996
165	0xbbcc4a41	-0.0062344377
166	0x3cd8fe8f	0.02648857
167	0xbf1eed1f	-0.6208057
168	0x3e6198f2	0.22031
169	0xbee34d29	-0.44394806
170	0xbe94b40b	-0.29043612
171	0xbe35357a	-0.17696181
172	0xbe833f7d	-0.25634375
173	0x3d652675	0.05594488
174	0xbe768de4	-0.24077564
175	0x3de612cb	0.11234053
176	0x3ea32553	0.31864414
177	0x3e6c024d	0.23047753
178	0x3e6da705	0.23208244
179	0x3ddcacd0	0.10775149
180	0xbbf9e644	-0.0076263268
181	0xbddda6bf	-0.1082282
182	0x3c056267	0.008141137
183	0xbe059f7a	-0.13049117
184	0x3e32b008	0.17449963
185	0x3d9d241d	0.07672904
186	0x3e77b42b	0.24189822
187	0xbc1136d0	-0.008863166
188	0xbd8a083c	-0.06739852
189	0xbe346199	-0.17615356
190	0x3dd7fdc4	0.10546449
191	0xbea74a5f	-0.32673928
192	0x3d26f87f	0.040764328
193	0x3c81de2f	0.015853016
194	0xbebb1fce	-0.36547703
195	0xbde16cf5	-0.1100711
196	0xbe393584	-0.18086821
197	0x3de5068e	0.11182891
198	0x3d82dc4e	0.06389676
199	0xbe087f86	-0.13329896
200	0x3e7308db	0.23733847
201	0x3ed2bb28	0.41158414
202	0xbdecabd8	-0.11556214
203	0xbe5fdf41	-0.21862508
204	0xba74a0b5	-0.00093318085
205	0x3e2588bc	0.16165441
206	0x3e9f36ba	0.3109644
207	0x3e0d248c	0.13783473
208	0xbe9c4bb6	-0.30526513
209	0x3e6b384f	0.22970699
210	0x3da119d6	0.07866256
211	0xbe0642d1	-0.13111426
212	0xbea61ebe	-0.3244533
213	0x3ea8b92b	0.32953772
214	0xbe6c4317	-0.23072468
215	0x3eb7cfc5	0.35900703
216	0xbe6b09a5	-0.22952898
217	0xbec141d4	-0.37745535
218	0xbccb9be8	-0.024854615
219	0xbe7c7493	-0.24653845
220	0x3c59849d	0.013276246
221	0x3d51ae6a	0.051191725
222	0xbd0f3cf9	-0.034970257
223	0xbd9cfafa	-0.076650575
224	0xbe189ec6	-0.14904317
225	0x3e601f6d	0.21886988
226	0xbd3cdbd6	-0.04610809
227	0xbcb4afcd	-0.022056485
228	0xbe966fcb	-0.29382166
229	0x3bfcbce9	0.0077129495
230	0xbda68bc0	-0.08132124
231	0x3e59973a	0.21249095
232	0xbe5946bb	-0.21218388
233	0xbe28d4c8	-0.1648742
234	0x3e9e4f84	0.3092004
235	0xbe10feae	-0.14159653
236	0xbd21243f	-0.039341208
237	0xbda55f7f	-0.08074855
238	0x3d3c9c76	0.04604765
239	0x3cf8c4d6	0.030367296
240	0x3f8f4379	1.1192466
241	0xbf7b0745	-0.9805797
242	0xbe2e2b4d	-0.17008705
243	0x3edee980	0.4353752
244	0xbf74e58a	-0.9566275
245	0xbe2c4588	-0.16823399
246	0x3e64cb28	0.22343123
247	0xbf6f0413	-0.9336559
248	0x3f42f5f9	0.76156574
249	0xbf424fe1	-0.75903136
250	0x3e4f16cf	0.20223545
251	0xbf0a32c1	-0.53983694
252	0xbd32c9ec	-0.0436496
253	0xbef5e0eb	-0.4802316
254	0xbe7a536f	-0.2444589
255	0xbef724b0	-0.48270178

lstm.bias_ih_l0_reverse f4 [80]
0	0xbe225df0	-0.15856147
1	0x3e7fd2f5	0.24982817
2	0x3df85279	0.121251054
3	0xbe94c08a	-0.29053146
4	0xbe97c083	-0.29639062
5	0x3e2833f5	0.1642607
6	0x3e6622ba	0.22474185
7	0xbe0f0d81	-0.13969995
8	0x3dfa266a	0.12214358
9	0xbcd473b0	-0.02593407
10	0x39fe15f3	0.0004846301
11	0xbde4db40	-0.11174631
12	0x3eb9ebed	0.3631281
13	0xbddfeb5a	-0.109335616
14	0xbe99095d	-0.29889956
15	0xbe7bd131	-0.24591519
16	0x3e8bbc0e	0.27291912
17	0xbe921617	-0.28532478
18	0xbda10e8f	-0.07864105
19	0xbe3ef2c8	-0.18647301
20	0xbdb642d5	-0.08899466
21	0xbea36973	-0.3191639
22	0x3dbfebce	0.09371148
23	0xbe20f1f3	-0.15717296
24	0xbbee7606	-0.007277253
25	0xbe24d563	-0.16097026
26	0x3cb37239	0.021905052
27	0xbd2c6a45	-0.042093534
28	0xbe067f94	-0.13134605
29	0xbdd4d3ac	-0.10391936
30	0xbe4c53c0	-0.19953823
31	0xbe5600c4	-0.2089873
32	0xbf1bb362	-0.6082059
33	0x3e094f16	0.13409075
34	0x3dcfe4ae	0.10151039
35	0x3d8078da	0.062730506
36	0x3d71bf08	0.059020072
37	0xbd8b52d9	-0.06802911
38	0xbbff4063	-0.007789658
39	0xbe22b5e6	-0.15889701
40	0x3e5d9d32	0.21641997
41	0xbd56e2eb	-0.0524625
42	0xbe6ab2d9	-0.22919787
43	0xbd114d6f	-0.035474237
44	0xbe10dd6c	-0.14146966
45	0x3d818829	0.063247986
46	0x3e125045	0.14288433
47	0x3c4965a0	0.012292296
48	0x3e4c2946	0.1993762
49	0xbd167512	-0.03673274
50	0x3d2980fb	0.04138277
51	0xbd2e62ca	-0.04257468
52	0x3c9b6bc3	0.018972283
53	0xbe036dda	-0.12834874
54	0xbe05d3b8	-0.13069046
55	0xbdc62ec3	-0.09676888
56	0x3b907454	0.0044083986
57	0xbdab5619	-0.08366031
58	0x3e43d952	0.1912587
59	0x3ca2eee0	0.019889295
60	0xbe55916a	-0.20856252
61	0xbe003bba	-0.12522784
62	0xbd6ff186	-0.058579944
63	0xbe077e56	-0.13231787
64	0xbe42130a	-0.18952575
65	0x3db24286	0.087040946
66	0x3e4d29a0	0.2003541
67	0xbed4ec83	-0.41586694
68	0xbe8b8205	-0.27247635
69	0xbd2b3ef6	-0.04180809
70	0xbe7dc2b6	-0.24781308
71	0xbe9b949b	-0.30386814
72	0x3efa07ee	0.48834175
73	0xbea0abc8	-0.3138106
74	0xbe41375b	-0.18868773
75	0x3d68e7f4	0.056861833
76	0x3ead02e3	0.33791265
77	0xbe20db7c	-0.15708727
78	0xbdba337b	-0.0909185
79	0xbedceab3	-0.4314781

lstm.bias_hh_l0_reverse f4 [80]
0	0xbd845904	-0.06462291
1	0xbe2b3ed9	-0.16723193
2	0x3da4ce03	0.08047106
3	0x3d8c6405	0.06855015
4	0xbe6b6753	-0.22988634
5	0xbc37ffa2	-0.011230381
6	0x3e2779f9	0.16355123
7	0xbe904df3	-0.2818447
8	0x3d8f40a3	0.0699475
9	0xbe1e8ba4	-0.15482956
10	0xbdb46552	-0.08808388
11	0xbe7c2a17	-0.24625431
12	0x3f1c8443	0.61139315
13	0x3bbe0e6b	0.0058000586
14	0xbe91520a	-0.28382903
15	0xbe706e3e	-0.23479554
16	0x399419ec	0.00028248073
17	0x3d432e84	0.047651783
18	0xbe93945e	-0.28824133
19	0xbec39329	-0.38198212
20	0x3c9c2b95	0.01906375
21	0xbe3f4775	-0.18679602
22	0xbd814a7c	-0.06313035
23	0xbe78d77e	-0.24300954
24	0xbdbcce91	-0.09219087
25	0xbe728706	-0.2368432
26	0xbda6ccfc	-0.081445664
27	0xbe54042b	-0.20704715
28	0xbea0c560	-0.31400585
29	0xbe0beee3	-0.13665347
30	0xbdf2c7fd	-0.11854551
31	0xbe64ddd2	-0.22350243
32	0xbf5f7eab	-0.87302655
33	0x3e0cbb44	0.13743311
34	0xbdb958f4	-0.090501696
35	0xbc65982f	-0.014013334
36	0x3de2c324	0.11072376
37	0xbd9ce3b7	-0.07660621
38	0xbe4e2bdf	-0.20133923
39	0xbe9bac2a	-0.30404788
40	0x3e3bb044	0.18328959
41	0x3d9bb8d9	0.07603616
42	0x3e0054a1	0.12532283
43	0xbdc7ce42	-0.097561374
44	0xbe213457	-0.15742622
45	0xbe064a7d	-0.13114353
46	0xbcabdaee	-0.020978417
47	0x3e1961a4	0.14978653
48	0x3e24e925	0.16104563
49	0x3d391cd7	0.04519352
50	0x3d5aced3	0.0534199
51	0xbe0baf24	-0.1364103
52	0xba8cbda6	-0.0010737672
53	0xbe12b031	-0.14325024
54	0xbc90925b	-0.017647913
55	0xbdc7debc	-0.0975928
56	0xbe073eac	-0.13207501
57	0xbe2e23d3	-0.17005853
58	0xbe674a7a	-0.22587004
59	0x3c801e6b	0.015639504
60	0xbe062081	-0.13098337
61	0xbcb04c8e	-0.02152088
62	0xbc49cc83	-0.012316826
63	0xbdb40ac1	-0.08791114
64	0xbe867516	-0.26261204
65	0xbd8712ca	-0.065953806
66	0x3eaba703	0.33525857
67	0xbe907b2d	-0.28218976
68	0xbe735146	-0.23761472
69	0x3e085dc3	0.13317017
70	0x3dc69169	0.096957035
71	0xbdcf490d	-0.10121355
72	0x3f2207a1	0.6329289
73	0x3cda5cbb	0.026655545
74	0xbd93d48b	-0.07218274
75	0x3d86bd00	0.06579018
76	0x3eb8e0ae	0.36108917
77	0xbe4fb5e3	-0.20284228
78	0xbea76743	-0.3269597
79	0xbe82a2b0	-0.25514746

lstm.weight_ih_l1 f4 [80, 40]
0	0x3e340cc7	0.17582999
1	0xbd7a4da5	-0.061109204
2	0xbed2658c	-0.410931
3	0x3e14cbbb	0.14530842
4	0x3ef8f5d7	0.4862506
5	0x3e59ca40	0.21268559
6	0xbd9743a3	-0.073859476
7	0x3dfc37f9	0.123153634
8	0xbec6ca53	-0.38826236
9	0xbec9aad0	-0.39388132
10	0xbe1606d5	-0.14651044
11	0x3ce389bc	0.027775638
12	0xbe38a073	-0.18029957
13	0xbec9bc4d	-0.39401475
14	0x3dd6e1b7	0.104922704
15	0xbd27397f	-0.040826317
16	0x3ef73cdb	0.48288617
17	0xbe961e43	-0.29319963
18	0x3e456b02	0.19279101
19	0x3eb503fc	0.35354602
20	0x3e6e74cd	0.23286743
21	0xbecc2d5b	-0.39878353
22	0x3d607679	0.054800484
23	0x3e566eae	0.20940658
24	0xbf0d60f8	-0.5522609
25	0x3dbd8b2d	0.09255061
26	0x3edc65d2	0.43046433
27	0xbeabf92d	-0.33588544
28	0x3e764121	0.24048282
29	0xbe4396b9	-0.19100465
30	0x3d40f6f6	0.04711052
31	0xbecd678a	-0.40118057
32	0xbe87f3a9	-0.26553085
33	0xbe7930f2	-0.24335077
34	0xbed7f222	-0.4217692
35	0xbe92ffbc	-0.28710735
36	0xbf0e5ad8	-0.55607367
37	0xbef1f408	-0.47256494
38	0xbe2c199b	-0.16806643
39	0x3e1a15ec	0.15047425
40	0xbd69e6be	-0.05710482
41	0xbe2c802a	-0.16845766
42	0xbe3817ed	-0.17977877
43	0x3e6ccb19	0.2312435
44	0x3e044726	0.12917766
45	0xbd7e1252	-0.06202919
46	0xbe72cfb4	-0.23712045
47	0x3e4a8166	0.19775924
48	0xbdaf2e51	-0.08553756
49	0x3cb44c06	0.022008907
50	0x3d10d4fa	0.03535936
51	0xbe130420	-0.14357042
52	0xbeabd2bf	-0.33559224
53	0xbd992769	-0.0747822
54	0x3d1c5a10	0.038171828
55	0xbe4fe34c	-0.2030155
56	0x3d079cc9	0.033108506
57	0xbdd47c16	-0.1037523
58	0x3b8dc5de	0.004326566
59	0x3e0efdb9	0.13963975
60	0x3e9be6b4	0.3044945
61	0xbe066a65	-0.13126524
62	0x3ddf70be	0.10910176
63	0x3dce4d86	0.1007338
64	0x3e584bf5	0.21122725
65	0x3d9da98b	0.076983534
66	0x3ce73ce4	0.028227277
67	0xbe05df3f	-0.13073443
68	0x3e885851	0.2662988
69	0xbddc74ea	-0.10764487
70	0x3ddf95f8	0.10917276
71	0xbe8fa255	-0.28053537
72	0xbebfafcc	-0.3743881
73	0x3e9ef7a2	0.31048304
74	0xbee32db9	-0.4437082
75	0x3e394740	0.18093586
76	0x3d92f515	0.07175652
77	0xbe5868f2	-0.21133783
78	0xbd42115e	-0.047379844
79	0xbd286498	-0.04111156
80	0x3e2b3d9e	0.16722724
81	0xbe2026a6	-0.15639743
82	0x3e4372b0	0.19086719
83	0x3ee2ebc4	0.443205
84	0xbdf60815	-0.1201326
85	0x3ea8067c	0.32817447
86	0xbef3ded9	-0.47630957
87	0xbd588a7d	-0.052866448
88	0xbe23e47b	-0.16005127
89	0xbf27a723	-0.65489405
90	0xba2465b7	-0.000627126
91	0xbeab2bf7	-0.3343198
92	0x3d97434e	0.07385884
93	0xbeb7db84	-0.35909665
94	0xbe9e772b	-0.30950293
95	0xbd253c75	-0.04034086
96	0x3f027af8	0.50968885
97	0xbdb6189e	-0.08891414
98	0x3ac0a7a0	0.0014698394
99	0xbe5663c5	-0.20936497
100	0xbe7a5594	-0.24446708
101	0xbf370c48	-0.71503115
102	0x3ed7d29a	0.42152864
103	0x3e888d45	0.2667028
104	0x3e5ed796	0.21761927
105	0x3dc24ccf	0.09487306
106	0xbe89d672	-0.2692142
107	0xbe38754e	-0.18013498
108	0x3f0abeda	0.54197466
109	0xbec216e2	-0.37908083
110	0x3c301c38	0.010748915
111	0x3e1f75a5	0.15572222
112	0x3ef8b3b8	0.48574615
113	0xbd1bc746	-0.03803184
114	0xbe6a2de3	-0.22869067
115	0x3e103965	0.14084394
116	0x3d009917	0.031395998
117	0x3e41ef83	0.18939023
118	0x3e986e79	0.29771784
119	0x3da401e6	0.080081746
120	0xbdcad268	-0.09903413
121	0x3e943055	0.28943124
122	0xbeb73f08	-0.35790277
123	0x3df4cf1d	0.11953566
124	0x3cd1ea39	0.025624381
125	0x3ed3f173	0.4139515
126	0xbdab1205	-0.08353046
127	0x3e4cbb85	0.19993408
128	0xbca4c9c8	-0.020115748
129	0xbee7431a	-0.45168382
130	0xbe14b4e8	-0.14522135
131	0xbe348b88	-0.17631352
132	0xbe8d5115	-0.27600923
133	0xbf01d6c4	-0.5071833
134	0x3dacb6ff	0.08433341
135	0xbeba6e72	-0.36412388
136	0xbda2f7fc	-0.079574555
137	0xbe929387	-0.2862818
138	0xbe8c81ee	-0.27442878
139	0xbdf3a66f	-0.11896979
140	0x3eb6b8a3	0.35687742
141	0xbd858fa7	-0.0652154
142	0x3e7b9e7f	0.2457218
143	0x3caa3d21	0.020781102
144	0xbdf3fa35	-0.119129576
145	0x3dce9546	0.100870654
146	0x3f0ef325	0.5583976
147	0xbd68272c	-0.056677982
148	0xbd34f14b	-0.044175427
149	0x3caa60c0	0.020798087
150	0x3c77737e	0.015103219
151	0xbc5e8d31	-0.013583467
152	0xbf0178a7	-0.50574726
153	0x3e9d6f0f	0.30748793
154	0xbca8d034	-0.020607091
155	0x3e91c3bd	0.2846965
156	0xbe6dc8ed	-0.23221178
157	0xbe571260	-0.21003103
158	0x3e47af1d	0.19500394
159	0x3e756509	0.23964323
160	0xbdac14d7	-0.084024124
161	0x3ddde1af	0.10834061
162	0x3e99d646	0.3004629
163	0xbd505549	-0.050862584
164	0xbe4fee94	-0.20305854
165	0xbe0088da	-0.12552205
166	0xbd836d2a	-0.06417306
167	0xbe79b0d7	-0.24383865
168	0xbe64d0b8	-0.22345245
169	0xbe70d495	-0.23518594
170	0x3cde8b15	0.027165929
171	0xbe4ff73a	-0.20309153
172	0xbd844dda	-0.064601615
173	0x3ca7b367	0.020471288
174	0x3e927389	0.2860377
175	0xbddaa426	-0.1067584
176	0x3e35ed98	0.17766416
177	0xbe46810d	-0.19385166
178	0x3d671735	0.056418616
179	0xbeaba5f9	-0.33525065
180	0x3eff807b	0.4990271
181	0xbee44a8f	-0.44588134
182	0xbea666f6	-0.32500428
183	0xbe1a7115	-0.150822
184	0x3e58573a	0.21127024
185	0xbeb4ffc8	-0.35351396
186	0x3e046a07	0.12931071
187	0xbe558f64	-0.2085548
188	0x3eb7f859	0.35931662
189	0x3dbf5507	0.093423896
190	0xbdf8cd14	-0.121484905
191	0xbe195ef7	-0.14977632
192	0xbccb5a17	-0.024823232
193	0x3ecf6847	0.40509245
194	0xbdb10024	-0.08642605
195	0x3e27eec7	0.1639968
196	0xbee4edb9	-0.44712618
197	0xbe43e4e8	-0.1913029
198	0xbda6a41b	-0.081367694
199	0x3e9dff92	0.30859047
200	0xbd94e2f4	-0.072698504
201	0x3d545d50	0.051846802
202	0x3ebcb7c4	0.36858952
203	0xbe1fcac9	-0.156047
204	0xbe006dd3	-0.12541895
205	0x3e13a6bc	0.14419073
206	0xbdd99673	-0.10624399
207	0xbe06dcc0	-0.13170147
208	0xbec202de	-0.37892812
209	0xbea6f6f2	-0.3261028
210	0xbe1e3958	-0.15451562
211	0x3c7743d3	0.015091854
212	0xbc5f88a4	-0.0136434175
213	0x3e27d437	0.16389547
214	0x3ccf5de5	0.025313327
215	0x3e569d15	0.2095836
216	0x3ea34095	0.3188521
217	0x3dc76728	0.09736472
218	0xbd3c648a	-0.04599432
219	0x3c7cbbac	0.015425604
220	0x3e2cf4fa	0.16890326
221	0xbd2b3c2c	-0.04180543
222	0x3ee9d05e	0.45666784
223	0xbd47de23	-0.04879583
224	0xbdf7427c	-0.12073228
225	0x3b9712e3	0.004610406
226	0xbde03358	-0.10947293
227	0xbe67a64e	-0.22622034
228	0x3dde4bc9	0.108542986
229	0x3e496b6c	0.19669884
230	0xbe142b5b	-0.14469664
231	0xbe897a21	-0.2685099
232	0x3f03a5d4	0.5142491
233	0x3eaf79d3	0.34272632
234	0xbe92f413	-0.2870184
235	0x3f01a4c8	0.5064206
236	0x3e7deb45	0.2479678
237	0x3e062dba	0.13103381
238	0xbdc16236	-0.094425604
239	0x3e0299db	0.12754004
240	0x3bf0b45d	0.0073457197
241	0x3b2502b0	0.0025178604
242	0x3c77877e	0.015107987
243	0x3eacd7b1	0.3375831
244	0x3d7b16eb	0.061301153
245	0x3eecf3cc	0.46279752
246	0xbebdcd21	-0.37070563
247	0xbd256859	-0.040382717
248	0xbf36eb6d	-0.7145298
249	0xbf1af734	-0.6053345
250	0xbea807ff	-0.328186
251	0xbee08291	-0.43849614
252	0xbec7b121	-0.39002326
253	0xbf09d54a	-0.5384108
254	0x3dca5c4a	0.09880884
255	0xbe776f73	-0.24163608

lstm.weight_hh_l1 f4 [80, 20]
0	0x3d716a01	0.058938984
1	0xbe18cdd0	-0.14922261
2	0x3e42bedd	0.19018121
3	0x3e5f6053	0.21814089
4	0xbeab1de5	-0.33421245
5	0x3eb274d9	0.34854773
6	0x3ea33f85	0.318844
7	0xbe2e7efd	-0.1704063
8	0x3cd6798e	0.026181009
9	0xbe0ee479	-0.13954343
10	0xbd02cc3e	-0.03193306
11	0xbde758c9	-0.11296231
12	0x3d9257c1	0.07145644
13	0xbeabdf45	-0.3356878
14	0xbdeb57be	-0.11491345
15	0x3ea7b25d	0.32753268
16	0x3cbe0428	0.023195341
17	0xbd6958f1	-0.056969587
18	0xbe486ffc	-0.19573969
19	0x3e737f9c	0.23779148
20	0x3e9d9c97	0.3078353
21	0x3eb89fb7	0.36059353
22	0xbba6f29c	-0.0050948393
23	0x3bf8d3d7	0.0075936127
24	0xbe146123	-0.1449018
25	0x3e0c63dd	0.1370997
26	0xbe9a1915	-0.3009726
27	0xbde3a891	-0.11116136
28	0x3e5e3fc6	0.21704015
29	0x3da9f775	0.08299152
30	0x3e980c7e	0.2969703
31	0xbdfe00f5	-0.12402526
32	0x3d3f914f	0.046769436
33	0xbe43330b	-0.1906244
34	0xbe5c2f67	-0.21502458
35	0xbbe2f778	-0.006926473
36	0x3eaa388d	0.3324627
37	0x3db1ec46	0.08687644
38	0x3e6ba751	0.23013045
39	0xbe20da6a	-0.15708318
40	0x3c99a4ff	0.018755434
41	0x3c8664bd	0.016405458
42	0x3e1479d8	0.14499605
43	0xbd0e1a82	-0.03469325
44	0xbe133db2	-0.14379004
45	0x3ea2a3c5	0.3176557
46	0xbc2b7f2f	-0.010467335
47	0xbe07960e	-0.13240835
48	0x3917d4d1	0.00014479762
49	0x3d28f783	0.04125167
50	0x3e4878f3	0.19577388
51	0x3e61b20e	0.22040579
52	0x3d026b45	0.03184058
53	0xbe9677f1	-0.29388383
54	0x3c46c5d1	0.012132124
55	0xbe0ce3dd	-0.13758798
56	0xbe2e22dd	-0.17005487
57	0x3d42b765	0.04753818
58	0x3e0f8a38	0.1401757
59	0x3dc68e1e	0.096950755
60	0x3d1f6af3	0.038920354
61	0x3e29aa0d	0.16568775
62	0x3e51d90b	0.20492952
63	0x3d748ce4	0.059704676
64	0xbe84be97	-0.2592666
65	0x3e976575	0.29569593
66	0xbe3e8556	-0.18605551
67	0xbe0a5b5d	-0.13511415
68	0x3dd35d5b	0.103205405
69	0xbdeafde6	-0.114742085
70	0xbe2dfd57	-0.16991173
71	0xbd5e3fc3	-0.054260027
72	0x3d5ff8bc	0.05468057
73	0x3e3d482a	0.1848456
74	0xbd6c30ff	-0.057663914
75	0x3df130b7	0.1177687
76	0x3ea1d4cc	0.31607664
77	0xbd6464d7	-0.05576023
78	0x3ee1f829	0.44134644
79	0xbdb8d86d	-0.09025655
80	0x3d23e14c	0.04000978
81	0x3db547f4	0.088516146
82	0x3ce35b5a	0.02775352
83	0x3d860020	0.065429926
84	0x3df41631	0.11918295
85	0x3e8593fb	0.26089463
86	0x3e3d8994	0.18509513
87	0xbd2eb26a	-0.042650618
88	0xbe831242	-0.25599867
89	0xbc6976aa	-0.014249483
90	0x3c50796b	0.012724261
91	0xbcbaa151	-0.022782
92	0xbe759361	-0.23982002
93	0x3d94f2f8	0.07272905
94	0xbc09727a	-0.00838911
95	0xbe8b53ed	-0.27212468
96	0x3e9643de	0.29348654
97	0x3e567d2b	0.20946185
98	0x3d0ad2a4	0.03389229
99	0x3e9b777e	0.30364603
100	0x3ed4c913	0.41559657
101	0x3d14be26	0.036314152
102	0xbde91e7f	-0.1138277
103	0xbc37d6e6	-0.011220669
104	0x3d98fdf1	0.074703105
105	0xbd4f320b	-0.050584834
106	0xbe96abd6	-0.29427975
107	0x3d832d09	0.06405074
108	0xbcbf9e04	-0.023390777
109	0x3db0ffc6	0.08642535
110	0xbc59a58c	-0.013284098
111	0x3c924a13	0.017857587
112	0x3e9f5950	0.31122828
113	0x3dd530d8	0.10409707
114	0xbe1ad4f5	-0.15120299
115	0x3dbb11c3	0.09134247
116	0xbd9a68f0	-0.075395465
117	0x3d575fe2	0.052581675
118	0xbdae7d13	-0.0851995
119	0x3e09a703	0.13442616
120	0x3eae9f1a	0.3410576
121	0x3da4a1d5	0.080386795
122	0xbe5b4092	-0.2141135
123	0x3d2c823b	0.042116385
124	0xbd9b1b2e	-0.075735435
125	0x3d716719	0.058936212
126	0xbe1283cd	-0.1430809
127	0x3dce96b0	0.10087335
128	0x3e80fda2	0.25193506
129	0xbe446c6f	-0.19181989
130	0x3e377e92	0.17919376
131	0x3de43d40	0.11144495
132	0x3e405570	0.18782592
133	0xbdce89cc	-0.100848764
134	0xbe88f035	-0.26745763
135	0x3dee6c64	0.116417676
136	0x3e4caa8e	0.19986936
137	0x3cc5ca90	0.02414444
138	0x3ddd1da1	0.10796667
139	0xbd1d14a7	-0.038349774
140	0x3e5fff83	0.21874814
141	0x3db4198c	0.08793935
142	0x3d8d7625	0.069073
143	0xbe2b74ad	-0.16743727
144	0xbde3d29b	-0.11124154
145	0x3d5da783	0.05411483
146	0xbe4df3ed	-0.20112582
147	0x3e88ebae	0.2674231
148	0x3eb1e24b	0.3474296
149	0x3ea59385	0.3233911
150	0x3e4694ac	0.19392651
151	0xbda19341	-0.078894146
152	0x3dfa3c68	0.12218553
153	0x3eae9167	0.34095308
154	0x3d589958	0.052880615
155	0x3e297e57	0.16552101
156	0x3c9e3cc8	0.019316092
157	0xbe87b8e7	-0.26508257
158	0x3e93725a	0.2879818
159	0xbec7a206	-0.38990802
160	0x3e3a37ef	0.181854
161	0x3e90a0b1	0.28247598
162	0xbe2c4bc2	-0.16825774
163	0xbe26ebd9	-0.16300906
164	0xbd4de405	-0.050266284
165	0x3d8a69bb	0.06758448
166	0xbeb463ff	-0.3523254
167	0x3e981862	0.29706103
168	0x3d792df0	0.060834825
169	0x3f0052b7	0.5012621
170	0x3e871546	0.26383418
171	0xbe51c171	-0.20483948
172	0x3e195c48	0.14976609
173	0x3c0abadc	0.008467402
174	0xbde4ca10	-0.11171353
175	0xbe5a753b	-0.21333782
176	0x3ea55714	0.32292998
177	0xbde4d642	-0.11173679
178	0x3f1e298f	0.61782163
179	0xbe419961	-0.18906166
180	0x3d952b44	0.07283643
181	0xbcd30d88	-0.025763288
182	0xbdcb2ef9	-0.09921069
183	0xbef6dd2e	-0.48215622
184	0xbc13b74b	-0.009015868
185	0x3e30ab86	0.17252931
186	0xbe6f9108	-0.23395169
187	0x3d0edd4a	0.034879006
188	0x3e620f61	0.22076179
189	0x3e1b52d3	0.15168314
190	0x3e15ee09	0.14641584
191	0xbdef846e	-0.11695181
192	0x3e821740	0.25408363
193	0xbe457757	-0.19283806
194	0xbdc97884	-0.0983744
195	0x3c38a114	0.011268873
196	0x3e52b0b5	0.20575221
197	0xbdb477f3	-0.08811941
198	0x3e3d46ec	0.18484086
199	0x3e4458c8	0.19174492
200	0x3de7a6f8	0.11311144
201	0xbe3974ab	-0.18110912
202	0x3dcde853	0.10054078
203	0x3ded3210	0.11581814
204	0xbd36580b	-0.044517558
205	0x3dd9cf88	0.106352866
206	0xbcb9fbdc	-0.022703104
207	0xbdcdd3ad	-0.100501396
208	0x3d97e116	0.074159786
209	0x3e1b808c	0.15185755
210	0xbe119bcf	-0.14219593
211	0x3e3cc4e1	0.18434478
212	0xbb907d31	-0.004409455
213	0x3dc55044	0.0963445
214	0x3df94c79	0.12172789
215	0xbdb7bfb0	-0.08972108
216	0xbdd5bfef	-0.10436999
217	0x3e966e85	0.29381195
218	0xbe0840ee	-0.13306019
219	0x3ea6523d	0.32484618
220	0x3ea2f463	0.31827077
221	0x3e575739	0.21029367
222	0xbc5b3097	-0.013378284
223	0xbe7ddfad	-0.24792357
224	0xbdcf7154	-0.101290375
225	0xbe1fce5d	-0.15606065
226	0xbec412d5	-0.38295618
227	0xbdc46ab7	-0.09590667
228	0x3d7f2d93	0.062299322
229	0x3e88e1da	0.2673481
230	0xbe681292	-0.22663334
231	0xbedcf124	-0.43152726
232	0x3db077df	0.086166136
233	0x3e647947	0.22311889
234	0xbe1bd7b9	-0.1521901
235	0xbe02d580	-0.12776756
236	0x3e8de6c3	0.2771512
237	0xbe395d04	-0.18101889
238	0x3ead175c	0.33806884
239	0xbe240d0b	-0.160206
240	0x3e465aef	0.19370626
241	0xbe9867c7	-0.29766676
242	0x3c15d64d	0.009145332
243	0x3e2e00a3	0.1699243
244	0x3ecba897	0.3977706
245	0x3e0f14cd	0.13972779
246	0x3e48edf5	0.19622023
247	0x3d949a6c	0.07256016
248	0xbe12d08c	-0.14337367
249	0xbe91cffc	-0.28478992
250	0x3de5d4b5	0.11222211
251	0x3e1bcdd6	0.15215239
252	0x3d1f716d	0.03892653
253	0xbdb1840b	-0.08667763
254	0x3ce05297	0.027383132
255	0x3e0dc18f	0.13843368
