experiments/basic/weights/2_BRNN.pth (torch, 99019 bytes, 57 tensors)

lstm.weight_ih_l0 f4 [20, 58]
-1.7295946 -0.19996239 0.14210434 0.03942637 0.041308038 -0.093836516 -0.025054129 -0.18271738
0.11487845 0.09130984 0.175874 0.06938296 0.21495025 -0.09734431 0.08367582 -0.18256122
-0.2033021 0.11904174 0.041083395 -0.18776615 -0.027166184 0.035979357 -0.1113101 -0.23967664
-0.25185844 -0.113125205 -0.091358915 -0.36361355 0.028723428 0.066133276 -0.18576095 -0.20591785
0.015983181 0.0027136996 0.048484962 -0.13986205 -0.02303516 -0.0923229 -0.20023382 -0.044512786
-0.20620972 -0.03338765 -0.021522153 0.2261008 0.13761349 -0.07398076 0.12151753 0.016125789
0.093315676 -0.052597906 0.1660519 0.2531951 0.17118275 0.36699912 0.33436212 0.14607963
0.24613298 0.040366184 -1.0532143 0.073593855 -0.08778341 0.033436637 -0.03434951 -0.05200797
0.13799064 -0.110502824 -0.039485846 -0.024020998 0.10096064 0.10048227 -0.1239541 0.058574364
0.012327718 0.007042569 0.1975839 -0.038607232 0.17843555 -0.033118334 -0.008291126 -0.17144884
-0.0634495 0.08064437 -0.001274212 -0.03868994 -0.042735644 0.09024847 0.029307699 0.09278731
-0.0024389166 -0.10287268 -0.12216489 -0.10715192 0.058048565 0.107562356 0.1104547 -0.01823565
0.010365264 -0.041850757 -0.22236413 0.14199387 -0.10686064 -0.21871231 0.06510188 0.027285682
-0.033323266 -0.18320893 -0.06441364 -0.049839508 -0.061138313 0.0867019 0.25424936 0.061694894
-0.026333703 0.27350566 0.052276906 -0.049413804 1.7578061 0.07350776 0.088911906 -0.052939877
0.03806308 0.13292103 -0.07974748 -0.050973367 -0.03221218 0.09725746 0.11741282 0.113424905
0.2326286 -0.15223335 0.044389077 0.036525182 -0.10686701 0.21205062 -0.21156496 0.03205375
0.18180431 -0.12531325 0.00012475825 -0.26744336 -0.2205906 -0.23638019 -0.2368933 -0.080314785
0.05719884 -0.01833046 -0.00598486 0.054847207 -0.025330726 -0.054305278 0.0555617 -0.17089126
0.10100803 -0.0022627967 -0.14658779 -0.03690926 -0.06419529 0.04826682 0.11907244 0.062403828
0.036296263 -0.011406477 0.17700376 0.11723839 -0.07359244 0.077911094 0.092822604 -0.10203154
0.09856942 0.10281277 -0.09288927 -0.15622322 0.17401014 0.07827451 -1.2519174 0.013594152
0.19707587 -0.003757137 0.06252821 0.0018413521 0.024911582 0.0044527943 -0.05186585 -0.042246994
0.18642147 0.13792974 0.27747017 0.21382149 0.1932533 0.02735492 -0.024623552 0.06558004
0.24330278 0.13549817 0.25575837 0.13745861 0.0034775794 -0.03557684 0.12083464 0.12503074
-0.0027001675 0.06837029 0.17596583 0.07368543 -0.089974076 0.06896621 0.021651002 -0.0820329
0.17768182 0.23031594 0.25125116 0.21241435 0.049104337 0.19524245 0.09663769 0.3021523
0.05078188 0.08709473 0.19746897 0.19067264 0.119249955 0.1608754 -0.050774887 -0.009985314
0.11858592 0.15779066 0.03793429 0.0379427 0.04417775 0.059738494 0.020928703 -0.099601835
0.61575276 0.17207174 -0.11187941 0.29311755 0.044409674 -0.006504544 -0.049173053 0.14453873
0.09055666 0.14616488 0.09193738 0.08251676 -0.059972253 -0.066037625 -0.07833091 -0.024131456
0.16145669 -0.009686276 0.08367667 -0.1986325 -0.1039993 -0.20689595 0.18355596 0.23213853
00000000: 5b63 ddbf f1c2 4cbe cd83 113e 8c7d 213d
00000010: 9e32 293d 5c2d c0bd 513e cdbc 441a 3bbe
00000020: 6545 eb3d a700 bb3d 5018 343e a718 8e3d
00000030: eb1b 5c3e 745c c7bd 3a5e ab3d 54f1 3abe
00000040: 6d2e 50be 28cc f33d 1047 283d c545 40be
00000050: 9e8b debc 175f 133d 8df6 e3bd cb6d 75be
00000060: 97f3 80be 30ae e7bd 621a bbbd 8e2b babe
00000070: 654d eb3c e270 873d 1e38 3ebe 21dc 52be
00000080: 29ef 823c 53d8 313b 2b98 463d ff37 0fbe
00000090: 3bb4 bcbc ca13 bdbd 180a 4dbe 0a53 36bd
000000a0: a428 53be 7dc1 08bd 3a4f b0bc f886 673e
000000b0: 8dea 0c3e 3a83 97bd 2fde f83d 3b1a 843c
000000c0: 4a1c bf3d e770 57bd 8209 2a3e caa2 813e
000000d0: 884a 2f3e 4fe7 bb3e 8331 ab3e e695 153e
000000e0: 490a 7c3e 0357 253d bacf 86bf 60b8 963d
000000f0: cac7 b3bd dbf4 083d 12b2 0cbd 4f06 55bd
00000100: 6b4d 0d3e 4e4f e2bd e9bb 21bd afc7 c4bc
00000110: 74c4 ce3d a6c9 cd3d a6db fdbd aceb 6f3d
00000120: 32fa 493c 5ac5 e63b 6f53 4a3e 9e22 1ebd
00000130: cfb7 363e 17a7 07bd 81d7 07bc 4990 2fbe
00000140: d0f1 81bd e028 a53d 7603 a7ba 5879 1ebd
00000150: 920b 2fbd 31d4 b83d b316 f03c 4607 be3d
00000160: 3bd6 1fbb e9ae d2bd 9631 fabd 7772 dbbd
00000170: 55c4 6d3d a749 dc3d 1336 e23d ee62 95bc
00000180: 11d3 293c b36b 2bbd 6cb3 63be d766 113e
00000190: c0d9 dabd 1ff6 5fbe 2254 853d 3986 df3c
000001a0: fa7d 08bd 1f9b 3bbe 4ceb 83bd 8324 4cbd
000001b0: 2b6c 7abd c490 b13d f92c 823e c9b3 7c3d
000001c0: c7b9 d7bc ef08 8c3e 4f20 563d 2166 4abd
000001d0: caff e03f 3d8b 963d 7217 b63d 7cd7 58bd
000001e0: 08e8 1b3d 731c 083e a652 a3bd 73c9 50bd
000001f0: ebf0 03bd eb2e c73d 2276 f03d 514b e83d
00000200: 3136 6e3e 0fe3 1bbe 52d1 353d 6e9b 153d
00000210: 17dd dabd cc23 593e 7ca4 58be cb4a 033d
00000220: e92a 3a3e 1e52 00be 8ad1 0239 56ee 88be
00000230: 81e2 61be a60d 72be 2894 72be 147c a4bd
00000240: 5549 6a3d c329 96bc a51c c4bb 77a7 603d
00000250: 6282 cfbc 366f 5ebd aa94 633d 1efe 2ebe
00000260: 4cdd ce3d 6e4b 14bb 1c1b 16be 2a2e 17bd
00000270: d278 83bd 6eb3 453d 40dc f33d 289b 7f3d
00000280: 64ab 143d 3be2 3abc 7940 353e ae1a f03d
00000290: a2b7 96bd da8f 9f3d c719 be3d e9f5 d0bd
000002a0: c4de c93d 808f d23d bb3c bebd fbf8 1fbe
000002b0: b72f 323e 634e a03d d43e a0bf 02ba 5e3c
000002c0: 42ce 493e 4d3a 76bb ca0e 803d 8659 f13a
000002d0: 6013 cc3c bfe8 913b 4971 54bd 2f0b 2dbd
000002e0: 45e5 3e3e 743d 0d3e 9210 8e3e 05f4 5a3e
000002f0: 31e4 453e 6d17 e03c 55b7 c9bc d44e 863d
00000300: 5d24 793e 08c0 0a3e c3f2 823e f3c1 0c3e
00000310: 1ae8 633b 05b9 11bd 2778 f73d 0f08 003e
00000320: 4bf5 30bb b905 8c3d 6330 343e 63e8 963d
00000330: 5444 b8bd 283e 8d3d 715d b13c dd00 a8bd
00000340: 39f2 353e f1d7 6b3e fea3 803e 2683 593e
00000350: a121 493d a3ed 473e fbe9 c53d b5b3 9a3e
00000360: a900 503d b95e b23d 4e35 4a3e b03f 433e
00000370: 5239 f43d 85bc 243e 54f9 4fbd 7199 23bc
00000380: 2ddd f23d e093 213e fc60 1b3d ce69 1b3d
00000390: baf3 343d 5ab0 743d ac72 ab3c 0cfc cbbd
000003a0: f9a1 1d3f 9333 303e 0821 e5bd 8113 963e
000003b0: ebe6 353d 1224 d5bb af69 49bd f601 143e
000003c0: c575 b93d 3fac 153e aa49 bc3d 8cfe a83d
000003d0: 77a5 75bd bc3e 87bd f56b a0bd 55af c5bc
000003e0: e754 253e 30b3 1ebc ad5e ab3d 5166 4bbe
000003f0: 96fd d4bd 88dc 53be 18f6 3b3e b9b5 6d3e

lstm.weight_hh_l0 f4 [20, 20]
-0.23585066 -0.10561629 -0.02980821 0.21029255 -0.020405361 -0.22889525 0.1074813 -0.07328872
0.08408298 0.1032465 -0.042483117 -0.049574234 0.14225143 -0.28665772 -0.006753736 -0.14042786
0.25601417 -0.16542329 -0.048256073 -0.24588609 0.2583241 -0.02874693 0.0434471 -0.11042886
0.13220614 -0.16902745 0.13686793 -0.051730964 0.13736644 -0.05357923 0.099677734 0.13930069
0.07417142 -0.054111347 0.0035420586 -0.22771284 0.22445522 0.24323858 -0.11117161 -0.076863945
-0.1547751 -0.1549806 0.04968103 -0.013095778 -0.0062361686 0.15380214 -0.065420635 -0.06601347
0.061050534 0.13621747 -0.024417475 -0.08593284 -0.073184356 0.11684323 -0.03696882 -0.06465974
0.035281718 0.019140488 -0.13847493 -0.023912363 0.06808949 0.0014106764 0.05574606 -0.23747642
0.18992682 0.1309739 0.13805181 0.041182686 0.16412327 0.08904331 0.13040794 0.0037665023
0.11605005 -0.05446151 0.10802227 -0.17360537 -0.30683714 -0.001665967 -0.17455631 -0.24777332
-0.2868875 -0.07402148 0.23286162 0.053889975 0.05334407 0.33679262 0.19557948 0.11848134
0.19548972 0.054421574 -0.15706639 0.16523474 0.069535226 -0.19612795 0.032621108 0.07633399
-0.3274531 -0.055569977 -0.23363423 0.2015503 -0.06888546 0.062150214 -0.029430812 0.0531734
0.10784075 0.035823148 0.197045 0.1045573 -0.018726433 0.14879526 0.17640306 0.23756452
0.008151456 0.02990657 0.1028222 0.14861931 -0.11292926 -0.07361845 -0.10902242 -0.29992384
0.029374527 0.07948228 0.1685194 0.14131106 0.1876579 0.030167807 0.018565904 0.12365188
-0.02120275 0.010281218 0.018699568 0.06681145 0.101381555 -0.09448044 0.0550033 0.1265469
0.15873373 -0.0714267 -0.14551039 0.09054383 -0.062322352 0.04094116 0.1477958 -0.017598009
0.026204195 0.025453327 -0.17611212 -0.21543173 0.03803164 0.03909333 0.0074138236 -0.1366527
0.016908292 -0.07816627 -0.18151058 -0.10599258 0.07971002 0.19848055 0.005528045 0.1734597
0.067631885 0.04983894 0.10047445 -0.20837666 -0.11490683 -0.2564511 0.095549725 -0.055090792
-0.39770597 -0.1556959 -0.23625228 -0.19994336 -0.0033183878 0.029797617 -0.13913168 0.2387205
0.074841715 0.20546407 0.06871307 -0.06297369 0.0025879706 -0.012253967 -0.1334505 -0.0012449683
0.1953951 -0.30632135 -0.33323413 -0.19333225 -0.17817497 -0.17260912 0.02252979 0.042332664
0.013351259 -0.25183743 0.08256125 -0.0459204 0.05741245 0.031972516 0.13924971 0.08618548
-0.14548536 -0.23266082 0.1336913 -0.0021482897 0.13780108 0.34187236 0.20140442 0.08783852
0.34576172 -0.06357525 -0.30910528 0.17971179 -0.00475351 0.041564446 -0.044219337 -0.30526623
0.035253137 -0.11129286 -0.34840673 0.08810056 -0.087102644 0.1485034 -0.025951322 0.19074914
-0.19899349 -0.23710322 0.08375859 -0.056863837 0.107021466 0.05256738 0.28198075 -0.2091609
-0.24717247 -0.11577565 0.08758542 -0.23562537 -0.06278287 -0.30091068 -0.08032683 -0.08904335
-0.14671712 0.04760028 0.22368442 -0.23720442 -0.17759843 0.23711742 -0.107336335 -0.00024043524
0.115881264 0.0034362152 -0.120404 0.20495658 -0.20759831 -0.04882926 0.14106384 -0.231909
00000000: d682 71be 5a4d d8bd 5930 f4bc ee56 573e
00000010: 2529 a7bc 8463 6abe 281f dc3d 6518 96bd
00000020: b333 ac3d e772 d33d c702 2ebd 5a0e 4bbd
00000030: 5caa 113e cdc4 92be 724e ddbb 52cc 0fbe
00000040: 4a14 833e b964 29be 29a8 45bd 90c9 7bbe
00000050: 0e43 843e af7e ebbc 96f5 313d 8728 e2bd
00000060: 0c61 073e 8815 2dbe 1b27 0c3e d9e3 53bd
00000070: caa9 0c3e e575 5bbd d723 cc3d d7a4 0e3e
00000080: 2fe7 973d dca3 5dbd e221 683b 8e2d 69be
00000090: 97d7 653e 8913 793e f1ad e3bd d86a 9dbd
000000a0: 5d7d 1ebe 3cb3 1ebe 567e 4b3d ad8f 56bc
000000b0: c658 ccbb 4f7e 1d3e 41fb 85bd 1232 87bd
000000c0: 2010 7a3d 987c 0b3e 2807 c8bc 8ffd afbd
000000d0: aee1 95bd 814b ef3d 9e6c 17bd 536c 84bd
000000e0: 9083 103d 83cc 9c3c 5fcc 0dbe dce3 c3bc
000000f0: 8172 8b3d 72e6 b83a fb55 643d 052d 73be
00000100: 2d7c 423e 061e 063e 745d 0d3e 2daf 283d
00000110: ee0f 283e 575c b63d a989 053e 6cd7 763b
00000120: a6ab ed3d 0813 5fbd c83a dd3d 9bc5 31be
00000130: c219 9dbe 945c daba e4be 32be 4ab8 7dbe
00000140: ebe2 92be 9398 97bd 4773 6e3e bcbb 5c3d
00000150: 507f 5a3d 1570 ac3e fd45 483e 58a6 f23d
00000160: 752e 483e 28e9 5e3d 03d6 20be 4c33 293e
00000170: 7c68 8e3d c4d5 48be b69d 053d ff54 9c3d
00000180: efa7 a7be 589d 63bd d03d 6fbe 3463 4e3e
00000190: d213 8dbd 3991 7e3d e318 f1bc 5acc 593d
000001a0: 9cdb dc3d 4bbb 123d 2ac6 493e 2322 d63d
000001b0: 2d68 99bc c95d 183e 01a3 343e 1d44 733e
000001c0: af8d 053c a0fe f43c 7294 d23d a92f 183e
000001d0: 7547 e7bd 45c5 96bd 2647 dfbd 9e8f 99be
000001e0: d9a2 f03c 9bc7 a23d 5990 2c3e d9b3 103e
000001f0: 6429 403e 7a22 f73c 8617 983c 323d fd3d
00000200: 64b1 adbc 8e72 283c d62f 993c 71d4 883d
00000210: 22a1 cf3d f67e c1bd 244b 613d 8395 013e
00000220: 188b 223e 2948 92bd ad00 15be 0b6f b93d
00000230: b945 7fbd ebb1 273d c857 173e b329 90bc
00000240: 2eaa d63c 7f83 d03c bc56 34be 239a 5cbe
00000250: 11c7 1b3d 5420 203d a9ef f23b afee 0bbe
00000260: 4283 8a3c a315 a0bd e9dd 39be a312 d9bd
00000270: 023f a33d 7c3e 4b3e 9a24 b53b 6b9f 313e
00000280: 9682 8a3d eb23 4c3d 8cc5 cd3d b160 55be
00000290: 4654 ebbd 8f4d 83be 93af c33d e2a6 61bd
000002a0: 1ea0 cbbe bf6e 1fbe 1eec 71be f4bd 4cbe
000002b0: 4f79 59bb 221a f43c 8978 0ebe 2673 743e
000002c0: 9d46 993d 2c65 523e 70b9 8c3d 5af8 80bd
000002d0: f19a 293b ddc4 48bc 3fa7 08be 342e a3ba
000002e0: a715 483e 27d6 9cbe aa9d aabe e4f8 45be
000002f0: 8073 36be 72c0 30be 6590 b83c 0465 2d3d
00000300: 3dbf 5a3c d6f0 80be df15 a93d 0817 3cbd
00000310: 5129 6b3d 9df5 023d 7a97 0e3e 0382 b03d
00000320: 1dfa 14be a33e 6ebe 5fe6 083e 52ca 0cbb
00000330: ba1b 0d3e e509 af3e f63c 4e3e afe4 b33d
00000340: ae07 b13e be33 82bd 0c43 9ebe 5e06 383e
00000350: 55c3 9bbb 7b3f 2a3d 561f 35bd db4b 9cbe
00000360: 9865 103d 83ed e3bd 5e62 b2be 116e b43d
00000370: df62 b2bd 4611 183e de97 d4bc be53 433e
00000380: f3c4 4bbe 30cb 72be a089 ab3d 0eea 68bd
00000390: 122e db3d e550 573d c85f 903e 462e 56be
000003a0: c81a 7dbe c91b edbd fc5f b33d c747 71be
000003b0: 4e94 80bd f710 9abe 6582 a4bd 5c5c b6bd
000003c0: 033d 16be 83f8 423d 870d 653e b7e5 72be
000003d0: 5ddc 35be e9ce 723e 27d3 dbbd 581d 7cb9
000003e0: 2853 ed3d 2032 613b 5f96 f6bd 23e0 513e
000003f0: a794 54be 3101 48bd 0a73 103e 8e79 6dbe

lstm.bias_ih_l0 f4 [20]
-0.014815316 0.00940194 0.07126369 0.024808394 -0.095283546 -0.012245013 -0.06301634 0.028955694
-0.014431659 -0.014987826 0.061180145 -0.092428245 -0.031075245 -0.06100108 0.011576092 -0.0017293019
0.18873164 0.07133634 0.031281415 0.08728674
00000000: f0bb 72bc 980a 1a3c b3f2 913d f93a cb3c
00000010: 0524 c3bd 4f9f 48bc b60e 81bd 7e34 ed3c
00000020: c472 6cbc 808f 75bc 0898 7a3d 054b bdbd
00000030: 8391 febc 45dc 79bd a6a9 3d3c bea9 e2ba
00000040: de42 413e c918 923d f120 003d 64c3 b23d

lstm.bias_hh_l0 f4 [20]
-0.17489655 0.12281617 -0.23697071 -0.0038671778 -0.15543805 -0.14318019 0.118801095 0.061979674
-0.0012621556 -0.029021991 -0.024470756 -0.04088137 0.028459553 0.1327548 0.20110129 0.0321223
-0.13890794 -0.17811051 -0.0123659205 0.12331463
00000000: 1518 33be 0b87 fb3d 73a8 72be 7a70 7dbb
00000010: 272b 1fbe d49d 12be fd4d f33d 66de 7d3d
00000020: ea6e a5ba 87bf edbc e576 c8bc 3973 27bd
00000030: 0224 e93c e0f0 073e 7fed 4d3e ac92 033d
00000040: e23d 0ebe 9a62 36be 6e9a 4abc 618c fc3d

lstm.weight_ih_l0_reverse f4 [20, 58]
0.9393548 -0.10122531 0.089797035 0.1845328 0.036416717 -0.11932244 -0.020154659 -0.021164592
-0.08267092 -0.04644739 0.13859116 -0.060750827 -0.1537142 -0.19499725 -0.18846105 0.05163158
-0.216969 -0.022632854 -0.05242756 -0.17494579 -0.13374181 -0.12726015 -0.17643386 -0.041807435
-0.006722422 -0.21101105 -0.022870896 0.25035506 -0.13719499 -0.011614249 -0.05735563 0.07750278
-0.20568842 -0.008364975 0.0052743023 -0.058752343 -0.14971739 0.0016550854 -0.24737695 -0.10053237
0.00521423 -0.1755912 -0.13508657 0.2489887 0.114551164 -0.17937478 -0.07232067 -0.14851078
-0.038485244 -0.016902246 -0.24350211 -0.08756192 0.009459314 -0.07134663 -0.01030152 0.028063793
-0.11032851 0.054728203 -1.5760387 -0.051111788 -0.047861896 0.25840166 0.06358399 0.03595669
0.021218443 0.17941064 -0.04281026 0.0193005 0.18513575 0.17509666 0.10307949 0.17393214
0.2712712 -0.06389745 0.17794654 0.05276688 0.124383524 -0.04669758 0.10110304 0.17944108
0.25165692 0.08323871 -0.015698137 0.04824045 0.13108508 0.12710442 0.2645829 0.089023665
0.010205513 0.20970641 0.11420823 0.14489287 0.07840168 0.16236632 -0.0060588936 0.044169597
-0.04926389 0.0829329 -0.01172569 -0.08017377 -0.103323594 0.18658973 -0.08349044 0.13803954
0.10585367 0.07595997 0.041853793 -0.14101607 -0.1345859 -0.18565635 0.09937013 -0.13680203
0.044920422 -0.15981373 0.033308238 0.22408172 0.76907414 0.26767275 -0.11420217 -0.08682576
0.057871647 0.180331 0.040369764 -0.13584006 -0.06906999 -0.1339234 -0.05200742 -0.32819334
-0.12398244 0.11373586 -0.09050204 0.030654455 -0.09524443 -0.109070055 -0.10615999 0.04262568
-0.16329016 -0.07829604 -0.20052154 -0.2233527 -0.07466 -0.049998436 0.06732591 -0.2810117
0.021854771 0.05314478 0.10511227 -0.12176595 -0.08546912 -0.09830952 -0.020701097 0.07878887
-0.14063676 0.12000996 0.019655906 0.099699974 -0.041327212 -0.09781022 0.2474815 -0.28492296
-0.13111867 -0.13238424 -0.12510194 -0.118705764 -0.21901439 -0.1631898 0.022369113 -0.046156146
-0.13464305 -0.12740274 -0.08524801 -0.03933597 -0.061985265 0.13493963 1.5790054 -0.025878187
-0.14086433 0.12233389 0.17937154 -0.055363588 -0.109759524 -0.07281141 -0.28719047 -0.17792635
-0.07758633 -0.048085034 -0.014213164 -0.0076816906 -0.18165565 0.057023574 0.10657811 -0.096900314
0.14267713 0.24139956 0.08741917 0.03209538 0.09160329 -0.10518657 -0.053631883 0.13713504
-0.1293338 0.02969624 -0.09125793 -0.0773793 -0.07255582 -0.07641269 -0.11579909 -0.062029243
-0.16067043 0.039377555 -0.113144934 0.13721685 0.16450487 0.051311724 0.09004261 -0.029160805
-0.13181216 -0.15198457 0.03862683 0.13648187 -0.04672632 -0.10590025 -0.025585843 0.02725593
0.14284354 -0.12871872 -0.07474337 -0.027764333 -0.030592095 -0.004318291 0.05858884 -0.07518296
1.830127 0.20361498 -0.02954339 -0.055353083 -0.020570785 0.11849687 0.0316491 0.0794669
0.0031790733 -0.023929963 0.047935206 0.10408942 0.09634135 -0.19398883 -0.064821534 -0.021596769
-0.009602766 -0.13281061 -0.14917049 -0.022308866 -0.15280424 0.1645653 0.13096187 0.13741384
00000000: 8e79 703f 374f cfbd 82e7 b73d 2bf6 3c3e
00000010: b229 153d 535f f4bd 621b a5bc 5e61 adbc
00000020: 5f4f a9bd 9e3f 3ebd d7ea 0d3e dcd5 78bd
00000030: 4167 1dbe 5cad 47be effb 40be a37b 533d
00000040: 1f2d 5ebe 8968 b9bc 48be 56bd fd24 33be
00000050: 9df3 08be 7c50 02be 14ab 34be 463e 2bbd
00000060: c347 dcbb 4813 58be bf5b bbbc 8a2e 803e
00000070: d87c 0cbe b149 3ebc bded 6abd c7b9 9e3d
00000080: fc9f 52be 400d 09bc 0ed4 ac3b 4ca6 70bd
00000090: 844f 19be 73ef d83a 6250 7dbe eae3 cdbd
000000a0: 22dc aa3b 2ece 33be 2254 0abe e5f6 7e3e
000000b0: cd99 ea3d 06ae 37be dc1c 94bd 3613 18be
000000c0: b4a2 1dbd 9476 8abc 9e58 79be aa53 b3bd
000000d0: 3dfb 1a3c 2f1e 92bd b5c7 28bc 0ae6 e53c
000000e0: eaf3 e1bd ae2a 603d a3bb c9bf 985a 51bd
000000f0: d60a 44bd 394d 843e 5338 823d 5247 133d
00000100: 4dd2 ad3c 6cb7 373e d059 2fbd 151c 9e3c
00000110: 3a94 3d3e 8a4c 333e 571b d33d 441b 323e
00000120: 0fe4 8a3e abdc 82bd 9e37 363e 1522 583d
00000130: cabc fe3d f645 3fbd 1c0f cf3d 67bf 373e
00000140: 2dd9 803e 0f79 aa3d 6199 80bc c797 453d
00000150: 2b3b 063e a927 023e 6977 873e 0a52 b63d
00000160: 0635 273c 47bd 563e 01e6 e93d cc5e 143e
00000170: 0f91 a03d 5b43 263e af89 c6bb 2eeb 343d
00000180: efc8 49bd b9d8 a93d 1c1d 40bc 2532 a4bd
00000190: 529b d3bd 6111 3f3e 09fd aabd 3d5a 0d3e
000001a0: cfc9 d83d e790 9b3d e26e 2b3d 8466 10be
000001b0: e3d0 09be b31c 3ebe 9182 cb3d d515 0cbe
000001c0: 7afe 373d 36a6 23be 386e 083d ae75 653e
000001d0: 0be2 443f 670c 893e d4e2 e9bd b4d1 b1bd
000001e0: d20a 6d3d b1a8 383e c45a 253d a819 0bbe
000001f0: 9174 8dbd 3723 09be bc05 55bd f508 a8be
00000200: 81ea fdbd 59ee e83d 2259 b9bd 0d1f fb3c
00000210: 830f c3bd 1f60 dfbd 696a d9bd 4498 2e3d
00000220: 8935 27be ad59 a0bd 8555 4dbe 92b6 64be
00000230: 58e7 98bd 29cb 4cbd 2be2 893d c4e0 8fbe
00000240: c708 b33c 57ae 593d 1a45 d73d 6d60 f9bd
00000250: 6f0a afbd 8056 c9bd 5995 a9bc 0f5c a13d
00000260: 1503 10be c8c7 f53d 6c05 a13c 802f cc3d
00000270: b946 29bd ba50 c8bd ca6b 7d3e 6ce1 91be
00000280: f943 06be bc8f 07be b91a 00be 021c f3bd
00000290: 4f45 60be 3a1b 27be 6e3f b73c 3a0e 3dbd
000002a0: dedf 09be dd75 02be 8296 aebd c11e 21bd
000002b0: 43e4 7dbd 9d2d 0a3e d91c ca3f 7efe d3bc
000002c0: bd3e 10be 318a fa3d 2cad 373e eec4 62bd
000002d0: 9ac9 e0bd 261e 95bd a10a 93be 5332 36be
000002e0: 95e5 9ebd d0f4 44bd 55de 68bc b1b6 fbbb
000002f0: f003 3abe 8d91 693d a045 da3d ac73 c6bd
00000300: f419 123e 7231 773e d208 b33d 7276 033d
00000310: 819a bb3d 0e6c d7bd 1bad 5bbd 216d 0c3e
00000320: 1470 04be 8745 f33c 70e5 babd 0a79 9ebd
00000330: 2598 94bd 427e 9cbd 1328 edbd 6012 7ebd
00000340: ca86 24be 5c4a 213d 88b8 e7bd 9382 0c3e
00000350: f773 283e 3e2c 523d 4368 b83d a4e2 eebc
00000360: c4f9 06be d8a1 1bbe 2b37 1e3d e7c1 0b3e
00000370: 1964 3fbd 3be2 d8bd 6799 d1bc d447 df3c
00000380: 9445 123e d7ce 03be 0d13 99bd 0772 e3bc
00000390: 469c fabc 7380 8dbb dafa 6f3d 86f9 99bd
000003a0: 9a41 ea3f 7280 503e fb04 f2bc eab9 62bd
000003b0: 1084 a8bc 7dae f23d 7da2 013d 8bbf a23d
000003c0: 0058 503b c508 c4bc b557 443d d52c d53d
000003d0: 9d4e c53d 02a5 46be 27c1 84bd b5eb b0bc
000003e0: eb54 1dbc 81ff 07be 26c0 18be 15c1 b6bc
000003f0: b778 1cbe ce83 283e de1a 063e 37b6 0c3e

lstm.weight_hh_l0_reverse f4 [20, 20]
-0.0015344616 -0.03351827 -0.19906677 0.16824806 0.15600795 0.054641686 -0.009336368 0.012617179
0.078087874 0.1065398 0.13029888 -0.14747865 -0.17250226 -0.103595644 0.16857782 0.09072063
-0.059821248 -0.1882446 0.030459471 -0.18407427 -0.11863627 -0.061349336 0.0552675 -0.158501
0.0903036 -0.05434227 -0.11634972 -0.09926219 -0.07862795 -0.00038116763 0.17362906 0.038596917
0.14947681 0.07449255 -0.07165098 0.106308796 -0.15770036 -0.06439595 -0.095634475 0.089307785
0.11888028 -0.031443734 -0.12733135 0.061218817 0.19157325 -0.050369233 -0.032969534 -0.02034067
0.061473884 0.09203204 0.17428792 -0.016571542 -0.012571007 0.34090546 0.05562005 -0.038968302
-0.4024346 0.117465384 -0.07461766 -0.013626952 -0.18381922 -0.026445635 0.20658852 -0.029932585
0.14015737 0.058386523 -0.26898882 0.03384901 0.09842704 0.0986683 0.2572038 0.10425304
0.16659369 -0.09208612 -0.081143826 -0.2741125 -0.057231333 -0.18498284 0.1876578 0.101316795
0.2842534 -0.14341871 -0.037113644 0.14407413 0.1056999 -0.18155642 0.11702027 0.092111714
0.11724502 0.29699868 0.1899217 0.088932544 -0.007617477 -0.045117404 0.12081812 -0.22130772
-0.33804423 -0.020305203 -0.22045654 0.14099044 0.27145886 -0.01851139 0.10766168 -0.026293438
0.036629606 0.09684667 0.040714074 0.04467989 -0.27027994 0.295399 -0.08263905 0.011433675
-0.25239572 0.08230784 -0.0036676181 -0.10312359 0.19375637 -0.13581875 -0.14374511 0.22079648
-0.07350069 -0.01591187 0.16617143 -0.07034503 -0.030860115 0.078239985 -0.3558733 0.096082866
0.26459453 0.25241765 0.22469857 -0.01984883 -0.18260261 -0.08580016 0.060059313 0.06824259
-0.25975862 -0.017108228 0.3007134 0.2357929 0.1936921 -0.0012566707 0.032172274 -0.17110005
-0.25791696 0.29791957 0.025312686 -0.3074776 -0.1457829 0.25729382 -0.37924725 0.06885159
0.04952634 0.05045169 -0.005743706 -0.12953502 0.14061995 -0.085472316 -0.20646788 0.19741265
-0.3706135 0.33151793 0.05459878 0.0039390507 -0.21129538 0.27708367 0.008023122 0.08269872
-0.38196567 -0.21669102 -0.08291877 -0.10243645 0.10754768 -0.028803883 -0.01906049 0.022659648
0.10548565 0.018161483 0.15814734 -0.038521696 0.03719656 -0.019263346 0.009771636 -0.0814802
-0.23173617 0.04283031 0.095107034 -0.01123873 -0.029406983 -0.19239755 0.2321388 -0.045053147
-0.020318745 0.22622979 0.060062215 0.28203142 0.13828146 -0.1261972 -0.32060382 -0.33187175
-0.14038505 -0.18413216 0.02483468 -0.0697955 0.0063337395 0.0050992267 -0.16751723 -0.058146384
-0.047245488 -0.09800928 -0.07034774 -0.2564392 -0.045964327 -0.00560941 -0.23523961 0.01766076
-0.1121333 0.10317021 0.13785541 0.07307822 -0.059453856 0.13959506 -0.03975132 -0.2912975
0.3036304 0.08095244 -0.17119463 0.02070123 0.006448946 0.18090877 -0.06064251 0.096942425
0.052616786 -0.1392927 0.17747338 0.21358757 0.27371207 0.027502771 -0.021831194 -0.2775527
-0.044966906 -0.14210893 -0.14420906 -0.17984673 0.063771494 0.23955438 -0.048914794 0.15519655
0.22886637 0.10073773 -0.13510871 0.03050798 -0.2237922 0.034273203 -0.07516918 -0.0779058
00000000: fd1f c9ba 744a 09bd 29d8 4bbe 3849 2c3e
00000010: 8cc0 1f3e f6cf 5f3d 91f7 18bc 49b8 4e3c
00000020: 89ec 9f3d 8a31 da3d 126d 053e a504 17be
00000030: 6fa4 30be f429 d4bd aa9f 2c3e bdcb b93d
00000040: 2007 75bd 31c3 40be 2486 f93c f77d 3cbe
00000050: 93f7 f2bd 7149 7bbd 2d60 623d 164e 22be
00000060: 18f1 b83d 0096 5ebd c348 eebd fa49 cbbd
00000070: b107 a1bd 74d7 c7b9 d1cb 313e cd17 1e3d
00000080: 7310 193e 8d8f 983d c0bd 92bd 6db8 d93d
00000090: 347c 21be 06e2 83bd 02dc c3bd 00e7 b63d
000000a0: 8177 f33d 25cb 00bd 2663 02be 95c0 7a3d
000000b0: c72b 443e f84f 4ebd 100b 07bd 7aa1 a6bc
000000c0: 0acc 7b3d 4b7b bc3d 8878 323e 0bc1 87bc
000000d0: a0f6 4dbc 298b ae3e d9d1 633d 3a9d 1fbd
000000e0: e80b cebe b191 f03d 25d1 98bd 9443 5fbc
000000f0: 1b3b 3cbe 84a4 d8bc f18b 533e 2e35 f5bc
00000100: 6a85 0f3e b526 6f3d e7b8 89be 42a5 0a3d
00000110: 1e94 c93d 9b12 ca3d 37b0 833e 9e82 d53d
00000120: 8997 2a3e a697 bcbd bc2e a6bd 7958 8cbe
00000130: 676b 6abd 246c 3dbe 5e29 403e 2e7f cf3d
00000140: a989 913e 5bdc 12be 7a04 18bd 2b88 133e
00000150: 3079 d83d ede9 39be 53a8 ef3d 11a5 bc3d
00000160: 281e f03d 3610 983e d67a 423e 4422 b63d
00000170: 079c f9bb 07cd 38bd 7e6f f73d 7e9e 62be
00000180: 2214 adbe 1957 a6bc 5cbf 61be cc5f 103e
00000190: a8fc 8a3e 33a5 97bc ba7d dc3d 5665 d7bc
000001a0: ed08 163d 8c57 c63d cdc3 263d 4302 373d
000001b0: 2262 8abe 8a3e 973e aa3e a9bd 4f54 3b3c
000001c0: 033a 81be 0391 a83d 6c5c 70bb 7632 d3bd
000001d0: 1268 463e 1214 0bbe eb31 13be 7918 623e
000001e0: 8887 96bd 9c59 82bc d828 2a3e 0e11 90bd
000001f0: 5ace fcbc 493c a03d 0635 b6be 18c7 c43d
00000200: ef78 873e e33c 813e 6217 663e 039a a2bc
00000210: 2efc 3abe ffb7 afbd c100 763d c5c2 8b3d
00000220: 15ff 84be 8e26 8cbc 1bf7 993e b273 713e
00000230: 3957 463e dfb6 a4ba 13c7 033d da34 2fbe
00000240: b10d 84be ea88 983e 8d5c cf3c b46d 9dbe
00000250: 1d48 15be 04bc 833e b22c c2be 1002 8d3d
00000260: 22dc 4a3d 6ea6 4e3d b335 bcbb d4a4 04be
00000270: adfe 0f3e 1c0c afbd 516c 53be 8b26 4a3e
00000280: 0dc1 bdbe b8bc a93e f8a2 5f3d 2713 813b
00000290: d15d 58be e9dd 8d3e 6a73 033c f25d a93d
000002a0: 0191 c3be 40e4 5dbe 51d1 a9bd 34ca d1bd
000002b0: f541 dc3d 1ff6 ebbc bf24 9cbc baa0 b93c
000002c0: dc08 d83d 64c7 943c 60f1 213e edc8 1dbd
000002d0: 6c5b 183d 2ace 9dbc 3619 203c 17df a6bd
000002e0: 3f4c 6dbe d66e 2f3d 7ac7 c23d a622 38bc
000002f0: eae6 f0bc dd03 45be cbb5 6d3e a689 38bd
00000300: 7f73 a6bc c8a8 673e cc03 763d 6c66 903e
00000310: a899 0d3e d739 01be 2f26 a4be 18eb a9be
00000320: 19c1 0fbe 248d 3cbe 1972 cb3c f1f0 8ebd
00000330: 428b cf3b 6a17 a73b a389 2bbe e72a 6ebd
00000340: 7c84 41bd 17b9 c8bd 7a12 90bd 004c 83be
00000350: 1745 3cbd 24cf b7bb a7e2 70be 4cad 903c
00000360: 25a6 e5bd e74a d33d f829 0d3e 09aa 953d
00000370: e385 73bd 02f2 0e3e 48d2 22bd f224 95be
00000380: 7275 9b3e 65ca a53d a54d 2fbe a095 a93c
00000390: ae51 d33b 2640 393e 4864 78bd c089 c63d
000003a0: b384 573d bfa2 0ebe 95bb 353e b3b6 5a3e
000003b0: fd23 8c3e 7e4d e13c 55d7 b2bc 631b 8ebe
000003c0: 382f 38bd 0185 11be 8aab 13be be29 38be
000003d0: a19a 823d be4d 753e e15a 48bd d8eb 1e3e
000003e0: f25b 6a3e 954f ce3d f059 0abe dfeb f93c
000003f0: c829 65be 0f62 0c3d 4df2 99bd 138d 9fbd

lstm.bias_ih_l0_reverse f4 [20]
0.105130486 0.0017912225 0.037154105 0.0843064 -0.1642777 -0.046237435 -0.08239912 -0.10007234
0.21079741 0.16605313 -0.15278526 0.044321578 -0.023832781 -0.1338491 0.15268552 0.011730819
0.15272702 -0.089939706 0.070059046 -0.062477443
00000000: a74e d73d 74c7 ea3a e72e 183d d5a8 ac3d
00000010: 6a38 28be 7763 3dbd dfc0 a8bd baf2 ccbd
00000020: 47db 573e d509 2a3e bd73 1cbe 8b8a 353d
00000030: f73c c3bc bd0f 09be 9859 1c3e 9f32 403c
00000040: 7964 1c3e 4f32 b8bd 1e7b 8f3d 59e8 7fbd

lstm.bias_hh_l0_reverse f4 [20]
0.00097550434 0.08732195 -0.046027057 0.12898396 0.047574896 0.13905737 0.0003143449 -0.013122375
0.11194829 -0.07804773 -0.09012488 0.14578159 0.02294068 0.03793832 0.024086442 -0.013354734
0.06410209 0.076525375 -0.06448802 0.041586332
00000000: fdb8 7f3a dad5 b23d de86 3cbd 5f14 043e
00000010: e5dd 423d 0e65 0e3e a9ce a439 3bff 56bc
00000020: 2545 e53d 7dd7 9fbd 6593 b8bd c547 153e
00000030: 18ee bb3c 3665 1b3d ee50 c53c d0cd 5abc
00000040: f547 833d 56b9 9c3d 4c12 84bd 6e56 2a3d

lstm.weight_ih_l1 f4 [20, 40]
0.11969396 0.26780063 -0.09122633 0.012451341 -0.105880335 -0.23662896 -0.31672484 0.12681215
-0.21162595 0.16076204 -0.11339231 -0.19322544 0.23069938 -0.124325775 0.16891354 0.019120973
-0.0077942912 -0.27116486 0.41477004 -0.0019077886 -0.21132496 0.0070188376 -0.092801824 -0.016942672
-0.22438069 -0.11679339 0.02798452 -0.047925714 0.118303165 -0.114597626 -0.25050962 -0.15404385
-0.020205379 -0.10884283 -0.0454045 -0.20408541 0.09598266 0.20391421 -0.14490253 -0.052144647
-0.17463428 -0.12872623 0.09719212 0.19816637 0.011838307 0.05412927 0.16908064 -0.08641847
-0.05431043 0.023310592 0.0732796 -0.08975565 -0.04264363 0.036693197 -0.033563744 0.08745916
0.14654103 -0.09697216 0.028272228 0.23710567 0.102465935 -0.05773839 -0.05577851 -0.07307997
0.058573857 -0.15557659 0.0059634224 0.004395495 0.061907418 -0.04574837 0.0141957635 0.23252182
-0.016869426 -0.28788245 -0.1510844 -0.06254275 0.03529854 -0.14621185 -0.044034507 -0.085011594
0.118186966 0.073262505 -0.06264473 0.04308971 -0.011529026 0.2112456 -0.14207524 0.20973752
-0.1285949 0.17944793 0.045726757 0.073777996 0.21496888 -0.13262464 0.044464823 0.044948228
-0.21463716 0.06974779 0.09973014 -0.15019998 -0.015775496 0.016045155 -0.051889203 0.12574212
-0.03294736 0.08076994 -0.022598617 -0.014461593 -0.1571802 0.2695808 0.1799076 -0.15977222
-0.16914888 0.1545014 -0.024088724 0.043047104 0.03413473 -0.07754494 -0.029889112 -0.14752789
0.15242022 0.1576751 -0.023545444 -0.084666006 0.056449216 -0.2564396 -0.12075859 0.02493108
-0.16248593 -0.1308702 -0.14418758 -0.26428783 0.075004786 0.13586204 -0.04241849 -0.18763192
0.0049413447 0.16647139 0.34853458 -0.06105218 -0.14171018 -0.06293463 -0.05426174 0.040809367
-0.2779879 -0.09780517 -0.10646077 0.09124308 0.20379594 0.2784803 -0.10049731 0.06502929
-0.087143466 0.016452951 0.11481507 0.0717461 0.07592364 0.05035167 -0.0117724715 0.009040718
0.06413521 0.061950456 0.0897107 -0.14266388 -0.04290073 -0.058356892 0.061382007 -0.13263746
-0.07126573 -0.12212983 0.038235344 0.032097287 -0.053017113 -0.063655734 -0.0736487 0.1582919
0.13935381 0.13980538 0.052386694 -0.033584632 0.005724088 -0.035621796 -0.18612811 0.051294208
-0.09217302 -0.04907044 -0.17806454 0.0060621933 -0.020891195 0.011723368 0.09014294 0.18023618
-0.004391877 -0.33401382 -0.016145295 -0.16202408 0.0043829284 -0.15355529 0.1628953 0.0024522084
0.1375839 0.031032426 0.027370242 -0.054070503 -0.055401195 0.06843761 -0.023721395 -0.11214047
-0.080320746 -0.06843607 0.16147971 -0.04038645 0.06377433 0.032746367 -0.0334154 -0.057539023
-0.06437543 -0.011458881 0.12598513 -0.11019633 0.06624529 0.048929803 -0.0015829749 -0.21783033
-0.035461243 -0.13995191 0.08919008 0.029890873 0.11450115 -0.09950493 -0.03778583 -0.09449798
0.112553455 -0.17998235 0.009674128 -0.132445 -0.0069616484 0.09846866 0.011848438 -0.08469866
-0.041182127 -0.13012917 0.05947406 -0.013144001 -0.038757537 0.035559658 0.08794788 0.21892235
0.11753405 -0.0021400251 0.036616467 -0.01878677 0.18983768 -0.16804728 -0.050723128 -0.15353921
00000000: 1b22 f53d 2a1d 893e dfd4 babd b600 4c3c
00000010: cad7 d8bd dd4e 72be c229 a2be 0bdb 013e
00000020: 79b4 58be ce9e 243e 3a3a e8bd e4dc 45be
00000030: 753c 6c3e 839e febd acf7 2c3e 96a3 9c3c
00000040: 4167 ffbb 1fd6 8abe bd5c d43e c30e faba
00000050: 9265 58be 47fe e53b e20e bebd 5ccb 8abc
00000060: 0dc4 65be 5f31 efbd cb3f e53c c14d 44bd
00000070: ee48 f23d 29b2 eabd cc42 80be acbd 1dbe
00000080: c085 a5bc fde8 debd 12fa 39bd c4fb 50be
00000090: 8f92 c43d e3ce 503e 5461 14be a095 55bd
000000a0: 54d3 32be cfd0 03be aa0c c73d 20ec 4a3e
000000b0: 75f5 413c a7b6 5d3d 7a23 2d3e 2bfc b0bd
000000c0: 9d74 5ebd dbf5 be3c 9d13 963d cfd1 b7bd
000000d0: 16ab 2ebd 9b4b 163d 237a 09bd ca1d b33d
000000e0: da0e 163e 5799 c6bd 299b e73c d4cb 723e
000000f0: a9d9 d13d 177f 6cbd 0278 64bd f4aa 95bd
00000100: 24eb 6f3d 784f 1fbe d068 c33b 1608 903b
00000110: a292 7d3d a562 3bbd 5995 683c 331a 6e3e
00000120: c031 8abc 5465 93be deb5 1abe 6a16 80bd
00000130: 3495 103d 8fb8 15be 875d 34bd 8f1a aebd
00000140: 020c f23d a70a 963d e14b 80bd d67e 303d
00000150: 3de4 3cbc c450 583e 2c7c 11be 6fc5 563e
00000160: 62ae 03be 33c1 373e fb4b 3b3d eb18 973d
00000170: cd20 5c3e c1ce 07be bf20 363d a21b 383d
00000180: d8c9 5bbe eed7 8e3d 513f cc3d 06ce 19be
00000190: 9d3b 81bc 2171 833c c689 54bd 8bc2 003e
000001a0: d0f3 06bd b66a a53d bc20 b9bc 51f0 6cbc
000001b0: d9f3 20be 7f06 8a3e b339 383e 549b 23be
000001c0: 5d35 2dbe 9d35 1e3e b755 c5bc 2952 303d
000001d0: dcd0 0b3d e2cf 9ebd 03da f4bc 8d11 17be
000001e0: 0c14 1c3e 9575 213e 60e2 c0bc 5f65 adbd
000001f0: 4b37 673d 0d4c 83be 4850 f7bd 443c cc3c
00000200: b662 26be d602 06be e9a5 13be bc50 87be
00000210: 1c9c 993d 6b1f 0b3e 03bf 2dbd 9522 40be
00000220: 01eb a13b 7a77 2a3e 2073 b23e da11 7abd
00000230: 791c 11be dfe3 80bd 8f41 5ebd b927 273d
00000240: 6e54 8ebe 144e c8bd 1b08 dabd a7dd ba3d
00000250: e2af 503e f894 8e3e 89d1 cdbd 142e 853d
00000260: 4678 b2bd 57c8 863c 2a24 eb3d 9fef 923d
00000270: da7d 9b3d 8d3d 4e3d 53e1 40bc 851f 143c
00000280: 5259 833d c3bf 7d3d 3eba b73d 7b16 12be
00000290: adb8 2fbd a307 6fbd b36b 7b3d 1dd2 07be
000002a0: c4f3 91bd 341f fabd aa9c 1c3d 7278 033d
000002b0: 7928 59bd f05d 82bd 21d5 96bd 4617 223e
000002c0: c4b2 0e3e 2429 0f3e 6e93 563d 0a90 09bd
000002d0: 2191 bb3b 29e8 11bd 5e98 3ebe e019 523d
000002e0: 35c5 bcbd 16fe 48bd 8d56 36be 5da5 c63b
000002f0: 0324 abbc 5f13 403c dd9c b83d d58f 383e
00000300: bce9 8fbb dc03 abbe 2343 84bc a4e9 25be
00000310: ab9e 8f3b 993d 1dbe 07ce 263e 3bb5 203b
00000320: cbe2 0c3e b737 fe3c 8f37 e03c 0879 5dbd
00000330: 5dec 62bd 0529 8c3d 5f53 c2bc e7a9 e5bd
00000340: 347f a4bd 3628 8cbd f05a 253e 436c 25bd
00000350: 1e9c 823d 0e21 063d 96de 08bd 0aae 6bbd
00000360: 44d7 83bd 08be 3bbc 3f02 013e 9dae e1bd
00000370: 9cab 873d 9e6a 483d d37b cfba ea0e 5fbe
00000380: cf3f 11bd 8e4f 0fbe 4aa9 b63d b4dd f43c
00000390: 947f ea3d 3ec9 cbbd 51c5 1abd 2888 c1bd
000003a0: 6d82 e63d 4b4d 38be 3c80 1e3c a99f 07be
000003b0: 8a1e e4bb f0a9 c93d f31f 423c 7e76 adbd
000003c0: 97ae 28bd 9540 05be 129b 733d f059 57bc
000003d0: 39c0 1ebd 01a7 113d 051e b43d 2e2d 603e
000003e0: b1b5 f03d aa3f 0cbb 26fb 153d b6e6 99bc
000003f0: cf64 423e 9614 2cbe 0ec3 4fbd 6239 1dbe

lstm.weight_hh_l1 f4 [20, 20]
-0.065513656 -0.058772553 -0.08526524 -0.049276702 -0.09802074 -0.22136171 0.1926607 -0.0017000431
0.016739843 0.094203204 -0.068861514 -0.0708051 0.10309269 -0.12341198 0.18113399 0.088680215
0.103138305 0.054449182 0.12434434 -0.015099083 -0.15304703 -0.13838854 -0.077232674 0.20752142
0.030282697 0.2204869 0.22192742 -0.03127251 -0.3340395 0.17411844 -0.032277137 0.18869868
0.24107422 0.0035491197 -0.2056678 0.15317325 -0.08061872 -0.12606528 -0.2509462 0.23497489
-0.07203292 0.13760631 -0.2894135 0.21680984 -0.055298183 -0.09353752 0.17609055 -0.16387874
0.16739254 0.021347106 0.12608622 -0.20405583 0.08211604 -0.07458655 -0.016581014 -0.08481147
-0.25313735 0.09620026 -0.13157152 0.06342645 0.20951244 0.07201075 -0.22645912 -0.06158172
0.13760434 -0.048477996 0.19798245 0.2623259 0.15951253 0.14893666 0.115962155 -0.14498682
0.008122134 -0.08372918 -0.072476566 0.072053835 0.13314827 0.14239179 0.11332772 -0.0915381
-0.067058526 0.10488534 0.08681504 -0.20960045 -0.3883261 0.0906766 0.16273385 -0.14053488
0.1433393 0.0024600246 0.037126157 -0.12461541 0.027508872 0.115135334 -0.07503573 -0.07888691
0.020259582 -0.039017227 -0.17252494 0.22492562 -0.11264166 0.14343351 -0.07826133 0.1865831
-0.11389292 -0.23769665 -0.11749113 -0.046431955 0.004865735 -0.05171478 -0.23182406 -0.0025994596
-0.2107711 0.062170263 -0.07533996 0.07686065 -0.040741023 0.12338454 0.0129505545 -0.050738133
-0.005168325 -0.049831696 -0.1279288 -0.19206351 0.00764237 0.23391707 -0.36745223 -0.26993087
0.023670388 0.13539302 -0.23600554 0.26876518 0.0035102384 -0.08967891 -0.010985982 0.08986024
-0.16186258 -0.22743449 0.025114354 0.23963355 -0.21700937 0.008558832 -0.04209716 -0.07669802
0.060484055 -0.08952295 0.23884025 -0.04077636 0.01023252 0.30351382 0.056784276 -0.04667266
-0.015360341 -0.24651739 0.14349681 0.1683022 -0.01097929 0.130741 0.07280678 -0.13378176
-0.04947942 0.02193927 0.016114717 0.037968226 -0.25345564 -0.25102553 -0.07832146 -0.042115163
-0.1998216 0.009893502 -0.117215686 -0.16425274 0.17149624 -0.08774768 0.21938641 0.06386931
-0.041850716 0.18034084 0.17956622 0.00044630878 -0.00515292 -0.26883274 0.1399129 -0.07995592
-0.18654226 -0.1609045 -0.15820098 -0.031195292 -0.11361672 -0.45053184 0.099176876 0.11428136
0.106980436 0.044054747 -0.09136511 -0.055589803 -0.14153583 0.014829071 -0.09498053 -0.26273662
0.07983329 0.09799729 -0.1868684 0.050443582 0.26045796 -0.12541765 0.046182252 -0.018690681
0.26790977 -0.071337074 -0.25090772 0.122345015 -0.26046196 -0.067858264 -0.098522104 -0.15710014
0.17705917 0.05311559 0.04794603 0.19378509 -0.044024687 -0.08033915 0.14125238 0.15111783
0.07948322 -0.17499782 -0.0707248 0.2070762 0.12661408 -0.07762156 0.13435993 -0.38403013
-0.115106806 -0.15471494 0.12283577 -0.063253984 -0.039571457 0.18092288 -0.04403009 -0.18577987
-0.34030953 0.34548232 0.093985654 0.14482972 -0.13240504 0.22139467 0.08414466 -0.17038077
-0.06313006 0.03154544 -0.029804487 -0.05391282 -0.025573399 0.07495379 -0.19780107 0.08377724
00000000: 062c 86bd 7dbb 70bd 8b9f aebd 5ed6 49bd
00000010: 19bf c8bd a5ac 62be d948 453e fbd3 deba
00000020: ff21 893c 9ced c03d 4407 8dbd 4402 91bd
00000030: 4322 d33d 6cbf fcbd 307b 393e f99d b53d
00000040: 2d3a d33d 1b06 5f3d 3fa8 fe3d 2562 77bc
00000050: 5cb8 1cbe bab5 0dbe 2a2c 9ebd 7f80 543e
00000060: 6b13 f83c 51c7 613e f140 633e 9a17 00bd
00000070: 3a07 abbe 1b4c 323e 0835 04bd 3a3a 413e
00000080: 29dc 763e 5998 683b 949a 52be 73d9 1c3e
00000090: 6d1b a5bd 4217 01be 057c 80be 429d 703e
000000a0: ff85 93bd abe8 0c3e 022e 94be 6603 5e3e
000000b0: 5980 62bd 9990 bfbd 1551 343e d4cf 27be
000000c0: f368 2b3e 20e0 ae3c bf1c 013e 03f4 50be
000000d0: 742c a83d d5c0 98bd e8d4 87bc a3b1 adbd
000000e0: 389b 81be a404 c53d afba 06be bae5 813d
000000f0: 6e8a 563e 5f7a 933d e6e4 67be 1d3d 7cbd
00000100: 27e8 0c3e dd90 46bd e9bb 4a3e 954f 863e
00000110: 4157 233e da82 183e 917d ed3d 6d77 14be
00000120: b312 053c 347a abbd 986e 94bd f690 933d
00000130: 0558 083e 27cf 113e 5d18 e83d 5478 bbbd
00000140: fb55 89bd 20ce d63d 15cc b13d 80a1 56be
00000150: aed2 c6be a7b4 b93d b4a3 263e 60e8 0fbe
00000160: 8ac7 123e 5d38 213b 9911 183d 5d36 ffbd
00000170: 495a e13c 13cc eb3d 55ac 99bd 768f a1bd
00000180: 6cf7 a53c 87d0 1fbd 61aa 30be e752 663e
00000190: acb0 e6bd 3ce0 123e 7a47 a0bd a40f 3f3e
000001a0: b140 e9bd c066 73be 319f f0bd 6f2f 3ebd
000001b0: be70 9f3b e1d2 53bd 4963 6dbe b25b 2abb
000001c0: 61d4 57be 3fa6 7e3d d64b 9abd 1e69 9d3d
000001d0: 0fe0 26bd 09b1 fc3d 902e 543c cad2 4fbd
000001e0: 0d5b a9bb 521c 4cbd c4ff 02be 4cac 44be
000001f0: d96c fa3b f587 6f3e b322 bcbe 6134 8abe
00000200: 67e8 c13c 78a4 0a3e 70ab 71be 979b 893e
00000210: 070c 663b 94a9 b7bd 8cfe 33bc a508 b83d
00000220: 4ebf 25be 96e4 68be 9ebc cd3c 7f62 753e
00000230: b437 5ebe 583a 0c3c 126e 2cbd da13 9dbd
00000240: 21be 773d cf57 b7bd 8a92 743e 1d05 27bd
00000250: 4da6 273c 2a66 9b3e a196 683d d52b 3fbd
00000260: f1a9 7bbc 0e6f 7cbe d4f0 123e 6957 2c3e
00000270: 7be2 33bc f8e0 053e b91b 953d 16fe 08be
00000280: efaa 4abd fcb9 b33c 0303 843c 9284 1b3d
00000290: f0c4 81be 6b86 80be 0067 a0bd f380 2cbd
000002a0: 099e 4cbe 5b18 223c c70e f0bd df31 28be
000002b0: b69c 2f3e 0eb5 b3bd d5a6 603e eacd 823d
000002c0: a86b 2bbd 45ab 383e 35e0 373e 8dfe e939
000002d0: d3d9 a8bb 72a4 89be 5445 0f3e eebf a3bd
000002e0: ef04 3fbe 26c4 24be 70ff 21be 458d ffbc
000002f0: e2af e8bd 1cac e6be 3f1d cb3d 580c ea3d
00000300: 8f18 db3d c072 343d a11d bbbd 22b2 63bd
00000310: c5ee 10be a2f5 723c 2785 c2bd 6a85 86be
00000320: a37f a33d ceb2 c83d 6e5a 3fbe ee9d 4e3d
00000330: bf5a 853e 7c6d 00be 9a29 3d3d 331d 99bc
00000340: 782b 893e 2c19 92bd fa76 80be 0690 fa3d
00000350: 455b 85be 46f9 8abd f5c5 c9bd dcde 20be
00000360: 004f 353e bc8f 593d 0e63 443d 996f 463e
00000370: 3b53 34bd da88 a4bd 77a4 103e a2be 1a3e
00000380: 19c8 a23d a132 33be 2ad8 90bd c90b 543e
00000390: 1fa7 013e 0df8 9ebd a695 093e 999f c4be
000003a0: 1ebd ebbd 986d 1ebe 5291 fb3d 4e8b 81bd
000003b0: ae15 22bd d943 393e e558 34bd 143d 3ebe
000003c0: 0d3d aebe 0fe3 b03e 8d7b c03d 3e4e 143e
000003d0: 3095 07be 49b5 623e 0954 ac3d 4c78 2ebe
000003e0: 554a 81bd cb35 013d 8a28 f4bc b0d3 5cbd
000003f0: 4e7f d1bc 5f81 993d 5d8c 4abe 6793 ab3d

lstm.bias_ih_l1 f4 [20]
0.14487208 -0.13812533 -0.15243737 0.19728737 -0.12128555 -0.0802455 0.07595539 -0.017686095
0.27733216 -0.13476905 -0.051771637 0.11662764 -0.12727845 0.107719734 0.08833966 0.17172104
0.14343658 -0.0124378195 0.011595405 0.036429342
00000000: 5959 143e ba70 0dbe 8b18 1cbe b305 4a3e
00000010: 8f64 f8bd c157 a4bd 808e 9b3d 6ee2 90bc
00000020: 7bfe 8d3e e600 0abe 7f0e 54bd 79da ee3d
00000030: 4855 02be 2a9c dc3d 6ceb b43d a4d7 2f3e
00000040: 0ae1 123e ffc7 4bbc a7fa 3d3c ef36 153d

lstm.bias_hh_l1 f4 [20]
-0.096697204 -0.10594465 0.13033034 0.0470963 -0.030379126 0.057358917 -0.3135298 0.050783608
-0.085468546 0.15469198 -0.05010315 0.16766651 -0.13797183 0.09481806 -0.15333088 0.11868213
-0.0023390967 -0.13278326 0.019530198 -0.045707025
00000000: 2f09 c6bd 82f9 d8bd 5175 053e 0de8 403d
00000010: a5dd f8bc 2ff1 6a3d fa86 a0be 7902 503d
00000020: 220a afbd 9367 1e3e f638 4dbd c5b0 2b3e
00000030: 7d48 0dbe f92f c23d c502 1dbe 9e0f f33d
00000040: 884b 19bb 56f8 07be cbfd 9f3c 4a37 3bbd

lstm.weight_ih_l1_reverse f4 [20, 40]
0.009053801 -0.27701223 -0.08860187 -0.35811597 -0.11777393 -0.022361198 -0.029481133 0.09908512
0.49405068 0.23155665 0.01899361 0.028654477 -0.054389652 0.14206514 -0.050792743 -0.30590165
-0.2473191 0.15458171 -0.31811926 -0.16740927 0.03482484 -0.02182108 0.37273425 -0.021044677
0.09440585 -0.041235905 0.15811016 0.07673633 -0.065580614 0.43461955 0.5905526 -0.34464917
-0.10207678 0.09934507 -0.27199274 0.19682519 -0.20632635 -0.24851803 -0.16068912 0.19981164
0.0065472783 -0.052891597 -0.121104024 0.16524677 0.122034416 -0.17923917 -0.048556894 -0.0505625
-0.32590872 0.03787001 0.14088278 -0.14427745 0.21585098 -0.023942431 -0.027647534 0.22072852
0.17231914 -0.14795394 0.31039265 -0.009513159 -0.014176616 0.19192845 0.051254768 -0.042666886
-0.38916227 -0.09851569 -0.034454484 0.15986449 0.20575948 -0.12774211 -0.32562262 -0.2831385
0.13929315 0.053802792 -0.06761349 -0.15429571 0.365526 0.011688817 0.18997413 -0.34543443
0.14368476 0.1601884 -0.1241217 -0.07379932 0.08779151 -0.06045627 -0.09195558 -0.100604005
-0.20602162 -0.31224728 -0.062383037 -0.061514694 -0.06615072 -0.044459965 0.03613921 0.22610258
0.2815643 -0.15028098 0.42092797 -0.105709106 -0.09334865 -0.09819834 0.073141634 -0.13860187
-0.28467745 -0.1783062 0.18325576 0.33038718 0.060748648 0.09534063 -0.22988997 0.13486442
-0.019637896 0.01024858 -0.18395041 -0.10092383 0.053994555 0.09862144 -0.04329 -0.056599896
0.21878253 -0.13104223 0.023932125 0.016551355 0.32367137 0.05369712 0.15563087 0.071802646
0.0145074 0.03517586 0.23907171 0.021045623 0.14527734 -0.02781254 0.05449968 0.08927622
0.15752338 0.034904376 0.13941145 -0.07362573 0.02811175 -0.2041901 -0.07459989 -0.0019875444
-0.09066396 0.117511414 0.019933188 -0.0062322426 0.21430013 0.02313914 -0.048955757 -0.07217166
-0.068036094 0.0033624507 -0.07001218 -0.13808501 -0.089674145 -0.055819888 -0.1102571 0.004699932
0.007641157 0.15609977 0.02676946 -0.011302718 -0.1279591 0.10393016 0.22334267 0.16530985
0.07260996 0.083891235 -0.061320074 0.01986727 0.059637103 -0.19241503 0.09450092 0.17638247
-0.05714321 0.03662676 -0.14127007 0.10709373 0.20394696 -0.020852607 -0.04716854 0.19449411
0.22774763 0.10371174 -0.112373315 0.020032186 0.0013850286 -0.04155579 0.055264335 -0.10395759
0.0020306532 -0.056408286 -0.10749608 -0.11891343 0.08800286 -0.055190228 0.05036379 -0.16432801
0.116393305 0.112820186 -0.057493385 0.07502653 0.2580257 0.20001912 0.03489861 0.29763916
-0.040788293 -0.1845408 -0.041625343 -0.036842 0.13920727 -0.08158183 0.11416621 -0.059343323
0.06531387 -0.09502624 -0.012323943 -0.10088834 0.18082148 -0.12399482 -0.02537181 0.10187616
0.01695794 0.07243425 0.13869126 -0.0537995 -0.0038579616 -0.028442424 0.17964447 0.085495934
-0.18830803 -0.07444165 0.099826746 0.18247323 -0.03312378 -0.0820493 -0.028371247 0.00994576
0.12284762 -0.10645466 -0.26001877 -0.077687524 -0.25618747 -0.44601193 -0.19548857 -0.16139479
-0.06275979 0.020127624 -0.12234871 0.08806143 0.1492339 0.2187022 0.3114072 -0.04271165
00000000: 6556 143c 8cd4 8dbe e674 b5bd fa5a b7be
00000010: 7533 f1bd d52e b7bc 6b82 f1bc 24ed ca3d
00000020: 36f4 fc3e 301d 6d3e 7d98 9b3c cbbc ea3c
00000030: afc7 5ebd 8679 113e 0d0c 50bd 249f 9cbe
00000040: 3841 7dbe ab4a 1e3e 87e0 a2be 566d 2bbe
00000050: 7ea4 0e3d 1fc2 b2bc 06d7 be3e e365 acbc
00000060: db57 c13d fbe6 28bd a1e7 213e f027 9d3d
00000070: 214f 86bd 7486 de3e 752e 173f db75 b0be
00000080: a10d d1bd 6e75 cb3d a242 8bbe 8b8c 493e
00000090: 3747 53be 837b 7ebe b08b 24be 6c9b 4c3e
000000a0: 8d8a d63b dca4 58bd 6305 f8bd 7336 293e
000000b0: 2eed f93d 798a 37be 98e3 46bd a01a 4fbd
000000c0: 82dd a6be 951d 1b3d 9343 103e 78bd 13be
000000d0: 0a08 5d3e eb22 c4bc 157d e2bc a806 623e
000000e0: 6e74 303e 3d81 17be c9eb 9e3e 15dd 1bbc
000000f0: 0a45 68bc e488 443e 85f0 513d 79c3 2ebd
00000100: 4740 c7be 98c2 c9bd 2520 0dbd 84b3 233e
00000110: 9db2 523e d4ce 02be 02b8 a6be 88f7 90be
00000120: dda2 0e3e 5160 5c3d f178 8abd b2ff 1dbe
00000130: 3926 bb3e 7482 3f3c 9488 423e c8dc b0be
00000140: 1922 133e 6e08 243e 8533 febd 1924 97bd
00000150: 09cc b33d fea0 77bd 3553 bcbd 7909 cebd
00000160: 55f7 52be e0de 9fbe 5b85 7fbd d5f6 7bbd
00000170: 077a 87bd a71b 36bd b506 143d 6f87 673e
00000180: 3229 903e 42e3 19be df83 d73e 047e d8bd
00000190: 942d bfbd 361c c9bd 48cb 953d a6ed 0dbe
000001a0: 3ec1 91be e795 36be 66a7 3b3e 8228 a93e
000001b0: 93d3 783d f341 c33d 4768 6bbe e619 0a3e
000001c0: a7df a0bc a9e9 273c 7f5d 3cbe 27b1 cebd
000001d0: 6529 5d3d 0afa c93d db50 31bd 4bd5 67bd
000001e0: 8708 603e ef2f 06be 4e0d c43c b596 873c
000001f0: 41b8 a53e 83f1 5b3d b35d 1f3e 440d 933d
00000200: 72b0 6d3c 9014 103d 37cf 743e df67 ac3c
00000210: 95c3 143e 20d7 e3bc 0e3b 5f3d 73d6 b63d
00000220: cf4d 213e e4f7 0e3d e0c1 0e3e 16c9 96bd
00000230: 9d4a e63c 3617 51be d4c7 98bd 7641 02bb
00000240: 07ae b9bd d3a9 f03d ed4a a33c d737 ccbb
00000250: 7e71 5b3e 4b8e bd3c d585 48bd bcce 93bd
00000260: 8256 8bbd 905c 5c3b 8c62 8fbd 2866 0dbe
00000270: 14a7 b7bd 65a3 64bd 79ce e1bd e301 9a3b
00000280: ac62 fa3b 9ed8 1f3e a04b db3c 092f 39bc
00000290: b607 03be 56d9 d43d f1b3 643e fc46 293e
000002a0: 88b4 943d 2bcf ab3d c22a 7bbd afc0 a23c
000002b0: 0946 743d 7208 45be b389 c13d 9b9d 343e
000002c0: 000f 6abd f105 163d 1aa9 10be f553 db3d
000002d0: 79d7 503e 16d3 aabc cd33 41bd 7729 473e
000002e0: ad36 693e d266 d43d fb23 e6bd 8a1a a43c
000002f0: d989 b53a 6736 2abd db5c 623d b8e7 d4bd
00000300: b514 053b 600c 67bd e826 dcbd e288 f3bd
00000310: d83a b43d 260f 62bd 434a 4e3d 9a45 28be
00000320: 9d5f ee3d 450e e73d 2f7e 6bbd 82a7 993d
00000330: f21b 843e d0d1 4c3e d8f1 0e3d 2964 983e
00000340: a011 27bd 43f8 3cbe 567f 2abd a3e7 16bd
00000350: 5a8c 0e3e 6014 a7bd f9cf e93d fc11 73bd
00000360: 47c3 853d 1e9d c2bd 5dea 49bc 8c9e cebd
00000370: 4429 393e fff0 fdbd 8bd8 cfbc 73a4 d03d
00000380: 61eb 8a3c 6858 943d 1505 0e3e dd5c 5cbd
00000390: dbd5 7cbb 1600 e9bc b8f4 373e 7e18 af3d
000003a0: d2d3 40be dd74 98bd f771 cc3d 43da 3a3e
000003b0: cdac 07bd 7709 a8bd d16a e8bc 8af3 223c
000003c0: 8897 fb3d e704 dabd 2e21 85be a31a 9fbd
000003d0: 012b 83be ad5b e4be 282e 48be ad44 25be
000003e0: 3488 80bd b0e2 a43c f691 fabd 8d59 b43d
000003f0: c5d0 183e 78f3 5f3e c470 9f3e 69f2 2ebd
