experiments/basic/weights/2_GRU.pth (torch, 106811 bytes, 33 tensors)

lstm.weight_ih_l0 f4 [60, 58]
1.5175805 -0.12682916 -0.12901442 -0.030031156 0.051380925 0.034841593 -0.09333327 -0.12108207
-0.045865588 0.06938029 0.035251033 -0.036175616 0.30393788 -0.102110654 0.06333469 0.36210805
-0.0017250627 0.022511922 -0.15064982 0.059466813 -0.042242803 0.087092124 -0.0007659535 0.073684685
-0.19107494 0.13447197 -0.019417262 -0.11216505 -0.1536002 0.1038484 -0.20579249 -0.13648221
0.09337008 -0.15124065 -0.05310631 -0.05296717 -0.22033001 0.24765457 -0.03569158 0.25399932
-0.27859432 0.21015163 -0.036182888 -0.27499682 -0.064550355 0.280311 0.035280585 0.0934768
-0.13610537 0.3767696 0.110791765 0.15442203 0.19280784 -0.09688504 0.047254138 0.061750136
0.2874244 0.15849967 -0.78816736 -0.21490929 0.080148555 -0.06318755 -0.17323637 0.0134830065
-0.007939575 -0.2525342 -0.084535226 -0.046942774 0.08924143 -0.21872012 -0.12978017 -0.06387551
0.016529141 0.034436226 0.06266434 -0.010146769 0.18238351 -0.04118176 -0.022466611 0.029666787
-0.22923002 -0.33912838 0.01692431 -0.11863389 0.07206154 -0.47813436 -0.32613856 -0.26733804
-0.07539885 0.09493516 0.12532218 0.057508517 -0.026153022 -0.07358153 -0.115973465 0.05934991
-0.069263615 -0.22474715 -0.33133948 -0.23594247 0.26950994 0.02581712 0.1094333 0.07340307
0.054541275 -0.099939615 0.1668112 -0.18246591 0.09740432 -0.046941143 -0.09151643 0.11185561
0.25833797 -0.25476897 -0.26896435 -0.004628615 0.5357058 0.066694245 0.037323415 0.13539237
0.06699616 -0.10779954 -0.06839499 0.005822633 -0.2767917 -0.044720147 0.16690002 0.13803588
0.087893695 -0.12865601 -0.009186407 0.047298618 0.08050303 0.13032703 -0.18772718 -0.35218588
-0.2507061 -0.33653948 -0.16053024 -0.028731456 -0.037905898 -0.19941774 -0.11138225 0.011647919
0.3899937 0.17107388 0.11632174 0.07496801 -0.00310832 -0.07348311 0.07278133 0.17330332
0.14772855 0.18575576 -0.18927509 -0.14544673 -0.049960066 0.27631807 0.08304283 -0.0021633809
-0.07436944 0.2897648 -0.028069967 -0.12619321 0.018684482 0.37863818 0.16648258 0.09017221
-0.048913 0.33680224 -0.09691827 0.18744385 -0.107970215 0.28141144 0.5383014 -0.14772686
-0.057109393 -0.2184932 0.04725148 -0.08385399 -0.028229378 0.11469324 -0.07125267 -0.00019841436
-0.115077294 0.06582331 0.14525867 0.14848284 0.25510162 -0.2050798 -0.068416305 0.18063378
-0.29666805 0.107024446 0.02093292 -0.08746153 0.17979443 0.045006078 -0.14492668 -0.37993503
-0.16141741 -0.1008156 0.03447273 0.16542621 -0.27554497 -0.28772312 -0.0018811155 -0.3169487
-0.22711568 0.023653248 0.13949458 -0.005625759 -0.24013886 -0.14270888 0.009177512 -0.11154538
-0.2632385 -0.17834269 0.109842844 0.10871083 0.28734958 0.25701788 -0.12924507 0.11512121
-0.07841066 0.1743694 0.2585947 0.005928128 -0.14922538 -0.0010492323 0.010422568 -0.006816976
0.40748078 -0.004504171 -0.1429171 -0.15772493 -0.030578692 -0.058703396 0.10107923 -0.24380262
-0.13396801 0.09939643 0.023791917 -0.20380957 0.08978964 -0.03501997 -0.15327008 -0.04757523
-0.11110355 0.27213982 -0.36976194 -0.20865855 -0.10649659 -0.038024064 -0.043378003 -0.27843407
00000000: 1440 c23f 81df 01be 5b1c 04be e603 f6bc
00000010: ce74 523d 0fb6 0e3d 8325 bfbd e0f9 f7bd
00000020: 8edd 3bbd 4117 8e3d 6363 103d e22c 14bd
00000030: bf9d 9b3e 641f d1bd 9eb5 813d 3a66 b93e
00000040: 801b e2ba ec6a b83c f243 1abe 7993 733d
00000050: ca06 2dbd 5b5d b23d 45ca 48ba ffe7 963d
00000060: 26a9 43be 05b3 093e f310 9fbc cab6 e5bd
00000070: 5f49 1dbe 78ae d43d 44bb 52be fec1 0bbe
00000080: d038 bf3d d4de 1abe 0186 59bd 1af4 58bd
00000090: 319e 61be 2999 7d3e 5631 12bd 330c 823e
000000a0: eaa3 8ebe fd31 573e 8234 14bd 62cc 8cbe
000000b0: fa32 84bd ec84 8f3e 6082 103d c470 bf3d
000000c0: 355f 0bbe f2e7 c03e cbe6 e23d cf20 1e3e
000000d0: 6b6f 453e aa6b c6bd 8e8d 413d b6ed 7c3d
000000e0: 4a29 933e bd4d 223e 56c5 49bf 2e11 5cbe
000000f0: ed24 a43d 7968 81bd e064 31be d4e7 5c3c
00000100: fe14 02bc 2a4c 81be ce20 adbd 1147 40bd
00000110: 36c4 b63d 2bf8 5fbe 18e5 04be 2ad1 82bd
00000120: 1f68 873c 000d 0d3d 2956 803d a23e 26bc
00000130: bec2 3a3e 35ae 28bd e60b b8bc c307 f33c
00000140: 46bb 6abe 3ca2 adbe daa4 8a3c 53f6 f2bd
00000150: 0095 933d 07ce f4be a2fb a6be 88e0 88be
00000160: b66a 9abd 5d6d c23d 7554 003e 0d8e 6b3d
00000170: dd3e d6bc eab1 96bd 7f83 edbd e418 733d
00000180: 15da 8dbd 1e24 66be 54a5 a9be e79a 71be
00000190: 35fd 893e 6d7e d33c 911e e03d 5954 963d
000001a0: ac66 5f3d 24ad ccbd 8ed0 2a3e 58d8 3abe
000001b0: eb7b c73d 5b45 40bd f76c bbbd 8e14 e53d
000001c0: e044 843e 1471 82be b2b5 89be a3ab 97bb
000001d0: 0424 093f fe96 883d 70e0 183d 4ca4 0a3e
000001e0: 4835 893d 01c6 dcbd ac12 8cbd c9cb be3b
000001f0: a4b7 8dbe 792c 37bd d7e7 2a3e 4759 0d3e
00000200: 9c01 b43d 67be 03be 9582 16bc 32bc 413d
00000210: c6de a43d 7374 053e 8e3b 40be b551 b4be
00000220: 8d5c 80be e74e acbe 0a62 24be 3b5e ebbc
00000230: 3743 1bbd 2a34 4cbe 611c e4bd ead6 3e3c
00000240: 41ad c73e fe2d 2f3e 183a ee3d d488 993d
00000250: f5b4 4bbb 507e 96bd 610e 953d 6d76 313e
00000260: 2746 173e c236 3e3e 54d1 41be fdef 14be
00000270: eda2 4cbd 9079 8d3e 5c12 aa3d 82c7 0dbb
00000280: 014f 98bd 0d5c 943e fdf2 e5bc cb38 01be
00000290: 3310 993c dddc c13e 697a 2a3e 35ac b83d
000002a0: ff58 48bd 5871 ac3e 167d c6bd 48f1 3f3e
000002b0: 7d1f ddbd 2915 903e 1fce 093f b645 17be
000002c0: 8aeb 69bd aebc 5fbe c58a 413d a4bb abbd
000002d0: 4c41 e7bc 4ae4 ea3d ebec 91bd 730d 50b9
000002e0: a5ad ebbd 5fce 863d b0be 143e e30b 183e
000002f0: ae9c 823e 7000 52be d91d 8cbd 10f8 383e
00000300: e0e4 97be a22f db3d 847b ab3c 081f b3bd
00000310: 081c 383e 4b58 383d a967 14be d886 c2be
00000320: 9b4a 25be 6978 cebd 4733 0d3d 7d65 293e
00000330: 3b14 8dbe 7250 93be c38f f6ba 1a47 a2be
00000340: 0391 68be 75c4 c13c abd7 0e3e 4958 b8bb
00000350: f6e6 75be 4722 12be 465d 163c e771 e4bd
00000360: 32c7 86be 779f 36be 49f5 e03d c9a3 de3d
00000370: 7c1f 933e d997 833e d258 04be abc4 eb3d
00000380: c595 a0bd e48d 323e 8666 843e be40 c23b
00000390: 8ace 18be 6586 89ba 6bc3 2a3c f060 dfbb
000003a0: 52a1 d03e ba97 93bb dc58 12be a582 21be
000003b0: 2a80 fabc f972 70bd a102 cf3d 65a7 79be
000003c0: e92e 09be 5b90 cb3d 44e7 c23c 75b3 50be
000003d0: a1e3 b73d 1a71 0fbd d5f2 1cbe 3fde 42bd
000003e0: 428a e3bd e955 8b3e 7051 bdbe 96aa 55be
000003f0: e21a dabd 1fbf 1bbd 22ad 31bd e98e 8ebe

lstm.weight_hh_l0 f4 [60, 20]
0.2528574 -0.22557332 -0.06969066 0.41792428 0.121292725 -0.0006825778 -0.09924406 -0.11029736
0.086418524 -0.20214678 0.02656809 0.4429652 0.11136561 0.5283056 0.044144135 0.12002747
0.022362223 -0.09846548 0.050022475 0.19415483 -0.29582247 0.22081977 -0.09207347 -0.3474123
-0.11116021 -0.20277835 0.12892368 -0.050714053 0.20068105 -0.027017748 -0.19294797 -0.23701315
-0.23525462 -0.21698871 -0.015927294 -0.08594645 0.25341064 0.2272729 -0.09661649 0.18720669
-0.37598896 0.10632642 -0.01498494 -0.2740191 0.11000948 -0.06991232 0.1124477 -0.015685998
0.076458 -0.1277367 -0.103807926 -0.06864806 0.14340852 0.23816422 0.08806092 0.25728518
-0.13876785 0.070347585 -0.18316005 0.15112822 0.025549574 -0.053590987 -0.06631317 -0.13283807
0.3250307 0.0387736 0.058050018 0.117539 0.088467576 -0.38961086 -0.27737987 0.0030802353
-0.036833562 0.26854432 0.21136113 0.016635198 0.14740597 -0.1078828 0.08335283 0.24133147
-0.23744647 -0.017477691 0.27741858 -0.19473559 0.024098715 -0.30516586 0.07512719 0.04111089
-0.35155374 0.037267692 0.23583591 0.049137563 0.15883431 -0.07960206 0.35628638 0.031220064
-0.065861866 0.032436054 -0.19633572 0.23639132 0.084532216 -0.10015154 0.18563682 0.03078767
0.033048365 -0.10085076 0.11953157 0.09856993 -0.14956413 0.0042765527 0.21398401 -0.18727262
0.17328544 0.07359127 -0.034656152 0.17063223 0.2122499 0.18015976 0.06613722 -0.0432877
-0.3718854 0.27615845 -0.020189557 -0.4209928 -0.08741267 -0.06965722 0.13081275 0.2221918
0.12823893 -0.1709078 -0.14226097 -0.16305679 0.3282621 0.3429978 0.09898086 0.051508885
-0.2501534 -0.20184208 -0.034501344 0.10811657 0.3494639 -0.12518801 -0.32822424 -0.088933386
-0.053388048 -0.3994354 -0.26479474 0.02512899 0.10018042 0.039118815 -0.040197052 0.029133437
0.09282967 -0.23721483 -0.017453408 0.07333185 0.20170347 0.15040919 -0.038710766 -0.1959777
-0.47097617 -0.26831183 0.025219588 -0.25345266 0.1765645 -0.540854 -0.026313227 -0.10993259
-0.23922919 -0.13833627 -0.11114576 0.3130426 0.5400341 -0.18682718 0.1869897 0.048929714
0.3404659 0.11226199 -0.08920368 0.39991558 -0.05020155 0.009771587 -0.04900412 -0.086806744
-0.22146451 -0.012332081 0.023505032 -0.36786422 0.21298833 0.124408215 -0.47341925 0.09979692
-0.15403184 -0.16855133 -0.20106125 -0.03568084 -0.006557301 -0.11407796 -0.09762378 -0.05873423
-0.4861947 -0.47659633 0.07380834 -0.39017498 0.2582775 -0.496582 0.16210888 -0.356648
-0.54681295 -0.14174491 -0.62841564 0.20052469 0.6241079 -0.31327164 0.5728883 -0.021190083
0.34203503 0.14132702 -0.20965147 0.36296505 0.2159008 -0.19799766 -0.18577202 0.1269413
-0.021128587 0.108640924 -0.049473405 -0.14264782 0.26598865 -0.07895612 0.12815572 0.12872818
-0.104156315 0.002089233 -0.17760399 0.28150463 -0.25921598 -0.13608883 0.30536216 -0.0007871671
-0.37317982 -0.22435221 0.11191929 0.04287904 0.24877933 -0.23662415 0.019807437 -0.21151024
-0.08504938 -0.39829355 0.04241643 0.11711655 0.050180335 0.13702837 0.28176066 -0.22614308
00000000: 8676 813e b1fc 66be fab9 8ebd 2cfa d53e
00000010: 5268 f83d 05ef 32ba 7840 cbbd 95e3 e1bd
00000020: 32fc b03d 91ff 4ebe 53a5 d93c 56cc e23e
00000030: a713 e43d 093f 073f 7bd0 343d f6d0 f53d
00000040: fb30 b73c 45a8 c9bd 5ee4 4c3d 86d0 463e
00000050: 0b76 97be 941e 623e 0491 bcbd 06e0 b1be
00000060: f7a7 e3bd 21a5 4fbe 9204 043e 8ab9 4fbd
00000070: 557f 4d3e 5354 ddbc 2794 45be 93b3 72be
00000080: 96e6 70be 4a32 5ebe f579 82bc b104 b0bd
00000090: 0abf 813e 3aba 683e dede c5bd 1cb3 3f3e
000000a0: a081 c0be abc1 d93d 6583 75bc 3b4c 8cbe
000000b0: a64c e13d 312e 8fbd fb4a e63d ec7f 80bc
000000c0: 0396 9c3d 69cd 02be 4099 d4bd 5b97 8cbd
000000d0: afd9 123e 52e1 733e 4959 b43d e2ba 833e
000000e0: 2919 0ebe 6512 903d 4f8e 3bbe 5bc1 1a3e
000000f0: 574d d13c 3982 5bbd 33cf 87bd b406 08be
00000100: 6d6a a63e 11d1 1e3d dbc5 6d3d 4ab8 f03d
00000110: 7d2e b53d 137b c7be bc04 8ebe c6dd 493b
00000120: cade 16bd a47e 893e 0d6f 583e 8a46 883c
00000130: 97f1 163e a8f1 dcbd e3b4 aa3d 991f 773e
00000140: 2b25 73be 602d 8fbc cf09 8e3e c468 47be
00000150: ab6a c53c b33e 9cbe 49dc 993d e563 283d
00000160: dafe b3be 02a6 183d f87e 713e 7844 493d
00000170: 76a5 223e 6806 a3bd 2b6b b63e 38c1 ff3c
00000180: 96e2 86bd abdb 043d 3b0c 49be 9110 723e
00000190: 3a1f ad3d 401c cdbd 9417 3e3e 6c36 fc3c
000001a0: b95d 073d d88a cebd f8cc f43d 08df c93d
000001b0: 5727 19be 5322 8c3b a01e 5b3e 65c4 3fbe
000001c0: bd71 313e 05b7 963d 9cf3 0dbd 37ba 2e3e
000001d0: 0a58 593e cd7b 383e f372 873d 714e 31bd
000001e0: c367 bebe a464 8d3e 9264 a5bc 5e8c d7be
000001f0: 6a05 b3bd 72a8 8ebd c7f3 053e 3f86 633e
00000200: 1151 033e 7402 2fbe dcac 11be 5cf8 26be
00000210: f811 a83e 689d af3e 7ab6 ca3d fbfa 523d
00000220: 1b14 80be b1af 4ebe 4851 0dbd 386c dd3d
00000230: efec b23e 4931 00be 020d a8be b522 b6bd
00000240: 6dad 5abd cc82 ccbe 2d93 87be 50db cd3c
00000250: 642b cd3d 0d3b 203d aaa5 24bd 3fa9 ee3c
00000260: 7b1d be3d 72e8 72be 73fa 8ebc 022f 963d
00000270: 5b8b 4e3e de04 1a3e 2e8f 1ebd 61ae 48be
00000280: ca23 f1be 2b60 89be 4f99 ce3c 8cc4 81be
00000290: 53cd 343e 6875 0abf d68e d7bc 5624 e1bd
000002a0: 7ff8 74be 06a8 0dbe 63a0 e3bd 1f47 a03e
000002b0: ad3f 0a3f a04f 3fbe 3a7a 3f3e 866a 483d
000002c0: 8c51 ae3e 9de9 e53d 6bb0 b6bd bcc1 cc3e
000002d0: 24a0 4dbd 0219 203c 8bb8 48bd bcc7 b1bd
000002e0: 98c7 62be 7f0c 4abc a08d c03c b358 bcbe
000002f0: 9d19 5a3e bcc9 fe3d 0264 f2be 5462 cc3d
00000300: 86ba 1dbe b898 2cbe 00e3 4dbe 1326 12bd
00000310: a1de d6bb b5a1 e9bd faee c7bd 4e93 70bd
00000320: 83ee f8be 6f04 f4be d428 973d 04c5 c7be
00000330: f33c 843e ff3f febe dfff 253e 919a b6be
00000340: effb 0bbf 9425 11be d9df 20bf 5856 4d3e
00000350: 89c5 1f3f 2465 a0be cfa8 123f d396 adbc
00000360: 371f af3e 08b8 103e e0ae 56be 8ed6 b93e
00000370: 1915 5d3e e6bf 4abe 053b 3ebe e6fc 013e
00000380: dc15 adbc 227f de3d a0a4 4abd 4512 12be
00000390: aa2f 883e bfb3 a1bd 413b 033e 52d1 033e
000003a0: e84f d5bd 83eb 083b d2dd 35be 6021 903e
000003b0: f5b7 84be df5a 0bbe 6e58 9c3e e459 4eba
000003c0: 6d11 bfbe 96bc 65be f135 e53d efa1 2f3d
000003d0: 02c0 7e3e 9a4d 72be 3543 a23c 2496 58be
000003e0: 5f2e aebd 22ed cbbe dabc 2d3d cdda ef3d
000003f0: e589 4d3d 2a51 0c3e ef42 903e 0d92 67be

lstm.bias_ih_l0 f4 [60]
0.123942085 -0.07007677 -0.21068393 -0.22605759 -0.06405381 -0.031939875 -0.19843823 -0.12481876
-0.33762679 0.11948279 -0.2622244 -0.13000484 0.10644807 -0.3169619 -0.119967796 -0.023392877
-0.5378216 -0.15882255 -0.08483766 -0.30142844 -0.34952155 -0.2651103 -0.386609 -0.67132825
-0.47993955 -0.24019295 -0.22248583 -0.43508145 -0.40505654 -0.27434006 -0.38132453 -0.025182493
0.0084741535 -0.57338935 -0.3865079 -0.1807443 -0.4299668 -0.27772847 -0.2589069 -0.3248097
-0.060177498 0.13011685 -0.10156369 0.20465608 0.049423605 0.007488484 -0.005121335 0.11462275
-0.023321679 0.011809875 0.032606065 -0.0022029658 -0.15468277 0.01494989 -0.1205916 0.03902915
0.009221624 -0.097626 0.06319711 0.05917661
00000000: 59d5 fd3d 6984 8fbd 87bd 57be a47b 67be
00000010: a52e 83bd 63d3 02bd 6433 4bbe faa0 ffbd
00000020: 6bdd acbe 65b3 f43d 4742 86be fd1f 05be
00000030: 7201 da3d d548 a2be adb1 f5bd 6ba2 bfbc
00000040: adae 09bf 61a2 22be 5ebf adbd d454 9abe
00000050: 7df4 b2be 8abc 87be 9df1 c5be 2bdc 2bbf
00000060: a3ba f5be 24f5 75be 53d3 63be ffc2 debe
00000070: 9263 cfbe 4d76 8cbe f83c c3be 844b cebc
00000080: 2dd7 0a3c a5c9 12bf 5de4 c5be 0915 39be
00000090: 9c24 dcbe 6d32 8ebe 728f 84be 754d a6be
000000a0: ae7c 76bd 5a3d 053e a000 d0bd 5d91 513e
000000b0: 6870 4a3d f561 f53b dfd0 a7bb 55bf ea3d
000000c0: 1b0d bfbc 357e 413c f08d 053d a25f 10bb
000000d0: 2965 1ebe 62f0 743c bbf8 f6bd 08dd 1f3d
000000e0: 4b16 173c 24f0 c7bd 7d6d 813d 2c63 723d

lstm.bias_hh_l0 f4 [60]
-0.111429 -0.08401849 0.076492205 0.03982418 -0.053284332 -0.3053601 -0.44755632 0.045311924
-0.29368576 0.2247287 0.018257875 0.2940964 0.014433057 -0.29547724 -0.28346595 -0.15074813
-0.5926878 -0.40473893 -0.09302866 0.0040617622 -0.22177455 -0.58161753 -0.10613822 -0.3947708
-0.30977738 -0.078650974 -0.35720652 -0.077712424 -0.5351318 -0.17248167 -0.5237367 -0.13553637
-0.11618051 -0.45484278 -0.34410608 -0.3570414 -0.29975507 -0.5521891 -0.0010599918 -0.54607284
0.17028867 -0.17354634 -0.0020509278 0.15170047 0.010435627 -0.017240062 0.006013592 -0.24805811
-0.099658564 -0.09285792 -0.1074412 -0.05719495 0.15906286 0.07588236 0.20047703 -0.01220959
0.09038824 -0.06723319 0.12652111 0.19109648
00000000: e334 e4bd e311 acbd f2a7 9c3d ae1e 233d
00000010: ac40 5abd 2958 9cbe 1a26 e5be ff98 393d
00000020: fb5d 96be 481f 663e 8a91 953c ce93 963e
00000030: a178 6c3c cb48 97be 7322 91be b85d 1abe
00000040: 63ba 17bf f139 cfbe cf85 bebd 8818 853b
00000050: de18 63be e3e4 14bf ff5e d9bd 661f cabe
00000060: 249b 9ebe c313 a1bd c6e3 b6be b127 9fbd
00000070: 66fe 08bf 099f 30be 9c13 06bf 0cca 0abe
00000080: 0cf0 edbd 27e1 e8be ac2e b0be 21ce b6be
00000090: 7f79 99be 445c 0dbf 6cef 8aba 6ecb 0bbf
000000a0: 2760 2e3e 22b6 31be dc68 06bb 5e57 1b3e
000000b0: 31fa 2a3c 083b 8dbc aa0d c53b f202 7ebe
000000c0: ca19 ccbd 4b2c bebd 220a dcbd 4045 6abd
000000d0: 60e1 223e 3668 9b3d da49 4d3e bb0a 48bc
000000e0: 781d b93d 8eb1 89bd c08e 013e ccae 433e

lstm.weight_ih_l1 f4 [60, 20]
-0.0676775 -0.19403483 -0.027728055 0.15327978 -0.023633486 0.013992689 -0.13180512 -0.038906686
-0.043489315 0.00096519134 -0.24011856 0.3594586 -0.032236315 0.07232828 -0.05137823 -0.18228915
-0.005166529 0.1844907 -0.41884726 -0.23149636 0.027242888 -0.4010039 0.2529073 -0.35825637
-0.15630606 -0.17394345 -0.016458407 -0.051491246 0.09382272 -0.28109854 -0.2837072 0.027841546
0.29001597 0.011750003 0.00431932 -0.050383892 0.33768952 0.25770134 -0.098087125 0.094487794
0.13840374 -0.07914345 0.07534717 0.0868211 -0.035809167 -0.16841169 0.35922453 -0.29059836
-0.107222185 -0.07382908 -0.17806464 0.20419247 0.1688478 -0.4518858 -0.021625584 -0.081402056
0.32918847 0.2456301 -0.42374405 -0.015769048 -0.22562517 0.13291599 0.22226016 -0.08129707
-0.09614001 -0.057798907 0.0024388563 0.09801243 -0.041917607 -0.184584 0.008914067 -0.072532125
-0.0027201814 -0.06727756 -0.063290216 -0.20140712 -0.010013759 -0.10710582 0.2267514 0.48306116
0.09334152 0.22811024 0.099630184 -0.41130954 0.0013532157 -0.14706932 0.28946862 0.08985983
-0.0065533756 -0.35970044 -0.19227369 -0.15811811 0.22349459 0.008301934 0.36905873 -0.033345435
0.1393325 0.04334981 -0.03401336 0.34887752 -0.038087472 0.102028474 0.10018355 -0.2307977
0.2248639 -0.05343763 0.47884545 0.06083231 -0.10721924 -0.16858412 -0.029493993 0.006795606
0.081186414 -0.0087695345 0.28310147 0.09878498 -0.0009484955 0.04515729 0.10219377 0.22808436
-0.2252458 0.41382602 0.08103302 -0.00949308 0.08387884 0.2650771 0.46776447 -0.046437245
-0.25046003 0.13684897 0.22579321 -0.3897214 -0.20469624 0.06529941 0.21826078 -0.16698709
0.1142802 -0.23347871 -0.030555923 -0.03359456 0.31677037 0.20800285 0.20124717 0.22165795
-0.0066594398 0.1638069 0.18475722 0.102357425 0.19194888 0.017066894 0.20138477 -0.103540525
0.00587745 -0.11816132 -0.17136346 0.33746034 -0.012466654 -0.26280227 0.04164146 -0.27773112
0.26435798 0.095612966 0.14111875 0.08955204 0.17767969 -0.13923818 0.024703981 -0.18133205
0.07803203 -0.24351166 -0.20042768 0.043814648 -0.0050277645 0.15217319 -0.2747175 -0.057230826
-0.23686832 0.022139678 -0.10047306 -0.308608 0.16020148 0.16586204 0.10798748 -0.002607352
0.3165828 -0.17578834 0.46823478 0.04482747 -0.02668577 -0.10346193 -0.24235795 0.085902296
-0.20538244 -0.14647336 0.3594166 -0.29425332 -0.09968973 0.27496502 -0.007431687 0.443668
0.045295857 -0.025416533 0.16665031 -0.13270983 -0.07880832 -0.12240614 0.29384682 -0.2872462
-0.20281994 -0.38199943 -0.061814476 -0.33709574 0.036847547 -0.13421468 0.06759906 -0.13771355
0.059373327 -0.1218493 0.05858508 0.30414218 -0.08348357 -0.017835852 0.2985784 -0.20898189
0.18248148 -0.20660965 0.2298308 -0.0037139338 -0.2702564 -0.28118914 -0.17004937 -0.47721142
-0.052527253 0.05352742 0.33935407 -0.15060458 -0.023932211 0.26341552 -0.13955215 0.08678072
-0.19903743 0.1688719 0.49067456 -0.2552533 0.20273641 -0.08807933 0.072462894 0.25783163
-0.15678976 -0.18864457 -0.31539887 -0.23771495 0.11007282 -0.34241498 0.1870501 0.14152451
00000000: 809a 8abd 11b1 46be f225 e3bc 60f5 1c3e
00000010: 039b c1bc 9741 653c ecf7 06be 9e5c 1fbd
00000020: da21 32bd e504 7d3a a4e1 75be f50a b83e
00000030: 3a0a 04bd d920 943d fb71 52bd 02aa 3abe
00000040: fd4b a9bb 21eb 3c3e 2673 d6be 620d 6dbe
00000050: 7a2c df3c 6250 cdbe 117d 813e 616d b7be
00000060: b20e 20be 3b1e 32be c8d3 86bc 7ce8 52bd
00000070: 2026 c03d 26ec 8fbe 1242 91be f413 e43c
00000080: f97c 943e 1683 403c 1589 8d3b 575f 4ebd
00000090: a4e5 ac3e 6ef1 833e e7e1 c8bd d182 c13d
000000a0: b6b9 0d3e f615 a2bd 9e4f 9a3d 43cf b13d
000000b0: a2ac 12bd 1d74 2cbe 47ec b73e 4fc9 94be
000000c0: 4e97 dbbd b333 97bd 9456 36be d517 513e
000000d0: 70e6 2c3e 935d e7be 2328 b1bc 1fb6 a6bd
000000e0: 648b a83e 7586 7b3e fbf4 d8be 172e 81bc
000000f0: 490a 67be 211b 083e 2b98 633e 147f a6bd
00000100: 0ee5 c4bd 8cbe 6cbd 38d5 1f3b beba c83d
00000110: ccb1 2bbd 9703 3dbe 4f0c 123c b98b 94bd
00000120: 1245 32bb d1c8 89bd 4d9e 81bd ab3d 4ebe
00000130: c010 24bc 4c5a dbbd 8531 683e cb53 f73e
00000140: d729 bf3d bb95 693e e90a cc3d 2a97 d2be
00000150: 625e b13a 5799 16be 3b35 943e 6e08 b83d
00000160: b3bd d6bb a82a b8be 65e3 44be b7e9 21be
00000170: c4db 643e d604 083c 44f5 bc3e 3995 08bd
00000180: 2ead 0e3e 928f 313d 9851 0bbd 13a0 b23e
00000190: 9c01 1cbd 4ef4 d03d 082d cd3d 3b56 6cbe
000001a0: b942 663e 6be1 5abd 3b2b f53e 4d2b 793d
000001b0: c395 dbbd 51a1 2cbe 639d f1bc adad de3b
000001c0: 1045 a63d 18ae 0fbc adf2 903e c84f ca3d
000001d0: 75a4 78ba daf6 383d f84a d13d f28e 693e
000001e0: d6a6 66be 01e1 d33e a4f4 a53d dd88 1bbc
000001f0: abc8 ab3d 30b8 873e d37e ef3e fb34 3ebd
00000200: 4c3c 80be 2322 0c3e 5636 673e 9089 c7be
00000210: e49b 51be b2bb 853d c17f 5f3e aafe 2abe
00000220: bd0b ea3d 0b15 6fbe 6a50 fabc 739a 09bd
00000230: ba2f a23e b3fe 543e bd13 4e3e 4dfa 623e
00000240: 6e37 dabb ffbc 273e ff30 3d3e c5a0 d13d
00000250: 3f8e 443e dfcf 8b3c cf37 4e3e 0e0d d4bd
00000260: a097 c03b 90fe f1bd e779 2fbe 9ac7 ac3e
00000270: f040 4cbc 058e 86be 3c90 2a3d c632 8ebe
00000280: ee59 873e bbd0 c33d 6f81 103e 0f67 b73d
00000290: aaf1 353e 7494 0ebe 0160 ca3c 1caf 39be
000002a0: 42cf 9f3d 1f5b 79be ea3c 4dbe fd76 333d
000002b0: f2bf a4bb 4ad3 1b3e c6a7 8cbe df6a 6abd
000002c0: 9c8d 72be 455e b53c d2c4 cdbd de01 9ebe
000002d0: db0b 243e bdd7 293e 8a28 dd3d 1ce0 2abb
000002e0: 2417 a23e dc01 34be 78bc ef3e 029d 373d
000002f0: 1e9c dabc d9e3 d3bd af2c 78be 8bed af3d
00000300: c64f 52be 1dfd 15be 7405 b83e 5fa8 96be
00000310: 212a ccbd 37c8 8c3e 8285 f3bb 7428 e33e
00000320: 2688 393d 5536 d0bc 61a6 2a3e 16e5 07be
00000330: 4266 a1bd 12b0 fabd 1773 963e ef11 93be
00000340: 08b0 4fbe 6e95 c3be 2d31 7dbd d097 acbe
00000350: 74ed 163d 936f 09be 6071 8a3d c804 0dbe
00000360: 7231 733d 208c f9bd e9f6 6f3d 86b8 9b3e
00000370: 6ff9 aabd 7e1c 92bc 45df 983e 59ff 55be
00000380: 6ddc 3a3e 7b91 53be c458 6b3e 7865 73bb
00000390: 0c5f 8abe 06f8 8fbe 6c21 2ebe 0e55 f4be
000003a0: d126 57bd 913f 5b3d d1bf ad3e 1638 1abe
000003b0: 7c0d c4bc 66de 863e c2e6 0ebe 17ba b13d
000003c0: 78d0 4bbe c1ec 2c3e b239 fb3e 8fb0 82be
000003d0: 229a 4f3e f062 b4bd 6d67 943d 8202 843e
000003e0: 7f8d 20be 0b2c 41be f67b a1be 8c6b 73be
000003f0: dc6d e13d 0451 afbe 108a 3f3e cdeb 103e

lstm.weight_hh_l1 f4 [60, 20]
-0.045653287 0.10281435 -0.05446398 0.18180427 0.07520976 -0.4637752 0.021971453 0.08464073
0.5012818 -0.13431232 0.23703216 0.059808485 -0.022713415 0.025935998 0.46361542 -0.2692778
-0.04459103 0.027223116 -0.1475187 -0.10031409 0.0061146705 0.22733276 0.13082336 0.21087755
-0.09452432 -0.009111617 0.033050608 0.045053273 0.1485829 0.12307019 -0.032033555 -0.20253752
-0.17406222 0.17511843 0.07434741 0.050868854 0.22691819 -0.06279915 -0.20113878 0.0009496856
-0.049854953 0.09665839 -0.062367465 -0.002692965 0.075259484 0.26328272 0.049173526 0.09814156
0.061043747 0.28485078 -0.15559582 -0.051108204 0.31750584 -0.14975958 0.008140043 0.30783623
-0.2602248 0.19785039 0.12572186 -0.0075877486 -0.20348035 0.109881796 0.12224428 -0.19312419
-0.20147008 -0.20076396 0.042536784 0.37538368 -0.16265997 0.035789702 -0.20111628 0.1144333
0.13376969 -0.11247667 0.009026698 -0.18448004 0.08893898 0.030364491 -0.18313967 0.11663166
-0.15395047 -0.022670027 -0.0022903339 -0.19173616 0.04495991 -0.16262786 0.09209122 -0.0032534362
0.051425576 0.046390764 -0.23594603 0.26564008 -0.14858863 0.30534497 -0.001902555 0.011296344
0.16379352 0.12610896 -0.22735186 0.097548604 0.0021040174 -0.25410375 -0.1011503 0.13622488
-0.005189585 -0.08709408 0.15345787 0.011932591 0.26106498 0.010270169 -0.04673547 -0.057567354
-0.26952887 0.06362543 0.42530262 -0.082013935 -0.3741864 0.1259886 -0.13149045 -0.31080696
0.1458226 0.057541642 0.027343258 -0.104978725 0.11464882 -0.03506868 -0.10215342 -0.0424712
0.11188863 0.075452074 0.02887425 0.44318292 -0.22731046 -0.08923283 0.024435861 -0.37754944
0.24476641 0.089054234 -0.35988307 -0.21469264 0.30366814 0.04236567 0.2235678 0.07012454
0.06308595 -0.26011497 0.056088753 -0.03456797 -0.05299437 0.17803924 0.18264873 -0.43952692
-0.22894509 0.29948327 0.323669 0.22004963 -0.25059378 0.07677769 -0.13952936 -0.16894257
0.06813051 -0.024813933 0.11535093 -0.054116458 -0.065581225 -0.18104868 0.041498084 0.03539133
0.37160286 -0.14427985 0.27197275 0.027407147 -0.12400698 0.39835328 0.51631093 -0.13343196
-0.07429159 -0.22030888 0.04385122 -0.100907356 0.08321002 -0.30195367 -0.3986364 0.012849302
0.059345894 0.031920362 -0.12543403 -0.023848385 0.014716516 0.271237 -0.19215769 0.04084335
0.10649652 0.060360163 -0.07927403 -0.28195938 0.03366026 -0.104463175 0.19978663 0.004960988
-0.090886556 0.07619767 0.011445417 0.17521267 -0.18570493 -0.22339152 0.0855264 -0.025187884
-0.062729925 -0.19037655 -0.0993868 0.23348513 0.15131447 -0.10382403 0.1360767 0.15351938
-0.24693258 -0.086543284 -0.037833292 0.11554755 -0.38887635 -0.1049926 -0.2361726 -0.01237275
-0.0997938 0.16084962 -0.00018038804 0.21583079 -0.08589836 0.15563872 -0.042611215 -0.1413939
0.05155725 -0.043120194 -0.19610481 -0.14049071 -0.1385088 -0.14669405 0.10317505 0.29376093
-0.099586286 -0.036332414 -0.04080799 0.25355414 -0.02933698 -0.10424519 0.13418184 -0.1950581
-0.013877508 0.02730144 -0.044304084 0.33243564 0.18866506 0.07369586 -0.18848483 -0.01841915
00000000: f1fe 3abd 5490 d23d 9f15 5fbd e62a 3a3e
00000010: 9307 9a3d f173 edbe 7afd b33c 1e58 ad3d
00000020: 0154 003f 2b89 09be 8fb8 723e bef9 743d
00000030: 7c11 babc bb77 d43c 005f ed3e c8de 89be
00000040: 15a5 36bd 0303 df3c 240f 17be 7971 cdbd
00000050: 935d c83b ebc9 683e 8ff6 053e 49f0 573e
00000060: f795 c1bd e448 15bc 1360 073d c889 383d
00000070: 1e26 183e 390c fc3d 9e35 03bd ff65 4fbe
00000080: 5e3d 32be 3f52 333e 7443 983d dc5b 503d
00000090: 3e5d 683e d79c 80bd 53f7 4dbe 52f4 783a
000000a0: b534 4cbd d5f4 c53d 0775 7fbd 757c 30bb
000000b0: a521 9a3d fecc 863e 2e6a 493d 71fe c83d
000000c0: 0209 7a3d f6d7 913e 8354 1fbe d656 51bd
000000d0: 2090 a23e 935a 19be d15d 053c b69c 9d3e
000000e0: 2f3c 85be 4b99 4a3e 3bbd 003e a6a2 f8bb
000000f0: 275d 50be b509 e13d 365b fa3d 59c2 45be
00000100: 2c4e 4ebe 1195 4dbe 0d3b 2e3d 4a32 c03e
00000110: 5690 26be 3998 123d 6df1 4dbe 025c ea3d
00000120: ecfa 083e 2b5a e6bd b7e4 133c 56e8 3cbe
00000130: a425 b63d f4be f83c f788 3bbe 94dc ee3d
00000140: 31a5 1dbe 7eb6 b9bc 6d19 16bb 7c56 44be
00000150: e227 383d eb87 26be 529a bc3d 9a37 55bb
00000160: a0a3 523d 3e04 3e3d d69b 71be fa01 883e
00000170: 9e27 18be 2d56 9c3e 275f f9ba 4d14 393c
00000180: 7db9 273e b522 013e edce 68be 90c7 c73d
00000190: 8ee3 093b e319 82be e327 cfbd 897e 0b3e
000001a0: 650d aabb 625e b2bd 0f24 1d3e ea80 433c
000001b0: 4faa 853e 3644 283c b16d 3fbd bfcb 6bbd
000001c0: b0ff 89be 0d4e 823d 44c1 d93e ecf6 a7bd
000001d0: 5c95 bfbe 2803 013e 6fa5 06be 1722 9fbe
000001e0: 8552 153e c9b0 6b3d f8fe df3c 16ff d6bd
000001f0: 00cd ea3d 2da4 0fbd d035 d1bd 48f6 2dbd
00000200: de25 e53d 9e86 9a3d b189 ec3c dfe8 e23e
00000210: 13c4 68be b4bf b6bd b72d c83c 294e c1be
00000220: 0ca4 7a3e 1162 b63d 9842 b8be 63d8 5bbe
00000230: 647a 9b3e a087 2d3d f5ee 643e 749d 8f3d
00000240: 3533 813d ca2d 85be 52bd 653d 2597 0dbd
00000250: a010 59bd eb4f 363e 4508 3b3e ac09 e1be
00000260: 9570 6abe df55 993e f1b7 a53e b154 613e
00000270: d44d 80be 9f3d 9d3d c9e0 0ebe 48ff 2cbe
00000280: 0288 8b3d 9746 cbbc 1c3d ec3d 38a9 5dbd
00000290: 734f 86bd d364 39be e5f9 293d 80f6 103d
000002a0: bb42 be3e 19be 13be 0340 8b3e f484 e03c
000002b0: 5ff7 fdbd f6f4 cb3e f42c 043f 63a2 08be
000002c0: 3026 98bd a798 61be 569d 333d 84a8 cebd
000002d0: 046a aa3d ac99 9abe 121a ccbe e185 523c
000002e0: ae14 733d edbe 023d c771 00be b05d c3bc
000002f0: 8b1d 713c 93df 8a3e fcc4 44be 5b4b 273d
00000300: d91a da3d 383c 773d 6c5a a2bd fb5c 90be
00000310: 57df 093d caf0 d5bd de94 4c3e c98f a23b
00000320: bb22 babd 860d 9c3d 8f85 3b3c f36a 333e
00000330: 6f29 3ebe bfc0 64be 7728 af3d d256 cebc
00000340: 8c78 80bd 12f2 42be 4e8b cbbd ba16 6f3e
00000350: 2ef2 1a3e b1a1 d4bd b157 0b3e 2f34 1d3e
00000360: e5db 7cbe 9b3d b1bd 15f7 1abd 32a4 ec3d
00000370: cd1a c7be 5c06 d7bd 3bd7 71be 13b7 4abc
00000380: b160 ccbd c3b5 243e 8c26 3db9 bf02 5d3e
00000390: 7beb afbd c25f 1f3e 1989 2ebd 90c9 10be
000003a0: b22d 533d cd9e 30bd b3cf 48be ccdc 0fbe
000003b0: 40d5 0dbe f736 16be 714d d33d d567 963e
000003c0: e5f3 cbbd 4cd1 14bd 4726 27bd d9d1 813e
000003d0: 1b54 f0bc 817e d5bd f766 093e 50bd 47be
000003e0: 7d5e 63bc 45a7 df3c 3378 35bd 0135 aa3e
000003f0: 6a31 413e dbed 963d 2b02 41be c2e3 96bc

lstm.bias_ih_l1 f4 [60]
0.03139778 0.061346453 -0.27339962 -0.00839701 -0.25842202 -0.14455129 0.05482046 0.16137326
0.11648557 -0.14615344 0.11450329 -0.34469065 -0.12008902 -0.27288932 0.04510688 -0.31760857
-0.06121732 -0.069736 -0.2735743 -0.010801942 -0.03956025 0.008611818 -0.44662285 -0.3055453
-0.56965137 -0.31397912 -0.43360636 -0.053007018 -0.4702739 -0.48257795 -0.18923782 -0.56330925
-0.71264875 -0.32010263 -0.45767757 -0.23646979 -0.29843506 -0.37843782 -0.6584021 0.2587034
0.020108698 0.035486333 0.008481039 -0.076029494 -0.02649082 -0.17160977 0.15764904 -0.03481034
0.09884361 0.015443061 -0.10193579 -0.06724241 0.07339953 -0.064573996 -0.05894296 -0.06350292
0.023104327 0.12234376 -0.06548347 -0.029558828
00000000: f59a 003d 6b46 7b3d 09fb 8bbe 9d93 09bc
00000010: e44f 84be 4105 14be 6b8b 603d 083f 253e
00000020: fd8f ee3d 3fa9 15be b380 ea3d 4b7b b0be
00000030: 3bf1 f5bd 26b8 8bbe fec1 383d 979d a2be
00000040: 03bf 7abd bfd1 8ebd ee11 8cbe a1fa 30bc
00000050: ee09 22bd 9518 0d3c c0ab e4be 6f70 9cbe
00000060: acd4 11bf dfc1 a0be a701 debe e31d 59bd
00000070: bec7 f0be 7514 f7be 8fc7 41be 0935 10bf
00000080: 2670 36bf 7ee4 a3be b754 eabe 2325 72be
00000090: 7bcc 98be 9ac2 c1be 0a8d 28bf c674 843e
000000a0: ffba a43c 1e5a 113d 0ef4 0a3c 5ab5 9bbd
000000b0: 4703 d9bc 79ba 2fbe c06e 213e 4995 0ebd
000000c0: 856e ca3d e404 7d3c b6c3 d0bd 63b6 89bd
000000d0: 7e52 963d 5f3f 84bd 2c6e 71bd d20d 82bd
000000e0: 4945 bd3c 5e8f fa3d 331c 86bd 5b25 f2bc

lstm.bias_hh_l1 f4 [60]
0.23779996 0.061136696 -0.13612759 -0.08320279 -0.09876146 0.035354078 -0.11824142 -0.017976485
-0.1734276 -0.10453347 -0.06368648 -0.1738948 0.07107261 -0.4083807 0.06937576 -0.43945408
0.121425726 -0.000153571 -0.11556456 0.0900237 -0.13549328 -0.098123066 -0.58176696 0.015317254
-0.33435875 -0.5381794 -0.13938156 0.032142285 -0.33774912 -0.15120637 -0.29271695 -0.8197945
-0.5613925 -0.4684401 -0.43153453 -0.29036495 -0.16035753 -0.27125156 -0.79261374 0.21423362
-0.090204485 0.068702035 0.068395555 -0.017510379 -0.0034940452 0.17978886 -0.020178296 0.20000015
-0.21878195 0.017143562 0.0076774084 0.05637389 -0.25252458 0.09412178 0.05122933 -0.09097124
-0.03229428 -0.14548656 -0.064425394 -0.07373688
00000000: d581 733e 796a 7a3d 0865 0bbe 3966 aabd
00000010: 7343 cabd 70cf 103d 8f28 f2bd 6c43 93bc
00000020: 0197 31be a515 d6bd 0f6e 82bd 7a11 32be
00000030: 848e 913d 4617 d1be e114 8e3d 2000 e1be
00000040: 0dae f83d e707 21b9 1dad ecbd 585e b83d
00000050: c0be 0abe bff4 c8bd aeee 14bf 38f5 7a3c
00000060: 1231 abbe 20c6 09bf 0aba 0ebe a1a7 033d
00000070: 74ed acbe d8d5 1abe ffde 95be 0dde 51bf
00000080: 6bb7 0fbf 61d7 efbe 18f2 dcbe b7aa 94be
00000090: c434 24be 7ce1 8abe bce8 4abf 0f60 5b3e
000000a0: 21bd b8bd a7b3 8c3d f812 8c3d ed71 8fbc
000000b0: 5afc 64bb 921a 383e f44c a5bc d7cc 4c3e
000000c0: 6008 60be a870 8c3c c592 fb3b 4fe8 663d
000000d0: e74a 81be ebc2 c03d d9d5 513d 214f babd
000000e0: 0247 04bd 6efa 14be 76f1 83bd 5d03 97bd

fc1.weight f4 [20, 20]
-0.049691048 0.08615518 -0.18158591 -0.34496993 0.05273279 0.2952916 0.03884412 -0.07610518
0.0032298926 0.22751147 0.17529812 0.09958915 -0.0495952 -0.0018226769 0.3612237 -0.18347637
0.0022145454 0.14627619 0.07822529 -0.15017097 -0.21293025 -0.06849045 0.00049327704 0.12080008
-0.10522869 0.1832924 -0.029357687 -0.13998555 0.16893078 0.015345802 0.13984771 -0.077092946
0.16198254 0.0925925 -0.10431789 0.28226125 -0.18758343 -0.069700904 0.15378323 -0.15123837
-0.099518225 -0.30587536 0.1996159 -0.25482216 0.0815389 0.19611351 -0.33852595 0.0019735808
0.063163005 0.30954915 0.19955668 0.11447363 0.17430596 0.20380977 0.06483715 0.31936827
-0.114651494 0.30878577 0.016039195 0.4567212 0.012302875 -0.05851112 0.01999876 0.018084057
0.0070740273 0.10044956 0.054975506 -0.07813936 -0.12784444 0.19981845 0.05613303 -0.10804732
-0.21127729 -0.026973238 0.2986851 -0.10957725 -0.026467385 0.2435596 -0.030722735 0.35948083
-0.04629619 -0.1423205 -0.07680035 -0.17747551 0.10019707 0.19168404 -0.052866545 0.1572688
-0.0996645 0.06733121 0.07124218 -0.31005964 0.109114945 0.09615336 0.053168733 0.24008803
-0.2926717 0.073845685 -0.01284898 0.08306975 -0.20189969 -0.040451203 -0.121593446 0.24252956
-0.08552185 0.084478885 0.101184756 0.1640486 0.0129420785 -0.088025756 -0.16250016 -0.066242486
0.13963363 0.1156132 0.08136079 -0.04723924 0.10228905 0.043327536 0.019343352 0.06490273
0.12054717 -0.0814932 -0.118231274 -0.030701065 0.17653497 -0.10217188 0.11052313 0.15367162
0.20518485 0.2709278 0.1548102 0.11002197 -0.23909338 0.09515069 0.03306041 0.12505399
-0.0010103384 0.16866404 0.07605646 -0.0706762 -0.08427341 -0.21594518 -0.23604357 -0.26208347
0.060790174 0.0036165176 0.04438907 -0.0058943396 0.028170437 -0.09672553 -0.050704923 -0.5300281
0.0055344915 -0.16013657 0.07757841 0.29558122 -0.4629103 0.21413907 0.30101365 0.11722417
-0.022058377 -0.045457985 -0.08141271 -0.0131317 0.20665249 0.22145009 0.11949052 -0.0326453
-0.17813823 -0.011588667 0.02759197 -0.14973377 0.20033042 -0.15660715 -0.047093052 0.039743245
-0.5283984 0.3019285 0.16232707 0.18075326 -0.008541849 0.0022439728 0.05340819 -0.043385457
0.20967312 -0.03402723 0.21619831 0.1435734 -0.2278158 -0.17962955 -0.07028556 0.05104584
0.0061786766 -0.06867487 0.2148272 -0.12666297 -0.009156118 0.029052978 -0.07165435 -0.05379822
0.094140224 -0.23335226 0.06947455 -0.19006404 0.28635535 0.01102079 0.020626565 -0.15697868
-0.019125715 0.11380637 -0.025930995 -0.14674301 0.09605054 -0.07535545 0.030390112 0.20275775
-0.41485205 0.19726597 0.14947096 0.15859786 -0.08210116 -0.0753784 0.07769048 -0.24696206
0.42879924 0.2262133 0.15170649 0.11614451 -0.18506435 -0.056258377 -0.1751277 -0.33625877
0.21551278 0.007212035 -0.12725656 0.33552715 -0.3813946 0.22650653 0.25001156 0.26134443
0.01158632 -0.29098648 -0.07707595 -0.20155719 -0.081533566 0.19509815 -0.4200256 0.13024247
-0.12291389 0.104661115 -0.14491877 -0.18644215 -0.13716556 -0.046634737 0.18522671 0.10613197
00000000: d788 4bbd 2172 b03d a8f1 39be e69f b0be
00000010: 57fe 573d 7630 973e 031b 1f3d 08dd 9bbd
00000020: 9bac 533b c4f8 683e 5a81 333e 65f5 cb3d
00000030: 5624 4bbd e3e6 eeba 50f2 b83e 3be1 3bbe
00000040: e821 113b 6dc9 153e 9534 a03d 6bc6 19be
00000050: 630a 5abe b944 8cbd 434f 013a 0866 f73d
00000060: 2482 d7bd 01b1 3b3e 887f f0bc 5f58 0fbe
00000070: 31fc 2c3e f56c 7b3c 3d34 0f3e e8e2 9dbd
00000080: c0de 253e 23a1 bd3d 9ea4 d5bd 8c84 903e
00000090: df15 40be 59bf 8ebd 5a79 1d3e 3bde 1abe
000000a0: 36d0 cbbd b29b 9cbe 1c68 4c3e 0d78 82be
000000b0: defd a63d fbd1 483e 4653 adbe 3157 013b
000000c0: 9b5b 813d 3a7d 9e3e 9658 4c3e 2771 ea3d
000000d0: 437d 323e 82b3 503e 57c9 843d 3d84 a33e
000000e0: 67ce eabd 2b19 9e3e a164 833c 5cd7 e93e
000000f0: ff91 493c 5ba9 6fbd 71d4 a33c 0425 943c
00000100: 3ecd e73b 80b8 cd3d ff2d 613d 8707 a0bd
00000110: a7e9 02be 359d 4c3e c0eb 653d ea47 ddbd
00000120: 1359 58be fbf6 dcbc 41ed 983e 0a6a e0bd
00000130: 21d2 d8bc b067 793e 3fae fbbc df0d b83e
00000140: 13a1 3dbd 77bc 11be 8049 9dbd 24bc 35be
00000150: 1f34 cd3d d248 443e 978a 58bd 130b 213e
00000160: e71c ccbd f2e4 893d 6ce7 913d 23c0 9ebe
00000170: a877 df3d 0eec c43d 75c7 593d a3d9 753e
00000180: 11d9 95be 683c 973d 8784 52bc 7920 aa3d
00000190: cbbe 4ebe 29b0 25bd fc05 f9bd ab59 783e
000001a0: 1426 afbd 4403 ad3d f439 cf3d 5bfc 273e
000001b0: 030b 543c d946 b4bd 7166 26be 24aa 87bd
000001c0: 1efc 0e3e 9dc6 ec3d 7ca0 a63d ef7d 41bd
000001d0: ec7c d13d 3778 313d f375 9e3c b9eb 843d
000001e0: 6fe1 f63d e8e5 a6bd 3d23 f2bd cd80 fbbc
000001f0: 95c5 343e 7e3f d1bd f359 e23d 185c 1d3e
00000200: fa1b 523e 0cb7 8a3e 9186 1e3e 3353 e13d
00000210: e5d4 74be 5dde c23d 5a6a 073d 270e 003e
00000220: 556d 84ba 44b6 2c3e 7dc3 9b3d afbe 90bd
00000230: 8a97 acbd bc20 5dbe 68b5 71be ce2f 86be
00000240: 1eff 783d 1903 6d3b 50d1 353d 4e25 c1bb
00000250: b0c5 e63c 0918 c6bd f7af 4fbd ecaf 07bf
00000260: ae5a b53b d7fa 23be 6ee1 9e3d 6c56 973e
00000270: 9402 edbe 4647 5b3e 761e 9a3e 3a13 f03d
00000280: c5b3 b4bc 2732 3abd b5bb a6bd 5826 57bc
00000290: b69c 533e d0c3 623e 72b7 f43d 14b7 05bd
000002a0: de69 36be 64de 3dbc 8e08 e23c cf53 19be
000002b0: 6b23 4d3e a05d 20be a5e4 40bd d0c9 223d
000002c0: 1e45 07bf 5f96 9a3e 1139 263e 6217 393e
000002d0: 1df3 0bbc 9e0f 133b 8cc2 5a3d f3b4 31bd
000002e0: 8db4 563e 2360 0bbd 1763 5d3e e804 133e
000002f0: 8c48 69be cff0 37be e0f1 8fbd 7115 513d
00000300: 7f76 ca3b 69a5 8cbd a9fb 5b3e f0b3 01be
00000310: 8b03 16bc 8300 ee3c 84bf 92bd 865b 5cbd
00000320: 97cc c03d e5f3 6ebe ac48 8e3d 26a0 42be
00000330: 2b9d 923e 8b90 343c 0bf9 a83c 05bf 20be
00000340: 88ad 9cbc 5013 e93d 3d6d d4bc cd43 16be
00000350: 25b6 c43d f553 9abd aff4 f83c ba9f 4f3e
00000360: 7d67 d4be 1700 4a3e ea0e 193e 7a67 223e
00000370: a724 a8bd fe5f 9abd 301c 9f3d 9fe3 7cbe
00000380: 938b db3e 76a4 673e f258 1b3e 2cdd ed3d
00000390: 8281 3dbe 2f6f 66bd ad54 33be 1c2a acbe
000003a0: 62af 5c3e ef52 ec3b 8b4f 02be 37ca ab3e
000003b0: 2746 c3be 54f1 673e 8401 803e f0ce 853e
000003c0: 8cd4 3d3c 2efc 94be ffd9 9dbd 0265 4ebe
000003d0: 12fb a6bd cfc7 473e 980d d7be 485e 053e
000003e0: 47ba fbbd 9158 d63d 9665 14be b1ea 3ebe
000003f0: 2175 0cbe 1104 3fbd 12ac 3d3e b85b d93d

fc1.bias f4 [20]
-0.21469148 -0.073505044 -0.042404704 -0.12306235 0.12832537 -0.18472534 -0.17582838 0.19046624
0.14655711 -0.1315234 0.14452498 0.24085872 -0.10206805 0.14617753 0.30180603 -0.03235952
0.05422432 -0.28300852 -0.23616663 -0.253466
00000000: 15d8 5bbe d089 96bd 8eb0 2dbd 1d08 fcbd
00000010: ba67 033e a428 3dbe 5b0c 34be 9509 433e
00000020: 1113 163e 12ae 06be 5bfe 133e aba3 763e
00000030: 0e09 d1bd 90af 153e 5286 9a3e 6b8b 04bd
00000040: 521a 5e3d 7ee6 90be aad5 71be 4cc6 81be

fc3.weight f4 [1, 20]
0.1745527 -0.00038197046 0.2954165 0.07758407 0.12583481 0.017964179 0.06463336 0.15506764
0.11352453 -0.0057277572 0.16161723 0.22185649 0.061687723 0.10553042 0.42650694 9.861061e-05
0.0029113805 0.25078213 0.18020059 0.30118132
00000000: f1bd 323e 3543 c8b9 d540 973e 66e4 9e3d
00000010: d7da 003e 9d29 933c 7f5e 843d 0dca 1e3e
00000020: 8c7f e83d e9af bbbb fd7e 253e 592e 633e
00000030: 44ac 7c3d 5520 d83d 1e5f da3e 2bcd ce38
00000040: dccc 3e3b 8466 803e 8186 383e 7034 9a3e

exp_avg f4 [60, 58]
-0.00025713295 4.718233e-05 -0.00026169443 -0.00036820341 3.0033465e-05 -0.0001404358 -3.7366826e-05 -0.0002079017
-0.00069311773 -0.00024526851 -5.8814483e-05 3.6547637e-05 0.00010552851 -9.3510636e-05 3.4428056e-06 -1.0673358e-05
-8.637637e-05 -2.0158082e-05 -5.8033682e-05 4.401765e-05 -4.231118e-05 4.962212e-05 -3.1621097e-05 -0.0001342332
-8.363257e-05 -0.00014101717 3.4712946e-05 -3.7389193e-05 -1.9299077e-05 -4.3455515e-05 -0.00011997929 -6.3311425e-05
-6.496566e-05 8.948493e-06 2.3405011e-05 -5.2861033e-05 4.146841e-05 -2.7429429e-05 -0.00013313038 4.247031e-06
1.866339e-05 -6.137923e-05 3.1631218e-05 -0.00013923929 -2.6506761e-05 -5.0749724e-05 -2.2063441e-05 2.671876e-05
-2.4356616e-05 -7.2859235e-05 2.1435804e-05 2.7712898e-05 7.429247e-05 0.0001450264 8.2173305e-05 -4.1790045e-05
-6.588139e-05 0.00010904754 0.00014290115 -6.799247e-05 0.00017993365 0.00019478991 -9.730259e-05 7.6455864e-05
2.9366934e-06 0.00015015794 0.00028588434 0.00015309463 1.1989325e-05 3.1794563e-05 -0.000111587266 8.745147e-05
-4.3373486e-05 2.9799943e-05 1.0122504e-05 2.317569e-05 4.597824e-05 -4.7641308e-05 4.308801e-05 -6.3655694e-05
3.0696952e-05 4.1672884e-05 8.226755e-05 4.9194794e-05 -2.2567378e-05 3.8309234e-05 6.2108906e-05 3.858431e-05
0.00011375944 -8.5569485e-07 5.5875225e-05 1.5063746e-05 -1.1762708e-05 2.1450998e-05 -2.2956144e-06 -3.5430923e-05
5.7569203e-05 3.5892772e-05 -1.7181197e-05 5.5242614e-05 -2.608022e-05 2.0957948e-05 2.2714472e-05 9.743462e-06
1.975396e-05 -2.7166061e-05 4.2421143e-05 5.0483042e-05 -4.450897e-05 -2.1990814e-05 -2.0682572e-05 -7.311479e-05
-0.00020509439 2.9442856e-05 0.000103668746 -6.630584e-05 -4.3706987e-05 -3.8730628e-05 -7.910427e-05 -1.7831295e-05
1.9606745e-05 4.984609e-07 -1.2281583e-05 -8.203379e-05 -0.00011556099 -9.431537e-05 1.5929385e-06 -6.7755855e-07
1.944707e-05 -1.650594e-05 9.065057e-06 -2.1978387e-05 -9.390078e-06 -1.4812313e-05 9.617314e-07 5.669691e-06
6.3870148e-06 1.7540251e-05 -1.03165285e-05 -1.3809989e-05 -1.9641697e-05 -9.074852e-06 2.1803571e-06 -2.1497319e-05
-4.616537e-05 -2.298513e-05 -2.82797e-05 1.8985498e-06 -1.6484012e-06 -2.069627e-06 5.0347517e-06 2.4121346e-06
3.6420374e-06 -3.9507427e-06 -8.4252615e-06 1.1422097e-05 9.937653e-06 -2.000948e-05 2.8217926e-06 7.017713e-06
-9.74175e-06 1.774863e-05 3.6074574e-08 2.6801376e-06 -2.8356979e-05 -1.6178907e-05 -2.339279e-06 -2.6230443e-06
2.0980673e-05 1.3037888e-05 6.630058e-06 -1.0350931e-05 -3.7679452e-05 4.880666e-07 -1.5233571e-05 8.693239e-05
4.516884e-05 -7.898067e-05 4.5981193e-05 9.540032e-07 -2.4071265e-05 -7.643647e-05 0.000100055724 -0.00010050772
3.3870504e-06 3.207192e-05 1.1259771e-05 2.2782235e-05 3.5030819e-06 -1.2975643e-05 -1.2299035e-05 -1.3452078e-05
-7.1115487e-06 -7.0012147e-06 -9.300777e-06 -4.9873825e-06 -2.6065696e-05 -1.2489186e-05 1.7712875e-05 1.8368372e-06
2.652847e-06 5.6666686e-06 -2.0008438e-05 -1.6099324e-05 4.10013e-06 -5.275556e-06 -6.1053506e-06 -2.0499533e-06
-5.524434e-07 7.786939e-06 -2.7642227e-06 2.247058e-06 -3.012936e-06 -4.7231815e-06 -7.087219e-06 3.2715523e-06
-2.2389227e-06 7.946191e-06 -1.4284597e-06 -7.243719e-06 1.35016535e-05 2.0653374e-06 -1.6881564e-05 -1.7102893e-05
-9.865585e-07 5.960445e-06 1.8897705e-05 1.30220305e-05 3.7812704e-05 -1.3125813e-05 5.2599944e-06 9.172119e-06
5.5741613e-05 4.5479163e-05 9.790878e-05 0.000103400416 1.8063038e-05 8.3806335e-06 -1.5626111e-06 2.4515157e-06
0.00027323206 8.889046e-07 1.4819707e-05 1.4536639e-05 -3.2355234e-05 2.0137557e-05 -4.6188943e-06 -3.348994e-06
-5.9635477e-06 6.48482e-06 3.31832e-06 -1.6846817e-06 1.4685212e-05 -1.6192727e-05 2.323866e-05 1.9915977e-05
00000000: cdcf 86b9 a4e5 4538 0834 89b9 6d0b c1b9
00000010: 60f0 fb37 f341 13b9 53ba 1cb8 3000 5ab9
00000020: 58b2 35ba 6297 80b9 92af 76b8 ba4a 1938
00000030: 304f dd38 241b c4b8 f30a 6736 b911 33b7
00000040: f624 b5b8 2719 a9b7 3169 73b8 989f 3838
00000050: 4977 31b8 5821 5038 e5a0 04b8 f3c0 0cb9
00000060: e563 afb8 02de 13b9 be98 1138 57d2 1cb8
00000070: 74e4 a1b7 0144 36b8 649d fbb8 10c6 84b8
00000080: 2c3e 88b8 7c21 1637 e155 c437 1ab7 5db8
00000090: 5eee 2d38 4018 e6b7 ea98 0bb9 b881 8e36
000000a0: 538f 9c37 b9b8 80b8 c3ab 0438 c300 12b9
000000b0: d65a deb7 1adc 54b8 e114 b9b7 1a22 e037
000000c0: 6f51 ccb7 01cc 98b8 0ad1 b337 ff78 e837
000000d0: 77cd 9b38 3a12 1839 7554 ac38 b847 2fb8
000000e0: cd29 8ab8 74b0 e438 bcd7 1539 2e97 8eb8
000000f0: 92ac 3c39 8540 4c39 ee0e ccb8 ee56 a038
00000100: 0214 4536 b773 1d39 bfe2 9539 0788 2039
00000110: c225 4937 275b 0538 f503 eab8 2766 b738
00000120: edeb 35b8 e4fa f937 d3d3 2937 6a69 c237
00000130: c2d8 4038 77d2 47b8 66b9 3438 e47e 85b8
00000140: 9ac0 0038 ebc9 2e38 0e87 ac38 8256 4e38
00000150: 134f bdb7 3aae 2038 7740 8238 96d5 2138
00000160: 2292 ee38 e7b2 65b5 915b 6a38 4cba 7c37
00000170: 7258 45b7 abf1 b337 5b0e 1ab6 aa9b 14b8
00000180: 7676 7138 928b 1638 5720 90b7 4eb4 6738
00000190: d9c6 dab7 dace af37 f58a be37 da77 2337
000001a0: 4eb5 a537 ace2 e3b7 5bed 3138 c1bd 5338
000001b0: 25af 3ab8 ea78 b8b7 7c7f adb7 3455 99b8
000001c0: 9b0e 57b9 0dfc f637 bc68 d938 ad0d 8bb8
000001d0: 0552 37b8 b272 22b8 c8e4 a5b8 6a94 95b7
000001e0: 2a79 a437 f9cd 0535 ff0c 4eb7 8e09 acb8
000001f0: 5659 f2b8 2ecb c5b8 f3cc d535 78e1 35b5
00000200: 4422 a337 3c76 8ab7 2016 1837 3a5e b8b7
00000210: 148a 1db7 6682 78b7 d714 8135 463e be36
00000220: 0a50 d636 6723 9337 2715 2db7 73b1 67b7
00000230: 39c4 a4b7 3140 18b7 4052 1236 2455 b4b7
00000240: b0a1 41b8 31d0 c0b7 313a edb7 add1 fe35
00000250: a23e ddb5 ece3 0ab6 30f0 a836 28e0 2136
00000260: ba69 7436 9f90 84b6 395a 0db7 88a1 3f37
00000270: e5b9 2637 08da a7b7 075e 3d36 b279 eb36
00000280: 7f70 23b7 e5e2 9437 6af0 1a33 6adc 3336
00000290: 26e0 edb7 f0b7 87b7 82fc 1cb6 8f07 30b6
000002a0: a7ff af37 4dbd 5a37 c477 de36 e9a8 2db7
000002b0: 010a 1eb8 ae03 0335 b093 7fb7 794f b638
000002c0: ac73 3d38 6da2 a5b8 eedb 4038 4d0b 8035
000002d0: a6ec c9b7 844c a0b8 02d5 d138 acc7 d2b8
000002e0: 154d 6336 f684 0638 59e8 3c37 7a1c bf37
000002f0: 7d16 6b36 f6b1 59b7 f457 4eb7 3cb0 61b7
00000300: bd9f eeb6 faeb eab6 880a 1cb7 4a59 a7b6
00000310: a8a7 dab7 a588 51b7 1c96 9437 3f89 f635
00000320: 9007 3236 5024 be36 cbd7 a7b7 090d 87b7
00000330: d993 8936 ae04 b1b6 90dc ccb6 ee91 09b6
00000340: 9f4b 14b5 a6a4 0237 fc80 39b6 2acc 1636
00000350: d931 4ab6 d27b 9eb6 bfce edb6 d78c 5b36
00000360: 6640 16b6 a150 0537 80b9 bfb5 130f f3b6
00000370: 2985 6237 3a9a 0a36 e29c 8db7 2f78 8fb7
00000380: e469 84b5 d5ff c736 8386 9e37 3279 5a37
00000390: 1599 1e38 f036 5cb7 027f b036 f3e1 1937
000003a0: 1acc 6938 e1c0 3e38 6054 cd38 add8 d838
000003b0: 1486 9737 8c9a 0c37 e9ba d1b5 b884 2436
000003c0: 9640 8f39 0f9d 6e35 28a2 7837 64e2 7337
000003d0: 2bb5 07b8 13ed a837 00fc 9ab6 47bf 60b6
000003e0: 7c1a c8b6 2e98 d936 4eb0 5e36 391d e2b5
000003f0: 8160 7637 9ed5 87b7 a4f0 c237 3c11 a737
