experiments/basic/weights/2_LSTM.pth (torch, 135915 bytes, 33 tensors)

lstm.weight_ih_l0 f4 [80, 58]
1.1242138 0.0148487985 -0.22890724 0.09615692 0.11952593 0.0728139 -0.16557111 -0.123163044
-0.008201712 -0.18364757 -0.041362006 -0.050786596 0.23092754 0.26528937 -0.0731169 -0.38587222
-0.056292646 -0.38115647 -0.5296705 -0.18983258 -0.42178524 -0.37454715 -0.15793028 -0.16739768
-0.102137916 -0.03395605 0.08057854 -0.29710704 -0.14596076 0.1470788 -0.10890584 0.03373934
0.106701575 -0.18530692 -0.27135247 -0.20305479 -0.15581113 -0.096192434 -0.25379753 -0.24093379
-0.1386108 0.08691032 0.09226764 0.10312111 0.21381979 0.11380384 -0.064992964 -0.029289223
-0.037813395 0.33133233 -0.0719555 0.33345166 0.2242964 0.24830736 -0.0716918 0.07824449
-0.0219715 -0.11620857 0.014662066 0.12796181 0.0660466 0.19689932 0.071371116 0.11202889
-0.020244518 0.40043083 0.60648334 0.31248197 0.24500737 0.64368415 0.8677252 0.23059942
0.38955486 0.43792725 0.28657848 0.07385467 0.11980932 0.23037092 0.27256966 -0.113704875
0.04448923 0.1262259 0.23078375 -0.09282479 0.37598643 0.38533604 0.33068773 0.20790425
-0.04301215 0.13786498 0.14306472 0.24405158 0.09606918 0.2131275 0.29261366 0.27285197
0.29337388 0.20891015 0.31042635 0.11356483 0.011368807 0.27190495 0.40214366 0.26357627
0.2872741 0.4270285 0.2439968 0.21252891 0.2777235 0.542061 0.22967283 0.6297324
0.31208208 0.6093444 0.3689131 0.31850165 1.6353066 0.2743815 0.043256015 -0.24842755
0.056665793 0.21120681 -0.099154234 0.14156254 -0.18494079 0.08660971 -0.07548461 0.17973267
0.22844517 -0.0890478 -0.18274248 -0.16925205 -0.18369085 -0.21344712 -0.122509114 -0.020984102
-0.42874402 -0.07273965 -0.21694489 -0.44551706 -0.09869434 -0.03231897 -0.16739596 -0.15855213
-0.16671033 0.11547221 -0.08772667 -0.27735764 -0.08653165 -0.30651507 -0.09664044 -0.14621663
-0.32285866 -0.09364095 -0.042562436 -0.19684362 -0.026563445 -0.092923485 -0.17404468 0.23700224
0.21508382 -0.25659138 0.02853899 -0.040590324 -0.050873294 -0.26057097 -0.0578323 -0.093026616
-0.1777112 -0.3104669 -0.05513727 0.08785819 -0.255707 -0.11979037 1.9399793 0.2770061
0.016218012 -0.16330019 -0.016634325 -0.03628563 0.03977871 0.27561298 -0.27884623 0.19095626
-0.0047404193 0.6737359 -0.042178523 -0.16817552 -0.066921726 -0.25559857 -0.1900448 -0.30776033
-0.19194685 -0.140395 -0.31783724 -0.1779265 -0.5549071 -0.31745133 -0.60211444 -0.5711448
-0.6252775 0.2510008 -0.093466245 -0.07774268 -0.057829525 -0.123428844 -0.17391905 -0.382003
-0.19426584 -0.10685589 -0.14814708 -0.18863109 -0.1428446 -0.5311819 -0.2453057 -0.43244818
-0.32369402 0.38597706 0.04287191 0.27595383 -0.15350069 0.085538365 -0.061836842 0.00731009
-0.27767733 0.13483296 -0.22099835 -0.029689288 -0.105724104 -0.20307176 -0.35017154 -0.31829765
2.2520235 0.28588712 -0.15496418 -0.11399326 0.45806924 0.24608317 0.06804446 0.41016948
-0.09504864 0.4979263 0.4568833 0.25377446 0.13397773 0.030026933 0.41015533 0.26197982
0.34326693 0.44350323 0.2892579 0.15091674 0.12194262 0.43445465 0.26415524 0.37342125
00000000: 3de6 8f3f 6048 733c a966 6abe ebed c43d
00000010: 03ca f43d 741f 953d 798b 29be e83c fcbd
00000020: 7960 06bc 1c0e 3cbe 356b 29bd 9b05 50bd
00000030: 4578 6c3e 02d4 873e 50be 95bd 0b91 c5be
00000040: 1e93 66bd f126 c3be 7c98 07bf 7963 42be
00000050: 3cf4 d7be a5c4 bfbe 7ab8 21be 4c6a 2bbe
00000060: af2d d1bd 8015 0bbd 5d06 a53d 6a1e 98be
00000070: bd76 15be d39b 163e 060a dfbd 4332 0a3d
00000080: 5b86 da3d 19c1 3dbe b6ee 8abe 98ed 4fbe
00000090: f48c 1fbe 8a00 c5bd c0f1 81be 59b7 76be
000000a0: fdef 0dbe 0afe b13d d1f6 bc3d 2931 d33d
000000b0: 93f3 5a3e fd11 e93d 081b 85bd f4ef efbc
000000c0: 38e2 1abd 64a4 a93e 685d 93bd 2dba aa3e
000000d0: f5ad 653e 4944 7e3e 27d3 92bd a63e a03d
000000e0: 93fd b3bc c2fe edbd 2939 703c 6c08 033e
000000f0: 7143 873d fa9f 493e 052b 923d 676f e53d
00000100: d5d7 a5bc 4505 cd3e 7e42 1b3f a3fd 9f3e
00000110: 36e3 7a3e 7cc8 243f 3d23 5e3f 4122 6c3e
00000120: bc73 c73e 0038 e03e 6aba 923e 1e41 973d
00000130: 975e f53d 5be6 6b3e 408e 8b3e 1ade e8bd
00000140: 573a 363d 5d41 013e 9352 6c3e ec1a bebd
00000150: 4b81 c03e c44a c53e e74f a93e dae4 543e
00000160: 822d 30bd 7a2c 0d3e 8f7f 123e a8e8 793e
00000170: ebbf c43d 183e 5a3e 75d1 953e 41b3 8b3e
00000180: 1a35 963e 8bec 553e 34f0 9e3e ad94 e83d
00000190: 3c44 3a3c 2037 8b3e c6e5 cd3e 78f3 863e
000001a0: 9715 933e 7ba3 da3e 4cda 793e 2ea1 593e
000001b0: c631 8e3e 82c4 0a3f 5b2f 6b3e 2436 213f
000001c0: 39c9 9f3e fffd 1b3f 2ee2 bc3e a612 a33e
000001d0: ba51 d13f bb7b 8c3e 382d 313d cb63 7ebe
000001e0: 641a 683d 9946 583e 6011 cbbd c5f5 103e
000001f0: 1e61 3dbe 6e60 b13d ad97 9abd d70b 383e
00000200: 88ed 693e b15e b6bd d820 3bbe 6950 2dbe
00000210: 7419 3cbe e291 5abe 0fe6 fabd dae6 abbc
00000220: 5684 dbbe 87f8 94bd cd26 5ebe d01a e4be
00000230: 4220 cabd e560 04bd d969 2bbe 7d5b 22be
00000240: 1db6 2abe b27c ec3d 0aaa b3bd d201 8ebe
00000250: 8137 b1bd 8bef 9cbe 6ceb c5bd d0b9 15be
00000260: bb4d a5be d4c6 bfbd f355 2ebd 6091 49be
00000270: 959b d9bc ab4e bebd c538 32be b7b0 723e
00000280: ef3e 5c3e f25f 83be 9aca e93c 0a42 26bd
00000290: 8460 50bd 8f69 85be 90e1 6cbd bd84 bebd
000002a0: edf9 35be 84f5 9ebe 9ed7 61bd ffee b33d
000002b0: 07ec 82be a754 f5bd 3e51 f83f bed3 8d3e
000002c0: a3db 843c 2a38 27be b544 88bc 3ea0 14bd
000002d0: 00ef 223d 251d 8d3e efc4 8ebe 0a8a 433e
000002e0: 8555 9bbb f579 2c3f 63c3 2cbd 3436 2cbe
000002f0: 420e 89bd d1dd 82be 1b9b 42be c392 9dbe
00000300: b78d 44be b5c3 0fbe 90bb a2be 5d32 36be
00000310: 640e 0ebf fb88 a2be 2c24 1abf 8c36 12bf
00000320: 3012 20bf 2d83 803e 3b6b bfbd 8e37 9fbd
00000330: a7de 6cbd 43c8 fcbd d617 32be e695 c3be
00000340: a0ed 46be 43d7 dabd deb3 17be 8228 41be
00000350: db45 12be 89fb 07bf 6b31 7bbe d969 ddbe
00000360: 39bb a5be c99e c53e 759a 2f3d d249 8d3e
00000370: 492f 1dbe bd2e af3d a148 7dbd 7b89 ef3b
00000380: b92b 8ebe a711 0a3e 644d 62be f336 f3bc
00000390: e185 d8bd 0bf2 4fbe af49 b3be e9f7 a2be
000003a0: 2721 1040 cc5f 923e eeae 1ebe 4c75 e9bd
000003b0: 0d88 ea3e 3afd 7b3e e55a 8b3d bc01 d23e
000003c0: dda8 c2bd 32f0 fe3e 9cec e93e baee 813e
000003d0: 7531 093e 0bfb f53c e1ff d13e 3822 863e
000003e0: afc0 af3e db12 e33e 9d19 943e eb89 1a3e
000003f0: 0dbd f93d d770 de3e 5b3f 873e 1231 bf3e

lstm.weight_hh_l0 f4 [80, 20]
0.080752715 -0.0036727525 0.34621194 -0.11102127 0.12092091 0.032618247 -0.1171962 0.39898616
0.38258064 -0.13083279 -0.2903297 -0.2819181 -0.4162355 -0.2731492 -0.05132914 -0.15274808
0.24261606 0.09375034 -0.38996288 0.47985822 -0.13788117 -0.6774899 0.10126111 -0.06256674
0.3443119 0.18246843 0.20799251 -0.35924074 -0.2816417 0.32610554 0.15873422 0.011703525
-0.17274868 -0.41403648 -0.13265358 0.19686222 -0.14752768 0.45634106 0.20673366 -0.30855176
0.33730698 0.7015781 0.080190346 0.30893102 -0.21680704 0.22475769 -0.15052997 0.20012856
-0.52390575 -0.15913267 -0.002491955 0.15570682 0.026825942 0.09568357 0.26172766 -0.30165267
0.11025236 -0.0017863872 0.14743428 0.3033024 0.20619513 0.17630927 0.21342067 -0.12407181
-0.06694855 0.3870376 -0.04495544 0.4492086 -0.45542 0.0693832 -0.32523245 -0.070513174
0.14878504 -0.43992418 -0.13392137 -0.3799057 0.23447727 -0.2294719 -0.34249264 0.06546532
0.06180691 0.35850027 -0.007160792 0.12455982 0.25084195 -0.037524942 -0.016370185 0.3052254
0.015825333 -0.121128984 0.12557258 -0.14132501 -0.3300046 -0.24298042 -0.03651211 -0.123207174
-0.16404396 -0.08041092 -0.036581617 0.15836485 -0.028502004 -0.033793125 0.2542933 0.054000467
-0.05629754 -0.13051887 0.24638964 0.26234156 -0.15127203 0.32961422 0.05441408 -0.25914988
0.10042922 -0.13380837 -0.14952825 0.16428669 -0.029808322 -0.12593962 -0.30146453 0.06301328
0.19194259 0.2182074 -0.023747776 -0.17787685 -0.29375353 0.59634435 -0.36927828 0.29510564
-0.20319445 0.1460061 0.19427574 0.0016634746 -0.08249186 -0.4675893 0.16040352 -0.11151378
0.30869466 -0.20564207 -0.4214135 0.3046815 -0.41693437 0.14776362 -0.115201004 0.025616055
-0.20032044 0.19714585 -0.10851013 -0.20274112 -0.2043349 0.21538968 0.11488788 0.11455089
0.20968612 0.101820014 -0.22804728 0.20818204 -0.35876903 -0.41148713 0.06951671 0.070375554
-0.1254337 0.2058738 -0.055336542 -0.15335545 -0.025920298 -0.06878296 0.09350314 0.049221434
-0.1147106 0.329694 0.50999683 0.13411246 0.11123785 -0.03368075 -0.0687124 0.11852332
-0.11153035 -0.21290132 0.16384755 -0.011828676 -0.34025744 -0.30524275 0.27802655 -0.066456795
-0.012541103 0.08149512 0.3020372 -0.053728305 -0.21586084 0.46847534 -0.009351088 -0.19559665
-0.14791939 0.0467508 -0.3842039 0.094952986 -0.29076457 0.13879724 0.21937731 -0.042851854
-0.062524736 0.121557906 -0.1887548 0.031626515 0.021898044 0.56469154 0.028349735 0.6325705
-0.12290247 -0.005421252 -0.17929094 0.026272869 -0.33184928 -0.22209942 0.20300372 -0.4307553
0.00807469 -0.068360694 -0.22752352 0.47167 0.15928447 0.5998871 0.054578006 -0.2979028
0.16913722 -0.08240405 -0.0862179 0.15444379 -0.106591806 0.03938176 -0.07513655 0.072363734
-0.110386334 -0.3161826 -0.10709338 -0.21085396 0.428443 0.028779604 0.053244006 0.21581972
-0.3024407 0.59758204 -0.404908 0.120156385 -0.3107377 -0.1271612 0.2587001 -0.28165576
0.016503254 -0.30339146 0.5792454 0.29239222 0.09337481 0.1012052 -0.1143385 -0.057199568
00000000: ae61 a53d 90b2 70bb b142 b13e 1f5f e3bd
00000010: 62a5 f73d b69a 053d 9004 f0bd ea47 cc3e
00000020: 9ce1 c33e 08f9 05be 18a6 94be 9257 90be
00000030: d21c d5be 36da 8bbe 813e 52bd fe69 1cbe
00000040: 5870 783e 2e00 c03d 37a9 c7be faaf f53e
00000050: b930 0dbe fa6f 2dbf fc61 cf3d fe22 80bd
00000060: a649 b03e 01d9 3a3e fdfb 543e 67ee b7be
00000070: 5733 90be 4ef7 a63e 398b 223e 24c0 3f3c
00000080: 08e5 30be 97fc d3be 57d6 07be 4096 493e
00000090: 7f11 17be 89a5 e93e fdb1 533e 7ffa 9dbe
000000a0: 80b3 ac3e 9f9a 333f d63a a43d 352c 9e3e
000000b0: aa02 5ebe e126 663e 8724 1abe 80ee 4c3e
000000c0: b01e 06bf adf3 22be 1150 23bb 9c71 1f3e
000000d0: 14c2 db3c bff5 c33d 2b01 863e 3872 9abe
000000e0: fdcb e13d 3525 eaba 03f9 163e 744a 9b3e
000000f0: d124 533e 6b8a 343e f38a 5a3e 5c19 febd
00000100: 521c 89bd cb29 c63e 3223 38bd abfe e53e
00000110: cf2c e9be c718 8e3d de84 a6be 3669 90bd
00000120: 1b5b 183e be3d e1be af22 09be 0083 c2be
00000130: cf1a 703e affa 6abe 325b afbe af12 863d
00000140: 3e29 7d3d 598d b73e 14a5 eabb 3819 ff3d
00000150: 5b6e 803e c1b3 19bd c41a 86bc 8146 9c3e
00000160: 21a4 813c 7912 f8bd 1996 003e 81b7 10be
00000170: 5df6 a8be dccf 78be b98d 15bd 0b54 fcbd
00000180: 24fb 27be 7bae a4bd 9bd6 15bd 652a 223e
00000190: 097d e9bc a96a 0abd bb32 823e 982f 5d3d
000001a0: 4098 66bd bda6 05be 914d 7c3e a251 863e
000001b0: 0ee7 1abe 32c3 a83e 4ce1 5e3d 4baf 84be
000001c0: d6ad cd3d 1005 09be ef1d 19be c53a 283e
000001d0: 9530 f4bc 51f6 00be 8f59 9abe 1b0d 813d
000001e0: 998c 443e c371 5f3e b28a c2bc 5925 36be
000001f0: dd66 96be 06aa 183f 0b12 bdbe 1618 973e
00000200: 3512 50be a082 153e 38f0 463e f208 da3a
00000210: 7ef1 a8bd dd67 efbe d240 243e 5661 e4bd
00000220: 3a0d 9e3e d693 52be 83c3 d7be 37ff 9b3e
00000230: 6c78 d5be 594f 173e 81ee ebbd c3d8 d13c
00000240: cd20 4dbe 9ae0 493e 8f3a debd 5e9b 4fbe
00000250: 2b3d 51be 1d8f 5c3e 564a eb3d a899 ea3d
00000260: f5b7 563e 0387 d03d 3a85 69be ac2d 553e
00000270: 93b0 b7be 71ae d2be c75e 8e3d 0f21 903d
00000280: b171 00be 95d0 523e 92a8 62bd 3609 1dbe
00000290: ce56 d4bc 15de 8cbd 937e bf3d 6a9c 493d
000002a0: 64ed eabd a7cd a83e 278f 023f c754 093e
000002b0: abd0 e33d d3f4 09bd 16b9 8cbd 5bbc f23d
000002c0: 066a e4bd ce02 5abe a7c7 273e 10cd 41bc
000002d0: 3936 aebe c748 9cbe 7f59 8e3e 801a 88bd
000002e0: 3379 4dbc eae6 a63d 9fa4 9a3e 3612 5cbd
000002f0: a00a 5dbe 00dc ef3e 4e35 19bc 7d4a 48be
00000300: 2e78 17be c47d 3f3d 60b6 c4be b676 c23d
00000310: 18df 94be dd20 0e3e 72a4 603e 6d85 2fbd
00000320: f80c 80bd 5af3 f83d f048 41be ce8a 013d
00000330: 8763 b33c a08f 103f b43d e83c 24f0 213f
00000340: 4ab4 fbbd c2a4 b1bb 0b98 37be 333a d73c
00000350: 26e8 a9be 086e 63be 35e0 4f3e f58b dcbe
00000360: b44b 043c b100 8cbd edfb 68be bb7e f13e
00000370: 781b 233e 3392 193f 308d 5f3d b786 98be
00000380: 4f32 2d3e 74c3 a8bd 0393 b0bd 8326 1e3e
00000390: ce4c dabd c54e 213d 31e1 99bd 7033 943d
000003a0: 3b12 e2bd b0e2 a1be c653 dbbd 1aea 57be
000003b0: e25c db3e 34c3 eb3c 6316 5a3d d8ff 5c3e
000003c0: 82d9 9abe 23fb 183f 1a50 cfbe 8d14 f63d
000003d0: 0319 9fbe 8c36 02be 5774 843e 2f35 90be
000003e0: d531 873c 2056 9bbe 6d49 143f 6fb4 953e
000003f0: 4b3b bf3d ac44 cf3d 4e2a eabd 184a 6abd

lstm.bias_ih_l0 f4 [80]
-0.098430045 0.6964531 -0.3176694 0.014573422 0.19434668 -0.20336872 0.028087428 0.15253294
-0.04959911 0.16040066 -0.2511449 -0.01929849 0.015043874 -0.048347045 -0.2305396 -0.08057199
-0.15220338 0.0364075 -0.14705804 -0.12237632 -0.29804263 0.28958887 -0.15046716 -0.20981397
0.16746889 -0.41016504 -0.121982135 -0.18530397 -0.032518707 0.04842622 -0.38027114 0.08425791
-0.46184444 -0.27356857 -0.4847358 -0.21172598 0.033370014 -0.20965296 -0.08267034 0.031220956
-0.028282328 -0.20287345 -0.09531835 -0.12634924 0.23480886 0.124366716 -0.09804929 -0.022585228
-0.12636493 0.06821957 0.21199937 0.092549466 -0.067272104 0.012905385 -0.11504575 0.186334
-0.14276347 0.075268395 0.0031733182 -0.16224371 -0.27364415 0.7383922 -0.26185566 -0.32645667
0.06269284 -0.06847832 -0.38382295 -0.2968221 -0.20912394 0.20841701 -0.25447488 -0.21180165
-0.29268757 -0.048579868 -0.18081188 -0.32664567 0.034780905 -0.21206221 -0.26583 -0.09053492
00000000: b195 c9bd c04a 323f 90a5 a2be 5dc5 6e3c
00000010: d102 473e e43f 50be 9b17 e63c 9831 1c3e
00000020: 7028 4bbd 1240 243e 1096 80be de17 9ebc
00000030: 957a 763c 8d07 46bd 9312 6cbe ed02 a5bd
00000040: 34db 1bbe 0820 153d 6296 16be 70a0 fabd
00000050: 0b99 98be fe44 943e 1014 1abe 79d9 56be
00000060: f77c 2b3e 2701 d2be c5d1 f9bd 53c0 3dbe
00000070: 5632 05bd 925a 463d e6b2 c2be 698f ac3d
00000080: e076 ecbe 2e11 8cbe 4a2f f8be b2ce 58be
00000090: ffae 083d 44af 56be 114f a9bd 17c3 ff3c
000000a0: 57b0 e7bc 0fbe 4fbe 4436 c3bd b261 01be
000000b0: bc71 703e fab3 fe3d 11ce c8bd a804 b9bc
000000c0: cf65 01be b4b6 8b3d 5d16 593e 938a bd3d
000000d0: f5c5 89bd 1c71 533c 1b9d ebbd 57ce 3e3e
000000e0: 9630 12be 5126 9a3d 72f7 4f3b 3723 26be
000000f0: 161b 8cbe 4507 3d3f f211 86be 5425 a7be
00000100: 1b65 803d 5d3e 8cbd 7184 c4be 11f9 97be
00000110: 9624 56be 456b 553e 884a 82be 88e2 58be
00000120: 25db 95be affb 46bd c026 39be 1a3e a7be
00000130: 6c76 0e3d d626 59be df1a 88be 5f6a b9bd

lstm.bias_hh_l0 f4 [80]
0.044202592 0.64394104 -0.14089552 0.030561479 0.27756912 0.14382328 -0.06306342 0.0759542
0.29527172 0.24353026 -0.042041957 -0.09592775 0.084834956 0.065093026 -0.07374343 0.05494622
-0.08752844 -0.06594134 -0.14809172 -0.14807923 -0.14539431 0.11212065 -0.35348955 -0.15861347
-0.073948406 -0.08626692 -0.11630828 -0.3684154 -0.40221775 0.05721724 -0.078170985 -0.1968234
-0.38504708 -0.2871781 -0.4362802 -0.21957746 -0.016685799 -0.21907915 -0.0703015 0.03114388
0.023594707 -0.12930152 -0.22347337 0.1916314 0.23811729 -0.017478935 0.2074598 0.051552307
0.18967104 0.114957325 0.42121425 0.09157769 -0.15510276 0.071371466 -0.24648653 0.10661735
-0.34747908 0.05835409 0.079595126 -0.2001285 -0.22783548 0.5408083 -0.20675467 0.003756901
0.2089233 -0.040594365 -0.42136335 -0.2938514 0.031243565 0.4490347 -0.25407282 -0.09470414
-0.10526704 -0.1534219 -0.2090794 -0.08996078 -0.08890464 0.082262166 -0.21317033 -0.16912785
00000000: c70d 353d 52d9 243f ea46 10be 115c fa3c
00000010: 8a1d 8e3e 6946 133e 6527 81bd e08d 9b3d
00000020: db2d 973e ff5f 793e 3034 2cbd c575 c4bd
00000030: f3bd ad3d 7e4f 853d cc06 97bd 4a0f 613d
00000040: 1c42 b3bd 410c 87bd 5ba5 17be 15a2 17be
00000050: 3fe2 14be 839f e53d 95fc b4be 926b 22be
00000060: 4372 97bd b6ac b0bd 0933 eebd f1a0 bcbe
00000070: 7cef cdbe a05c 6a3d 1c18 a0bd 138c 49be
00000080: e424 c5be 0209 93be 1e60 dfbe ead8 60be
00000090: a8b0 88bc 4956 60be 3cfa 8fbd 7321 ff3c
000000a0: b049 c13c 9e67 04be 34d6 64be 063b 443e
000000b0: 05d5 733e fc2f 8fbc 5870 543e 8328 533d
000000c0: 2039 423e bf6e eb3d 65a9 d73e 158d bb3d
000000d0: 42d3 1ebe 342b 923d f766 7cbe 325a da3d
000000e0: c7e8 b1be b304 6f3d c502 a33d 7cee 4cbe
000000f0: b44d 69be 6a72 0a3f 7fb7 53be 5736 763b
00000100: fdef 553e 4746 26bd f0bc d7be b173 96be
00000110: 81f2 ff3c e0e7 e53e d515 82be 3ff4 c1bd
00000120: 3f96 d7bd a11a 1dbe e918 56be 5c3d b8bd
00000130: a313 b6bd 1179 a83d 5349 5abe da2f 2dbe

lstm.weight_ih_l1 f4 [80, 20]
0.14144814 0.5352486 0.39168656 -0.326622 0.05112311 0.28660658 -0.14320402 0.25875553
-0.098303705 -0.38234645 0.1948189 0.0014442585 -0.20990653 -0.44400108 -0.6659664 0.2584564
-0.03793944 0.016368167 0.21094765 -0.3257625 0.17075111 0.84108245 0.018922815 -0.3168173
0.05085655 0.3726864 -0.029718135 0.2845754 0.067648984 -0.5913766 0.50231314 0.04791542
-0.1588859 -0.5517044 -0.6311412 0.1963632 0.112961136 0.3789924 0.053400584 -0.08919798
0.33370784 0.71178514 0.27283472 0.10114277 -0.29093412 0.012076306 -0.2509805 -0.13444254
-0.16696315 -0.29676238 -0.084073 -0.1740964 0.2539318 -0.35307238 0.039685845 0.07406404
0.30694202 -0.036316376 0.06429567 -0.12290825 0.47658363 0.47197518 -0.07928553 -0.14609928
-0.24951868 0.3295863 0.13586445 -0.015613101 -0.48293585 -0.39183843 -0.017512264 0.47124362
-0.2597761 -0.4332638 -0.35282984 0.034093954 0.52116513 -0.011981469 0.23511575 -0.22234148
0.21616845 0.14518894 0.13732174 -0.44719744 -0.024830645 0.24945639 0.17510885 0.13422082
-0.13652709 0.17573626 0.43299738 -0.007011334 -0.0502165 -0.46036896 -0.18198001 0.3539444
0.18841389 -0.2612971 -0.09656085 -0.046179798 0.1320336 0.55498594 -0.30131665 0.01748595
-0.5311193 -0.034608644 0.046945777 0.25233027 0.02956542 -0.108366944 0.2076947 0.59058064
-0.18399073 -0.0036943655 -0.71424776 0.29548216 -0.024077702 -0.034447465 -0.057498675 0.031237122
0.21000417 0.31590953 0.24627587 -0.49634132 -0.3807168 0.6179348 -0.39713088 0.18564597
-0.2833422 -0.094184995 0.19105345 0.060132094 -0.112157114 -0.45690775 -0.39391243 0.19078064
0.30878899 0.2924368 0.024111753 -0.4221357 0.30905473 0.76302314 0.28524816 -0.06524089
-0.114598975 0.6139466 -0.30959648 0.36104113 -0.16750324 -0.39332098 0.3661061 0.089721024
0.11622597 -0.28516385 -0.40247235 -0.2311733 0.41010705 0.17550072 -0.21469763 -0.33012143
0.24570505 0.12862758 -0.19688326 -0.258639 -0.29489833 0.44658676 0.14839447 0.08001661
-0.48959205 0.105995126 0.7074113 0.22373083 -0.22341031 -0.54532003 -0.6118318 0.3230511
0.17931466 0.10415853 0.3654819 -0.21351235 0.024639238 0.62358344 0.2925122 -0.17036417
0.49298668 -0.3376492 -0.03518078 -0.017508391 0.10279448 0.35576063 0.99456584 0.22129461
-0.42702276 -0.29664043 -1.0471144 0.3819405 -0.3655461 0.02562083 0.013464673 -0.33215678
0.43803528 0.39716592 0.1862309 -0.3258366 -0.43962637 0.23093657 -0.42679197 0.09468769
0.016803157 -0.18108833 0.19076379 0.27192923 0.10403972 -0.13420907 -0.16514744 0.005690249
0.45403308 0.11094848 0.08578312 -0.023786739 0.15489118 0.07224248 -0.5676108 -0.32154927
-0.62861645 0.5572431 0.054619394 0.4523421 -0.8590206 0.19763309 0.14082873 -0.13233739
0.350182 0.2207566 -0.13489734 -0.25345138 0.10261773 -0.0025711209 0.39701647 0.27481714
-0.04511171 0.89136064 -0.022792172 -0.11712403 -0.23822522 0.42606863 0.029491466 0.084850475
-0.12524778 -0.25729707 0.43698147 0.4347175 -0.10898218 -0.31071126 -0.41451216 0.3098898
00000000: c8d7 103e 0d06 093f 248b c83e 003b a7be
00000010: 7766 513d 19be 923e 13a4 12be 9b7b 843e
00000020: 7453 c9bd eac2 c3be 9b7e 473e 464d bd3a
00000030: bdf1 56be 1c54 e3be c67c 2abf 6654 843e
00000040: 6366 1bbd 8916 863c a902 583e 58ca a6be
00000050: 61d9 2e3e 2e51 573f 0504 9b3c e135 a2be
00000060: f54e 503d c0d0 be3e 7273 f3bc deb3 913e
00000070: 8d8b 8a3d 7564 17bf 9897 003f f642 443d
00000080: fcb2 22be 803c 0dbf 7892 21bf 6f13 493e
00000090: 2b58 e73d 4b0b c23e 92ba 5a3d 6ead b6bd
000000a0: c1db aa3e 8d37 363f feb0 8b3e f123 cf3d
000000b0: 51f5 94be b3db 453c 8480 80be 4eab 09be
000000c0: 63f8 2abe 3df1 97be 772e acbd 5446 32be
000000d0: 5903 823e e7c5 b4be a08d 223d e3ae 973d
000000e0: 8127 9d3e 7bc0 14bd 73ad 833d 52b7 fbbd
000000f0: c502 f43e bba6 f13e 7460 a2bd 0d9b 15be
00000100: d381 7fbe 89bf a83e 0d20 0b3e 18ce 7fbc
00000110: 5e43 f7be 0c9f c8be e175 8fbc d846 f13e
00000120: 5f01 85be c1d4 ddbe 1da6 b4be 1aa6 0b3d
00000130: 146b 053f ec4d 44bc 2fc2 703e 7cad 63be
00000140: 435b 5d3e 69ac 143e 129e 0c3e 10f7 e4be
00000150: a369 cbbc 7f71 7f3e bc4f 333e 2f71 093e
00000160: c2cd 0bbe 35f4 333e d5b1 dd3e 55bf e5bb
00000170: d1af 4dbd 7bb5 ebbe f858 3abe 3338 b53e
00000180: 92ef 403e bcc8 85be b2c1 c5bd 0727 3dbd
00000190: d133 073e 8f13 0e3f 2d46 9abe b23e 8f3c
000001a0: 6ff7 07bf cbc1 0dbd 374a 403d 6f31 813e
000001b0: 2e33 f23c 7def ddbd ebad 543e 4b30 173f
000001c0: 1168 3cbe 2b1d 72bb f1d8 36bf 7049 973e
000001d0: 9a3e c5bc c918 0dbd bb83 6bbd fee4 ff3c
000001e0: 550b 573e e5be a13e be2f 7c3e 7320 febe
000001f0: 50ed c2be fa30 1e3f bd54 cbbe fa19 3e3e
00000200: 3b12 91be 10e4 c0bd 84a3 433e 124d 763d
00000210: a1b2 e5bd d0ef e9be e4ae c9be 005c 433e
00000220: 9719 9e3e 47ba 953e 0386 c53c 2c22 d8be
00000230: 6c3c 9e3e 7c55 433f 0c0c 923e 049d 85bd
00000240: deb2 eabd 9b2b 1d3f 6e83 9ebe 62da b83e
00000250: f885 2bbe 5e61 c9be 4272 bb3e a8bf b73d
00000260: e207 ee3d ff00 92be db10 cebe b2b8 6cbe
00000270: 8df9 d13e 76b6 333e b2d9 5bbe ad05 a9be
00000280: 1b9a 7b3e f3b6 033e c49b 49be 556c 84be
00000290: eafc 96be 05a7 e43e b8f4 173e c0df a33d
000002a0: cfab fabe f913 d93d e818 353f b219 653e
000002b0: acc5 64be 189a 0bbf 02a1 1cbf f466 a53e
000002c0: 439e 373e 1151 d53d 7220 bb3e fba2 5abe
000002d0: 3ad8 c93c 2aa3 1f3f 29c4 953e f273 2ebe
000002e0: c068 fc3e 5be0 acbe b919 10bd c26d 8fbc
000002f0: ea85 d23d 4226 b63e de9b 7e3f 0e9b 623e
00000300: baa2 dabe 41e1 97be d807 86bf b58d c33e
00000310: dc28 bbbe c6e2 d13c ef9a 5c3c 7410 aabe
00000320: 2946 e03e 5559 cb3e 50b3 3e3e 0ed4 a6be
00000330: b516 e1be a37a 6c3e 7a84 dabe 9feb c13d
00000340: c6a6 893c 386f 39be 9557 433e 4f3a 8b3e
00000350: c712 d53d 1a6e 09be 691c 29be 4575 ba3b
00000360: 0677 e83e f538 e33d 0faf af3d 68dc c2bc
00000370: cb9b 1e3e def3 933d f14e 11bf 1ba2 a4be
00000380: 02ed 20bf 7ca7 0e3f 96b8 5f3d 6299 e73e
00000390: c6e8 5bbf 5460 4a3e 6835 103e 7483 07be
000003a0: 0e4b b33e 050e 623e 8722 0abe 61c4 81be
000003b0: 3f29 d23d 4080 28bb be45 cb3e d5b4 8c3e
000003c0: 0ec7 38bd 3630 643f a6b6 babc b9de efbd
000003d0: 50f1 73be ab25 da3e 1698 f13c 16c6 ad3d
000003e0: f440 00be 71bc 83be 09bc df3e 4b93 de3e
000003f0: 0d32 dfbd 8c15 9fbe f03a d4be e0a9 9e3e

lstm.weight_hh_l1 f4 [80, 20]
0.17868853 -0.03823878 0.058899235 -0.16135605 -0.032375608 -0.17685892 -0.162459 0.0978468
-0.35629848 0.25826755 0.31357077 0.5947459 -0.14530466 0.14914502 -0.085625105 -0.07398804
-0.35408765 -0.1314439 -0.2368548 -0.117160484 -0.2307437 -0.002237965 0.3735798 0.10980594
-0.25987703 0.11848559 -0.22026104 -0.024490142 -0.27796125 0.13729943 0.21251282 0.21935254
0.13636707 -0.057880007 -0.18460177 0.031400833 -0.25475112 -0.27132952 -0.12783146 0.16882476
0.018868545 -0.11437354 0.39044747 0.01065288 -0.25102785 -0.029512223 -0.011093356 0.00870061
0.12944165 0.35167763 -0.2619275 0.17026605 -0.12899102 0.031184204 -0.048911534 0.09676006
-0.36182815 -0.31791896 0.009886995 -0.08642791 0.4183976 0.16192392 -0.0561303 -0.14313976
0.38220286 -0.2209969 0.07466928 0.39885363 -0.08535148 -0.083472446 0.09371942 0.5167541
-0.08049868 0.3761588 -0.41971755 -0.38279858 0.042961285 -0.49350503 -0.17881373 0.1952089
-0.15646574 -0.27863753 -0.20040822 0.01111124 0.09801727 -0.12792973 0.16341051 0.22106582
-0.10707012 0.100957505 -0.14652282 0.13677138 -0.060771026 -0.14546321 -0.12973653 -0.086410165
-0.0070379614 -0.4387302 -0.076697655 0.1631519 -0.023451388 -0.23654507 0.4791367 0.44510624
-0.22580719 -0.19596499 0.36360532 -0.09876893 0.08227291 0.09909074 0.34844148 0.26601174
-0.18986213 0.013010862 -0.044136748 0.2698834 -0.19297333 -0.15493925 0.05241105 -0.043661945
0.09583922 -0.14545694 0.040612645 0.047731884 -0.16577983 -0.29488453 -0.10937927 0.48158517
0.09057815 0.041585404 0.032929167 0.42415714 0.27532962 0.1531291 -0.33124954 -0.26307225
-0.04107958 -0.16063958 -0.3272229 0.051072996 0.008978102 0.2466061 0.13214685 -0.05098724
-0.15600148 0.0569142 -0.17454243 -0.012073356 0.30659485 -0.1033962 0.06690657 0.37614217
0.14401686 0.10294383 0.109364346 0.100730814 -0.13668697 -0.06676529 -0.060883414 0.1988055
-0.37643072 -0.4463476 0.24204025 -0.02770756 0.32427037 -0.06869433 0.02732002 0.20234552
-0.4757913 0.2822935 0.15561263 0.5596565 0.12052905 -0.06722149 -0.3825948 0.29642087
-0.25497648 -0.38715404 0.16888899 -0.21415102 -0.37615824 -0.28138143 0.10338477 0.19977474
0.15236247 -0.033406913 -0.022783544 0.29772767 -0.043436695 -0.00028335257 0.18490797 0.18292482
0.32122985 -0.32066956 0.15513231 0.14823149 0.032540422 0.2092163 -0.38178793 0.32643366
0.34988853 0.014698374 -0.13885294 -0.24254514 0.025664356 0.10448828 -0.05916283 0.20188174
-0.29427922 -0.15374322 0.055378675 0.3959402 -0.00704729 0.47672728 -0.22539043 -0.16930522
-0.26001915 -0.49679056 -0.5054269 -0.08593075 -0.1577381 -0.1463982 0.21392198 -0.27982038
0.44663912 0.05551216 0.13479105 -0.071775265 -0.099801734 0.24267268 -0.12065084 0.31960505
-0.3373548 0.11348063 -0.7236757 -0.12563963 -0.14559337 -0.4525667 0.3555254 -0.31105602
-0.04377777 -0.08945204 0.12450018 0.09814433 -0.121505134 -0.15031467 0.024929361 0.024870455
0.2515607 0.35897577 0.23485601 0.36692685 0.109988965 -0.04097746 0.033398107 0.36016095
00000000: 20fa 363e 44a0 1cbd 5340 713d 853a 25be
00000010: 499c 04bd 811a 35be a75b 26be e763 c83d
00000020: c16c b6be a53b 843e 598c a03e 4441 183f
00000030: bfca 14be 79b9 183e 375c afbd 0b87 97bd
00000040: fa4a b5be 3b99 06be 118a 72be d6f1 efbd
00000050: 1448 6cbe d2aa 12bb da45 bf3e f0e1 e03d
00000060: 9a0e 85be 93a8 f23d 1c8c 61be 8d9f c8bc
00000070: f050 8ebe 3998 0c3e f69c 593e f49d 603e
00000080: cfa3 0b3e 9613 6dbd 3f08 3dbe 299e 003d
00000090: bd6e 82be b4eb 8abe 40e6 02be 66e0 2c3e
000000a0: 3592 9a3c ad3c eabd bbe8 c73e 6b89 2e3c
000000b0: b986 80be 9ec3 f1bc e8c0 35bc 018d 0e3c
000000c0: 5a8c 043e 170f b43e 5c1b 86be 395a 2e3e
000000d0: 3916 04be 0476 ff3c 7657 48bd 232a c63d
000000e0: 8a41 b9be 46c6 a2be 10fd 213c 1e01 b1bd
000000f0: 3638 d63e 62cf 253e e3e8 65bd 3b93 12be
00000100: 18b0 c33e 034d 62be 35ec 983d 8b36 cc3e
00000110: c2cc aebd 9af3 aabd f8ef bf3d ff49 043f
00000120: 7edc a4bd e397 c03e 38e5 d6be 2dfe c3be
00000130: 2cf8 2f3d b1ac fcbe f21a 37be d8e4 473e
00000140: 8e38 20be 94a9 8ebe d037 4dbe eb0b 363c
00000150: 47bd c83d 0300 03be 1655 273e 145f 623e
00000160: 9447 dbbd cfc2 ce3d 140a 16be cc0d 0c3e
00000170: 0aeb 78bd 4ff4 14be a7d9 04be d0f7 b0bd
00000180: b39e e6bb 3fa1 e0be a913 9dbd 4b11 273e
00000190: 201d c0bc df38 72be 6851 f53e f7e4 e33e
000001a0: 003a 67be 0cab 48be 7a2a ba3e 5d47 cabd
000001b0: b37e a83d 16f0 ca3d ec66 b23e b132 883e
000001c0: 386b 42be 832b 553c bcc8 34bd 282e 8a3e
000001d0: cd9a 45be 65a8 1ebe f8ac 563d ded6 32bd
000001e0: 5a47 c43d aaf2 14be 7259 263d 8282 433d
000001f0: 30c2 29be 1bfb 96be 3d02 e0bd 5592 f63e
00000200: 0981 b93d 7555 2a3d bce0 063d 202b d93e
00000210: 01f8 8c3e e0cd 1c3e 8a99 a9be 68b1 86be
00000220: 1043 28bd b47e 24be c389 a7be eb31 513d
00000230: e418 133c 4f86 7c3e 8151 073e ffd7 50bd
00000240: dabe 1fbe dd1e 693d 40bb 32be 53cf 45bc
00000250: 00fa 9c3e 63c1 d3bd 5006 893d b595 c03e
00000260: 2879 133e 37d4 d23d 6afa df3d f54b ce3d
00000270: abf7 0bbe 3ebc 88bd e360 79bd ab93 4b3e
00000280: 87bb c0be ac87 e4be 66d9 773e f7fa e2bc
00000290: c406 a63e 9daf 8cbd 3cce df3c aa33 4f3e
000002a0: eb9a f3be c688 903e eb58 1f3e a645 0f3f
000002b0: efd7 f63d 6cab 89bd 77e3 c3be 7ac4 973e
000002c0: 478c 82be 0e39 c6be 3cf1 2c3e 684a 5bbe
000002d0: d097 c0be 3a11 90be 65bb d33d c091 4c3e
000002e0: e804 1c3e b0d5 08bd 8ea4 babc c36f 983e
000002f0: adea 31bd f08e 94b9 8458 3d3e a550 3b3e
00000300: 3d78 a43e cd2e a4be 01db 1e3e ffc9 173e
00000310: 1b49 053d cc3c 563e b579 c3be 5022 a73e
00000320: 9724 b33e 73d1 703c 772f 0ebe c15d 78be
00000330: 0e3e d23c f4fd d53d b954 72bd 16ba 4e3e
00000340: c4ab 96be dd6e 1dbe c0d4 623d adb8 ca3e
00000350: f4ec e6bb 9915 f43e c0cc 66be 595e 2dbe
00000360: 3b21 85be 555b febe a863 01bf 76fc afbd
00000370: 1986 21be 69e9 15be 5d0e 5b3e 9e44 8fbe
00000380: e2ad e43e b860 633d aa06 0a3e e9fe 92bd
00000390: da64 ccbd 307f 783e ca17 f7bd 46a3 a33e
000003a0: c5b9 acbe 8868 e83d d042 39bf ada7 00be
000003b0: 6e16 15be d3b6 e7be 6d07 b63e bc42 9fbe
000003c0: 5250 33bd a232 b7bd f3f9 fe3d e5ff c83d
000003d0: afd7 f8bd 17ec 19be a938 cc3c 20bd cb3c
000003e0: 90cc 803e accb b73e 187e 703e d6dd bb3e
000003f0: e541 e13d fbd7 27bd 74cc 083d 0467 b83e

lstm.bias_ih_l1 f4 [80]
-0.066077024 0.1176732 -0.28805885 -0.18039197 -0.028097833 0.097251326 0.025549777 -0.056199946
0.29274273 0.09642518 -0.26082358 0.03162262 0.06383009 -0.061715998 0.2753419 0.2640345
0.14128669 0.20094684 -0.2921178 0.13279897 -0.085358165 -0.14548738 -0.33225855 -0.31961337
-0.45945325 -0.5118521 -0.046986736 0.04056662 0.10492767 -0.32532424 -0.37437013 -0.2988575
-0.45597756 -0.06628297 0.14095974 -0.19742118 -0.058379285 0.038741898 -0.26858622 0.027119521
-0.32786623 -0.2844926 0.2672596 -0.018286962 -0.046745755 -0.1816107 -0.12469243 0.08356447
0.062231712 0.15437189 0.092934504 0.12820506 -0.0939703 -0.23337884 0.09650672 0.21873595
-0.14992452 0.1825039 -0.08842368 0.1795707 -0.60397565 -0.3250591 -0.22078095 -0.059086215
-0.35245547 -0.41597676 -0.54976654 -0.2250578 -0.530088 -0.49775672 -0.6116536 -0.24471109
-0.32318145 -0.2257453 -0.15487897 -0.11903814 -0.45069256 -0.0024109806 -0.27914232 -0.18465884
00000000: 6453 87bd a6fe f03d 737c 93be acb8 38be
00000010: 6d2d e6bc b42b c73d c44d d13c ea31 66bd
00000020: 60e2 953e 917a c53d ab8a 85be b886 013d
00000030: 5ab9 823d eac9 7cbd 9df9 8c3e 882f 873e
00000040: 75ad 103e 02c5 4d3e 7790 95be 74fc 073e
00000050: 43d0 aebd a5fa 14be cb1d aabe 5da4 a3be
00000060: 753d ebbe bd08 03bf 2a75 40bd 2f29 263d
00000070: 51e4 d63d e690 a6be 71ad bfbe da03 99be
00000080: e475 e9be 5ebf 87bd c057 103e c728 4abe
00000090: 1e1f 6fbd d3af 1e3d 2284 89be c229 de3c
000000a0: 15de a7be 04a9 91be 40d6 883e 8ace 95bc
000000b0: 7a78 3fbd 28f8 39be bf5e ffbd d923 ab3d
000000c0: aee6 7e3d aa13 1e3e 7254 be3d 3048 033e
000000d0: 8073 c0bd ddfa 6ebe 51a5 c53d 51fc 5f3e
000000e0: d085 19be 4de2 3a3e 7917 b5bd 62e1 373e
000000f0: 269e 1abf 256e a6be 6714 62be 6304 72bd
00000100: 0b75 b4be e8fa d4be 80bd 0cbf 8d75 66be
00000110: d9b3 07bf f8d9 febe 5595 1cbf 8b95 7abe
00000120: 0a78 a5be c729 67be 9898 1ebe 45ca f3bd
00000130: 2dc1 e6be 8b01 1ebb beeb 8ebe 3517 3dbe

lstm.bias_hh_l1 f4 [80]
-0.059553217 0.21396191 -0.09994082 0.06448001 -0.2608257 0.062079363 -0.007709548 -0.065041035
0.004956993 0.2734427 -0.15480082 -0.031157382 -0.31668434 0.044575974 0.49890783 0.2020494
-0.02558316 0.19407606 -0.11927977 0.2754413 -0.15204763 -0.35513166 -0.095050946 -0.1510138
-0.2395003 -0.42815748 -0.10479076 -0.18642923 -0.016811961 -0.30061612 -0.26694727 -0.069754474
-0.44886798 -0.0039052772 0.20613815 -0.16737252 -0.0494339 -0.19006425 -0.34078935 0.04860811
0.03462003 -0.12114592 0.079222836 -0.040260438 0.009522221 -0.035949178 -0.16091692 -0.1160002
-0.07353266 0.08039798 0.14486633 0.092985585 -0.022751015 -0.10831182 0.21422127 -0.023272062
-0.07702897 -0.12879021 0.023027163 0.19292597 -0.37376046 -0.3349822 -0.54314256 -0.04205991
-0.14404517 -0.57727534 -0.2680262 -0.13920316 -0.33203426 -0.30868036 -0.34307286 0.033854943
-0.14761274 -0.3188817 -0.371979 -0.22440837 -0.48624578 -0.2618963 -0.25581422 -0.61073935
00000000: 13ee 73bd d518 5b3e c6ad ccbd 180e 843d
00000010: f28a 85be ee46 7e3d 60a0 fcbb 3c34 85bd
00000020: 456e a23b ae00 8c3e 1b84 1ebe c43d ffbc
00000030: 7324 a2be 4c95 363d d970 ff3e 0ae6 4e3e
00000040: c693 d1bc e0bb 463e f448 f4bd a406 8d3e
00000050: 60b2 1bbe d1d3 b5be 12aa c2bd 5da3 1abe
00000060: 913f 75be 7537 dbbe 8a9c d6bd 4ee7 3ebe
00000070: 3db9 89bc 5bea 99be 50ad 88be 6fdb 8ebd
00000080: 06d2 e5be aeef 7fbb e115 533e b463 2bbe
00000090: 337b 4abd 34a0 42be f17b aebe 4c19 473d
000000a0: bccd 0d3d 5a1b f8bd 953f a23d 21e8 24bd
000000b0: 1703 1c3c 723f 13bd 68c7 24be 8391 edbd
000000c0: 4b98 96bd b2a7 a43d d757 143e 3a6f be3d
000000d0: 5660 babc 96d2 ddbd d25c 5b3e 0da5 bebc
000000e0: 5dc1 9dbd 95e1 03be 76a3 bc3c 638e 453e
000000f0: 885d bfbe c982 abbe 640b 0bbf 0347 2cbd
00000100: 9480 13be 51c8 13bf bb3a 89be 468b 0ebe
00000110: 6500 aabe 5a0b 9ebe 3fa7 afbe 7bab 0a3d
00000120: cb27 17be 7644 a3be 0874 bebe 4fcb 65be
00000130: 35f5 f8be 4617 86be 15fa 82be 6a59 1cbf

fc1.weight f4 [20, 20]
-0.13399439 0.094298795 -0.06424678 0.010727671 -0.034157965 -0.063035354 0.0071641174 0.0081862565
0.003448109 -0.2007933 0.04904967 -0.068236105 -0.025275525 -0.045935474 -0.10185243 -0.106879435
0.018775728 0.121637985 -0.07368215 -0.130136 0.07648497 0.12983416 0.10734048 0.13627462
0.15419915 -0.036459737 0.2593949 0.08648184 -0.03992545 0.07598595 -0.13245139 -0.1354836
0.036713626 0.11538231 0.01673532 -0.04810234 -0.23592445 -0.13294664 -0.03432393 -0.073760726
0.035250697 0.26801512 0.019228052 0.22060007 0.1901966 -0.14645264 0.11771916 -0.001906049
-0.030885844 0.06466061 0.1115997 0.15094447 0.14672554 0.054788325 0.056703217 -0.2325948
0.06780514 0.07440699 -0.037286863 0.11457238 0.16200261 -0.040625054 0.07277405 0.10219171
-0.087979876 0.09748533 0.13858446 -0.021737717 -0.25931454 -0.015501105 0.035866935 -0.05115706
0.067192785 0.016095705 -0.12941568 -0.05441516 -0.19050048 -0.14831538 -0.07316796 0.05259602
0.045817673 0.05132025 0.13620013 -0.026074907 -0.17804311 -0.00772662 -0.0067105526 0.091627635
0.2159491 0.0021741951 -0.0585784 -0.03360104 -0.045439694 0.1127477 0.006004978 0.06089406
-0.032245178 0.056949783 0.14500251 -0.04762423 -0.020332742 0.07413368 0.102698684 0.2642768
-0.036403246 -0.03716657 0.13104615 0.025423236 -0.027241126 0.1658513 0.0044871727 -0.10031849
0.14091033 -0.08927812 -0.032392967 -0.07749862 0.040004533 -0.13649578 0.04342275 0.040135324
-0.095535 0.14241877 -0.02041106 0.11580268 0.0019175729 0.012235379 0.17469005 0.026405254
-0.021215007 -0.13242123 0.068558365 -0.1180525 -0.15347636 0.14552021 0.014129855 0.015651038
0.010330604 -0.1214218 -0.22784942 0.117728874 -0.113080725 -0.25008598 -0.03543838 0.20735736
0.22985396 0.4262286 -0.076997876 0.21864681 -0.1847329 0.16997878 -0.33611396 0.14342001
0.23294331 -0.09035848 -0.0638791 0.28404537 -0.2738564 -0.13943084 -0.30468854 0.30013666
-0.15050672 -0.051107626 0.2261938 0.1646137 0.009634947 -0.11650742 0.041547846 0.10985696
0.07736555 -0.01942015 -0.09112486 0.018051302 -0.041545674 0.111751266 0.051836275 -0.068415225
0.04002594 -0.14493532 -0.1750485 0.09931074 -0.06227901 -0.09042084 0.15834545 0.07983842
0.07120819 0.062577546 0.084348604 -0.041880026 -0.12177504 -0.0097155655 -0.01911729 0.10498906
-0.032980766 0.011205774 0.04522033 0.026369762 0.094950326 -0.0027167709 0.13940074 -0.051300436
-0.1093695 0.10958535 0.16203345 0.20288448 -0.07309443 -0.13126802 0.01853629 0.061515693
-0.14547281 -0.059124675 -0.12407308 0.11926046 -0.028607905 0.048047215 -0.2016641 -0.10188331
-0.1657942 0.050270773 -0.17603047 0.15339904 -0.0696019 -0.07244804 -0.09764439 0.082754515
-0.27809232 0.1682245 0.2683057 -0.24429849 0.3350547 -0.122135736 -0.07029712 0.12328794
-0.12450005 0.04359432 0.32315552 0.07098351 -0.03694615 -0.25692275 0.32329664 -0.075504445
-0.016396869 -0.018668732 0.4011465 0.46826082 -0.105019905 0.07790699 0.32561237 0.34209946
-0.14042881 0.36264327 0.15681727 -0.13812402 -0.072392985 0.0042472645 0.13891113 0.16564383
00000000: d335 09be ba1f c13d d193 83bd 1dc3 2f3c
00000010: 39e9 0bbd ae18 81bd f9c0 ea3b a61f 063c
00000020: abf9 613b c29c 4dbe 4fe8 483d 5fbf 8bbd
00000030: 9e0e cfbc d626 3cbd 0298 d0bd 9be3 dabd
00000040: 8ecf 993c 561d f93d abe6 96bd 5f42 05be
00000050: 27a4 9c3d 3ff3 043e 53d5 db3d 938b 0b3e
00000060: 62e6 1d3e ce56 15bd 69cf 843e 641d b13d
00000070: de88 23bd 869e 9b3d 56a1 07be 36bc 0abe
00000080: 0761 163d 8f4d ec3d 8318 893c f606 45bd
00000090: 2e96 71be 2a23 08be 4097 0cbd dd0f 97bd
000000a0: 0963 103d 4739 893e 2684 9d3c fce4 613e
000000b0: e6c2 423e aef7 15be be16 f13d 64d4 f9ba
000000c0: 4f04 fdbc c86c 843d 628e e43d 3091 1a3e
000000d0: 383f 163e b969 603d a241 683d 552d 6ebe
000000e0: 6cdd 8a3d b162 983d 1cba 18bd eda4 ea3d
000000f0: 03e4 253e 7566 26bd 900a 953d e349 d13d
00000100: cb2e b4bd 64a6 c73d 16e9 0d3e 4c13 b2bc
00000110: e0c4 84be 59f8 7dbc 35e9 123d 118a 51bd
00000120: 5f9c 893d 24db 833c 8b85 04be 6ee2 5ebd
00000130: 8f12 43be fddf 17be 15d9 95bd ed6e 573d
00000140: 50ab 3b3d 2f35 523d 0c78 0b3e 0b9b d5bc
00000150: ef50 36be 962f fdbb 32e4 dbbb 45a7 bb3d
00000160: c321 5d3e f17c 0e3b e8ef 6fbd 3ea1 09bd
00000170: f91e 3abd 44e8 e63d 68c5 c43b 0d6c 793d
00000180: 8513 04bd 2d44 693d 8a7b 143e a011 43bd
00000190: da90 a6bc 66d3 973d b053 d23d 4a4f 873e
000001a0: 921b 15bd f93b 18bd f630 063e 6444 d03c
000001b0: c828 dfbc ecd4 293e 2209 933b c873 cdbd
000001c0: cc4a 103e 72d7 b6bd 7dae 04bd 99b7 9ebd
000001d0: cbdb 233d 8dc5 0bbe 0edc 313d f064 243d
000001e0: dba7 c3bd 3ad6 113e 1835 a7bc f529 ed3d
000001f0: 1257 fb3a e676 483c f3e1 323e d54f d83c
00000200: 18cb adbc 6e99 07be 5468 8c3d 82c5 f1bd
00000210: e828 1dbe 4003 153e e880 673c 9b36 803c
00000220: b241 293c feab f8bd 5c51 69be d61b f13d
00000230: de96 e7bd 450b 80be d627 11bd 7d55 543e
00000240: d65e 6b3e a33a da3e 10b1 9dbd f3e4 5f3e
00000250: 9f2a 3dbe eb0e 2e3e 2117 acbe b2dc 123e
00000260: b188 6e3e de0d b9bd 0cd3 82bd 656e 913e
00000270: e836 8cbe f5c6 0ebe 2300 9cbe 83ab 993e
00000280: 6f1e 1abe 3b56 51bd 599f 673e 7e90 283e
00000290: e6db 1d3c 719b eebd 132e 2a3d b0fc e03d
000002a0: d471 9e3d 0217 9fbc ac9f babd 53e0 933c
000002b0: cc2b 2abd d9dd e43d 4652 543d 481d 8cbd
000002c0: 3df2 233d ed69 14be ea3f 33be 6e63 cb3d
000002d0: 4618 7fbd 902e b9bd 4f25 223e 5382 a33d
000002e0: 99d5 913d a828 803d f6be ac3d 648a 2bbd
000002f0: 3165 f9bd 092e 1fbc dd9b 9cbc 8104 d73d
00000300: d716 07bd 6c98 373c f438 393d 6605 d83c
00000310: 5175 c23d da0b 32bb 11bf 0e3e 6820 52bd
00000320: 1efd dfbd 496e e03d 19ec 253e f3c0 4f3e
00000330: 88b2 95bd 206b 06be 6bd9 973c e1f7 7b3d
00000340: d3f6 14be b72c 72bd 071a febd d43e f43d
00000350: 205b eabc 28cd 443d 0981 4ebe 32a8 d0bd
00000360: f4c5 29be bae8 4d3d 5541 34be a314 1d3e
00000370: 718b 8ebd a35f 94bd c8f9 c7bd 337b a93d
00000380: 1e62 8ebe 0b43 2c3e 5d5f 893e 6229 7abe
00000390: 4a8c ab3e 4d22 fabd f0f7 8fbd 637e fc3d
000003a0: e2f9 febd f58f 323d a474 a53e cd5f 913d
000003b0: d954 17bd 618b 83be 2387 a53e 13a2 9abd
000003c0: ba52 86bc 2bef 98bc 1363 cd3e e2bf ef3e
000003d0: ad14 d7bd b38d 9f3d aab6 a63e a927 af3e
000003e0: 92cc 0fbe 61ac b93e b594 203e 6270 0dbe
000003f0: c642 94bd a32c 8b3b b83e 0e3e 899e 293e

fc1.bias f4 [20]
-0.34071654 -0.3231719 -0.14738418 -0.39034 -0.081881516 -0.29341564 -0.29515034 0.0214383
0.040383145 -0.32519305 -0.24633372 -0.17628023 -0.10314833 -0.04668763 0.1474132 -0.09779442
-0.052619185 -0.19364744 -0.10628496 -0.09225672
00000000: 6672 aebe ca76 a5be e1eb 16be a5da c7be
00000010: 7fb1 a7bd 933a 96be f21d 97be 609f af3c
00000020: cc68 253d b47f a6be e83e 7cbe ce82 34be
00000030: 6e3f d3bd 873b 3fbd 7cf3 163e 7148 c8bd
00000040: 3787 57bd 844b 46be eeab d9bd 17f1 bcbd

fc3.weight f4 [1, 20]
-0.015520992 -0.08619704 0.026656805 -0.11737659 0.019467736 0.008448292 -0.0002786683 0.18869816
0.03985903 -0.0018726931 0.025988346 0.0012381393 0.09506209 0.12425007 0.2909074 0.2466186
-0.0123380525 0.04267027 0.4051772 -0.12652235
00000000: c24b 7ebc 1388 b0bd 5f5f da3c 2363 f0bd
00000010: cd7a 9f3c b46a 0a3c 3a1a 92b9 173a 413e
00000020: 3943 233d 2775 f5ba 83e5 d43c 1049 a23a
00000030: eaaf c23d d276 fe3d d1f1 943e 9689 7c3e
00000040: 8b25 4abc 05c7 2e3d 6373 cf3e 138f 01be

exp_avg f4 [80, 58]
-0.00022640063 -0.0017289112 0.00013441233 3.4159035e-05 0.00011766153 -7.726467e-05 -9.417936e-05 0.00015677634
-0.0015199424 6.259697e-05 -1.6530517e-05 9.0439025e-05 0.00013287492 0.00019162743 0.000109536355 3.4223773e-05
1.2732946e-05 -5.395618e-06 -7.7375435e-06 1.7887349e-05 2.1157703e-05 1.566387e-05 4.377321e-05 1.838049e-05
5.371085e-06 8.157043e-06 2.2674994e-05 -4.2503663e-05 -7.1158785e-05 2.318922e-05 0.00013595515 0.00010124161
4.7099256e-05 1.2375492e-05 -5.9140388e-05 -6.739949e-05 -5.1915325e-05 -1.1102278e-06 -5.2076985e-07 -5.5710046e-07
-1.0157631e-05 -2.359958e-05 -3.355677e-05 7.84327e-05 9.787701e-05 -5.0639836e-05 -0.00014268306 -0.00042278453
-0.0006043813 -0.0004517954 -0.00019970632 -8.136356e-05 4.0930463e-06 -5.3633845e-05 -7.9850266e-05 -0.000143899
-6.6666675e-05 6.578222e-06 -4.972671e-05 -0.0018248635 -0.0010825305 -0.00034099928 -0.0002977287 0.00058610784
0.0007335461 -0.0001445215 -0.0029600142 0.0005890246 -0.00013630316 -1.5068808e-05 6.0774364e-05 7.668428e-05
-4.748546e-05 -0.00010006772 -0.00011026819 -9.047008e-05 -8.570653e-05 -0.0001232117 -0.00014069094 -0.0001147296
-0.00020263526 -0.00024268373 -0.000111971596 -0.0003546318 -4.268542e-05 -9.348044e-05 7.307421e-05 0.00013102336
0.00015271714 4.5708726e-05 -2.5986319e-05 -6.428326e-05 -0.0001115114 -2.4919083e-05 3.2667438e-05 5.12198e-05
-1.3799412e-05 8.413442e-06 3.917171e-05 4.0463543e-05 5.3070875e-05 0.00014402201 9.183562e-05 9.7449636e-05
0.000102700375 0.00019504395 0.000345943 0.0008953261 -0.00016770548 -0.0012525326 -0.00034349094 -0.00030041937
-0.0009010656 -0.00022051191 0.00012577031 0.00030424655 -0.00012876795 -0.00026020606 0.0001428891 4.706082e-05
8.022118e-05 0.00011065807 -8.575325e-05 0.00017443496 0.000120623015 8.8681736e-05 0.000109835055 8.723999e-05
0.00023763429 0.00023555517 0.00010239482 4.1957188e-05 1.4126235e-05 -5.089301e-06 -1.0707859e-05 -8.011385e-06
2.759017e-05 2.4198074e-05 3.4826775e-05 1.4037928e-06 -1.9888117e-05 -7.302919e-05 -0.00012483884 -0.00019236766
-0.00012462378 5.0361312e-05 0.00014280094 0.0001723376 7.994679e-05 5.8618276e-05 2.8302495e-05 -0.00010888479
1.9575484e-06 7.6090564e-06 -1.4122754e-05 -2.941067e-05 -3.4456047e-05 -2.185054e-05 2.0415655e-06 2.9622077e-05
6.973856e-05 3.0628937e-05 -0.00029907908 -0.00016287525 -0.0003348033 -0.00044431724 0.0003944011 0.00044939562
5.247351e-05 1.8326906e-05 -8.120272e-05 -0.00011655618 -0.00010378667 1.3882484e-05 4.6901146e-06 0.00069394056
-0.00023929417 -0.0003826107 -9.970771e-05 7.778236e-05 2.5412224e-05 9.095789e-06 5.011013e-05 3.450801e-05
7.312117e-05 -0.00014182077 -0.00011855679 -8.177042e-05 -7.082745e-05 -3.4794783e-05 -6.8782436e-05 -9.029925e-05
-8.784395e-05 -4.4100027e-05 -2.3069902e-05 -2.0187734e-05 -5.9098443e-06 1.0205888e-05 4.64228e-05 7.8167584e-05
4.088814e-05 -1.1956402e-05 3.1894604e-05 -0.000105177336 -5.6564924e-05 -7.078105e-05 -2.4342022e-05 -2.5077477e-05
-7.620217e-05 -7.6665865e-06 4.5928746e-06 7.732692e-06 5.171118e-07 2.188135e-05 -2.476445e-05 -9.126159e-06
-3.1752883e-05 -5.4745844e-05 6.756795e-05 0.0003131407 0.00032332036 9.913321e-05 -2.121085e-05 0.00026861136
0.0002127216 0.000186394 6.0297163e-05 -9.692921e-05 -5.8149948e-05 -0.00010249952 -0.00018054446 -1.653739e-05
2.8218205e-05 0.0037243012 0.000117169206 0.00069130707 0.0002126102 5.4424974e-05 7.839609e-06 -1.8271348e-05
0.0047998135 -1.0431732e-05 8.528358e-05 3.0684496e-05 7.0675866e-05 4.6604408e-05 3.914987e-05 2.1685091e-05
6.304354e-06 -9.686607e-06 -1.5934913e-05 -6.642825e-05 -4.713213e-05 -2.9372804e-05 -4.999969e-05 -4.2294487e-05
00000000: f565 6db9 a29c e2ba 09f1 0c39 fc45 0f38
00000010: 0ec1 f638 2709 a2b8 2982 c5b8 5464 2439
00000020: ce38 c7ba 7e46 8338 04ab 8ab7 15aa bd38
00000030: 5754 0b39 99ef 4839 e2b6 e538 7f8b 0f38
00000040: 969f 5537 010c b5b6 7fd0 01b7 ca0c 9637
00000050: d27b b137 e865 8337 2099 3738 cd2f 9a37
00000060: 4539 b436 3cda 0837 2e36 be37 f645 32b8
00000070: 153b 95b8 7986 c237 2f8f 0e39 ad51 d438
00000080: 718c 4538 55a0 4f37 820d 78b8 d358 8db8
00000090: a8bf 59b8 2303 95b5 08cb 0bb5 a78b 15b5
000000a0: b16a 2ab7 b6f7 c5b7 4fbf 0cb8 3c7c a438
000000b0: 5243 cd38 1c66 54b8 319d 15b9 2ea9 ddb9
000000c0: 586f 1eba f4de ecb9 4268 51b9 bba1 aab8
000000d0: 0057 8936 e7f4 60b8 4975 a7b8 98e3 16b9
000000e0: 66cf 8bb8 7fba dc36 a691 50b8 4230 efba
000000f0: b2e3 8dba 26c8 b2b9 7818 9cb9 08a5 193a
00000100: 724b 403a b28a 17b9 ccfc 41bb c668 1a3a
00000110: 9aec 0eb9 0ad0 7cb7 fae7 7e38 8fd1 a038
00000120: 202b 47b8 73db d1b8 c93f e7b8 c1ba bdb8
00000130: 58bd b3b8 6432 01b9 7086 13b9 fc9a f0b8
00000140: 7d7a 54b9 eb78 7eb9 4bd2 eab8 e0ed b9b9
00000150: 1f09 33b8 ee0a c4b8 6b3f 9938 5163 0939
00000160: b222 2039 5fb7 3f38 32fd d9b7 d0cf 86b8
00000170: 3adb e9b8 5309 d1b7 6504 0938 d7d4 5638
00000180: 0684 67b7 7527 0d37 4e4c 2438 66b7 2938
00000190: 6b98 5e38 9d04 1739 e097 c038 e05d cc38
000001a0: d860 d738 b684 4c39 af5f b539 51b4 6a3a
000001b0: 19da 2fb9 052c a4ba 9316 b4b9 9b81 9db9
000001c0: 7d35 6cba 3739 67b9 36e1 0339 4883 9f39
000001d0: e205 07b9 446c 88b9 80d4 1539 2c63 4538
000001e0: 6b3c a838 1911 e838 6dd6 b3b8 87e8 3639
000001f0: fdf6 fc38 a5fa b938 3f57 e638 9df4 b638
00000200: 782d 7939 5cff 7639 cdbc d638 30fb 2f38
00000210: b8ff 6c37 c3c4 aab6 e7a5 33b7 a368 06b7
00000220: 7071 e737 f8fc ca37 f712 1238 f469 bc35
00000230: 68d5 a6b7 3f27 99b8 2ce7 02b9 4db6 49b9
00000240: 71ad 02b9 0c3b 5338 d6bc 1539 86b5 3439
00000250: 1ba9 a738 e5dc 7538 256b ed37 1459 e4b8
00000260: 6d5e 0336 4c51 ff36 c4f0 6cb7 efb6 f6b7
00000270: e684 10b8 ad4b b7b7 d401 0936 ed7c f837
00000280: 9b40 9238 9277 0038 b7cd 9cb9 7ec9 2ab9
00000290: 8a88 afb9 40f3 e8b9 9fc7 ce39 dc9c eb39
000002a0: 0117 5c38 bbbc 9937 614b aab8 9f6f f4b8
000002b0: 0ba8 d9b8 d1e8 6837 c75f 9d36 90e9 353a
000002c0: 0aeb 7ab9 2499 c8b9 2b1a d1b8 161f a338
000002d0: 562c d537 1e9a 1837 582d 5238 b2bc 1038
000002e0: a158 9938 b9b5 14b9 b1a1 f8b8 297c abb8
000002f0: 3389 94b8 9df0 11b8 4a3f 90b8 0a5f bdb8
00000300: dd38 b8b8 0bf8 38b8 3d86 c1b7 d458 a9b7
00000310: 2d4d c6b6 f539 2b37 1ab6 4238 e7ed a338
00000320: 4e7f 2b38 5b98 48b7 92c6 0538 a792 dcb8
00000330: 2040 6db8 4970 94b8 1832 ccb7 795d d2b7
00000340: bace 9fb8 bd9f 00b7 7e1c 9a36 a9bb 0137
00000350: a7cf 0a35 d78d b737 40bd cfb7 8e1c 19b7
00000360: 662e 05b8 e79e 65b8 44b3 8d38 092d a439
00000370: 5383 a939 bde5 cf38 f4ed b1b7 68d4 8c39
00000380: 050e 5f39 c272 4339 96e7 7c38 7946 cbb8
00000390: 08e6 73b8 03f5 d6b8 8950 3db9 c6b9 8ab7
000003a0: 22b6 ec37 6813 743b bdb8 f538 d538 353a
000003b0: 1ef0 5e39 5f46 6438 dd86 0337 6c45 99b7
000003c0: c147 9d3b f303 2fb7 46da b238 3ab3 0038
000003d0: d137 9438 1a79 4338 da34 2438 61e8 b537
000003e0: fd89 d336 a983 22b7 f7ab 85b7 654f 8bb8
000003f0: bdaf 45b8 9e65 f6b7 c2b6 51b8 5c65 31b8
