experiments/basic/weights/2_RNN.pth (torch, 48507 bytes, 33 tensors)

lstm.weight_ih_l0 f4 [20, 58]
0	0xbe02860f	-0.12746452
1	0xbc9237b3	-0.017848825
2	0x3d7612a8	0.060076386
3	0xbce54850	-0.027988583
4	0x3ce1c85d	0.027561361
5	0xbd1d8f16	-0.038466536
6	0x3dff68fe	0.124711975
7	0xbe33c42d	-0.17555304
8	0x3df7cd72	0.120997325
9	0xbdf4d5b7	-0.11954825
10	0xbd2a5d76	-0.041593038
11	0x3e266866	0.16250762
12	0x3bbdf408	0.005796913
13	0xbb4fd30b	-0.0031711485
14	0x3e149c64	0.14512783
15	0x3e3fc185	0.18726166
16	0x3e82b6ac	0.25529993
17	0xbcea5b62	-0.028608028
18	0x3d4dcf4c	0.05024652
19	0xbd398834	-0.04529591
20	0x3e6c5ca3	0.23082213
21	0x3e3638f7	0.17795168
22	0x3dda44d3	0.106576584
23	0x3e8d79cc	0.27631986
24	0x3e9ed76b	0.31023726
25	0x3e47e2d6	0.19520125
26	0x3d13b9e5	0.036065955
27	0x3d67d53c	0.05659984
28	0xbc9c7309	-0.019097822
29	0x3e429280	0.19001198
30	0x3cf8f504	0.03039027
31	0xbdc2cc01	-0.09511567
32	0xbd212590	-0.039342463
33	0x3c4debdc	0.01256844
34	0x3e69c896	0.22830424
35	0x3dbeebb6	0.09322302
36	0x3c9953bd	0.018716687
37	0x3e25c851	0.16189696
38	0xbda3f06d	-0.08004842
39	0x3dedc67c	0.116101235
40	0x3e98cbad	0.29842892
41	0xbd6c75da	-0.05772958
42	0xbd40b57f	-0.04704809
43	0x3d266ffe	0.040634148
44	0xbdbd32b5	-0.09238187
45	0x3dbae129	0.09124977
46	0x3d99bc04	0.07506564
47	0xbdafc8da	-0.08583231
48	0xbd631cc4	-0.055447355
49	0x3e49a86b	0.19693153
50	0x3d951391	0.072791226
51	0x3e2cc89b	0.168734
52	0xbd25ea50	-0.04050666
53	0x3e435525	0.19075449
54	0x3c9e77dc	0.019344263
55	0x3d1c5598	0.038167566
56	0x3e636c0a	0.22209182
57	0xbd60f368	-0.05491963
58	0xbfdcfc2f	-1.726446
59	0xbd4f6fea	-0.05064384
60	0xbdf41366	-0.119177625
61	0xbca762a7	-0.020432783
62	0x3da69aec	0.08135018
63	0x3cc34bf5	0.02383993
64	0xbe4451c4	-0.19171816
65	0x3e241e67	0.16027223
66	0x3dd3d745	0.10343794
67	0x3d1da2c6	0.03848531
68	0x3d9fefde	0.07809423
69	0x3caeccd6	0.021337908
70	0x3c4d7b27	0.012541569
71	0x3e03b34d	0.12861367
72	0x3c8d2de6	0.0172338
73	0x3e204056	0.15649542
74	0xbdb5265b	-0.08845206
75	0x3e1697c1	0.14706327
76	0x3e334ed8	0.17510545
77	0xbd4ad52d	-0.049519707
78	0x3e063b8f	0.13108657
79	0xbd3bc56c	-0.045842573
80	0x3e7cda17	0.2469257
81	0xbd865d58	-0.06560773
82	0x3e472412	0.19447353
83	0xbdacc30a	-0.08435638
84	0x3eb23549	0.34806278
85	0x3df167cf	0.11787378
86	0x3e1bfe57	0.15233742
87	0x3e6207ed	0.22073336
88	0x3d80badf	0.06285643
89	0x3d85043f	0.064949505
90	0x3e83934c	0.25698316
91	0x3c75d587	0.015004522
92	0x3de61146	0.112337634
93	0x3d2ff93b	0.042962294
94	0x3c2b581d	0.01045802
95	0xbd3278ea	-0.043572344
96	0x3db55f33	0.088560484
97	0xbd4d8bf4	-0.050182298
98	0x3e7db74b	0.24776952
99	0x3e28782c	0.16452092
100	0xbbd01b65	-0.006350922
101	0xbe8c1d6f	-0.27366206
102	0xbe6bb2a7	-0.23017369
103	0x3d9c9cab	0.076470695
104	0x3d7e55db	0.062093597
105	0xbd56e91d	-0.052468408
106	0xbe04bd51	-0.12962843
107	0xbd5d3315	-0.054003794
108	0x3d15ec87	0.036602523
109	0xbe18242e	-0.14857551
110	0x3dd2bd38	0.10289997
111	0x3e20b28a	0.15693107
112	0xbd477a31	-0.048700515
113	0xbe5882fe	-0.2114372
114	0x3e52d735	0.20589907
115	0x3da08251	0.07837356
116	0x3fc8a17b	1.567428
117	0x3d3a394a	0.04546479
118	0xbdd0944c	-0.101845354
119	0xbe1bb8cc	-0.15207213
120	0xbd573d9b	-0.052548986
121	0x3dc0e0f9	0.0941791
122	0xbe4c8445	-0.19972332
123	0xbdc95b9b	-0.098319255
124	0xbdcb85bd	-0.09937618
125	0x3dd25680	0.10270405
126	0xbe326c7c	-0.17424196
127	0xbcb01514	-0.021494426
128	0x3c9b9318	0.018991038
129	0x3dd2a931	0.10286177
130	0xbd71e468	-0.059055716
131	0x3d710a0d	0.058847476
132	0xbdb6e509	-0.08930404
133	0xbd66b742	-0.056327112
134	0x3e32d292	0.17463139
135	0xbd837ce3	-0.064203046
136	0x3e1c2443	0.15248208
137	0xbd80e3a2	-0.062934175
138	0x3e196e06	0.14983377
139	0xbca516b9	-0.020152437
140	0x3e76e058	0.24109018
141	0x3dd75c64	0.10515669
142	0x3e1b0ce1	0.15141632
143	0x3e55236c	0.20814294
144	0xbd7c580b	-0.0616074
145	0xbc8d01e5	-0.017212817
146	0x3e0ab9ec	0.13547486
147	0x3e15b34e	0.1461918
148	0xbbab11ad	-0.005220613
149	0xbd9a1796	-0.0752403
150	0xbe09938a	-0.13435188
151	0x3e1c5254	0.1526578
152	0xbe010e8b	-0.12603204
153	0x3d8d60a4	0.06903198
154	0x3e00aced	0.12565966
155	0xbe323668	-0.17403567
156	0xbd935b89	-0.07195193
157	0xbe0e81e5	-0.13916738
158	0x3d921baf	0.071341865
159	0xbd146272	-0.036226697
160	0xbded5861	-0.115891226
161	0xbdd53849	-0.10411126
162	0x3e2dfe8e	0.16991636
163	0x3df708a6	0.120621964
164	0xbd6e0924	-0.058114186
165	0xbe1aed3d	-0.15129562
166	0x3bb5a0db	0.005542857
167	0xbcc12150	-0.023575455
168	0xbe5c0c53	-0.21489076
169	0xbcb68d20	-0.02228409
170	0xbde86395	-0.11347119
171	0xbc76335b	-0.015026893
172	0xbd5b1130	-0.05348319
173	0xbdbffe7a	-0.093747094
174	0x3fd8466f	1.6896495
175	0x3e10378e	0.14083692
176	0xbe3d8207	-0.18506633
177	0xbd93b8ff	-0.072130196
178	0xbdd888a3	-0.105729364
179	0x3e0e9941	0.13925649
180	0x3da8948a	0.082314566
181	0xbddb86bf	-0.1071906
182	0xbdf417e8	-0.11918622
183	0x3d9be007	0.07611089
184	0xbd8b1aa0	-0.06792188
185	0xbd55d522	-0.052205212
186	0xbe49bf3e	-0.1970186
187	0x3e1dbca4	0.15403992
188	0xbda9e0ba	-0.08294816
189	0x3dba97ce	0.09110986
190	0x3d3b3022	0.0457002
191	0x3e2578e0	0.16159391
192	0xbd70b873	-0.058769654
193	0xbe336335	-0.17518313
194	0x3e1c93db	0.15290777
195	0xbe2acff2	-0.16680887
196	0x3e00a1c2	0.12561706
197	0xbdd3328a	-0.10312374
198	0x3ca9f1ef	0.020745246
199	0x3db5d493	0.08878436
200	0xbe4a90f9	-0.19781865
201	0x3d773551	0.06035358
202	0x3dbb9822	0.091598764
203	0xbdeae93d	-0.11470268
204	0xbd854a26	-0.06508283
205	0x3e58b0d4	0.21161205
206	0xbc6c4f01	-0.014423133
207	0xbe1d2802	-0.15347293
208	0x3d0814ab	0.033222836
209	0xbd85cd82	-0.06533338
210	0x3deb81e2	0.114993826
211	0xbdcbff0b	-0.09960755
212	0x3db3691c	0.087602824
213	0xbe22e101	-0.15906145
214	0xbe0f702e	-0.14007637
215	0xbcb604ca	-0.02221908
216	0xbe652d27	-0.22380506
217	0x3de98341	0.11401988
218	0xbe438af3	-0.19095974
219	0xbe3b9f9a	-0.18322602
220	0xbd279d6c	-0.040921614
221	0xbd7b56f5	-0.061362226
222	0xbd07a54e	-0.03311663
223	0x3dd967eb	0.10615524
224	0x3dbe0769	0.09278757
225	0xbdff5d01	-0.12468911
226	0xbe93547f	-0.28775403
227	0xbdd95a22	-0.106128946
228	0x3bf7cf4f	0.007562555
229	0x3bbd5b7e	0.005778729
230	0xbd53d00c	-0.05171208
231	0x3cf58e0d	0.029974962
232	0x400ba0a1	2.181679
233	0x3d8dc210	0.0692178
234	0xbe5f662f	-0.21816324
235	0xbe61d51c	-0.22053951
236	0xbd33c122	-0.043885358
237	0x3de142e5	0.10999087
238	0x3dfbc651	0.12293685
239	0x3d277dc9	0.040891442
240	0xbe456f73	-0.19280796
241	0x3be9a771	0.0071305563
242	0xbc942cd1	-0.018087776
243	0xbe163531	-0.14668728
244	0x3dde0456	0.10840671
245	0xbe2d41a9	-0.16919579
246	0xbe4e4183	-0.20142178
247	0xbb828301	-0.003982902
248	0xbe184ef0	-0.14873862
249	0xbe433987	-0.19064914
250	0x3c46a9e0	0.012125462
251	0x3da23151	0.079195626
252	0xbe80cb71	-0.25155213
253	0xbe10cff1	-0.14141823
254	0xbe03fcf5	-0.12889464
255	0xbe984b74	-0.29745066

lstm.weight_hh_l0 f4 [20, 20]
0	0x3d608613	0.054815363
1	0x3cb08021	0.021545472
2	0xbdd0dca6	-0.10198335
3	0x3de38a07	0.11110311
4	0xbe8eb6af	-0.27873752
5	0xbca2cb34	-0.019872285
6	0x3e43a749	0.19106783
7	0xbe026ec9	-0.12737574
8	0x3db42e1f	0.087978594
9	0x3e087707	0.13326655
10	0xbe2f9460	-0.17146444
11	0xbd4af3b0	-0.049548805
12	0xbe4d05ab	-0.20021693
13	0x3e129743	0.14315514
14	0x3d68123b	0.05665801
15	0xbd697c9b	-0.0570036
16	0x3dbd3f2d	0.092405654
17	0x3e187f49	0.14892305
18	0xbdf0aae5	-0.117513455
19	0xbd543f8d	-0.05181842
20	0xbd4e4802	-0.05036164
21	0x3d424e17	0.047437754
22	0xbe0bd5c9	-0.13655771
23	0xbd9acc62	-0.07558514
24	0xbd0ebc8a	-0.034847774
25	0xbc3045ff	-0.010758876
26	0x3d16ac75	0.03678556
27	0xbdcbdcd7	-0.09954231
28	0x3dcefe74	0.10107127
29	0x3d8f2ca8	0.069909394
30	0x3d44be4b	0.04803304
31	0xbd0303b3	-0.03198595
32	0x3e4fad25	0.20280893
33	0xbdd207bf	-0.10255384
34	0xbe722a54	-0.2364896
35	0xbc8ee9fe	-0.01744556
36	0x3df1a2ba	0.11798616
37	0x3e51a833	0.20474319
38	0x3e156541	0.14589407
39	0xbe82538a	-0.2545436
40	0xbcc8eea6	-0.024527859
41	0xbe93c1d5	-0.2885882
42	0x3e232ae8	0.15934336
43	0x3ec0f643	0.37687883
44	0x3e4e1262	0.201242
45	0xbe45f42d	-0.19331427
46	0xbe86fbbd	-0.26363936
47	0x3dc437e7	0.09580975
48	0x3e464bb8	0.19364822
49	0xbe33d23e	-0.1756067
50	0x3e27b29c	0.16376728
51	0x3e1db459	0.15400828
52	0xbe9caaf1	-0.30599168
53	0xbdb779da	-0.08958788
54	0xbe11488d	-0.14187832
55	0x3e82f28b	0.2557567
56	0xbe239a04	-0.15976721
57	0x3de7b986	0.11314683
58	0xbc513f0d	-0.01277138
59	0xbe16b822	-0.14718679
60	0x3e14dc4c	0.14537162
61	0xbe1f56bf	-0.15560435
62	0x3df68d95	0.120387234
63	0xbb071519	-0.002061194
64	0xbcf1de82	-0.029525045
65	0xbe05ca97	-0.13065563
66	0xbe6b64b2	-0.22987631
67	0x3e5a5c86	0.21324357
68	0x3e1d88d4	0.15384227
69	0xbe9b0214	-0.30275023
70	0x3e9c1ac8	0.30489182
71	0x3e0be4f0	0.13661551
72	0xbd5784f6	-0.052617036
73	0x3de83b95	0.11339489
74	0xbd148a46	-0.03626468
75	0xbd66b9d2	-0.056329556
76	0xbdae63d0	-0.085151315
77	0xbd3d5f73	-0.046233606
78	0x3d8b90f9	0.06814761
79	0x3d927db2	0.07152881
80	0x3e77b448	0.24189866
81	0xbd26d0cd	-0.04072647
82	0xbe6a1b09	-0.22861876
83	0xbe20050d	-0.15626927
84	0xbd485ad3	-0.04891474
85	0xbd772546	-0.06033828
86	0x3e51fa70	0.2050569
87	0x3e1b0b15	0.15140946
88	0xbe937403	-0.28799447
89	0x3c68719e	0.014187245
90	0x3d4bc787	0.04975083
91	0xbe9a3a33	-0.30122527
92	0x3c580176	0.013183942
93	0x3e4f5a57	0.20249306
94	0x3a65b336	0.0008762361
95	0x3e5bcd1d	0.21464963
96	0x3db36110	0.087587476
97	0xbe1d48d5	-0.15359814
98	0x3da34b05	0.07973293
99	0x3e9201e3	0.28517064
100	0xbe7d2668	-0.24721682
101	0x3e65076d	0.22366114
102	0x3d8c4acf	0.06850206
103	0x3dd2d15f	0.102938406
104	0xbe3effed	-0.18652315
105	0xbc343ebb	-0.011001284
106	0xbdc34d19	-0.095361896
107	0xbd733e47	-0.059385564
108	0x3de16dd3	0.110072754
109	0xbe4941b5	-0.19653971
110	0x3d72e680	0.059301853
111	0xbe4fc4ce	-0.20289919
112	0x3dfe1dcc	0.12408027
113	0xbd31e242	-0.043428667
114	0x3dc23d5a	0.09484358
115	0xbe3d7e52	-0.18505219
116	0xbdf6474b	-0.12025317
117	0x3c4b8677	0.012422196
118	0xbe39a32f	-0.18128656
119	0xbe6be0f7	-0.23035036
120	0xbe8015c4	-0.25016606
121	0x3d74569c	0.05965291
122	0x3e66e710	0.22549081
123	0xbdf349ac	-0.11879286
124	0xbe291355	-0.16511281
125	0x3e18a52e	0.14906761
126	0xbe89a119	-0.2688072
127	0x3d531adb	0.051539283
128	0x3e56f4dd	0.20991845
129	0x3e1d3b7e	0.15354726
130	0xbd66263a	-0.0561888
131	0x3ca959a0	0.02067262
132	0xbc173e5b	-0.009231175
133	0xbe004fb7	-0.12530409
134	0xbd4c1d7f	-0.049832817
135	0x3d399aa3	0.04531349
136	0xbd3dd68f	-0.046347197
137	0x3da514ff	0.08060645
138	0x3ddc987f	0.10771274
139	0xbecd0596	-0.40043324
140	0x3e0be6a9	0.13662209
141	0x3bf71e4f	0.007541455
142	0x3e88c593	0.26713237
143	0x3dd874f8	0.10569185
144	0x3e84c7c0	0.25933647
145	0xbde727fd	-0.11286924
146	0xbded00ef	-0.11572444
147	0xbdf2cf56	-0.118559524
148	0x3dea70ee	0.11447321
149	0xbdaa2c65	-0.08309249
150	0xbd87a425	-0.06623105
151	0x3c890ae0	0.016728818
152	0xbe4bcd74	-0.19902593
153	0xbd773763	-0.060355555
154	0xbd8420bc	-0.06451556
155	0xbd7e6982	-0.06211234
156	0xbd8fc598	-0.0702011
157	0xbe3f0543	-0.18654351
158	0x3da564ff	0.08075904
159	0x3de3e379	0.11127371
160	0xbe0eca6c	-0.13944405
161	0xbd05ca04	-0.03266336
162	0x3d58680d	0.052833606
163	0xbe18b7d2	-0.14913872
164	0x3e814ebd	0.25255385
165	0x3e188957	0.14896141
166	0x3ce146c6	0.027499568
167	0xbd2a3531	-0.041554634
168	0xbe145699	-0.1448616
169	0xbdd9f45e	-0.106423125
170	0x3e24eff0	0.16107154
171	0xba1ccbc8	-0.00059812935
172	0xbc5cb705	-0.01347137
173	0xbdfd6488	-0.123726904
174	0x3bfe37de	0.0077581247
175	0xbd4d14ec	-0.05006878
176	0xbcbf009b	-0.023315718
177	0x3dbc9ef0	0.092100024
178	0x3d71abd9	0.059001777
179	0x3e859c6e	0.2609591
180	0xbe76d299	-0.24103774
181	0x3c27b460	0.010235876
182	0xbc08730f	-0.008328213
183	0xbd091402	-0.033466347
184	0xbd05acf9	-0.032635663
185	0x3e03bd46	0.12865171
186	0xbe7db510	-0.24776101
187	0xbd8b2001	-0.06793214
188	0xbe206f15	-0.15667374
189	0x3c2162d8	0.009850226
190	0xbded3f68	-0.115843594
191	0xbd723513	-0.059132647
192	0x3ea2403d	0.31689635
193	0x3df402ab	0.119145714
194	0x3ca8100a	0.02051546
195	0x3e8675d4	0.2626177
196	0xbd763b59	-0.060115192
197	0xbe34c12f	-0.17651819
198	0x3d1561f3	0.036470365
199	0x3e00d820	0.12582445
200	0xbdebc95a	-0.11513014
201	0x3dcec1ce	0.10095559
202	0x3ea7062f	0.32621905
203	0x3e3c8fcf	0.18414234
204	0x3d8c2503	0.06842997
205	0xbd303724	-0.043021336
206	0x3d47a6b9	0.048742983
207	0xbcbb682f	-0.022876827
208	0xbe33ad00	-0.17546463
209	0x3e333222	0.17499593
210	0xbe4c3940	-0.19943714
211	0xbd3cd893	-0.04610498
212	0xbd55a034	-0.052154735
213	0x3dbbaa5f	0.09163355
214	0x3e21504b	0.15753286
215	0x3d852ea1	0.065030344
216	0x3e3089e1	0.17240097
217	0x3e5dedb1	0.21672703
218	0x3db01c3f	0.085991375
219	0xbe69f32c	-0.22846669
220	0x3e78a881	0.24283029
221	0x3dfd4aeb	0.12367805
222	0xbdb91cde	-0.09038709
223	0x3e2a3552	0.16621903
224	0xbbb132a3	-0.0054076477
225	0x3e787757	0.24264275
226	0x3dc1819c	0.09448549
227	0xbbc69b18	-0.006060969
228	0x3d99ed94	0.075160176
229	0x3d784bef	0.06061929
230	0x3e01de7c	0.12682527
231	0xbecd9996	-0.4015624
232	0xbc50a468	-0.01273451
233	0xbda74115	-0.0816671
234	0x3e28ddb8	0.16490829
235	0xbe142d4c	-0.14470404
236	0xbe26d390	-0.16291642
237	0x3d338b23	0.043833863
238	0x3d195ee7	0.03744402
239	0x3e8665df	0.26249596
240	0x3e21b3c6	0.15791234
241	0xbd48ca7f	-0.04902124
242	0x3eba96b3	0.364431
243	0x3d1a542c	0.03767793
244	0x3e332792	0.17495564
245	0x3dda440c	0.1065751
246	0x3d77516f	0.060380396
247	0x3e6790e6	0.22613868
248	0x3cf6f56c	0.030146323
249	0x3de4e471	0.11176384
250	0xbe9068c7	-0.2820494
251	0x3d7a360f	0.06108671
252	0x3db45c51	0.088066705
253	0x3d5044a7	0.050846722
254	0x3e691c9c	0.2276482
255	0x3e159e07	0.14611064

lstm.bias_ih_l0 f4 [20]
0	0xbd45348d	-0.04814582
1	0x3ca04924	0.019566126
2	0x3d484325	0.04889216
3	0xbd439551	-0.04774982
4	0x3dfe85eb	0.124278866
5	0xbdeb542f	-0.11490666
6	0xbe02cfb9	-0.12774552
7	0x3b6c4cfa	0.0036056624
8	0x3d99dc1c	0.07512686
9	0xbd54a21c	-0.051912412
10	0xbe2d3d22	-0.16917852
11	0xbe03ae0f	-0.12859367
12	0xbdfd0cc0	-0.123559475
13	0xbe03c54e	-0.12868235
14	0x3e1f6605	0.15566261
15	0xbe49033e	-0.19630143
16	0xbdeb1c64	-0.114800245
17	0xbe05a6d5	-0.13051923
18	0x3d3a34ff	0.045460697
19	0xbcc6d975	-0.024273613

lstm.bias_hh_l0 f4 [20]
0	0x3c7a7451	0.015286521
1	0xbd29dc9d	-0.04147016
2	0xbe0533fa	-0.13008109
3	0x3d1e3fbd	0.038635004
4	0x3dbf7ca7	0.093499474
5	0x3d2af72b	0.041739624
6	0x3e368af7	0.17826448
7	0xbe07f5af	-0.13277315
8	0x3d7601d1	0.060060326
9	0xbd6b2e96	-0.057417475
10	0x3ded533f	0.115881436
11	0x3d3d0392	0.046145983
12	0xbdb85dd9	-0.09002275
13	0xbb8b8b75	-0.004258568
14	0xbe4c8175	-0.19971259
15	0x3dcc7183	0.09982588
16	0x3e527d2c	0.20555562
17	0xbcf77b4d	-0.030210162
18	0x3d9ebf9b	0.077513896
19	0xbdaf80e4	-0.08569506

lstm.weight_ih_l1 f4 [20, 20]
0	0x3e21e998	0.15811765
1	0x3dad9d62	0.08477284
2	0xbdac12a5	-0.08401994
3	0x3c5c96df	0.013463705
4	0xbe337808	-0.17526257
5	0x3d96c3ed	0.073615886
6	0x3e2224b4	0.15834314
7	0xbe28feb9	-0.16503419
8	0x3e13eadd	0.14445062
9	0x3df14d6f	0.117823474
10	0xbbfa69e4	-0.0076420177
11	0x3e5ad0d7	0.21368729
12	0xbd1747a2	-0.03693355
13	0xbc2b7dcf	-0.010467007
14	0x3e0f942c	0.14021367
15	0xbe881f1f	-0.26586244
16	0x3e607b8b	0.21922128
17	0x3d47781e	0.048698537
18	0x3e8ee66d	0.27910176
19	0xbde7039b	-0.112799846
20	0xbd856934	-0.065142065
21	0xbd993e62	-0.07482602
22	0x3da53cc2	0.08068229
23	0x3e8c3fcf	0.27392432
24	0x3d8688db	0.06569072
25	0xbe6f9007	-0.23394786
26	0x3dcf4211	0.10120023
27	0x3e1490e2	0.14508393
28	0x3e1d7e3c	0.15380186
29	0xbe4f568f	-0.20247863
30	0x3dab3b27	0.08360892
31	0xbe2435d0	-0.16036153
32	0xbcf43e75	-0.029814938
33	0x3c82d220	0.015969336
34	0xbbd5c586	-0.006523791
35	0x3da40c0d	0.08010111
36	0xbcae8d92	-0.02130774
37	0xbd7bb51a	-0.06145201
38	0xbe1f9c3a	-0.1558694
39	0x3c4f4108	0.012649782
40	0x3ddaeee4	0.10690096
41	0x3e151bad	0.14561339
42	0x3dd17f0f	0.10229313
43	0xbdc67116	-0.09689538
44	0x3b5bf2f3	0.0033561557
45	0xbd06384b	-0.03276853
46	0xbc7612e2	-0.01501915
47	0xbd2795c3	-0.04091431
48	0xbcb67c5f	-0.022276102
49	0x3c4a5e2e	0.012351556
50	0x3d3c837b	0.046023827
51	0xbba06e3a	-0.0048959525
52	0x3e3f9ec3	0.18712907
53	0xbe091c74	-0.1338976
54	0xbdaeb86d	-0.0853127
55	0xbddc9cb6	-0.10772078
56	0xbd15865f	-0.0365051
57	0xbaed79bd	-0.0018117946
58	0x3e1ed91d	0.1551251
59	0xbde71349	-0.11282975
60	0xbe2319cd	-0.15927811
61	0xbd4f74ea	-0.050648607
62	0x3e34e720	0.17666292
63	0xbd23d80d	-0.040000964
64	0x3dd2529a	0.10269661
65	0xbdee1116	-0.11624353
66	0x3d97c8cf	0.07411348
67	0x3d08f9a2	0.033441193
68	0x3d52c5ab	0.051458042
69	0xbddced0e	-0.10787402
70	0x3dae8c8f	0.08522903
71	0x3d74c1de	0.0597552
72	0xbebc5d0f	-0.36789748
73	0x3e7ba891	0.24576022
74	0xbe6e40d5	-0.23266919
75	0x3e820477	0.2539403
76	0xbd64cf27	-0.05586162
77	0xbe988023	-0.2978526
78	0xbe851341	-0.25991252
79	0x3d88303e	0.066498265
80	0x3da45de2	0.08025719
81	0x3dbace23	0.09121349
82	0x3e8cc718	0.27495646
83	0xbdecffcd	-0.115722276
84	0x3ea68fba	0.3253153
85	0xbe2b9ff2	-0.16760233
86	0xbdbb58d0	-0.09147799
87	0x3da2a6f2	0.079419985
88	0x3e052cb8	0.1300534
89	0xbd1c2ebe	-0.038130514
90	0x3d2704de	0.040776126
91	0x3ba5bfde	0.0050582727
92	0xbe06ea93	-0.1317542
93	0x3da2b58a	0.07944782
94	0xbd454c66	-0.048168562
95	0x3de87e84	0.11352256
96	0xbe1709a4	-0.14749771
97	0x3bed2908	0.0072375573
98	0xbde393d0	-0.11112177
99	0xbcbfc231	-0.023408027
100	0xbe255056	-0.16143927
101	0xbe6a2a94	-0.22867805
102	0x3e266110	0.16247964
103	0x3d7b0779	0.061286423
104	0x3e4f7f4e	0.20263407
105	0x3c8ca83a	0.01717006
106	0xbd3918bf	-0.045189615
107	0xbdcad21a	-0.09903355
108	0x3c509e30	0.012733027
109	0x3d16d4df	0.036824103
110	0x3d297453	0.0413707
111	0xbe3c26ac	-0.18374127
112	0xbe48e5a6	-0.19618854
113	0x3d8a3000	0.067474365
114	0x3d9b002e	0.07568394
115	0xbcfa0d01	-0.030523779
116	0xbdc55a96	-0.096364185
117	0x3b9eb0cc	0.004842853
118	0x3d96aa9a	0.073567584
119	0x3da69b99	0.08135147
120	0x3d765fc7	0.060149934
121	0x3d613eac	0.05499141
122	0x3d96deff	0.07366752
123	0x3d277a48	0.0408881
124	0x3df6b24c	0.12045726
125	0x3c80fe9c	0.015746407
126	0x3e3b3629	0.18282379
127	0xbcf6dc7d	-0.030134434
128	0xbe7d9508	-0.24763882
129	0xbd8ee719	-0.06977672
130	0xbdd61425	-0.10453061
131	0x3d8f0433	0.06983223
132	0xbc1f5ec6	-0.009727186
133	0xbe07801c	-0.13232464
134	0xbdc6128d	-0.09671507
135	0x3e2720f5	0.16321166
136	0x3e2e3d7b	0.1701564
137	0x387a0f2d	5.961878e-05
138	0x3e66571e	0.2249417
139	0x3bbaa35b	0.005695743
140	0x3d2325ba	0.0398309
141	0xbcc73b24	-0.024320193
142	0x3d924d41	0.07143641
143	0xbd30640c	-0.043064162
144	0xbe747a21	-0.23874713
145	0x3d35e86f	0.04441112
146	0x3de2eb5e	0.11080049
147	0xbe4c76ac	-0.19967145
148	0xbe51b1d4	-0.20477992
149	0x3d04d3ab	0.032428425
150	0xbde62137	-0.11236804
151	0x3e0081bc	0.1254949
152	0x3eaf54c7	0.34244367
153	0xbe2977c5	-0.16549595
154	0x3d1d9112	0.038468428
155	0xbccf44e4	-0.025301404
156	0x3e0a6611	0.13515498
157	0x3dff4ca7	0.12465792
158	0x3e5b1fdf	0.21398877
159	0xbd0bdfdd	-0.03414904
160	0x3ce6d240	0.028176427
161	0xbe3dd833	-0.18539505
162	0x3e4bbd64	0.19896466
163	0xbd9892f1	-0.07449902
164	0x3e37b1bc	0.17938894
165	0x3dc1cbb2	0.0946268
166	0x3defb3b2	0.11704196
167	0x3dabd423	0.08390071
168	0x3e72403d	0.23657317
169	0x3d342910	0.043984473
170	0x3ddc9d33	0.10772171
171	0xbe641803	-0.22274785
172	0xbdbc8f1c	-0.092069834
173	0x3e8f0997	0.27937004
174	0x3b33c99c	0.00274334
175	0x3e3c178a	0.18368354
176	0xba4b71cd	-0.0007760793
177	0xbe458d39	-0.19292153
178	0xbe24ec71	-0.1610582
179	0x3cec0924	0.028812952
180	0xbe57cb05	-0.2107354
181	0xbe9402c9	-0.28908375
182	0x3cc60da2	0.024176423
183	0x3d1397c3	0.036033403
184	0x3e1de5e7	0.15419732
185	0xbdf6cc0c	-0.120506376
186	0xbe80c115	-0.2514731
187	0x3da1a2cc	0.07892379
188	0xbcb08eae	-0.02155241
189	0x3c379144	0.011204068
190	0xbe1483d2	-0.1450341
191	0xbe7d966b	-0.24764411
192	0xbde94241	-0.1138959
193	0x3e353137	0.17694555
194	0x3d370248	0.04467991
195	0x3e7fe7ec	0.24990815
196	0xbe8dc27b	-0.2768744
197	0xbe273eec	-0.16332597
198	0xbe8864a2	-0.26639277
199	0xbe3e4e9a	-0.18584672
200	0x3bf8d4ae	0.007593713
201	0xbc816a40	-0.015797734
202	0x3ea1f5df	0.31632897
203	0x3d71e952	0.059060402
204	0xbbdc739d	-0.0067276494
205	0x3e3b6555	0.18300374
206	0x3e724ce4	0.23662144
207	0xbde59e5e	-0.11211847
208	0xbd90768d	-0.07053862
209	0x3cffb963	0.031216329
210	0xbe1ed7f2	-0.15512064
211	0xbe5158c2	-0.20444015
212	0xbcda7403	-0.026666647
213	0x3cace484	0.021105058
214	0x3c421fbe	0.011848388
215	0xbe3c0b4b	-0.18363683
216	0x3e17b524	0.14815193
217	0xbd08fad3	-0.03344233
218	0xbd4422cf	-0.04788476
219	0xbd95ed4f	-0.07320654
220	0xbe08be84	-0.13353926
221	0xbcbe0157	-0.023193998
222	0xbe59f40c	-0.21284503
223	0xbe22d015	-0.1589969
224	0xbe32a64a	-0.17446247
225	0x3d984c6b	0.074364506
226	0x3e3c0d01	0.18364336
227	0xbe9a8fac	-0.30187738
228	0x3c27e6e0	0.010247916
229	0x3ea4733c	0.32119167
230	0xbe10d242	-0.14142707
231	0xbe26d269	-0.16291203
232	0xbd8e8342	-0.06958629
233	0xbe932981	-0.28742602
234	0x3c596b72	0.013270246
235	0xbdf4b986	-0.11949448
236	0x3da95c8a	0.082696036
237	0x3e87b7a6	0.265073
238	0x3d228422	0.039676793
239	0x3cfacb25	0.030614445
240	0xbe2843e6	-0.16432151
241	0x3da40a6d	0.08009801
242	0x3c5a4239	0.013321453
243	0xbe98dd23	-0.29856214
244	0x3c98d7bd	0.01865756
245	0xbd3db47e	-0.04631471
246	0x3e44b8b3	0.19211082
247	0xbdc846cc	-0.097791284
248	0xbe263d0d	-0.16234227
249	0xbd0a14c5	-0.033711214
250	0x3dea542d	0.114418365
251	0xbd07a805	-0.03311922
252	0x3e7db392	0.24775532
253	0xbe43e5b1	-0.19130589
254	0x3e10a4d2	0.14125374
255	0x3d120d2e	0.0356571

lstm.weight_hh_l1 f4 [20, 20]
0	0xbe2526cb	-0.1612808
1	0x3de198ab	0.11015447
2	0xbe35d6b7	-0.17757688
3	0x3ea8bbf5	0.329559
4	0xbc211262	-0.009831043
5	0xbd557ee5	-0.05212297
6	0xbe282f83	-0.16424374
7	0xbc2e1792	-0.010625737
8	0xbe360c36	-0.17778096
9	0x3d856ef7	0.065153055
10	0x3de40576	0.11133854
11	0xbe0ccd23	-0.13750128
12	0x3e2da8a5	0.16958864
13	0x3e449c64	0.19200283
14	0xbe1ce261	-0.15320732
15	0xbe1d8cd2	-0.1538575
16	0x3d3cb524	0.046071187
17	0x3eaa7e82	0.33299643
18	0xbe3eda99	-0.18638076
19	0x3e08cdb0	0.13359714
20	0xbead7813	-0.33880672
21	0xbe1cf861	-0.15329124
22	0x3e7a1ac3	0.24424271
23	0x3e582997	0.21109615
24	0xbe67a5da	-0.22621861
25	0x3c5e9403	0.013585093
26	0xbe40068a	-0.18752494
27	0x3d42cb8b	0.047557395
28	0xbdd2f18d	-0.102999784
29	0x3d1be9cc	0.038064763
30	0x3daca498	0.08429831
31	0xbd8b38cd	-0.06797943
32	0xbd92c2ee	-0.07166086
33	0x3dc33ca5	0.095330514
34	0x3d4f4ee3	0.05061234
35	0x3e325c9b	0.17418139
36	0x3ddd7e6c	0.10815129
37	0x3d6457da	0.055747844
38	0x3d7491db	0.05970941
39	0xbe712c46	-0.23552045
40	0x3e36220a	0.17786422
41	0xbd961d57	-0.07329815
42	0xbe937bc3	-0.2880536
43	0xbd82d195	-0.06387631
44	0xbe4c34fa	-0.19942084
45	0x3e82c21f	0.25538728
46	0xbd4714c7	-0.0486038
47	0xbc9da178	-0.019242033
48	0xbe04f34f	-0.1298344
49	0xbe26f6bb	-0.16305058
50	0xbe6d2e9b	-0.2316231
51	0x3dfca09a	0.1233532
52	0x3e41c361	0.18922187
53	0xbd609c19	-0.054836366
54	0xbde80844	-0.113297015
55	0x3e51da31	0.2049339
56	0x3d6565bc	0.056005225
57	0xbda54037	-0.08068889
58	0xbe52f8ea	-0.20602766
59	0xbd8a14a9	-0.06742222
60	0xbb41fc0a	-0.002959969
61	0xbd7831e5	-0.060594458
62	0x3e3f8fb9	0.1870717
63	0xbec62b2a	-0.38704807
64	0xbd308cd0	-0.04310304
65	0xbe392457	-0.18080269
66	0xbda7bc55	-0.08190218
67	0xbbabd5b3	-0.005243981
68	0xbdd1e803	-0.10249331
69	0x3de6299b	0.11238404
70	0xbd844de3	-0.06460168
71	0xbe2a1f78	-0.16613567
72	0xbd916795	-0.07099835
73	0x3c3bb6f1	0.011457191
74	0xbe29c4ad	-0.16578932
75	0xbdf7bcbb	-0.12096544
76	0x3e893e33	0.26805267
77	0x3dab4c28	0.08364135
78	0x3e0f7437	0.14009176
79	0xbe1da5a1	-0.15395214
80	0x3cd3e0cc	0.025864027
81	0x3b93c628	0.004509706
82	0x3c9fea05	0.019520769
83	0xbde565d6	-0.11201064
84	0xbe06bcdd	-0.13157983
85	0x3e3846dc	0.1799578
86	0xbbceb344	-0.006307991
87	0xbe06ac90	-0.13151765
88	0xbcaa8905	-0.02081729
89	0x3e0f48a4	0.13992554
90	0x3d8f7392	0.07004465
91	0xbd189caa	-0.03725878
92	0xbdfd31ce	-0.12363015
93	0x3e601202	0.2188187
94	0xbd2d0a23	-0.042245995
95	0x3e8088cb	0.25104365
96	0xbb95444f	-0.004555262
97	0x3e08e651	0.13369109
98	0x3da2202d	0.07916293
99	0xbe322d2b	-0.17400043
100	0xbdaab93b	-0.08336111
101	0x3def6148	0.11688477
102	0x3db6c1b7	0.08923667
103	0xbde8eaf3	-0.11372938
104	0xbd952ff9	-0.07284541
105	0xbdbd0192	-0.09228815
106	0xbe23248d	-0.15931912
107	0x3e6d7796	0.2319015
108	0x3e4ea7f5	0.20181258
109	0x3e37e16a	0.17957082
110	0xbd50f184	-0.051011577
111	0x3e10ad29	0.14128555
112	0xbcc61491	-0.024179729
113	0x3d3c404c	0.045959756
114	0x3d5c8b12	0.053843565
115	0x3d990501	0.074716575
116	0x3e6fcbef	0.23417638
117	0xbd653260	-0.055956244
118	0xbdce9f5b	-0.100889884
119	0x3e03eb79	0.12882794
120	0x3e18598c	0.1487791
121	0xbd0bcdc0	-0.034131765
122	0xbdfe41fb	-0.124149285
123	0xbd9b0135	-0.075685896
124	0xbe43b219	-0.19110908
125	0x3d723885	0.059135932
126	0xbdce8e6f	-0.10085761
127	0x3e01c1a8	0.1267153
128	0xbd8fcc13	-0.07021346
129	0xbdc49e23	-0.09600475
130	0xbe3522cc	-0.17689055
131	0xbe97acf6	-0.29624146
132	0x3e450536	0.19240269
133	0xbe1537ee	-0.14572117
134	0x3d58074e	0.05274134
135	0x3c03a6ed	0.008035404
136	0x3c6f43ae	0.014603538
137	0xbda67468	-0.081276715
138	0x3d03141d	0.032001603
139	0x3c5d0ee5	0.013492321
140	0xbe8e1b85	-0.2775537
141	0x3e00b0c8	0.12567437
142	0x3e659ad9	0.22422351
143	0x3d70f5a1	0.058828
144	0xbd9e18d6	-0.07719581
145	0xbd09c92e	-0.033639126
146	0xbdbc698f	-0.09199821
147	0xbe2cff6f	-0.16894315
148	0xbe4d9460	-0.20076132
149	0xbde80cc1	-0.113305576
150	0x3ddf1946	0.108934924
151	0xbd968710	-0.0734998
152	0x3d845db0	0.06463182
153	0xbde8bdb6	-0.113643095
154	0xbdc3eb0b	-0.09566315
155	0xbe051d59	-0.12999476
156	0x3d5f2b3b	0.054484587
157	0xbda0584a	-0.0782934
158	0x3e4d2b14	0.20035964
159	0x3d279319	0.040911768
160	0x3d31b3d4	0.043384388
161	0xbd4a0cbb	-0.049328547
162	0x3dbe9aad	0.09306846
163	0x3e663284	0.22480208
164	0x3d402651	0.04691154
165	0xbd96dce0	-0.07366347
166	0x3e1908b2	0.14944723
167	0x3e125c5c	0.14293045
168	0x3d0a4b7f	0.033763405
169	0x3d99f88e	0.07518111
170	0xbd86fea1	-0.06591535
171	0x3d4678b8	0.04845497
172	0x3e333d5b	0.17503874
173	0xbd24bbd6	-0.040218197
174	0xbe06bfef	-0.13159154
175	0x3e7f6f8d	0.24944897
176	0xbd110a99	-0.035410497
177	0x3d54d9ff	0.05196571
178	0x3e742e60	0.23845816
179	0x3a76eae7	0.00094191585
180	0x3db502b5	0.08838407
181	0x3d04b7e4	0.032401934
182	0x3bf752af	0.0075476984
183	0xbd8694d6	-0.06571357
184	0xbde7a4f5	-0.1131076
185	0xbc8608e4	-0.016361661
186	0x3e155de4	0.14586598
187	0xbda5d9cc	-0.08098182
188	0xbda9f2a0	-0.0829823
189	0xbd1768ab	-0.036965054
190	0x3eaa7014	0.33288634
191	0x3dc8ddad	0.09807906
192	0xbdb887fd	-0.09010313
193	0xbc838311	-0.016053708
194	0xbbffc5a8	-0.007805545
195	0xbd0e82d9	-0.034792755
196	0x3e56a0f8	0.20959842
197	0xbafef70e	-0.001945229
198	0x3e91fd46	0.28513545
199	0x3dc18fad	0.09451232
200	0xbb02ad6a	-0.0019939789
201	0xbe236331	-0.15955807
202	0x3e03e5cc	0.1288063
203	0x3e7ee5e9	0.24892391
204	0xbe47b26d	-0.19501658
205	0x3da9e12e	0.08294903
206	0x3e5e9d75	0.21739753
207	0x3d04cddb	0.03242288
208	0xbe5fac7e	-0.21843144
209	0x3d233352	0.039843865
210	0xbbddb381	-0.0067657833
211	0xbe0efb3a	-0.13963023
212	0xbc3f02dc	-0.011658397
213	0x3e0d36f0	0.13790488
214	0xbdd1246e	-0.102120265
215	0x3d0be997	0.034158316
216	0x3c3d3a22	0.0115495045
217	0x3ec2fb03	0.38082132
218	0xbe03d072	-0.12872484
219	0x3e45750b	0.1928293
220	0x3da6bd11	0.0814153
221	0x3e34f6be	0.1767225
222	0xbda02dfc	-0.07821271
223	0x3d991898	0.07475394
224	0x3eb16732	0.34649044
225	0x3d058022	0.0325929
226	0x3cca80c1	0.024719598
227	0x3d0f985e	0.035057418
228	0x3e29eae6	0.16593513
229	0x3e8900b5	0.26758352
230	0x3e19f7ba	0.15035906
231	0xbdc8c75a	-0.09803648
232	0xbd887409	-0.06662757
233	0x3e4daba5	0.20085008
234	0x3e9b59f9	0.3034208
235	0x3de4a618	0.11164492
236	0xbd61a5e4	-0.055089846
237	0x3c149b1a	0.009070182
238	0xbe465d14	-0.19371444
239	0xbdb43486	-0.087990806
240	0x3dd72d09	0.10506637
241	0x3e976cd7	0.29575226
242	0xbd5cbfc1	-0.05389381
243	0xbdb5c17d	-0.088747956
244	0x3ce1fbf2	0.027585957
245	0x3cf0a1ca	0.029374022
246	0xbe0a45ac	-0.1350314
247	0xbb53bbef	-0.0032308062
248	0xbcd5515d	-0.026039774
249	0x3de8180c	0.113327116
250	0xbe2297d4	-0.1587823
251	0x3e4b00e0	0.19824553
252	0xbe98f10b	-0.298714
253	0xbe95760b	-0.29191622
254	0x3c68c5a3	0.0142072765
255	0xbda851f9	-0.0821876

lstm.bias_ih_l1 f4 [20]
0	0x39bb01ea	0.00035668846
1	0xbe39a40c	-0.18128985
2	0x3d9bf06b	0.076142155
3	0x3de8788e	0.11351119
4	0x3db60875	0.08888332
5	0xbd871690	-0.065961
6	0xbddce014	-0.10784927
7	0xbdd60929	-0.10450966
8	0x3e4dca30	0.2009666
9	0xbe0b0462	-0.1357589
10	0x3d231b97	0.039821234
11	0xbd8c6684	-0.06855491
12	0xbbb29fd3	-0.0054511814
13	0xbe3a3db2	-0.18187597
14	0xbc65a11b	-0.014015461
15	0xbc19847a	-0.009369964
16	0xbbef7437	-0.007307555
17	0xbe314209	-0.17310347
18	0xbc9c962b	-0.019114574
19	0xbdd316a8	-0.10307056

lstm.bias_hh_l1 f4 [20]
0	0x3d8ce221	0.06879068
1	0x3e0ebd92	0.13939503
2	0x3d707c0b	0.058712047
3	0xbde776cb	-0.11301955
4	0xbdabc74e	-0.08387624
5	0xbd38008e	-0.044922404
6	0x3d6e138c	0.05812411
7	0x3e29d79d	0.16586156
8	0xbe091aac	-0.13389081
9	0xbd645304	-0.055743232
10	0x3e0c1cc1	0.13682844
11	0x3e464368	0.19361651
12	0xbb28b890	-0.0025744773
13	0x3d597918	0.053094
14	0xbe662b6f	-0.22477506
15	0xbcaa5b31	-0.020795437
16	0x3e24a452	0.16078308
17	0xbe2c844f	-0.16847347
18	0x3e142694	0.14467841
19	0x3d83ea2f	0.06441151

fc1.weight f4 [20, 20]
0	0x3df21811	0.118209966
1	0x3da5f41d	0.081032015
2	0xbe218830	-0.15774608
3	0x3e0a3431	0.13496472
4	0x3e7af3b7	0.24507032
5	0x3e086261	0.13318779
6	0x3e05e7cd	0.13076706
7	0x3ddca606	0.10773854
8	0xbd23e286	-0.04001095
9	0x3e0b2993	0.13590078
10	0xbdfa97bf	-0.122359745
11	0xbe233569	-0.15938343
12	0xbe141861	-0.14462425
13	0x3e12198b	0.14267556
14	0xbd835ec8	-0.064145625
15	0x3de07794	0.10960308
16	0xbdfd7562	-0.123759046
17	0xbcb3bf0a	-0.02194168
18	0xbde5a9b3	-0.11214008
19	0xbd12db4f	-0.03585368
20	0x3e2b60b7	0.16736113
21	0x3b75f1f7	0.0037528255
22	0xbe9220e4	-0.2854072
23	0x3e131ed2	0.14367226
24	0x3e1d8d05	0.15385826
25	0x3d5b740d	0.05357747
26	0xbcd79a35	-0.026318649
27	0xbd92729a	-0.07150765
28	0xbd89c37a	-0.06726737
29	0x38ff7350	0.00012180826
30	0x3c9a24c3	0.018816357
31	0x3e18c26e	0.14917919
32	0x3c40271e	0.011728076
33	0xbc52dc5a	-0.012869919
34	0x3d5a9c93	0.053371977
35	0xbe98a6d9	-0.29814795
36	0xbcae31ca	-0.021263976
37	0xbd281d38	-0.04104349
38	0xbd67b1c3	-0.05656601
39	0xbe65032a	-0.22364488
40	0x3caede9a	0.02134638
41	0x3bfae924	0.007657187
42	0xbe062f6a	-0.13104025
43	0x3e52d830	0.20590281
44	0x3cdf30b7	0.027244909
45	0xbcd2449e	-0.025667485
46	0xbe0d649f	-0.13807915
47	0xbdfe8368	-0.124274075
48	0xbdc8b9b0	-0.09801042
49	0x3dd4784d	0.10374508
50	0x3b8fb9e1	0.004386172
51	0x3de0cf8b	0.10977086
52	0xbc915a8d	-0.017743373
53	0xbe0b8bdf	-0.13627575
54	0xbcc324e6	-0.023821305
55	0x3df7482d	0.12074313
56	0xbd1fbe62	-0.038999923
57	0x3df1eb29	0.11812431
58	0x3db6e5bc	0.08930537
59	0xbdd12632	-0.10212363
60	0xbd840c41	-0.0644765
61	0x3e874ff6	0.26428193
62	0xbe6ebe55	-0.23314793
63	0x3e94fbc8	0.29098344
64	0x3dcee350	0.1010195
65	0x3e887a2d	0.26655713
66	0xbe348f7d	-0.17632861
67	0xbedf3b39	-0.4359987
68	0x3e4a5f4c	0.19762915
69	0x3df8b54b	0.12143954
70	0xbe376d3c	-0.17912763
71	0xbea20677	-0.31645557
72	0x3d9523d6	0.07282226
73	0x3e9216c3	0.2853299
74	0x3e4cc165	0.19995649
75	0xbe44cd4c	-0.1921894
76	0xbed6f5d8	-0.4198444
77	0xbe7242c7	-0.23658286
78	0x3df91ece	0.12164079
79	0x3d8ca406	0.068672225
80	0xbdf172be	-0.117894635
81	0x3e29703a	0.16546717
82	0xbdb2f639	-0.087383695
83	0x3cd0e452	0.025499497
84	0x3d12dd53	0.035855602
85	0x3e669748	0.22518647
86	0x3e3de3bf	0.1854391
87	0x3dc7058b	0.09717854
88	0x3e3abd71	0.18236329
89	0xbe203e94	-0.15648872
90	0xbddedeea	-0.10882361
91	0xbd74bfcc	-0.059753224
92	0x3ce7abbb	0.02828013
93	0x3d937fdf	0.07202124
94	0x3d6648e8	0.056221873
95	0xbd29927a	-0.041399457
96	0xbe029657	-0.12752663
97	0x3da1a087	0.07891946
98	0xbe0e3213	-0.1388629
99	0x3d0f09b0	0.034921348
100	0xbc1c81c8	-0.009552427
101	0x3e53d0b0	0.20685077
102	0x3d1fb011	0.03898627
103	0x3e051653	0.12996797
104	0x3db0a4ef	0.086252086
105	0x3d4312c3	0.047625314
106	0x3e2157b0	0.15756106
107	0xbe082026	-0.13293514
108	0x3e538f17	0.20660053
109	0x3e2ea765	0.17056043
110	0xbe60bd1f	-0.21947144
111	0xbdeb8568	-0.115000546
112	0x3e65d79a	0.22445527
113	0x3e1feee6	0.15618476
114	0xbdc9a106	-0.09845166
115	0x3d2e6f26	0.04258647
116	0xbdc9fb17	-0.09862345
117	0xbe1acc85	-0.1511708
118	0xbddc4869	-0.10755999
119	0xbb254c35	-0.0025222425
120	0xbe64c4a7	-0.22340642
121	0xbd70241a	-0.05862818
122	0x3e2d7afe	0.16941449
123	0x3e8b7511	0.27237752
124	0xbbbe4735	-0.0058068284
125	0x3ed28f65	0.41125026
126	0x3d012164	0.031525984
127	0xbf05c5e2	-0.5225507
128	0xbe15607e	-0.1458759
129	0xbda22621	-0.07917429
130	0xbecd1bda	-0.40060312
131	0xbe986784	-0.29766476
132	0x3dd74a7f	0.10512256
133	0xbe35f17a	-0.17767897
134	0x3f16541b	0.58722085
135	0x3bd30490	0.006439753
136	0xbee4b3c4	-0.446684
137	0x3e00b1f4	0.12567884
138	0x3e98b96c	0.29828966
139	0x3f011d61	0.50435454
140	0xbd8a16b9	-0.06742615
141	0xbe8eba0f	-0.27876326
142	0xbe6265e9	-0.22109188
143	0xbd8ad3fd	-0.06778715
144	0x3e0b52d8	0.13605821
145	0xbdb68eb9	-0.08913941
146	0xbda2ef93	-0.079558514
147	0x3d190609	0.03735927
148	0x3dfab205	0.12240986
149	0xbcd8e59f	-0.02647668
150	0xbe2f90c7	-0.17145072
151	0xbd86ccc2	-0.06582023
152	0x3db7c68e	0.08973418
153	0x3d9f0b6b	0.0776585
154	0xbdbe767f	-0.09299945
155	0x3e673d3e	0.22581956
156	0xbe3b872c	-0.18313283
157	0x3de2c673	0.110730074
158	0x3dfc4ea7	0.12319689
159	0xbd8cccf7	-0.068750314
160	0xbdb406a1	-0.08790327
161	0xbca2f8a3	-0.01989395
162	0x3e13141d	0.14363141
163	0x3e006b28	0.12540877
164	0x3e57f489	0.21089377
165	0xbe18479c	-0.14871067
166	0xbe5660e9	-0.20935406
167	0xbe0843fd	-0.13307185
168	0x3e37bb8e	0.1794264
169	0x3cd77937	0.026302917
170	0xbb38ffa9	-0.0028228557
171	0xbe4bbf9a	-0.19897309
172	0x3e4a3f02	0.19750598
173	0x3d6f3638	0.058401316
174	0xbcea8567	-0.028628064
175	0xbdaaaa01	-0.08333207
176	0xbd1cb8cb	-0.03826217
177	0x3e26feea	0.1630818
178	0xbd42bf07	-0.04754546
179	0x3ddfbe71	0.10924996
180	0xbdb83a2b	-0.0899547
181	0x3cd78746	0.02630962
182	0xbe27342a	-0.16328493
183	0xbd898873	-0.06715479
184	0x3dbc7bbb	0.09203287
185	0x3d738d5d	0.059460986
186	0x3de82356	0.11334865
187	0xbe35ffb9	-0.17773332
188	0x3dda7598	0.106669605
189	0xbd1cf75f	-0.03832185
190	0xbd952abe	-0.07283543
191	0x3e537a6a	0.20652166
192	0x3c94b212	0.018151317
193	0xbe562c37	-0.20915304
194	0x3e03a725	0.1285673
195	0xbe73a96b	-0.23795097
196	0x3b7b5714	0.0038351463
197	0x3da1ee00	0.07906723
198	0x3d6d7ed1	0.05798227
199	0xbd2cfbd4	-0.04223235
200	0xbe419cca	-0.18907467
201	0x3eaa713e	0.33289522
202	0xbe107edc	-0.14110893
203	0xbd964c72	-0.073387995
204	0x3ea23eeb	0.31688628
205	0xbc8c1bad	-0.01710304
206	0xbe4ff424	-0.20307976
207	0x3d24ef03	0.040267
208	0x3e24f714	0.16109878
209	0x3e9a5242	0.30140883
210	0x3d941ed9	0.07232446
211	0xbe65008f	-0.22363494
212	0xbe89856e	-0.2685961
213	0x3eb1584c	0.34637678
214	0x3e6160d6	0.22009596
215	0xbe5bed26	-0.21477184
216	0x3de59665	0.11210326
217	0xbe461580	-0.19344139
218	0x3e2a88db	0.16653769
219	0x3b3b9e68	0.0028628353
220	0x3e140053	0.14453249
221	0xbd2cd06d	-0.042190958
222	0xbd836a2b	-0.06416734
223	0xbe6803b5	-0.22657664
224	0x3d53304f	0.051559743
225	0x3e057e06	0.13036355
226	0xbd1dcf2c	-0.038527653
227	0xbe39669c	-0.18105549
228	0xba7149b2	-0.0009204402
229	0xbc9d6714	-0.01921419
230	0xbe9e5793	-0.3092619
231	0x3d2274b9	0.039662097
232	0xbd8d6ea3	-0.06905868
233	0xbdd947e8	-0.10609418
234	0x3ded84a9	0.115975685
235	0x3d0a9fda	0.033843853
236	0xbe4be043	-0.19909768
237	0xbb70c005	-0.0036735546
238	0xbc897f68	-0.016784385
239	0xbdf977da	-0.12181063
240	0x3d9fbd35	0.0779976
241	0xbe68aee6	-0.22722968
242	0xbd835c14	-0.06414047
243	0xbe411e7a	-0.18859282
244	0xbd0086e7	-0.031378653
245	0xbe1cba0b	-0.15305345
246	0xbd87c69a	-0.06629677
247	0xbe40c020	-0.1882329
248	0x3e3623ca	0.1778709
249	0x3d826e47	0.0636869
250	0xbd4faf93	-0.05070455
251	0xbd0dffe0	-0.03466785
252	0xbe542f1a	-0.20721093
253	0xbdfd745a	-0.12375708
254	0x3d959ffe	0.07305907
255	0x3d4cc03c	0.049988016

fc1.bias f4 [20]
0	0x3ca9bcf3	0.02071998
1	0xbe81cfdc	-0.25353897
2	0xbe18ea1c	-0.14933056
3	0x3e784013	0.24243192
4	0xbe5499f8	-0.2076186
5	0x3d89ac0e	0.0672227
6	0xbd433b0c	-0.047663733
7	0xbe463af9	-0.19358434
8	0xbe01ae9d	-0.12664266
9	0xbe90089a	-0.28131562
10	0x3e167dfc	0.14696497
11	0xbd612555	-0.054967243
12	0xbe801aff	-0.25020596
13	0x3e11bcf3	0.14232235
14	0xbe60c873	-0.21951465
15	0x3e351ee8	0.17687571
16	0x3e1393dd	0.14411874
17	0x3c7ed081	0.015552641
18	0x3c5a457e	0.013322232
19	0xbd6f55c8	-0.058431417

fc3.weight f4 [1, 20]
0	0x3cf73d20	0.030180514
1	0x3d1f6523	0.03891481
2	0x3c3ccc36	0.011523297
3	0x3e8ad0d6	0.27112454
4	0x3de4a476	0.11164181
5	0x3d0293be	0.03187918
6	0x3e60a395	0.21937402
7	0x3d41cf2f	0.047316726
8	0x3d7d04c9	0.06177214
9	0x3d4bb51e	0.049733274
10	0x3e1f025b	0.15528242
11	0x3cd50180	0.026001692
12	0x3d797e9e	0.060911767
13	0x3e58422e	0.21118996
14	0xba191188	-0.0005839099
15	0x3e20a5db	0.15688269
16	0x3db0529a	0.08609505
17	0x3b9dbc54	0.00481371
18	0x37ebdb0e	2.8116188e-05
19	0x3e1c12c8	0.1524154

exp_avg f4 [20, 58]
0	0xba61b252	-0.00086096406
1	0xbb15a0e5	-0.0022831496
2	0x37c0eb51	2.2997761e-05
3	0xba5930bd	-0.00082851556
4	0x3a97c047	0.0011577689
5	0x391c7502	0.00014920908
6	0x393d8b92	0.00018076439
7	0xba8e4a33	-0.0010855853
8	0xbae98797	-0.0017816898
9	0xba6d3180	-0.00090482086
10	0x3ae03eb7	0.0017108534
11	0x3818218a	3.627086e-05
12	0xba01881b	-0.0004941241
13	0xbac59db5	-0.0015076908
14	0x3a013c2e	0.0004929927
15	0xba7c5b36	-0.00096266286
16	0x39e41c0b	0.00043508442
17	0x3a275706	0.0006383512
18	0xbaefdde2	-0.0018300379
19	0x3a4dcc08	0.00078505324
20	0x3af173bb	0.0018421331
21	0xb9d19093	-0.00039971303
22	0xbac23934	-0.0014818073
23	0x3a0c8f32	0.0005361914
24	0x39e9d517	0.00044599987
25	0xb8d3bc44	-0.00010096331
26	0xb96fd652	-0.00022872657
27	0xba3e3431	-0.0007255702
28	0x3a50e6b8	0.000796895
29	0xba54fa56	-0.0008124461
30	0xba685f22	-0.00088642735
31	0x3a35dd19	0.0006937548
32	0x39384709	0.0001757407
33	0x37b5f8b4	2.1692693e-05
34	0xba212fa0	-0.0006148759
35	0x39e94d50	0.00044498825
36	0xb99d0517	-0.00029949166
37	0xba92d631	-0.001120275
38	0x3a9496ca	0.0011336443
39	0x388999ba	6.561303e-05
40	0xba93a649	-0.0011264767
41	0x3a21a561	0.0006166306
42	0x3a1bd5a1	0.0005944614
43	0xba4720de	-0.0007596145
44	0xba8f991d	-0.0010955665
45	0x3a3101fb	0.0006752309
46	0x3a8ebb15	0.0010889495
47	0xbb0c3ba2	-0.0021397849
48	0x3988020e	0.00025941472
49	0x387c3af1	6.0136375e-05
50	0x3650cdc4	3.1114187e-06
51	0x3a718705	0.000921354
52	0x38afb302	8.377993e-05
53	0x369d62c5	4.690463e-06
54	0xb9ea7bb1	-0.00044724115
55	0x39a30362	0.00031092303
56	0x38ecbf66	0.00011289008
57	0xba27bb60	-0.00063984655
58	0x3b3f6d59	0.0029209463
59	0xbb8ba0db	-0.004261119
60	0x3bd6326c	0.0065367725
61	0xba8fc9c8	-0.001097017
62	0xbb1f27b6	-0.0024285144
63	0x39750a2d	0.00023368812
64	0xbb041cbe	-0.0020158733
65	0x3b4663a8	0.0030271802
66	0xba8531d8	-0.0010161949
67	0x3a848dd6	0.0010113071
68	0xbab0ce8e	-0.0013489292
69	0xba5d8a7b	-0.0008451116
70	0x3953530e	0.00020153468
71	0x3a1d5353	0.0006001491
72	0x3a886498	0.0010405956
73	0x3a98f550	0.0011669789
74	0x3a8dfde4	0.0010833112
75	0x39d47054	0.00040519482
76	0xba40632a	-0.00073389953
77	0x3a07def6	0.0005183065
78	0xb925ebc8	-0.00015823462
79	0xba0f5326	-0.0005467407
80	0x3a6c66e6	0.00090180186
81	0x3b041f3a	0.0020160214
82	0x3b1ba7d4	0.0023751156
83	0x3a38b703	0.0007046314
84	0x393840cd	0.00017571748
85	0x3a45074f	0.00075160427
86	0x39ecdcbb	0.00045177885
87	0xba52c304	-0.0008039924
88	0x398134dc	0.0002464418
89	0x399887b0	0.00029092794
90	0xb9cd7eb1	-0.0003919504
91	0x399badf5	0.00029693512
92	0x3a3ca317	0.0007195933
93	0x3aa084cb	0.0012246607
94	0x39a9f0f4	0.00032413716
95	0x3a54482f	0.00080979144
96	0x3a8063a4	0.000979532
97	0xba80c49a	-0.0009824217
98	0xb9caa8ab	-0.0003865411
99	0x39db22f2	0.0004179697
100	0xb9a8d631	-0.00032203042
101	0x38e5c65d	0.00010956519
102	0x3a51bbe9	0.0008000718
103	0x3a45d7f7	0.0007547135
104	0xb91f6aac	-0.0001520316
105	0xba031ee1	-0.0005001855
106	0x3a99c3c7	0.001173132
107	0x39f49e63	0.00046657314
108	0xba96270e	-0.0011455731
109	0xbaba86bc	-0.0014230828
110	0xbb3bfb10	-0.002868358
111	0xbb68cce1	-0.0035522508
112	0xbac82274	-0.0015269057
113	0x39c475ba	0.00037471746
114	0xbaf06249	-0.0018339838
115	0xbaf456f6	-0.0018641639
116	0xba337dbb	-0.00068470434
117	0x3bb79f2b	0.005603691
118	0xbb469041	-0.0030298384
119	0x3a69a134	0.0008912266
120	0x3b569633	0.0032743334
121	0xba055d30	-0.00050874334
122	0x39d91f14	0.0004141262
123	0xba667d08	-0.0008792435
124	0x3bcc2aa4	0.006230669
125	0xb9f3db00	-0.0004651174
126	0x39ac5ed1	0.0003287704
127	0x3b597af3	0.0033184856
128	0xba41b641	-0.00073895237
129	0x39b9f71d	0.00035470063
130	0xbac51ad4	-0.0015037903
131	0xb9a478f8	-0.00031370646
132	0xba7e6f59	-0.0009705923
133	0xba286d5d	-0.0006424988
134	0x3981f121	0.00024784452
135	0xb92da748	-0.00016560883
136	0x38b7333f	8.735665e-05
137	0x3a4c1e52	0.00077865005
138	0x39380d6b	0.00017552606
139	0xb97b422f	-0.0002396188
140	0xbab13ec6	-0.0013522736
141	0xba3229f6	-0.0006796414
142	0xb9af1e71	-0.00033401282
143	0x3a6b378a	0.00089728145
144	0xba8711d6	-0.0010304998
145	0x3aa9a7ec	0.0012943721
146	0xb882357f	-6.2088475e-05
147	0xb9a958c1	-0.0003230032
148	0x39c0ee2d	0.00036798549
149	0x39974af8	0.0002885682
150	0x38be269c	9.0670976e-05
151	0xb9177e74	-0.0001444759
152	0xba55169a	-0.0008128673
153	0x39f403a1	0.0004654201
154	0xbab11b3d	-0.0013512146
155	0x3a063764	0.0005119948
156	0x3aa2d814	0.0012424015
157	0xba81ada2	-0.0009893666
158	0x37db8738	2.61698e-05
159	0x3ab49b38	0.0013779169
160	0xba8ed490	-0.0010897089
161	0xba7335a6	-0.00092777086
162	0xba095d5f	-0.00052400486
163	0x3aac6370	0.0013152193
164	0xba08a2a2	-0.00052122225
165	0xbab7268f	-0.0013973283
166	0x3a9df713	0.0012051783
167	0xbabf5896	-0.0014598544
168	0x3b0279ad	0.001990895
169	0x3b275db0	0.002553802
170	0x3b10cb1b	0.0022093717
171	0xba311d8c	-0.0006756417
172	0xb5c42aec	-1.461563e-06
173	0x3b3d4785	0.002888174
174	0xb9be1ac8	-0.00036259578
175	0x3b8fe58f	0.004391379
176	0xbb59965d	-0.0033201196
177	0x3a9c1927	0.0011909351
178	0x3b48dd96	0.0030649654
179	0xb9ab642b	-0.00032690293
180	0x3a2d61d8	0.0006614006
181	0xba4d652f	-0.0007835207
182	0x3ba3d932	0.005000257
183	0xb9000d64	-0.0001221202
184	0x39e93a25	0.00044484544
185	0x3aeadfe6	0.001791951
186	0xba29afd2	-0.00064730376
187	0x395116b9	0.00019940258
188	0xbaa9f455	-0.0012966493
189	0xb9db9b69	-0.00041886725
190	0xb99cab8a	-0.00029882445
191	0xb9d25551	-0.00040117887
192	0x39e4cf55	0.00043642023
193	0xb8dbe6e5	-0.00010485741
194	0xb7b50c80	-2.1582702e-05
195	0x3a6dfc7f	0.00090784574
196	0x39139624	0.00014074944
197	0xba77d772	-0.0009454406
198	0xba391833	-0.0007060796
199	0xb9803fdf	-0.0002446165
200	0xba179486	-0.00057823246
201	0x3a27ee18	0.0006406023
202	0xb9dcd48f	-0.00042120038
203	0x39f99b00	0.00047608465
204	0x384cc59f	4.882144e-05
205	0xb9da4e19	-0.00041638387
206	0x39a90570	0.00032238243
207	0x39775e77	0.00023590947
208	0x38aee961	8.340437e-05
209	0xb9aa01c7	-0.0003242625
210	0xba13c543	-0.0005636999
211	0x39d7a974	0.00041134248
212	0xba837dea	-0.0010032032
213	0x39ccf4cf	0.0003909231
214	0x3a234ac9	0.00062291004
215	0xb9d7991a	-0.00041122065
216	0x398c87d4	0.0002680408
217	0x3a5af86b	0.0008353057
218	0xba56123a	-0.0008166168
219	0xb9ef94e0	-0.00045696553
220	0xb9c43bfd	-0.00037428728
221	0x3a8e82ee	0.001087276
222	0xba363e15	-0.0006952
223	0xba32717b	-0.0006807071
224	0x3a721a6e	0.0009235506
225	0xb9d2a7be	-0.000401793
226	0x3b1a933a	0.002358629
227	0x39c33591	0.00037233208
228	0x3ac11bba	0.0014732995
229	0x397f5b41	0.0002435269
230	0x3a0fda3e	0.0005487538
231	0x3af190db	0.0018430011
232	0xbbb90fac	-0.00564762
233	0xbaec3ccb	-0.0018023489
234	0xbc3bd25e	-0.01146373
235	0xbb1d535e	-0.002400599
236	0x3adfdcf1	0.0017079395
237	0xb9d560de	-0.00040698698
238	0x3b04056f	0.002014484
239	0xbb8542d3	-0.004066804
240	0xbc6b5e38	-0.014365725
241	0xbb068035	-0.0020523195
242	0x395bbd19	0.00020955912
243	0x3b11c5e3	0.0022243194
244	0xba5cebb6	-0.00084274577
245	0x39bd4a81	0.000361044
246	0xbb41b246	-0.0029555722
247	0xb9a589c4	-0.00031573896
248	0xbafe3179	-0.0019393406
249	0xba9fe8d0	-0.0012200121
250	0x3a278d82	0.0006391631
251	0xba983e53	-0.0011615254
252	0xb837168c	-4.36516e-05
253	0x3b07b88a	0.002070936
254	0xb9d29d6b	-0.00040171607
255	0xbb32c395	-0.002727722
