experiments/derived/weights/2_BLSTM.pth (torch, 500563 bytes, 105 tensors)

lstm1.weight_ih_l0 f4 [80, 58]
0	0x3e067822	0.13131765
1	0x3d0ab2aa	0.033861794
2	0x3e271ff0	0.16320777
3	0xbdc917e3	-0.09819009
4	0xbe8ccde9	-0.27500847
5	0x3e2c8e5a	0.16851178
6	0xbe09ce01	-0.1345749
7	0xbe7e1d43	-0.2481585
8	0xbe6d1573	-0.23152713
9	0xbe36f111	-0.17865397
10	0x3edab4e2	0.42716128
11	0x3ed3e8af	0.4138846
12	0x3cb9a6b7	0.022662504
13	0xbe79cd39	-0.24394692
14	0xbea3f16a	-0.32020122
15	0xbd691d1f	-0.056912538
16	0xbd318ad7	-0.0433453
17	0xbf03587a	-0.5130688
18	0xbf0f9f6d	-0.5610264
19	0x3aeb4841	0.001795061
20	0xbd69a227	-0.057039406
21	0xbe912eb7	-0.28355953
22	0x3bfef10a	0.007780199
23	0xbe700076	-0.23437676
24	0x3cd7f64b	0.026362559
25	0xbe49be78	-0.19701564
26	0x3e7282ac	0.2368266
27	0x3e13316f	0.14374326
28	0xbe047a63	-0.12937312
29	0xbdb0d800	-0.08634949
30	0xbe30c993	-0.17264394
31	0xbe09ddbb	-0.1346349
32	0xbe8e592a	-0.27802402
33	0xbe896de8	-0.26841664
34	0xbedf8b96	-0.43661183
35	0x3c569766	0.01309762
36	0xbea00558	-0.31254077
37	0xbe137ce8	-0.14403117
38	0xbea1ca00	-0.31599426
39	0xbe887c30	-0.26657248
40	0xbea89848	-0.3292868
41	0x3e7b23c4	0.24525362
42	0x3f1cbd48	0.6122632
43	0x3dc78c1c	0.097435206
44	0x3e201f6f	0.15636991
45	0xbdd52998	-0.10408324
46	0xbe47cdf7	-0.19512163
47	0xbe8dad4e	-0.27671283
48	0xbcbbb734	-0.022914506
49	0x3d5ac8b9	0.05341408
50	0xbcdfbcb1	-0.027311655
51	0xbc58dbc4	-0.01323599
52	0xbe52a761	-0.20571662
53	0xbdb29efc	-0.0872173
54	0xbdbb3bda	-0.09142275
55	0xbe1f8258	-0.15577066
56	0x3e444fbc	0.19171041
57	0xbd382882	-0.044960506
58	0x3f242c47	0.6413006
59	0xbda5cc29	-0.08095581
60	0x3e9b7eec	0.3037027
61	0x3dd52f4a	0.1040941
62	0x3d740b06	0.059580825
63	0xbdfa291f	-0.122148745
64	0x3d8ca560	0.0686748
65	0xba67b5e2	-0.00088390533
66	0xbe2e437d	-0.17017932
67	0xbe816e48	-0.2527945
68	0x3f137d84	0.57613397
69	0x3e8bb369	0.27285317
70	0xbe70b515	-0.23506577
71	0xbe3e2ffe	-0.18572995
72	0xbd9c1341	-0.0762086
73	0xbdd8c37c	-0.10584161
74	0xbdbcbea8	-0.09216052
75	0xbeb98eb9	-0.362417
76	0xbe907f63	-0.28222188
77	0xbe754014	-0.23950225
78	0x3d81be49	0.06335122
79	0xbe92a203	-0.2863923
80	0xbe42daf5	-0.19028838
81	0xbdd943dc	-0.10608646
82	0x3e0e165f	0.13875721
83	0x3e903d81	0.28171924
84	0x3f237d2b	0.63862866
85	0xbe192f60	-0.14959478
86	0xbdde419f	-0.1085236
87	0x3cfeb3b8	0.031091556
88	0xbea364a4	-0.3191272
89	0x3d38087a	0.04492996
90	0x3d31e3c0	0.04343009
91	0x3c251c55	0.010077556
92	0xbdf1cf2b	-0.11807092
93	0xbe91fd7b	-0.28513703
94	0xbeb6aac5	-0.35677162
95	0xbefd1122	-0.49427134
96	0xbe332b7e	-0.1749706
97	0x3de614d7	0.11234444
98	0x3c005429	0.007832565
99	0x3cff0e17	0.031134648
100	0x3edbe184	0.42945492
101	0x3e8f6886	0.28009433
102	0xbe2f6a7f	-0.17130469
103	0xbea1d5e1	-0.3160849
104	0x3dc9cc96	0.09853475
105	0xbe9971a6	-0.2996952
106	0x3dc19c3d	0.09453628
107	0x3d56ee4c	0.05247335
108	0x3e917dac	0.28416193
109	0x3a3d7807	0.00072276633
110	0xbc3e14d1	-0.011601643
111	0x3daf7be8	0.08568555
112	0x3dedd7db	0.11613437
113	0xbe6b9366	-0.23005447
114	0x3d0ec074	0.034851506
115	0x3f160f72	0.5861732
116	0x3b86267c	0.004093943
117	0xbea924e5	-0.3303596
118	0xbe6bc20b	-0.2302324
119	0xbe958ea5	-0.29210392
120	0xbe1bf8e9	-0.1523167
121	0xbe669c5c	-0.22520584
122	0xbe678bc7	-0.22611915
123	0xbd3da5d6	-0.04630073
124	0xbead1172	-0.33802372
125	0xbec07c9d	-0.37595072
126	0xbe323712	-0.1740382
127	0xbe663b86	-0.22483644
128	0xbdaf1458	-0.08548802
129	0xbe3a5bd6	-0.18199095
130	0xbeb200ba	-0.3476618
131	0xbef2ecbb	-0.47446236
132	0xbecaa39c	-0.3957795
133	0xbed4a371	-0.41530946
134	0xbef131fe	-0.47108454
135	0xbf182cf3	-0.5944359
136	0xbdfb8e9c	-0.1228306
137	0xbeb5dcaf	-0.3551993
138	0xbe34a74b	-0.17641942
139	0xbe264b88	-0.1623975
140	0xbec45d3a	-0.38352376
141	0xbec42bf1	-0.38314775
142	0x3d98aa41	0.07454348
143	0xbe80561e	-0.25065702
144	0xbdbe155e	-0.09281419
145	0x3e52d4ab	0.20588939
146	0xbdbd45c1	-0.0924182
147	0xbe27abf6	-0.16374192
148	0xbec21ea1	-0.37913993
149	0xbe95b83b	-0.2924212
150	0xbe1e4bb6	-0.15458569
151	0xbee91b12	-0.45528466
152	0xbe91ef3c	-0.28502834
153	0xbe84b06d	-0.25915852
154	0xbee0cf56	-0.43908185
155	0xbeb00269	-0.3437684
156	0xbea2c8da	-0.31793863
157	0xbe4c4317	-0.19947468
158	0x3ef80673	0.4844242
159	0xbebe10ef	-0.37122294
160	0xbe1d3341	-0.15351583
161	0x3d1fab5b	0.038981777
162	0xbd87f0e3	-0.06637742
163	0xbd02096d	-0.03174727
164	0xbe5e3723	-0.2170072
165	0xbe17fe53	-0.1484311
166	0xbd12c32d	-0.035830665
167	0xbe4b4ae5	-0.19852789
168	0xbe1d1215	-0.15338929
169	0xbe9fe79c	-0.3123139
170	0xbe3247af	-0.17410158
171	0x3dbcdc26	0.092216775
172	0xbe07769c	-0.1322884
173	0xbd9ebff5	-0.07751457
174	0xbdabc450	-0.08387053
175	0xbe311b60	-0.17295599
176	0xbe8d8ba4	-0.276456
177	0xbe0bf8d6	-0.13669142
178	0xbe9b7773	-0.3036457
179	0x3e33fcba	0.17576876
180	0xbf0de162	-0.5542203
181	0x3e0148dd	0.12625451
182	0xbeb78600	-0.3584442
183	0xbe481d19	-0.1954235
184	0x3ec88503	0.3916398
185	0xbb08fcf3	-0.0020902723
186	0xbdaf0575	-0.08545963
187	0xbd13b85e	-0.036064498
188	0xbe5ee451	-0.21766783
189	0xbe4dc1ed	-0.20093508
190	0xbe2597b0	-0.16171145
191	0xbef196d6	-0.4718539
192	0xbea973e0	-0.33096218
193	0xbe9618cc	-0.29315794
194	0xbe262ef2	-0.16228846
195	0xbecf896b	-0.4053453
196	0xbeba9abd	-0.3644618
197	0xbee018fe	-0.43769068
198	0xbbd4b868	-0.0064917095
199	0xbecd72e5	-0.4012672
200	0xbe929271	-0.2862735
201	0xbeb2d444	-0.3492757
202	0xbe7cdcd0	-0.24693608
203	0x3e03dae2	0.12876466
204	0xbba83ad7	-0.0051339674
205	0xbe949f20	-0.29027653
206	0xbeb5fbb1	-0.35543588
207	0xbea7e10e	-0.3278889
208	0xbdbe98a8	-0.093064606
209	0xbd2ea682	-0.042639263
210	0xbe6ccd3e	-0.23125169
211	0xbe5e9791	-0.21737505
212	0xbe308bc1	-0.17240812
213	0xbd9b83b6	-0.07593481
214	0xbe48d3b5	-0.1961201
215	0x3db67c5a	0.08910437
216	0x3e154c22	0.14579824
217	0x3e551d76	0.2081202
218	0xbc95e9be	-0.018299934
219	0xbebbd7c5	-0.36688057
220	0xbdd353a9	-0.10318691
221	0xbe707c61	-0.23484947
222	0xbecb0dd8	-0.39659
223	0xbd2e758c	-0.04259257
224	0xbe947ee8	-0.29003072
225	0xbe6ce556	-0.2313436
226	0xbe59a339	-0.21253671
227	0x3de35344	0.11099866
228	0xbe98166a	-0.297046
229	0xbe4a1a5a	-0.19736615
230	0xbe08a14d	-0.13342781
231	0xbe8bfa8b	-0.27339587
232	0x3d52f199	0.051499937
233	0xbe8af7aa	-0.27142078
234	0x3d53da4b	0.051721852
235	0x3dbeb652	0.093121186
236	0xbea69b6c	-0.32540452
237	0x3e395178	0.18097484
238	0xbe806059	-0.25073507
239	0xbe320582	-0.17384914
240	0xbdaa532d	-0.08316646
241	0xbebd7243	-0.37001237
242	0x3e9598d8	0.29218173
243	0xbe6441f0	-0.22290778
244	0xbeb4a841	-0.35284618
245	0xbea6400b	-0.32470736
246	0xbebd2680	-0.36943436
247	0xbeb1bf90	-0.34716463
248	0xbe35de29	-0.17760529
249	0xbe72f2cf	-0.23725437
250	0xbe79597d	-0.24350543
251	0x3d79d24f	0.06099158
252	0xbe783ec8	-0.24242699
253	0xbb892635	-0.004185463
254	0xbe302ffb	-0.17205803
255	0xbe62e991	-0.22159411

lstm1.weight_hh_l0 f4 [80, 20]
0	0xbe7dd939	-0.24789895
1	0x3c57d3f0	0.013173088
2	0xbd9c935e	-0.076452956
3	0x3e525046	0.20538434
4	0x3e6d669f	0.23183678
5	0xbd1ae60e	-0.037817053
6	0x3d89c9f1	0.067279704
7	0x3ee1a2f3	0.44069633
8	0x3ecdd8bd	0.4020442
9	0x3daa9aa5	0.08330277
10	0x3db52369	0.088446446
11	0xbdc25304	-0.0948849
12	0x3e519b32	0.20469359
13	0x3e3131d1	0.1730416
14	0x3d3f0951	0.046639744
15	0x3ed1a922	0.4094935
16	0xbdfec0ce	-0.12439118
17	0x3e67a4fc	0.2262153
18	0x3bffe779	0.007809576
19	0xbdb42caa	-0.087975815
20	0xbdda05f9	-0.106456704
21	0xbdcce3fc	-0.10004422
22	0xbdcda364	-0.1004093
23	0xbddd75d8	-0.108134925
24	0xbdb51ba1	-0.088431604
25	0x3d28a64d	0.04117422
26	0xbdbcf69a	-0.09226723
27	0xbd6a5645	-0.05721118
28	0x3d115e0a	0.035490073
29	0x3e12d886	0.1434041
30	0x3d41554b	0.047200482
31	0xbe316c7b	-0.17326538
32	0xbe779004	-0.24176031
33	0xbcddd216	-0.027077716
34	0xbe25deb7	-0.1619824
35	0xbde51a14	-0.11186615
36	0xbdc59abf	-0.09648656
37	0xbd96258b	-0.073313795
38	0x3ea28be4	0.31747353
39	0xbd49f3c4	-0.04930474
40	0x3cc1ae71	0.02364275
41	0xbd9c673e	-0.076368794
42	0xbb56764d	-0.0032724321
43	0x3d320f89	0.043471847
44	0x3dbba386	0.09162049
45	0x3ddccd04	0.10781291
46	0x3eb67e5c	0.3564328
47	0x3e59dac5	0.2127486
48	0x3e9da812	0.3079229
49	0x3e556499	0.20839156
50	0xbe8a8a38	-0.27058578
51	0x3deacdac	0.1146501
52	0x3ce5ca38	0.028050527
53	0x3d2b7478	0.04185912
54	0xbefcda83	-0.4938546
55	0x3eb23cb4	0.34811938
56	0xbccd57b0	-0.025066227
57	0x3ef0fe6b	0.47069106
58	0x3ed28c6e	0.41122764
59	0xbcae0d98	-0.021246716
60	0x3d345058	0.044021934
61	0x3d994772	0.0748433
62	0xbe793959	-0.24338283
63	0xbdfff2b2	-0.12497462
64	0x3eaf48bf	0.34235188
65	0xbe217733	-0.15768127
66	0x3ee5789a	0.44818574
67	0x3e10e3ad	0.14149351
68	0x3db88427	0.09009581
69	0x3de1f49f	0.11032986
70	0xbe5153e0	-0.20442152
71	0xbe40e83c	-0.1883859
72	0xbd61ca6b	-0.05512468
73	0xbb9da573	-0.004810983
74	0xbed72a9d	-0.420247
75	0x3d0b74e4	0.034047022
76	0x3e5de4ee	0.21669361
77	0x3ed893ba	0.42300206
78	0x3dce6d4e	0.10079442
79	0x3d4abafb	0.049494725
80	0x3e4dedd5	0.20110257
81	0xbd044131	-0.032288734
82	0xbdccffbd	-0.10009716
83	0x3e0199d4	0.12656337
84	0x3dc0e15c	0.09417984
85	0xbe055d34	-0.13023835
86	0x3e6feda1	0.23430492
87	0x3ec12679	0.37724665
88	0x3e4042c8	0.18775475
89	0x3e1fe9f9	0.15616597
90	0xbe5b02bb	-0.2138776
91	0xbea0120f	-0.31263778
92	0xbd5f130f	-0.054461535
93	0x3e944d31	0.28965142
94	0xbe420b40	-0.18949604
95	0x3e8455fb	0.25846848
96	0xbda41900	-0.08012581
97	0x3eb71cd1	0.35764173
98	0x3e54a0b1	0.20764424
99	0xbe6243c7	-0.22096168
100	0xbe2559ee	-0.16147587
101	0x3e82f2ec	0.2557596
102	0xbdfeea99	-0.1244709
103	0xbde24bfc	-0.11049649
104	0x3ee01acf	0.43770453
105	0xbdba9320	-0.09110093
106	0x3decd209	0.115634985
107	0x3ed2df9b	0.41186222
108	0x3c0ae806	0.00847817
109	0x3c9a9933	0.01887188
110	0xbed0c73f	-0.40777013
111	0xbeb7447c	-0.35794437
112	0x3e0890ac	0.13336438
113	0xbdd922d7	-0.10602348
114	0xbe91e589	-0.28495434
115	0x3c0e5098	0.008686207
116	0x3e3bf195	0.18353875
117	0x3ed60bd9	0.41805914
118	0x3e7c6da5	0.24651201
119	0x3c94a9d4	0.018147387
120	0xbd64778f	-0.055778082
121	0x3bc1425c	0.005897803
122	0x3db8e3d0	0.09027827
123	0xbd8f3754	-0.06992975
124	0x3e69479e	0.22781226
125	0xbe5d340c	-0.21601886
126	0x3d66a283	0.056307327
127	0x3e025586	0.12727937
128	0x3e9f601b	0.3112801
129	0xbb2b8d72	-0.0026176837
130	0xbec2b371	-0.38027528
131	0xbe28c3f8	-0.16481006
132	0x3d9d2f78	0.076750696
133	0x3df19501	0.11795998
134	0xbe4625bb	-0.1935033
135	0x3e9e1502	0.30875403
136	0x3d3a45b7	0.04547664
137	0x3e0af44b	0.13569753
138	0x3e7c8815	0.24661286
139	0x3d7b663b	0.06137679
140	0xbea1ffd5	-0.31640497
141	0x3ea67b6c	0.32516038
142	0xbd7965c8	-0.06088808
143	0x3ce6e6c0	0.028186202
144	0x3ec1dd14	0.37863982
145	0xbdc5154f	-0.09623205
146	0x3e8f64e8	0.28006673
147	0x3e755623	0.2395864
148	0x3d81bef9	0.06335253
149	0x3ec68f4d	0.38781205
150	0xbf2c3fbd	-0.67284757
151	0xbe8c0d34	-0.27353823
152	0x3e1c5fe4	0.15270954
153	0xbe27c281	-0.16382791
154	0xbe1c6013	-0.15271024
155	0xbe51a3c8	-0.20472634
156	0x3e1eaaa6	0.15494785
157	0x3da834ad	0.08213172
158	0xbe871fda	-0.26391488
159	0x3e92b2c3	0.2865201
160	0xbd9795a3	-0.07401588
161	0xbddfbd95	-0.10924832
162	0xbcf49fcf	-0.029861359
163	0x3dc50a23	0.09621074
164	0xbd8729d9	-0.06599779
165	0x3d32c3dd	0.04364382
166	0x3ebc0002	0.36718756
167	0x3eed3c66	0.46335143
168	0x3ed6288e	0.41827816
169	0xbde8e5d3	-0.113719605
170	0xbe53d972	-0.20688418
171	0xbd872017	-0.065979175
172	0x3d247dde	0.0401591
173	0x3e1c6ee7	0.15276681
174	0x3d1815a5	0.037130017
175	0x3ec5ea2d	0.38655224
176	0xbd6350ad	-0.05549686
177	0x3e5c652a	0.21522966
178	0x3c1453b8	0.009053163
179	0xbe9b32cf	-0.303122
180	0xbd6d0afb	-0.0578718
181	0x3e28d1dd	0.16486306
182	0xbe0a3825	-0.1349798
183	0x3d9387b3	0.07203617
184	0xbdb78398	-0.089606464
185	0xbcab64a2	-0.020922009
186	0xbdb41080	-0.087922096
187	0xbcc5646c	-0.024095736
188	0x3e2c7a39	0.16843499
189	0x3c4345ae	0.011918468
190	0xbd7b75d8	-0.06139168
191	0xbdf4f89a	-0.119614795
192	0x3d42fbf5	0.047603566
193	0xbde589aa	-0.11207898
194	0xbe3add7c	-0.18248552
195	0x3e315ac8	0.17319787
196	0x3c879550	0.01655069
197	0x3dec7d95	0.1154739
198	0x3e1e6d9d	0.15471502
199	0x3d751263	0.059831988
200	0x3f0781df	0.5293254
201	0xbf2eb51c	-0.682451
202	0x3e4d153a	0.20027629
203	0xbde9b40e	-0.11411296
204	0xbea3bf69	-0.31981972
205	0x3f060fb4	0.5236771
206	0x3ecc2349	0.3987067
207	0x3f256ab0	0.6461592
208	0x3e1acfd0	0.15118337
209	0xbea0a6b5	-0.31377187
210	0xbd8213ba	-0.06351419
211	0xbf00327b	-0.5007703
212	0x3e830f7e	0.25597757
213	0x3ec7ea28	0.39045835
214	0xbcbc8683	-0.023013359
215	0x3ee998e7	0.45624468
216	0x3dd1f695	0.1025211
217	0x3e1a892f	0.15091394
218	0xbd4ca71a	-0.049964048
219	0xbf1df394	-0.61699796
220	0xbe6d043f	-0.23146151
221	0x3f0c2f44	0.5475962
222	0xbf108b38	-0.5646243
223	0xbe71ba86	-0.2360631
224	0x3f20477b	0.6260907
225	0xbf0a8bff	-0.5411987
226	0x3e50caec	0.20389909
227	0x3f0a88c5	0.54114944
228	0xbc96e0dd	-0.01841777
229	0x3efda17e	0.4953727
230	0xbdb79879	-0.08964629
231	0xbb37a8a5	-0.0028024104
232	0x3e4fc33c	0.2028932
233	0x3df79183	0.12088301
234	0xbf273cd7	-0.6532721
235	0xbe6f2b94	-0.23356467
236	0x3f01e8cb	0.5074584
237	0x3e6ebe43	0.23314767
238	0xbeb0fe52	-0.3456903
239	0xbd4accdb	-0.04951177
240	0x3d907114	0.07052818
241	0xbdc0c106	-0.09411816
242	0x3e75377f	0.23946951
243	0x3e6510c9	0.22369684
244	0xbe07cbae	-0.13261291
245	0x3d80bb3c	0.06285712
246	0x3ef8d0ba	0.48596746
247	0x3e9bbc2e	0.30417007
248	0x3ea2431b	0.31691822
249	0x3d8fcf5c	0.070219725
250	0xbe002c4a	-0.12516895
251	0xbdf707a1	-0.12062002
252	0x3d65adf3	0.056074094
253	0x3e73506b	0.23761146
254	0xbe814267	-0.25245973
255	0x3d7cb424	0.061695233

lstm1.bias_ih_l0 f4 [80]
0	0xbeb414b5	-0.35172048
1	0xbe81830d	-0.25295296
2	0xbe80e490	-0.2517438
3	0xbf1a907a	-0.60376704
4	0xbee265e8	-0.44218373
5	0xbea6590d	-0.32489815
6	0xbea6fc7b	-0.32614502
7	0xbdbc883b	-0.092056714
8	0xbe38067a	-0.1797122
9	0xbe92ec2b	-0.28695807
10	0x3e13c0fc	0.14429086
11	0xbe65cc16	-0.22441134
12	0xbdfe7124	-0.124239236
13	0xbeb07a37	-0.34468243
14	0xbd7a1ca8	-0.061062485
15	0x3c3b4651	0.011430339
16	0xbf0ab6bf	-0.541851
17	0xbebf45e5	-0.37358013
18	0xbf004ca4	-0.50116944
19	0xbec0f8cb	-0.37689814
20	0xbe6a105e	-0.22857806
21	0xbe2174c4	-0.15767199
22	0xbee46471	-0.4460788
23	0xbf088434	-0.53326726
24	0xbe77856a	-0.24171987
25	0xbc0c6a28	-0.0085702315
26	0xbe362714	-0.17788345
27	0xbf0663b9	-0.52495915
28	0xbe553a8f	-0.2082312
29	0xbe2ea023	-0.17053275
30	0xbe638530	-0.22218776
31	0xbea3b2a4	-0.3197223
32	0xbef257c5	-0.47332588
33	0xba447d28	-0.00074954564
34	0xbe8ea39a	-0.27859193
35	0xbd1f2111	-0.038849894
36	0xbea12983	-0.31476983
37	0xbe4dad70	-0.20085692
38	0xbe754d74	-0.23955327
39	0xbe68540f	-0.22688316
40	0xbe35e6c2	-0.17763808
41	0xbe1ba128	-0.15198195
42	0x3e5449c5	0.20731266
43	0xbe489a68	-0.19590151
44	0x3e49705d	0.1967177
45	0xbd65ad04	-0.056073204
46	0x3cb93281	0.02260709
47	0x3d95e141	0.073183544
48	0xbdf5017e	-0.11963175
49	0x3da58263	0.0808151
50	0x3de3acc2	0.11116935
51	0xbb896fe3	-0.004194246
52	0x3e2a94c6	0.16658315
53	0xbe0bdc70	-0.13658309
54	0x3bc698fd	0.006060718
55	0x3dd63a3c	0.10460326
56	0x3dccd3e9	0.10001356
57	0xbe0b1560	-0.13582373
58	0xbca3efed	-0.020011866
59	0x3c2c92a6	0.010533011
60	0xbd4d59d3	-0.05013449
61	0x3e1717df	0.147552
62	0xbf115435	-0.56769115
63	0xbf0c312d	-0.54762536
64	0xbed87863	-0.42279348
65	0xbe2c556b	-0.1682946
66	0xbeaeb50e	-0.3412251
67	0xbe9542d7	-0.29152557
68	0xbec8f2db	-0.39247784
69	0xbe6b5aa0	-0.2298379
70	0xbcf2bee0	-0.029632032
71	0xbe8d9fc3	-0.2766095
72	0xbe5564e8	-0.20839274
73	0xbcb33ed8	-0.021880552
74	0xbe60898a	-0.21927467
75	0xbdf2c3d2	-0.11853756
76	0xbef53b93	-0.47897014
77	0xbee42ac2	-0.44563872
78	0xbf027c15	-0.50970584
79	0xbecc39a9	-0.3988774

lstm1.bias_hh_l0 f4 [80]
0	0xbe01dfa4	-0.12682968
1	0xbdc1f0e3	-0.094697736
2	0xbeb64f21	-0.35607246
3	0xbeeb49af	-0.45954654
4	0xbedb6b75	-0.4285542
5	0xbe8727a1	-0.26397422
6	0xbe6a7d04	-0.22899252
7	0xbdc47772	-0.09593095
8	0xbe84ab79	-0.25912073
9	0xbdb8687e	-0.09004305
10	0x3e17684e	0.14785883
11	0xbeb652af	-0.35609958
12	0xbebdcdd5	-0.370711
13	0xbedfbffa	-0.43701154
14	0xbe70df5c	-0.23522705
15	0xbe5fad73	-0.2184351
16	0xbe1c9ed2	-0.1529496
17	0xbedd6544	-0.43241322
18	0xbeee3c28	-0.4653027
19	0xbe4b857a	-0.19875136
20	0xbe810413	-0.2519842
21	0xbddfcb2b	-0.10927423
22	0xbee61ced	-0.44943944
23	0xbf0b60b2	-0.5444442
24	0xbec5e998	-0.3865478
25	0xbe970542	-0.294962
26	0xbef4d900	-0.47821808
27	0xbeded5af	-0.43522403
28	0xbef3d46b	-0.47623
29	0xbe03680a	-0.12832657
30	0xbec9d2e5	-0.39418712
31	0xbe9cca29	-0.30622986
32	0xbea63e12	-0.3246923
33	0xbe94fb8c	-0.29098165
34	0xbcac90d4	-0.021065153
35	0xbdf2efdd	-0.118621565
36	0xbe539359	-0.20661677
37	0xbe358729	-0.17727341
38	0xbe970bfa	-0.29501325
39	0xbe4b82ef	-0.19874166
40	0x3d64c10e	0.055848174
41	0xbdd6c517	-0.10486811
42	0xbe373c52	-0.17894104
43	0x3e29a7df	0.16567944
44	0xbe3308de	-0.17483851
45	0x3e3881e8	0.18018305
46	0xbd328d75	-0.043591935
47	0x3c6f6b28	0.01461295
48	0x3e1fe068	0.15612948
49	0xbd691655	-0.056906063
50	0x3df8640d	0.12128458
51	0xbc2ce521	-0.010552675
52	0xbe1dc9fc	-0.15409082
53	0xbc94e3d2	-0.01817504
54	0x3d3b3829	0.045707855
55	0xbdd678aa	-0.104722336
56	0x3ddb2379	0.10700125
57	0xbc5cd974	-0.013479579
58	0xbd1f91b0	-0.038957298
59	0x3d4eb9cf	0.05047017
60	0xbe78bce3	-0.24290805
61	0x3dfe9a7f	0.124318115
62	0xbec74aad	-0.3892416
63	0xbefb90a2	-0.49133784
64	0xbe96f025	-0.2948009
65	0xbea9a51e	-0.33133787
66	0xbeb0719d	-0.3446168
67	0x3db22c77	0.08699887
68	0xbe1e0c6f	-0.1543443
69	0xbe4c66ca	-0.19961086
70	0xbe222545	-0.1583453
71	0xbe0eda99	-0.13950576
72	0xbe8593cc	-0.26089323
73	0xbe5fbbc1	-0.21848966
74	0xbe8ea4e7	-0.27860186
75	0xbe3a808d	-0.182131
76	0xbecd030e	-0.40041393
77	0xbefdfc73	-0.49606666
78	0xbee26ec0	-0.4422512
79	0xbe984599	-0.297406

lstm1.weight_ih_l0_reverse f4 [80, 58]
0	0x3b86ad94	0.0041100476
1	0xbe2c6813	-0.16836576
2	0xbec6a541	-0.38797954
3	0x3da1cc8e	0.07900344
4	0xbd7cfb96	-0.06176337
5	0x3e5d645c	0.21620315
6	0xbe40c367	-0.1882454
7	0xbd152d90	-0.036420405
8	0xbe0539ea	-0.13010374
9	0xbe24032a	-0.16016832
10	0x3e02586d	0.12729044
11	0xbe25bfef	-0.16186498
12	0x3e0483b7	0.1294087
13	0xbe153f25	-0.14574869
14	0xbc294a55	-0.010332664
15	0x3d89579e	0.06706165
16	0xbc910f0f	-0.017707376
17	0x3da13c88	0.078728735
18	0xbe290e82	-0.1650944
19	0xbec17bb2	-0.37789685
20	0x3c2ecef6	0.0106694605
21	0xbccb121e	-0.024788912
22	0xbdde1472	-0.108437434
23	0xbe1e6ac9	-0.15470423
24	0xbf043789	-0.5164724
25	0x3e4f8555	0.20265706
26	0x3d62013f	0.05517697
27	0xbcd48a89	-0.025944965
28	0xbd83493a	-0.06410451
29	0xbec12e87	-0.3773081
30	0xbeaddade	-0.33956045
31	0xbd3cd1c2	-0.04609848
32	0xbd40b745	-0.04704978
33	0xbec3c47b	-0.3823584
34	0xbee1c279	-0.44093683
35	0xbe9ef2aa	-0.31044513
36	0xbe6ebe53	-0.2331479
37	0x3d2ae1ae	0.04171913
38	0xbe6a9d91	-0.2291167
39	0xbed2d6b3	-0.41179428
40	0xbe3ce6a9	-0.18447365
41	0xbe308b1d	-0.17240568
42	0xbd5e8e9b	-0.054335218
43	0x3d96092e	0.0732597
44	0x3e201c45	0.15635784
45	0xbe45ded6	-0.19323286
46	0x3d9ba194	0.07599178
47	0xbdd19a11	-0.10234464
48	0x3e0bdd2b	0.13658588
49	0x3c5ee923	0.013605389
50	0xbc958ff0	-0.018257111
51	0xbeb15c2b	-0.3464063
52	0xbef657b3	-0.48113784
53	0xbece66ba	-0.4031275
54	0xbec9a0a3	-0.3938037
55	0xbe0ca70e	-0.13735601
56	0xbe322f2b	-0.17400806
57	0xbd986e41	-0.07442904
58	0x3f8e2794	1.1105828
59	0x3ddae121	0.10687471
60	0x3e4be7c4	0.1991263
61	0x3e2ad117	0.16681324
62	0x3b9ee5cf	0.0048491727
63	0x3e004777	0.12527262
64	0x3cafafbb	0.0214461
65	0x3de8b653	0.113629006
66	0x3e98719c	0.29774177
67	0x3dc17999	0.09447021
68	0x3f5723c6	0.8403896
69	0xbeeaae0b	-0.4583591
70	0xbe671702	-0.2256737
71	0xbb8116b2	-0.003939473
72	0x3da986f6	0.08277695
73	0xbee56860	-0.44806194
74	0x3bc375d5	0.0059649744
75	0x3e5699c0	0.20957088
76	0xbe6bbdc8	-0.23021615
77	0x3db3ee74	0.08785716
78	0x3e315b95	0.17320092
79	0x3ccafc1a	0.024778415
80	0xbe7591e1	-0.2398143
81	0xbe877a03	-0.26460275
82	0xbe6fd2ac	-0.23420209
83	0xbdc85fdc	-0.09783909
84	0x3f515098	0.817636
85	0xbee9c2f7	-0.4565656
86	0xbe2aa3f2	-0.16664103
87	0x3e9fa228	0.31178403
88	0x3eca5a8d	0.3952221
89	0x3d4e45c7	0.050359514
90	0x3e5419b9	0.20712937
91	0x3e7c8a9f	0.24662255
92	0x3ebe8222	0.37208658
93	0xbdda7505	-0.10666851
94	0x3bf257d0	0.007395722
95	0x3dca2641	0.098705776
96	0x3e156d38	0.14592445
97	0x3d199f8c	0.03750567
98	0xbe87d40f	-0.26528975
99	0x3e98ede2	0.2986899
100	0x3f97b536	1.1852176
101	0xbed097e1	-0.40740874
102	0x3e79a3ef	0.24378942
103	0xbe95238c	-0.29128683
104	0x3e6a7d3c	0.22899336
105	0x3e9a7932	0.3017059
106	0xbcf3b063	-0.029747194
107	0xbe0d87da	-0.13821355
108	0xbe321663	-0.17391352
109	0x3bdf6bb2	0.006818258
110	0xbd4dc4d6	-0.050236546
111	0x3e3da9b6	0.18521771
112	0x3d49fdb0	0.0493142
113	0xbdd58fff	-0.10427856
114	0xbdcf230f	-0.10114109
115	0xbe2b61f9	-0.16736592
116	0x3f88db32	1.0691893
117	0xbd13943a	-0.03603003
118	0xb7e9e350	-2.7881615e-05
119	0xbdb730c5	-0.08944849
120	0xbe22060e	-0.15822622
121	0xbdcd760b	-0.100322805
122	0x3adeabf8	0.0016988507
123	0xbd22a40e	-0.039707236
124	0xbe4fc260	-0.20288992
125	0xbcb14417	-0.021638913
126	0x3fbb278c	1.4621444
127	0xbe91fa7e	-0.28511423
128	0xbd70cd28	-0.058789402
129	0x3e06eddc	0.13176674
130	0x3d12e6ea	0.035864748
131	0xbc677878	-0.014127843
132	0xbe1cf6d5	-0.15328534
133	0xbe6e26e7	-0.23257028
134	0x3e5e7e8d	0.21727963
135	0x3e1fbf8f	0.15600418
136	0xbea1ac99	-0.31576994
137	0xbe7370ef	-0.2377355
138	0xbe71c448	-0.23610032
139	0xbde3c782	-0.111220375
140	0xbe7565d3	-0.23964624
141	0xbedd7d3d	-0.43259612
142	0x3f01f82c	0.50769305
143	0xbf06cd03	-0.52656573
144	0xbe58b948	-0.21164429
145	0xbe393e1d	-0.180901
146	0xbc2f290e	-0.010690941
147	0x3d3b3d72	0.045712896
148	0xbd84fc87	-0.06493478
149	0xbc77d902	-0.015127422
150	0xbe7a3411	-0.24433924
151	0xbe8036d5	-0.25041834
152	0xbe85a3c4	-0.26101506
153	0xbe0c6c3a	-0.1371316
154	0xbea9a93b	-0.33136925
155	0xbf00f576	-0.50374544
156	0xbe738f72	-0.23785189
157	0xbc10fbc5	-0.008849089
158	0x3fc50978	1.5393515
159	0xbe355bd3	-0.1771081
160	0x3e574f4b	0.21026342
161	0xbec0ff15	-0.37694612
162	0xbcd68cc8	-0.026190177
163	0xbe7fae5e	-0.2496886
164	0xbde607d7	-0.11231964
165	0xbe4a74c0	-0.19771099
166	0xbc168f13	-0.009189385
167	0x3bdd80fa	0.00675976
168	0x3e097a34	0.13425523
169	0xbd23e413	-0.04001243
170	0x3e4d378e	0.20040724
171	0xbe4bcd84	-0.19902617
172	0x3d468c4d	0.048473645
173	0xbe65b300	-0.22431564
174	0x3eb49b27	0.35274622
175	0x3d16260c	0.036657378
176	0xbda461f7	-0.08026498
177	0x3d859bf7	0.065238886
178	0x3cfba230	0.030716985
179	0x3d94135d	0.07230256
180	0x3ca40e5a	0.020026375
181	0x3e626d16	0.22111925
182	0xbe70c1f8	-0.23511493
183	0x3ba26932	0.004956388
184	0x3e15d0de	0.14630458
185	0xbe24a11e	-0.16077086
186	0xbe1e2022	-0.15441945
187	0xbdf874bb	-0.121316396
188	0x3d6d913a	0.057999827
189	0x3dc3802d	0.09545932
190	0x3ddfefb8	0.109343946
191	0xbd89d4fa	-0.06730075
192	0x3d5e49e2	0.05426968
193	0xbe04aa26	-0.12955531
194	0x3a4de730	0.0007854579
195	0x3c3dcd47	0.011584586
196	0xbd430ba8	-0.04761854
197	0xbe529489	-0.20564474
198	0xbe920a2a	-0.2852338
199	0xbef2d25d	-0.4742612
200	0x3ea136eb	0.31487212
201	0xbdfb99f6	-0.12285225
202	0x3e3100b6	0.17285427
203	0xbe3eab9d	-0.18620153
204	0x3caf1f3e	0.021377202
205	0xbb1724d7	-0.002306273
206	0x3e053c6c	0.1301133
207	0x3c89b641	0.016810538
208	0x3e0ffa18	0.14060247
209	0xbd67e3f4	-0.056613877
210	0xbd9b40dc	-0.0758073
211	0xbca61452	-0.020273361
212	0x3c160627	0.00915674
213	0x3d53c9d8	0.051706165
214	0x3dc191b2	0.09451617
215	0x3cde049e	0.027101811
216	0x3ea046b2	0.31303936
217	0x3c1d3ea3	0.009597453
218	0xbd081fdd	-0.033233512
219	0xbe4218b1	-0.18954732
220	0xbe1aea71	-0.15128495
221	0x3e6e45f3	0.23268871
222	0x3d655ba2	0.05599559
223	0xbdd05ccd	-0.1017395
224	0x3d16f1b0	0.036851585
225	0x3d1b58a1	0.03792632
226	0x3e7ef8ae	0.24899551
227	0x3e15ef65	0.14642103
228	0xbcf2f896	-0.02965955
229	0xbd71ea90	-0.059061587
230	0x3cd77824	0.026302405
231	0x3e48825a	0.19580975
232	0x3f136627	0.5757775
233	0x3deef2cd	0.11667404
234	0xbdd58dd7	-0.104274444
235	0xbd6e077d	-0.05811261
236	0xbde326a5	-0.11091355
237	0x3bd604ed	0.006531349
238	0xbc26ee21	-0.01018861
239	0xbde2c6d3	-0.11073079
240	0xbea60832	-0.32428128
241	0xbec62d3b	-0.38706383
242	0x3e6ce466	0.23134002
243	0xbcc19181	-0.023628952
244	0x3cb7c3d3	0.022432243
245	0x3e85c2c6	0.26125163
246	0xbcef6a89	-0.029225605
247	0x3d009563	0.031392466
248	0xbe1e4f18	-0.1545986
249	0xbe82e56f	-0.2556567
250	0xbe2ec2f6	-0.17066559
251	0xbe90226f	-0.2815127
252	0xbe0774f7	-0.13228212
253	0xbd3dbd69	-0.046323214
254	0xbe9a191d	-0.30097285
255	0x3d9aaa6e	0.07552038

lstm1.weight_hh_l0_reverse f4 [80, 20]
0	0xbc0fcb50	-0.008776501
1	0xbc258462	-0.010102363
2	0xbd83c1fa	-0.064334825
3	0xbea61aed	-0.32442418
4	0x3c642925	0.013925825
5	0xbde6a22e	-0.11261402
6	0x3e45d101	0.1931801
7	0x3de491a8	0.11160594
8	0x3e093256	0.13398108
9	0xbec4f504	-0.38468182
10	0x3d81b611	0.063335545
11	0x3df24de8	0.11831266
12	0x3e2e414e	0.170171
13	0x3c91a6f6	0.017779808
14	0xbe909266	-0.28236693
15	0xbca67800	-0.020320892
16	0xbeb03bf3	-0.34420738
17	0x3db771d6	0.08957259
18	0x3eb359d8	0.35029483
19	0xbd6616a5	-0.05617394
20	0xbc5193a8	-0.012791552
21	0x3e81f26d	0.2538027
22	0xbdc1a0d4	-0.09454504
23	0xbef4663e	-0.47734255
24	0x3e2f43bf	0.17115687
25	0x3d8496d1	0.064740784
26	0xbe78e8d5	-0.24307568
27	0xbe3b192a	-0.18271318
28	0x3eadefa3	0.3397189
29	0xbe59cfd9	-0.21270694
30	0xbdb632c4	-0.088964015
31	0xbd7aeb1a	-0.061259367
32	0xbdf537d6	-0.119735405
33	0xbeb823cd	-0.35964814
34	0x3df2d797	0.11857527
35	0x3ebdb1b0	0.37049627
36	0xbdf7f4ce	-0.1210724
37	0xbce122da	-0.027482439
38	0x3eb962e4	0.3620826
39	0x3ea3e5f2	0.32011372
40	0x3f058b9b	0.52166146
41	0x3e9f97bf	0.3117046
42	0x3d93464f	0.07191145
43	0xbe857e19	-0.26072767
44	0xbd44d725	-0.04805674
45	0xbe952f12	-0.29137474
46	0x3dcb846b	0.09937366
47	0x3d8ec460	0.06971049
48	0x3f1214da	0.57063067
49	0xbe9dcee1	-0.308219
50	0x3d8ad11d	0.067781664
51	0xbebc8757	-0.36822006
52	0xbf281353	-0.65654486
53	0xbe758497	-0.2397636
54	0x3e952a46	0.29133815
55	0x3e3fccf0	0.18730521
56	0xbe5d9bcb	-0.21641462
57	0x3da1779c	0.07884142
58	0x3ee3c822	0.44488627
59	0x3e3160f7	0.17322145
60	0xbc36f989	-0.011167892
61	0x3dd747b9	0.10511727
62	0xbd8514b4	-0.064980894
63	0xbdd5939a	-0.104285434
64	0xbb948953	-0.004532972
65	0xbd34de97	-0.04415759
66	0x3e4ee1fb	0.20203392
67	0x3d040622	0.03223241
68	0xbda751c6	-0.08169894
69	0xbcac9eea	-0.02107187
70	0x3ddccaea	0.1078089
71	0xbde0cca4	-0.10976532
72	0x3df8407f	0.12121677
73	0xbe9d0976	-0.3067128
74	0x3df8031c	0.12109968
75	0xbe519064	-0.20465237
76	0x3bcc53a2	0.0062355557
77	0xbe12c662	-0.1433349
78	0x3dfdf454	0.124001175
79	0x3e5d86a4	0.21633393
80	0x3eb6d693	0.35710582
81	0xbd44e7b6	-0.04807254
82	0x3d28e31b	0.04123221
83	0xbe0fbe69	-0.1403748
84	0x3df65314	0.12027565
85	0xbdc1d062	-0.09463574
86	0x3e9fa527	0.3118069
87	0x3b9fd2d8	0.0048774295
88	0x3eadff7c	0.33983982
89	0xbd539a19	-0.05166063
90	0xbe5536a9	-0.20821632
91	0xbe37b126	-0.1793867
92	0xbea99c48	-0.33127046
93	0xbeb040a4	-0.34424317
94	0xbe8b9ffc	-0.27270496
95	0xbdfc8b90	-0.12331307
96	0xbf00896d	-0.50209695
97	0x3d6704e6	0.056401156
98	0x3f49fba5	0.78899604
99	0x3e354da1	0.17705394
100	0x3e38dd86	0.18053254
101	0xbe68f57b	-0.22749893
102	0x3e048240	0.12940311
103	0xbeeb353b	-0.4593905
104	0x3daebdd7	0.08532303
105	0xbead1c08	-0.3381045
106	0x3e9d0c85	0.30673614
107	0x3d2a14a1	0.04152358
108	0x3ca2c8d1	0.019871147
109	0xbef08db0	-0.469831
110	0xbe5bd68c	-0.21468562
111	0xbe20a450	-0.1568768
112	0xbe6ec205	-0.233162
113	0xbea8e3e5	-0.3298637
114	0xbedaf9c1	-0.42768672
115	0x3e6bc16d	0.23023005
116	0xbe8fb3ae	-0.28066772
117	0x3dca9345	0.09891371
118	0x3f13b7ad	0.5770214
119	0x3d14b621	0.036306504
120	0x3e22d459	0.15901317
121	0x3e9733b3	0.2953163
122	0xbd25a124	-0.04043688
123	0xbd61357e	-0.054982655
124	0xbabbe216	-0.0014334347
125	0xbe974059	-0.2954128
126	0x3e886d08	0.26645684
127	0xbeb9424e	-0.361834
128	0x3ea9668c	0.3308605
129	0xbda25b15	-0.07927529
130	0xbec6426e	-0.38722557
131	0x3dcfc30a	0.101446226
132	0xbdc8ed53	-0.09810891
133	0xbeb4f800	-0.3534546
134	0x3e245f76	0.1605204
135	0x3e314a17	0.1731342
136	0xbef3e05b	-0.47632107
137	0x3e364484	0.17799574
138	0x3f1433c9	0.5789152
139	0x3e048a32	0.12943342
140	0x3db3a0a1	0.08770872
141	0x3e75a342	0.23988059
142	0xbdf3af2c	-0.11898646
143	0xbea8ba18	-0.32954478
144	0xbdab5728	-0.08366233
145	0x3e508ec0	0.20366955
146	0xbe65a9b7	-0.22428022
147	0xbd929160	-0.07156634
148	0x3e1f9469	0.15583958
149	0xbe2c7318	-0.1684078
150	0x3dcde88e	0.10054122
151	0xbd0380d7	-0.032105293
152	0xbc7e4bea	-0.015521029
153	0xbe8712ec	-0.26381624
154	0x3ed4f5f3	0.41593894
155	0x3d65ff20	0.05615151
156	0xbeac580c	-0.33660924
157	0x3ddb3433	0.107033156
158	0xbdc31206	-0.09524922
159	0x3dd59356	0.10428493
160	0xbeb75b4e	-0.35811847
161	0xbbf06aaf	-0.0073369364
162	0x3d0838a0	0.033257127
163	0x3c2d5156	0.010578474
164	0xbd6c8ffb	-0.057754498
165	0xbe47aa1a	-0.19498482
166	0x3e3cdb3d	0.18443008
167	0x3eb93e02	0.3618012
168	0xbdf6351d	-0.12021849
169	0xbe7fea7e	-0.24991795
170	0xbe09b809	-0.1344911
171	0xbd9184b6	-0.07105391
172	0x3cf3228c	0.02967956
173	0xbd6949d7	-0.056955185
174	0xbdefc9e2	-0.11708428
175	0xbef2ae08	-0.473984
176	0xbd3d47a3	-0.046210896
177	0x3b0e561c	0.0021718806
178	0x3ddf474d	0.109022714
179	0xbd11ea98	-0.035624117
180	0x3e308648	0.17238724
181	0xbf1082e1	-0.56449705
182	0x3f082ddd	0.5319498
183	0x3aabf828	0.0013120221
184	0xbeffddc9	-0.49973896
185	0xbe330ad4	-0.174846
186	0x3f1cfe43	0.6132547
187	0x3e68371e	0.22677276
188	0xbd03990e	-0.032128386
189	0xbeb0c535	-0.34525457
190	0x3d448d73	0.04798646
191	0xbef4f8cf	-0.47846076
192	0x3e8499fe	0.25898737
193	0xbda5f27d	-0.081028916
194	0xbeeefbe6	-0.46676558
195	0x3d4ab77e	0.049491398
196	0x3d8da816	0.069168255
197	0x3ed9c666	0.42534178
198	0x3e9f4f27	0.31115076
199	0xbed3089c	-0.41217506
200	0x3e85af2c	0.26110208
201	0x3ecef8de	0.40424246
202	0xbd97cd88	-0.07412249
203	0xbf2365c3	-0.6382715
204	0x3e29d2c7	0.16584311
205	0xbe884823	-0.26617536
206	0x3e163717	0.14669453
207	0x3d246947	0.040139463
208	0x3e53aa05	0.20670326
209	0xbe633f0c	-0.22192019
210	0xbe7b3d78	-0.24535167
211	0xbf0be189	-0.54641014
212	0xbe2eced3	-0.17071085
213	0xbf52bb76	-0.8231729
214	0x3dc5eede	0.09664701
215	0xbc7ecbaf	-0.015551492
216	0xbe17b5e0	-0.14815474
217	0x3d123157	0.035691585
218	0x3f08a789	0.5338064
219	0x3d3c7641	0.046011213
220	0x3ef9d8be	0.48798174
221	0xbe8ba08b	-0.27270922
222	0x3e17b1d1	0.14813925
223	0xbe2031e4	-0.15644032
224	0xbd0e98b2	-0.03481359
225	0xbdbcc645	-0.092175044
226	0x3dae01e7	0.084964566
227	0x3e878ac4	0.26473057
228	0x3f09c9e8	0.5382371
229	0x3d1a00f3	0.03759856
230	0xbe440ced	-0.19145556
231	0x3dc10c3e	0.09426163
232	0xbeb4606d	-0.35229817
233	0xbde9cfca	-0.11416586
234	0xbdb912b0	-0.090367675
235	0x3e27d927	0.16391431
236	0xbe267dd0	-0.16258931
237	0x3dc72d87	0.097254805
238	0x3e6ef417	0.233353
239	0x3b29d386	0.0025913431
240	0x3e43b87a	0.19113341
241	0xbd3388e9	-0.04383174
242	0x3e5df2a4	0.21674591
243	0xbdff2641	-0.12458468
244	0x3e8adb88	0.27120614
245	0xbe16ee08	-0.14739239
246	0x3e6a94a1	0.2290826
247	0x3eb9de0b	0.36302218
248	0xbd2144ba	-0.039372183
249	0xbf1700b2	-0.58985436
250	0x3bec1abf	0.007205337
251	0xbe76d4f7	-0.24104677
252	0x3e308a55	0.1724027
253	0xbc7f3bec	-0.015578251
254	0xbe5871ca	-0.21137157
255	0xbe0b2bbe	-0.13590905

lstm1.bias_ih_l0_reverse f4 [80]
0	0xbdbb8798	-0.09156722
1	0xbdbd25cf	-0.09235727
2	0x3dddcdfe	0.108303055
3	0xbe07b825	-0.1325384
4	0xbeb38d6c	-0.35068834
5	0xbe84d0ce	-0.25940555
6	0xbdb4fdaa	-0.08837445
7	0x3e03c0c7	0.12866507
8	0xbda066a4	-0.07832077
9	0xbc24bbf0	-0.010054573
10	0xbf074800	-0.5284424
11	0xbda70843	-0.08155873
12	0xbe1195cf	-0.14217304
13	0x3e59636e	0.21229336
14	0x3dbc2374	0.0918645
15	0xbd8e8979	-0.069598146
16	0xbe3dade6	-0.18523368
17	0xbeb683cc	-0.35647428
18	0x3d87f96d	0.06639371
19	0xbedd5296	-0.4322707
20	0xbeab10e5	-0.33411327
21	0x3e1b9965	0.15195234
22	0xbe0ee922	-0.1395612
23	0xbe85685a	-0.26056176
24	0xbdacdcf3	-0.0844058
25	0xbd940d0d	-0.07229052
26	0x3da3b249	0.079929896
27	0xbdeed32c	-0.116613716
28	0xbebc7e12	-0.36814934
29	0xbe8090cf	-0.2511048
30	0xbea6234b	-0.324488
31	0xbeb0da74	-0.34541667
32	0xbe818291	-0.25294927
33	0xbd48c98f	-0.049020346
34	0x3e6621b7	0.22473799
35	0xbd8a5931	-0.06755293
36	0xbe0aab2e	-0.13541862
37	0xbf0946a6	-0.53623426
38	0x3c3cc07a	0.011520499
39	0xbe56b9c8	-0.20969307
40	0xbdf8962e	-0.121380195
41	0xbe549ada	-0.20762196
42	0x3d11bb86	0.035579227
43	0x3e632396	0.22181544
44	0xbd8505d8	-0.06495255
45	0xbd29e123	-0.041474473
46	0xbccdc292	-0.025117192
47	0x3e18c829	0.14920105
48	0xbdaddadf	-0.08489012
49	0xbd4b9d65	-0.04971065
50	0xbcfd6ad1	-0.030934723
51	0x3dc6ab3d	0.0970063
52	0x3e82b443	0.25528154
53	0x3e339dba	0.17540637
54	0xbddd624b	-0.108097635
55	0xbe6c1df5	-0.23058303
56	0x3e098977	0.13431345
57	0xbd316298	-0.043306917
58	0x3c6e70fe	0.014553307
59	0x3ae920ea	0.0017786298
60	0xbe9c9bdf	-0.3058767
61	0x3e55b0e2	0.20868257
62	0x3dd6ce7b	0.10488602
63	0x3d89eee5	0.06735019
64	0xbe8ab98d	-0.2709469
65	0x3c8f1c39	0.017469512
66	0xbe92144e	-0.28531116
67	0xbe1c73f1	-0.15278603
68	0xbe8ca588	-0.2747004
69	0xbe8cadb7	-0.27476284
70	0xbe3ed0d6	-0.18634352
71	0xbdbae766	-0.09126167
72	0xbd82f07b	-0.06393524
73	0x3e32dfe4	0.1746822
74	0xbe57cf47	-0.21075164
75	0xbe57ca92	-0.21073368
76	0xbe94c909	-0.29059628
77	0xbf03c8c4	-0.5147822
78	0x3ea8bdfe	0.32957453
79	0xbe533ccc	-0.20628661

lstm1.bias_hh_l0_reverse f4 [80]
0	0xbdf242cb	-0.11829146
1	0x3e38d23a	0.18048945
2	0xbdadc314	-0.08484474
3	0x3e124645	0.14284618
4	0xbe4c8792	-0.19973591
5	0xbdf48eaf	-0.11941277
6	0xbddb9cf3	-0.10723295
7	0xbdc3974a	-0.095503405
8	0xbdab997b	-0.083788835
9	0xba107622	-0.0005510767
10	0xbef1859c	-0.47172248
11	0xbcf60221	-0.030030312
12	0x3db5f242	0.08884098
13	0x3ea6c665	0.32573238
14	0xbe47fe38	-0.1953057
15	0x3c5eb097	0.013591907
16	0xbe42711b	-0.18988459
17	0xbe87e6ac	-0.26543176
18	0x3ee1a388	0.44070077
19	0xbd8dc463	-0.069222234
20	0xbe361304	-0.17780691
21	0x3da45245	0.08023504
22	0xbe80c814	-0.25152647
23	0xbe9db23e	-0.3080005
24	0xbeed34c3	-0.46329316
25	0xbed7a15e	-0.421153
26	0xbe6d2818	-0.23159826
27	0xbe6455c3	-0.2229834
28	0xbee79564	-0.45231164
29	0xbf0c5590	-0.5481806
30	0xbede604e	-0.4343285
31	0xbdb0e575	-0.086375155
32	0xbe08788f	-0.1332724
33	0x3eae7948	0.34076905
34	0xbd596e8b	-0.053083938
35	0xbd409339	-0.047015402
36	0xbe8fd4e6	-0.28092116
37	0xbe9b4984	-0.30329525
38	0x3cd13f9d	0.025543028
39	0xbdcd43f4	-0.10022727
40	0xbd351761	-0.04421175
41	0x3cf93639	0.030421363
42	0xbd83f4cc	-0.06443176
43	0xbdeaab62	-0.1145847
44	0x3ca6bd8a	0.020354051
45	0x3dadd688	0.08488184
46	0x3be286fb	0.0069130636
47	0xbdb80a63	-0.08986356
48	0xbba181c7	-0.0049288007
49	0x3dc0c97b	0.09413429
50	0x3d0bc4de	0.034123294
51	0xbdff4662	-0.12464596
52	0x3d434f35	0.04768296
53	0x3de465cc	0.11152229
54	0xbe4a4d66	-0.19756088
55	0x3b25ab84	0.0025279233
56	0x3e227e0c	0.15868396
57	0xbdd7614a	-0.10516603
58	0xbe907079	-0.2821081
59	0xbe6daac9	-0.2320968
60	0xbec7745a	-0.38955957
61	0x3eb7a5ec	0.35868776
62	0xbe695fd5	-0.22790463
63	0x3e0ff3d1	0.14057852
64	0xbefe97da	-0.4972523
65	0xbd7d6158	-0.061860412
66	0x3d57744d	0.052601147
67	0x3b84fe9b	0.0040586716
68	0xbe5be9ec	-0.21475953
69	0x3dcaade2	0.09896447
70	0xbe8bbee7	-0.27294084
71	0xbe90db40	-0.28292274
72	0xbe3f4b3a	-0.1868104
73	0xbd9f3b2f	-0.0777496
74	0x3ccf6d9d	0.025320822
75	0xbe1e6c23	-0.15470938
76	0xbeb65262	-0.35609728
77	0xbf017c96	-0.5058073
78	0x3eae75f3	0.34074363
79	0xbc17e714	-0.009271402

lstm1.weight_ih_l1 f4 [80, 40]
0	0x3c5f4102	0.013626339
1	0x3e456531	0.19276883
2	0x3da51556	0.0806071
3	0xbe0fc666	-0.14040527
4	0x3e26dbb2	0.16294745
5	0xbdba5d91	-0.090998776
6	0x3c7bfb5b	0.015379752
7	0xbba0874c	-0.004898941
8	0xbe5885b3	-0.21144752
9	0xbc8708fd	-0.016483778
10	0xbe8f88ef	-0.2803416
11	0x3e6c2316	0.23060259
12	0x3e6c4491	0.23073031
13	0xbd910aff	-0.070821755
14	0xbe97388d	-0.29535332
15	0xbe58900c	-0.211487
16	0x3d342a25	0.043985505
17	0x3d0f041c	0.03491603
18	0xbd069627	-0.03285804
19	0x3d9169a7	0.0710023
20	0xbde22705	-0.11042599
21	0x3e010496	0.12599406
22	0xb523f03f	-6.1071836e-07
23	0xbe373293	-0.17890386
24	0x3eb1ed83	0.3475152
25	0xbe99b82e	-0.3002333
26	0x3d54fa83	0.05199672
27	0xbe738b8d	-0.23783703
28	0x3e12b5df	0.14327191
29	0x3efab44f	0.4896569
30	0xbe15f051	-0.14642455
31	0xbeb296f0	-0.3488078
32	0xbf0e4add	-0.5558298
33	0xbeb66ddc	-0.3563069
34	0x3e54a6a4	0.20766693
35	0x3e67ce4a	0.22637287
36	0xbe929236	-0.28627175
37	0xbe26bff6	-0.16284165
38	0x3e565a93	0.20932989
39	0x3eac4e37	0.33653423
40	0xbd621234	-0.05519314
41	0x3e9525d1	0.29130414
42	0xbda9cd56	-0.08291118
43	0xbe6ef67e	-0.23336217
44	0x3dd436d5	0.10362021
45	0xbeafa56c	-0.34305894
46	0xbe7fe6b8	-0.24990356
47	0xbeb8a504	-0.36063397
48	0x3dc5a804	0.09651187
49	0x3eb68c17	0.35653755
50	0xbea3b633	-0.31974944
51	0x3f0e19a2	0.5550786
52	0x3ec6682a	0.38751346
53	0xbe213123	-0.157414
54	0xbeb33f61	-0.35009292
55	0xbe89b822	-0.26898295
56	0x3d2d3792	0.042289324
57	0xbd2dbbc4	-0.042415395
58	0xbe2e1fe5	-0.17004354
59	0x3e83e0f6	0.2575757
60	0xbdc0fe42	-0.09423496
61	0x3e077577	0.13228403
62	0xbe089d42	-0.13341239
63	0x3d68cd2e	0.0568363
64	0x3de71a75	0.11284343
65	0xbe9689aa	-0.29401904
66	0xbe2a4966	-0.16629562
67	0xbe0a1fc5	-0.13488682
68	0x3d99f265	0.07516936
69	0x3e69907d	0.22809024
70	0x3dbf4929	0.09340126
71	0xbe86cfc3	-0.26330385
72	0xbe80adef	-0.251327
73	0xbdf6f8d0	-0.12059176
74	0x3db7d75d	0.08976624
75	0x3e7e45fc	0.24831384
76	0x3e9ba45e	0.3039884
77	0x3d39106a	0.04518167
78	0x3d42ab8c	0.04752688
79	0xbd844d30	-0.06460035
80	0xbef14679	-0.4712408
81	0x3f0dfc18	0.5546279
82	0x3e3aa41a	0.18226662
83	0xbeb64398	-0.35598445
84	0x3ea20c69	0.31650093
85	0xbed61fd5	-0.4182116
86	0x3c8c154e	0.017100003
87	0xbdc86cb2	-0.09786357
88	0xbde1767f	-0.110089295
89	0x3df10b58	0.11769742
90	0xbf080197	-0.53127426
91	0x3f01c105	0.5068515
92	0x3f03f46c	0.51544833
93	0x3c50754f	0.012723281
94	0xbdc12fce	-0.09432946
95	0xbc706bf1	-0.014674173
96	0x3db102cb	0.08643111
97	0x3c85df51	0.016341837
98	0xbe904a0c	-0.28181493
99	0x3df342b8	0.1187796
100	0x3e2606c8	0.16213524
101	0x3f01d3f8	0.50714064
102	0xbf037f28	-0.513659
103	0xbddb26ec	-0.10700783
104	0x3e8de0b0	0.27710485
105	0xbeebcd19	-0.46054915
106	0xbe9085ea	-0.28227168
107	0xbead7c47	-0.3388388
108	0x3ecf5398	0.40493464
109	0x3ea8fb3f	0.33004186
110	0xbe908036	-0.28222817
111	0xbe61e0e2	-0.22058442
112	0xbf22841d	-0.6348284
113	0xbf04b3a6	-0.5183662
114	0x3e8d2a42	0.27571303
115	0x3eda960b	0.426926
116	0xbe2ab39a	-0.16670075
117	0xbe42bd98	-0.19017637
118	0x3ea7a70d	0.32744637
119	0x3e7e8150	0.24854016
120	0xbd47b6e9	-0.04875842
121	0x3df9fc7f	0.12206363
122	0x3e0a2345	0.13490017
123	0xbd9a2545	-0.0752664
124	0xbd0b45a1	-0.03400195
125	0xbea521f8	-0.3225248
126	0x3de04f07	0.10952573
127	0xbd403d72	-0.0469336
128	0x3d3d4663	0.046209704
129	0x3e3a3f60	0.18188238
130	0xbec63720	-0.38713932
131	0x3b678bac	0.0035331054
132	0x3ddd6d87	0.10811906
133	0x3e4092c7	0.18805991
134	0xbe8ce7ed	-0.27520695
135	0x3de50617	0.11182802
136	0xbd86040c	-0.06543741
137	0x3e086e50	0.13323331
138	0xbe40b7c5	-0.18820103
139	0xbc73b4fa	-0.014874691
140	0x3eb481c0	0.3525524
141	0x3dba6d28	0.09102851
142	0xbdebd487	-0.11515146
143	0xbeaf3331	-0.34218743
144	0x3dd3b6c5	0.10337595
145	0xbe91ebc9	-0.28500202
146	0xbe04772f	-0.1293609
147	0xbe336f97	-0.17523037
148	0x3ee31861	0.44354537
149	0x3e1d6266	0.15369567
150	0xbee3a524	-0.4446193
151	0xbe621741	-0.22079183
152	0xbe9930f9	-0.29920176
153	0xbe85db9a	-0.26144105
154	0x3e656a5e	0.22403857
155	0x3eb929ae	0.36164612
156	0xbd0d451a	-0.03448973
157	0xbdd7d375	-0.10538379
158	0x3ebf4433	0.3735672
159	0x3ec682f5	0.38771787
160	0xbea624f2	-0.32450062
161	0x3e3db12d	0.18524618
162	0xbe7faf18	-0.24969137
163	0xbd0ad68c	-0.033896014
164	0xba9da17d	-0.0012026277
165	0xbeb0728c	-0.34462392
166	0x3e936bc1	0.28793147
167	0xbdb33130	-0.08749616
168	0x3cf44711	0.029819043
169	0x3e98b98c	0.2982906
170	0xbe460900	-0.1933937
171	0x3e3b7645	0.18306835
172	0x3e0ea511	0.13930155
173	0x3ba9ac6c	0.005178025
174	0xbe4fccd6	-0.20292982
175	0xbe46d5e9	-0.19417538
176	0x3e8f5ab0	0.27998877
177	0x3cdf1129	0.027229862
178	0x3d141180	0.0361495
179	0x3e4664f5	0.1937445
180	0x3ea1fa13	0.31636104
181	0x3e803a73	0.25044593
182	0xbe0a0e09	-0.13481916
183	0xbdaaa628	-0.08332473
184	0x3e2be789	0.16787542
185	0xbe988b27	-0.29793665
186	0xbea2e390	-0.3181424
187	0xbe4f6e97	-0.2025703
188	0x3d977b53	0.07396569
189	0x3f1eda64	0.6205199
190	0xbeacfa63	-0.3378478
191	0x3d729578	0.059224576
192	0xbf1766d1	-0.5914126
193	0xbf0c3701	-0.5477143
194	0x3f0ad532	0.5423156
195	0x3eb983a9	0.3623326
196	0xbe9ce0d7	-0.3064029
197	0xbd06168e	-0.032736354
198	0x3ed801fc	0.42189014
199	0x3e967559	0.29386404
200	0xbeaa6633	-0.33281097
201	0x3eceb302	0.40370947
202	0xbe8c6535	-0.27420965
203	0xbda0771e	-0.0783522
204	0xbd77196d	-0.060326982
205	0xbe41a98a	-0.1891233
206	0x3e2fed75	0.17180426
207	0xbebce45e	-0.3689298
208	0x3e936377	0.28786823
209	0x3eb7bf8c	0.35888326
210	0xbe8b2214	-0.27174437
211	0x3ebb8982	0.36628348
212	0x3d62d2eb	0.05537693
213	0x3cfc4125	0.030792782
214	0xbef547b6	-0.47906274
215	0x3c8369c9	0.016041653
216	0xbdf4d9ed	-0.119556285
217	0x3e00bb8b	0.12571542
218	0xbdaa3676	-0.08311169
219	0xbe158f67	-0.14605485
220	0x3e6fc5f3	0.23415355
221	0x3e98ecbf	0.29868123
222	0xbf04fd53	-0.5194904
223	0xbf02e88d	-0.51136094
224	0x3ecda7e6	0.4016716
225	0xbe038cf6	-0.12846741
226	0xbe1614b4	-0.14656335
227	0xbed96e6c	-0.42467058
228	0x3edb6aa2	0.42854792
229	0x3eb1aedd	0.34703723
230	0xbe26681c	-0.16250652
231	0xbef9d01a	-0.4879158
232	0xbf4cc17d	-0.7998274
233	0xbf52ce73	-0.82346267
234	0x3f14feec	0.5820148
235	0x3e0b9a02	0.13632968
236	0xbe82e7ca	-0.25567466
237	0xbe821f73	-0.2541462
238	0x3f0c9360	0.54912376
239	0x3ec1b09d	0.37830058
240	0xbe90924c	-0.28236616
241	0x3ec7b44d	0.39004746
242	0xbe66e9c8	-0.22550118
243	0x3e3ba8fc	0.18326181
244	0xbd0c15a9	-0.034200344
245	0xbdf2ea9b	-0.11861154
246	0xbd5204a5	-0.05127396
247	0x3d8815e4	0.066448
248	0x3d616a8b	0.055033248
249	0x3eca320c	0.39491308
250	0xbe2eac5a	-0.17057934
251	0xbe2938d7	-0.16525589
252	0xbe32329a	-0.17402115
253	0xbe5aea08	-0.21378338
254	0xbe608957	-0.21927391
255	0xbdd7ba05	-0.10533527

lstm1.weight_hh_l1 f4 [80, 20]
0	0x3e2e0bc5	0.16996677
1	0xbd8c3fb2	-0.068480864
2	0x3e296298	0.16541517
3	0xbe70d057	-0.23516975
4	0x3d413cd6	0.04717716
5	0x3d6006bf	0.054693934
6	0x3d89c5a2	0.067271486
7	0xbe7d947f	-0.24763678
8	0xbd0136f1	-0.031546537
9	0xbe06fda4	-0.13182694
10	0xbe16ea75	-0.14737876
11	0x3d5c27db	0.053748947
12	0xbe89afef	-0.2689204
13	0xbe74d4b2	-0.23909262
14	0xbcbf8176	-0.023377161
15	0xbcbdd509	-0.023172872
16	0x3d78a31a	0.06070242
17	0xbc9ab497	-0.01888494
18	0xbe058fdd	-0.1304316
19	0xbd726782	-0.059180744
20	0xbe8852d1	-0.26625684
21	0x3d0d2a26	0.034464024
22	0xbe167d0b	-0.14696138
23	0x3b6ee05a	0.0036449642
24	0xbe53ee9c	-0.20696491
25	0xbe6074fe	-0.21919629
26	0x3c2427d7	0.010019264
27	0x3d299d6d	0.0414099
28	0x3e751001	0.23931886
29	0x3e1e49d0	0.15457845
30	0xbe6e4553	-0.23268633
31	0x3e604b40	0.21903706
32	0xbd5a0e2d	-0.053236175
33	0x3b3a0844	0.0028386274
34	0xbe313c59	-0.17308177
35	0x3deac44d	0.11463223
36	0xbe454a1d	-0.19266553
37	0x3e8ff6e2	0.28118044
38	0xbe2b27aa	-0.1671435
39	0x3d8d1a84	0.06889823
40	0xbe01c5bd	-0.12673087
41	0xbe1840d2	-0.14868477
42	0xbe10642b	-0.14100711
43	0xbcd0c9ab	-0.025486788
44	0xbed3f0d0	-0.41394663
45	0xbeb4e5a7	-0.3533146
46	0xbdba6325	-0.091009416
47	0xbe6ff905	-0.23434837
48	0xbdcc625c	-0.09979698
49	0x3d97e3b5	0.074164785
50	0x3d9be338	0.07611698
51	0x3e29e823	0.1659246
52	0x3cb3d656	0.02195279
53	0xbd99e855	-0.07515017
54	0x3e8050a0	0.25061512
55	0x3d6a83ce	0.057254605
56	0x3c9346a4	0.01797802
57	0xbde7aee9	-0.11312658
58	0xbe93e951	-0.28888944
59	0xbde467fb	-0.11152645
60	0xbe972f00	-0.29528046
61	0x3c2779ff	0.010221957
62	0xbe233f8d	-0.15942211
63	0x3e56fb11	0.20994212
64	0xbe9c0ff8	-0.30480933
65	0x3dbea696	0.093091175
66	0xbc981430	-0.018564314
67	0xbe3ad1ca	-0.1824409
68	0xbda08706	-0.07838254
69	0x3e300441	0.17189123
70	0xbe812e6a	-0.25230724
71	0xbde7474f	-0.11292898
72	0xbe25c1f2	-0.16187266
73	0xbe22e893	-0.15909033
74	0xbe4fbb67	-0.20286332
75	0xbe45b710	-0.19308114
76	0x3d1e7288	0.038683444
77	0xbe50e1dc	-0.20398659
78	0xbe45e5f3	-0.19326
79	0x3e520d85	0.2051297
80	0xbe866b51	-0.2625375
81	0xbc52fdb7	-0.012877873
82	0xbe9ca745	-0.30596367
83	0x3ddc1873	0.10746851
84	0xbea1c7ee	-0.31597847
85	0xbda808e1	-0.082048185
86	0x3e929c5c	0.28634918
87	0xbe50ded5	-0.20397504
88	0x3df185d8	0.11793107
89	0xbd79d964	-0.060998335
90	0x3e291ebe	0.16515633
91	0xbce5923a	-0.028023828
92	0xbea5167f	-0.32243726
93	0xbe8460c6	-0.25855082
94	0x3dcdb8ad	0.1004499
95	0xbcec0ab3	-0.028813696
96	0x3d914ef6	0.07095139
97	0xbe07a86e	-0.13247845
98	0xbe01168f	-0.12606262
99	0xbe56acfb	-0.20964424
100	0xbe44b6fe	-0.19210431
101	0xbda73826	-0.08165006
102	0x3c791135	0.015201856
103	0x3cfaa266	0.030595016
104	0xbe8bf7e0	-0.2733755
105	0x3dfc6a15	0.12324921
106	0x3e51bb22	0.20481542
107	0xbe9bec62	-0.30453783
108	0x3e83e4a0	0.25760365
109	0x3ceda5da	0.029009748
110	0xbdb0cb37	-0.0863251
111	0x3deffee6	0.1171854
112	0xbbe5fb1e	-0.007018461
113	0xbe77aa7a	-0.24186125
114	0x3e701a4b	0.2344753
115	0x3d4c2855	0.04984315
116	0xbe55dbe4	-0.20884663
117	0xbb90a8a8	-0.0044146366
118	0x3e106630	0.14101481
119	0xbd1dbda3	-0.03851093
120	0x3e08fa47	0.13376723
121	0xbe537ee8	-0.2065388
122	0xbd71e96e	-0.059060507
123	0xbe94fb7a	-0.2909811
124	0xbcfa9a1b	-0.030591061
125	0x3e3dd68f	0.18538879
126	0x3d423b1f	0.047419664
127	0x3d9a2072	0.0752572
128	0x3e5b69d4	0.21427089
129	0x3cd8d0d0	0.026466757
130	0xbe9389f5	-0.2881619
131	0xbc6d85e5	-0.014497255
132	0xbe63874f	-0.22219585
133	0xbe882266	-0.26588744
134	0x3d60d92e	0.05489462
135	0x3dcea7e2	0.10090615
136	0xbe644155	-0.22290547
137	0xbd2b74ca	-0.041859426
138	0x3d359b14	0.044337347
139	0x3cd371a9	0.025811033
140	0x3df97e32	0.12182273
141	0x3d99bf20	0.07507157
142	0x3dece48d	0.1156703
143	0x3dcdc1b4	0.100467116
144	0x3db8b5c2	0.090190426
145	0x3cb23bd9	0.021757053
146	0xbda2cdc1	-0.07949401
147	0x3d638cd7	0.055554237
148	0x3df79ca6	0.12090425
149	0x3ea5f58c	0.324139
150	0xbdb9270a	-0.09040649
151	0x3d2cd0e7	0.042191412
152	0xbdb2f362	-0.08737828
153	0xbdaa483f	-0.08314561
154	0xbdb646e3	-0.08900239
155	0x3dd1e0f9	0.10247988
156	0xbe66d270	-0.22541213
157	0xbdd93033	-0.106048964
158	0xbccbd074	-0.024879672
159	0xbd4600e8	-0.048340708
160	0xbe5ab361	-0.2135749
161	0xbe0cd732	-0.13753965
162	0xbe44abef	-0.19206212
163	0xbddf7dc0	-0.10912657
164	0xbe27ceda	-0.16387501
165	0xbd0d777a	-0.03453777
166	0x3d08b339	0.033374045
167	0xbe4fa3fd	-0.202774
168	0xbd82e923	-0.063921236
169	0x3e264e68	0.16240847
170	0x3dd88fbf	0.105742924
171	0x3e966d03	0.29380044
172	0xbe2b9bed	-0.167587
173	0xbe4a1738	-0.1973542
174	0x3d8dac47	0.06917625
175	0xbdb2e06c	-0.08734211
176	0xbd3274ea	-0.04356853
177	0xbdb6e939	-0.089312024
178	0x3ddbf7db	0.10740634
179	0xbe2e4820	-0.17019701
180	0xbe9f0e47	-0.3106558
181	0x3d565ce4	0.05233468
182	0xbe08683f	-0.13321017
183	0xbdde4517	-0.108530216
184	0xbe94505f	-0.28967568
185	0xbe39c7d5	-0.18142636
186	0x3e4da605	0.20082863
187	0xbb726eb1	-0.0036992247
188	0x3e417c1b	0.18894999
189	0x3e7f6a96	0.24943003
190	0xbe719225	-0.23590906
191	0xbe34d47e	-0.17659184
192	0xbe04518a	-0.1292173
193	0xbef7e029	-0.48413208
194	0x3e582394	0.21107322
195	0x3dcf9576	0.10135929
196	0xbee398b8	-0.44452453
197	0xbd8a9613	-0.06766906
198	0x3dbb3a84	0.0914202
199	0x3d15b334	0.036547855
200	0xbc94f119	-0.01818137
201	0xbe8c83f4	-0.27444422
202	0xbe285627	-0.16439115
203	0x3e4e4077	0.20141779
204	0xbc389846	-0.011266774
205	0xbe0682d6	-0.13135847
206	0xbdbaa9c3	-0.09114411
207	0x3e2dfbe5	0.16990621
208	0x3d8f9d1b	0.07012387
209	0x3e9799a9	0.2960942
210	0xbe80f1b9	-0.2518442
211	0x3daa633f	0.08319711
212	0x3de1cdba	0.11025567
213	0xbde66666	-0.1125
214	0xbd0868a2	-0.03330291
215	0xbe5662d4	-0.20936137
216	0xbe76f880	-0.24118233
217	0x3e10e613	0.14150266
218	0x3e0a0151	0.13477065
219	0xbe44f0fd	-0.19232555
220	0x3ac1d53b	0.0014788279
221	0x3d8cd2b7	0.06876128
222	0xbc9ca561	-0.019121828
223	0x3e839636	0.2570054
224	0x3e18d57d	0.1492519
225	0x3d9c9182	0.07644941
226	0xbc2fb968	-0.010725357
227	0x3e917386	0.2840845
228	0x3dd3b974	0.10338107
229	0xbe161349	-0.14655794
230	0x3ea2e189	0.31812695
231	0x3e3b69ef	0.18302129
232	0xbb4dc26e	-0.0031396407
233	0xbea3f564	-0.32023156
234	0xbbb32df7	-0.005468126
235	0xbea6f95d	-0.32612124
236	0x3d113f14	0.035460547
237	0xbd70c33c	-0.05877994
238	0x3db49dd3	0.08819165
239	0xbde71a54	-0.112843186
240	0x3d342369	0.043979082
241	0xbde24079	-0.110474534
242	0xbda2a0e6	-0.07940845
243	0xbdad2ddd	-0.08456013
244	0xbe8c1069	-0.2735627
245	0x3e459e54	0.19298679
246	0x3e969d0a	0.29416686
247	0xbead3596	-0.33829945
248	0xbd1fb74b	-0.03899316
249	0x3efc85f6	0.49320954
250	0x3ce71331	0.028207393
251	0xbcbbe1dc	-0.022934847
252	0xbdf214c5	-0.11820368
253	0xbe93a920	-0.2883997
254	0x3e014f17	0.12627827
255	0xbe1f3658	-0.15548074
