experiments/derived/weights/2_GRU.pth (torch, 167934 bytes, 57 tensors)

lstm1.weight_ih_l0 f4 [60, 58]
0	0x3e921e15	0.28538576
1	0x3e7b54f7	0.2454413
2	0xbe4546c6	-0.19265279
3	0x3e6b6eff	0.2299156
4	0x3d7dfa83	0.062006485
5	0xbd99251d	-0.07477782
6	0xbe3ef3b3	-0.18647651
7	0xbe11a8fa	-0.14224616
8	0x3e0b11c1	0.13580991
9	0x3e734aec	0.23759049
10	0x3d9112be	0.07083653
11	0x3ddf5faf	0.10906922
12	0xbca5cdc4	-0.020239718
13	0xbeaa194d	-0.33222428
14	0xbd35eca3	-0.044415127
15	0x3e5a8e78	0.2134341
16	0x3e22f0f0	0.15912223
17	0x3e8f7a0d	0.28022805
18	0x3e04aa02	0.12955478
19	0x3da4cd21	0.08046938
20	0x3e1c0df4	0.15239698
21	0x3d12819e	0.035768144
22	0xbebdaf5f	-0.3704786
23	0xbe44feac	-0.19237775
24	0x3e11680c	0.14199847
25	0x3e28a59f	0.1646943
26	0x3e1ce7f6	0.15322861
27	0xbe021ddc	-0.12706703
28	0x3eca42ce	0.39504093
29	0x3e576fe5	0.21038778
30	0x3e666e2b	0.22502963
31	0x3d963e59	0.073361106
32	0x3e1456c6	0.14486226
33	0x3e598d31	0.21245266
34	0x3d2d7153	0.042344403
35	0xbdcca6d0	-0.099927545
36	0x3c371c69	0.011176207
37	0x3d30afd1	0.04313642
38	0xbe0b54d8	-0.13606584
39	0x3e4a21de	0.19739482
40	0x3d44bef2	0.048033662
41	0x3e725530	0.23665309
42	0xbe03839e	-0.12843177
43	0xbe90a40a	-0.28250152
44	0x3e29c5d2	0.16579369
45	0xbd68b746	-0.05681541
46	0xbdbdeee3	-0.0927408
47	0x3cdee832	0.027210329
48	0xbc08f51d	-0.008359221
49	0xbe0ffac3	-0.14060502
50	0x3e664c95	0.22490151
51	0xbad10f01	-0.0015949906
52	0x3dde40cb	0.10852202
53	0xbd5ba758	-0.05362639
54	0x3d94db7d	0.072684266
55	0xbe397cb7	-0.18113981
56	0x3dddc7f2	0.10829152
57	0x3cde8d32	0.027166937
58	0xbe059417	-0.13044773
59	0x3d19f169	0.037583742
60	0x3e9e9231	0.3097091
61	0x3df19e6b	0.11797794
62	0xbe4cee03	-0.2001267
63	0xbe1bc127	-0.152104
64	0xbde5d0ae	-0.11221443
65	0xbe4b0d09	-0.19829191
66	0x3e9e51f0	0.30921888
67	0xbe80c761	-0.25152114
68	0xbde4e9e5	-0.11177424
69	0xbdcb408c	-0.09924421
70	0x3e410da9	0.18852867
71	0x3e76d641	0.24105169
72	0x3e2856c6	0.16439351
73	0x3b20328a	0.0024444186
74	0xbbb40677	-0.0054939347
75	0x3e3fa034	0.18713456
76	0xbd4fb8e0	-0.05071342
77	0x3e65cf8a	0.22442451
78	0xbd949c3b	-0.07256361
79	0x3e0a1a10	0.13486505
80	0xbe06c3ee	-0.13160679
81	0xbe38cf46	-0.18047819
82	0xbb4c2fbf	-0.0031156389
83	0xbe5bd87d	-0.21469302
84	0xbe4cbcf0	-0.19993949
85	0x3da0e787	0.0785666
86	0x3ea6fa4b	0.32612833
87	0x3e9db463	0.30801687
88	0xbdb25123	-0.08706882
89	0x3e94e6e5	0.2908241
90	0x3e55e14e	0.20886728
91	0x3e269b9f	0.16270302
92	0xbe127ccf	-0.14305423
93	0x3e180cd8	0.1484865
94	0x3e2d4e62	0.16924432
95	0xbe391502	-0.1807442
96	0xbea62113	-0.3244711
97	0xbe243404	-0.16035467
98	0x3df0d304	0.11758998
99	0x3d9fc651	0.07801498
100	0xbc12cfb8	-0.008960657
101	0x3dbb7be5	0.091544904
102	0x3d463ace	0.048395924
103	0x3d0bedd5	0.03416236
104	0x3d134900	0.03595829
105	0xbdcfab51	-0.10140098
106	0x3de63a5d	0.11241601
107	0xbdc8e7eb	-0.0980986
108	0xbd6a0f62	-0.057143576
109	0xbe15481d	-0.1457829
110	0xbe4083ec	-0.18800324
111	0x3dacb86e	0.08433615
112	0xbe2b6092	-0.16736057
113	0xbe22f314	-0.1591304
114	0xbdafb77e	-0.0857992
115	0xbe0b55d5	-0.13606961
116	0xbddbba4f	-0.10728895
117	0xbd08cc1b	-0.033397775
118	0x3e24a0b0	0.16076922
119	0xbde8fcf4	-0.11376372
120	0xbdedac05	-0.11605076
121	0xbd135303	-0.035967838
122	0x3e41a2a2	0.18909696
123	0x3d2ea780	0.04264021
124	0xbd14da40	-0.036340952
125	0x3de4a0b9	0.11163468
126	0xbe1476ba	-0.14498416
127	0xbd090a23	-0.033456933
128	0x3e2ab0f2	0.16669062
129	0x3dbab8d9	0.09117288
130	0xbc63c1cb	-0.013901184
131	0x3dd2c608	0.10291678
132	0xbdb780e9	-0.089601345
133	0xbe16e2ec	-0.14735001
134	0xbdbc8593	-0.09205165
135	0xbe964e26	-0.29356498
136	0xbc3946a2	-0.011308344
137	0xbe898da4	-0.26865876
138	0x3e7738f5	0.24142821
139	0xbdb75fe2	-0.08953835
140	0x3d8993cc	0.06717643
141	0x3a8a3eeb	0.0010547315
142	0xbe2d4cb8	-0.16923797
143	0x3dbf1a2f	0.09331166
144	0xbd1e5ad4	-0.03866084
145	0xbe031814	-0.12802154
146	0x3e570cf6	0.21001038
147	0xbda309be	-0.079608425
148	0xbd7c6b79	-0.06162593
149	0x3cb98df3	0.022650694
150	0x3e533f21	0.2062955
151	0x3e933137	0.28748485
152	0x3e78ba73	0.24289875
153	0x3e0b6df9	0.1361617
154	0x3dfbdcfb	0.12298008
155	0xbd831ffd	-0.06402586
156	0x3e3a2645	0.18178661
157	0xbdf3fb3e	-0.11913155
158	0xbceafc1c	-0.028684668
159	0xbcef6aa5	-0.029225657
160	0x3c02df09	0.007987746
161	0x3e2c128d	0.16803952
162	0x3e57c7f0	0.21072364
163	0xbdd3a45e	-0.10334085
164	0x3d9c422c	0.07629809
165	0x3de08743	0.10963299
166	0x3bcb149b	0.0061975247
167	0x3e580e97	0.21099316
168	0xbcdc80b7	-0.026916845
169	0xbd22aa4c	-0.03971319
170	0x3dd9f8ed	0.10643182
171	0xbe1adc7d	-0.15123172
172	0x3e7b418b	0.24536721
173	0x3e805760	0.25066662
174	0x3e86b937	0.26313183
175	0xbd29b2cd	-0.041430283
176	0xbe8066d5	-0.25078455
177	0xbb6b73dc	-0.0035927212
178	0xbe4f5448	-0.20246994
179	0x3c64c569	0.013963082
180	0xbe875b97	-0.26437065
181	0x3d8f175f	0.069868796
182	0xbdc10e52	-0.094265595
183	0xbdb47f20	-0.0881331
184	0x3e5749cd	0.21024247
185	0x3c5462c9	0.012963005
186	0x3e61c55f	0.22047947
187	0xbebfbaf9	-0.37447336
188	0xbd5bed5c	-0.05369316
189	0xbc2647b1	-0.0101489285
190	0xbeafa279	-0.34303644
191	0xbe37ffe9	-0.17968716
192	0xbe19041c	-0.14942974
193	0xbefde165	-0.49586025
194	0xbedec28c	-0.43507802
195	0xbec3fd58	-0.38279223
196	0xbeca8c3a	-0.3956011
197	0xbe5a16aa	-0.21297708
198	0x3d4fab17	0.050700273
199	0x3d94ef9d	0.07272265
200	0xbe800df8	-0.25010657
201	0xbea75e4a	-0.32689124
202	0xbdb43f2b	-0.08801111
203	0xbea63ee8	-0.3246987
204	0xbde8a9ac	-0.11360487
205	0x3d599a07	0.053125408
206	0xbd6afdc8	-0.05737093
207	0x3cbe5bb6	0.02323709
208	0xbdfc80d9	-0.12329263
209	0xbe71c5b4	-0.23610574
210	0xbd9bf48b	-0.07615002
211	0x3da9a0d4	0.08282629
212	0xbebb296f	-0.3655505
213	0x3e3ac4eb	0.1823918
214	0x3c5d1456	0.013493618
215	0xbe874e40	-0.26426888
216	0xbdc00ee2	-0.09377839
217	0x3ddcfa94	0.107899815
218	0xbe8f2fc1	-0.2796612
219	0xbe53107b	-0.20611756
220	0xbe949c3c	-0.29025447
221	0x3d8ee221	0.069767244
222	0x3c4c5a01	0.0124726305
223	0xbd568093	-0.05236871
224	0xbe59ca68	-0.21268618
225	0xbdb08142	-0.08618404
226	0x3e33685d	0.1752028
227	0xbe223be7	-0.15843163
228	0xbe3476b9	-0.17623414
229	0x3cd255fd	0.025675768
230	0xbe05c39c	-0.130629
231	0x3ea285e6	0.3174278
232	0x3eb03c4c	0.34421003
233	0xbde21601	-0.11039353
234	0xbd976320	-0.073919535
235	0x3ca88e39	0.02057563
236	0xbdff303a	-0.1246037
237	0xbc373739	-0.0111826
238	0xbe4fb85f	-0.20285176
239	0x3e2168f5	0.15762694
240	0xbea0cc6f	-0.3140597
241	0xbce00bc1	-0.027349355
242	0xbe896a5d	-0.2683896
243	0x3e14bb7c	0.14524645
244	0xbda9b1b8	-0.0828585
245	0xbe829e94	-0.2551161
246	0xbe869e37	-0.26292583
247	0xbdd6de60	-0.104916334
248	0xbea16d77	-0.31528828
249	0xbf171cda	-0.590284
250	0xbe65bb38	-0.224347
251	0x3d257e88	0.040403873
252	0xbdc3f761	-0.09568668
253	0xbe9acaf5	-0.3023297
254	0xbe854960	-0.26032543
255	0xbdab1293	-0.08353152

lstm1.weight_hh_l0 f4 [60, 20]
0	0xbd7457a3	-0.05965389
1	0x3e5456ef	0.20736288
2	0x3e6dae7f	0.23211096
3	0xbd5b8dec	-0.053602144
4	0xbd902b55	-0.07039515
5	0x3e6f87ce	0.23391649
6	0x3e03d394	0.1287368
7	0xbe002f53	-0.12518053
8	0x3e5cab1d	0.2154965
9	0x3df4fb32	0.11961974
10	0x3e146857	0.14492927
11	0x3cf51f20	0.029922068
12	0xbc8c1406	-0.017099392
13	0x3be4157e	0.00696057
14	0xbe42aa95	-0.19010384
15	0x3dc4adae	0.09603439
16	0xbe277448	-0.16352952
17	0xbdd8c56a	-0.10584529
18	0xbe2684fe	-0.1626167
19	0x3e872c01	0.2640076
20	0xbeaeee01	-0.34165958
21	0xbec2b914	-0.38031828
22	0x3d5d3657	0.0540069
23	0xbdd5468a	-0.10413845
24	0xbe14773f	-0.14498614
25	0x3e7940be	0.24341103
26	0x3d0698bf	0.032860514
27	0x3d9bb921	0.0760367
28	0x3c4d0295	0.012512823
29	0xbe71a0e4	-0.23596531
30	0x3b8d7886	0.004317346
31	0x3cfecd3a	0.031103719
32	0xbec81fe1	-0.39086822
33	0xbdebb879	-0.11509795
34	0x3e194f9b	0.14971773
35	0xbe255322	-0.16144994
36	0x3c3b3106	0.011425262
37	0x3d9fee69	0.07809145
38	0xbe07184f	-0.13192867
39	0xbdd731cf	-0.10507547
40	0xbe1d6407	-0.15370189
41	0xbdb3c5ba	-0.08777948
42	0x3e9d02df	0.30666253
43	0x3e6322b6	0.2218121
44	0xbe1cd46f	-0.15315412
45	0xbd381e0c	-0.04495053
46	0xbd1c7d5a	-0.038205482
47	0x3c58f896	0.013242861
48	0xbe0341a0	-0.12818003
49	0xbe361410	-0.1778109
50	0xbc48a118	-0.012245439
51	0x3dcb9a3d	0.09941528
52	0xbe1bb5ce	-0.15206072
53	0xbe571c04	-0.21006781
54	0xbe6b4894	-0.22976905
55	0x3e647dfb	0.22313683
56	0x3d400172	0.04687638
57	0x3c100b6e	0.008791788
58	0xbd9103df	-0.070808165
59	0x3da1e7ae	0.079055175
60	0xbca06a50	-0.019581944
61	0xbd60de0a	-0.054899253
62	0x3e5e019a	0.21680298
63	0x3bdc4a7d	0.006722747
64	0x3e75cf5e	0.24004886
65	0x3d930638	0.071789205
66	0xbe530e09	-0.20610823
67	0xbe619d3b	-0.22032635
68	0xbe5175e5	-0.2045513
69	0xbe8dfb3e	-0.27730745
70	0x3e3680cb	0.17822568
71	0xbeea6928	-0.45783353
72	0xbcb09aea	-0.021558244
73	0x3d18ed43	0.037335645
74	0x3e89f225	0.26942554
75	0xbe2aca4a	-0.1667873
76	0xbd82240f	-0.06354534
77	0xbdfa69ae	-0.12227188
78	0x3d7d5877	0.061851945
79	0xbe47bcae	-0.1950557
80	0xbde80beb	-0.11330398
81	0x3e2ddd35	0.16978915
82	0xbe68fe4a	-0.22753254
83	0xbda7ee92	-0.081998006
84	0xbd496b7d	-0.049174774
85	0x3e2d7091	0.16937472
86	0xbdad1a5c	-0.08452293
87	0x3dd5c905	0.10438732
88	0xbe86cb81	-0.26327136
89	0x3d38357c	0.04497288
90	0x3df649fa	0.12025829
91	0xbc836215	-0.01603798
92	0xbd9ebaef	-0.077504985
93	0x3dee47a8	0.11634761
94	0x3e5c58b1	0.21518208
95	0xbe62c7de	-0.22146556
96	0x3d5cd7c9	0.053916726
97	0x3dea31bf	0.114352696
98	0x3dc46ced	0.095910884
99	0xbd729d6d	-0.059232164
100	0x3d819b4e	0.0632845
101	0xbdeab789	-0.11460788
102	0x3b1cecec	0.0023944927
103	0xbd8e5f7b	-0.06951805
104	0x3e04840b	0.12940995
105	0xbe825bab	-0.25460562
106	0xbe8c3e31	-0.27391198
107	0xbe19a8dd	-0.15005822
108	0x3c73482d	0.014848751
109	0xbcef469a	-0.02920847
110	0xbe6733cd	-0.22578354
111	0xbe538129	-0.2065474
112	0x3da05f8d	0.07830725
113	0xbdb322ca	-0.0874687
114	0xbe58276e	-0.21108791
115	0x3db94d0e	0.090479
116	0x3e0ff65c	0.14058822
117	0xbe4620c0	-0.1934843
118	0xbe189687	-0.14901172
119	0xbde247e5	-0.11048869
120	0x3e82e060	0.2556181
121	0x3e8b1daa	0.2717107
122	0xbe659ed9	-0.22423877
123	0xbe19e4bd	-0.15028663
124	0xbac0ea21	-0.0014718213
125	0x3e854952	0.260325
126	0xbd9a77e1	-0.07542396
127	0x3ca05be1	0.019575061
128	0xbde317d1	-0.11088527
129	0xbd884eb4	-0.066556364
130	0x3e68388e	0.22677824
131	0xbe66b6e6	-0.22530708
132	0xbdd4b9d6	-0.10387008
133	0x3e34a513	0.17641096
134	0xbdbbbed0	-0.09167254
135	0xbe0dce54	-0.13848239
136	0x3dc2521c	0.09488317
137	0x3d78afd0	0.060714543
138	0x3c7bd491	0.015370504
139	0xbe327042	-0.17425635
140	0x3e3fbe59	0.18724956
141	0xbda6f536	-0.08152239
142	0xbecf2279	-0.40455988
143	0xbedfa0c4	-0.43677342
144	0x3ccffb76	0.02538846
145	0x3c98e60d	0.018664384
146	0xbcd065eb	-0.025439223
147	0x3ee0144f	0.43765494
148	0xbdad0098	-0.08447379
149	0x3e2df8c7	0.16989432
150	0xbe2aa6f3	-0.16665249
151	0x3eb2c015	0.34912172
152	0xbe0c0241	-0.13672735
153	0xbde43d4d	-0.11144505
154	0x3a8a47b1	0.001054993
155	0xbe6ced72	-0.23137453
156	0xbe474c7b	-0.19462769
157	0xbe21aca8	-0.1578852
158	0xbda901f0	-0.08252323
159	0xbe76f1e2	-0.24115708
160	0xbe19cbf2	-0.15019205
161	0xbe7aa13a	-0.24475566
162	0xbe10f22b	-0.1415488
163	0xbdf29b72	-0.11846055
164	0x3e09564d	0.13411827
165	0xbe69a925	-0.2281843
166	0xbe11a54f	-0.14223216
167	0x3e87e933	0.26545104
168	0x3e820f3b	0.25402245
169	0x3993294f	0.00028068802
170	0xbd43d669	-0.0478119
171	0x3d7fb66d	0.062429834
172	0xbd97a97d	-0.07405374
173	0x3e0beeda	0.13665333
174	0xbe29f8fc	-0.16598886
175	0x3e15e7e3	0.14639239
176	0x3e08bf37	0.13354193
177	0xbdbf74ef	-0.09348475
178	0xbe6959ff	-0.22788237
179	0xbc726447	-0.014794416
180	0xba4420d4	-0.00074816984
181	0x3e49aa64	0.19693905
182	0x3e2bca77	0.16776453
183	0x3e4e507f	0.20147894
184	0xbdd9593b	-0.106127225
185	0xbd82fac5	-0.06395487
186	0xbbb49acf	-0.0055116187
187	0x3bb4ccd3	0.005517581
188	0x3c9da32a	0.019242842
189	0xbdd35de4	-0.103206426
190	0x3da68cb3	0.08132305
191	0x3d50b0cb	0.050949853
192	0x3d3a1a3b	0.04543517
193	0xbd62c40d	-0.05536275
194	0x3c11cb60	0.008898586
195	0xbe45adb6	-0.19304547
196	0xbe030161	-0.12793495
197	0xbe11116a	-0.14166799
198	0xbdc161f1	-0.09442509
199	0x3d8d9e00	0.06914902
200	0xbd87c0d6	-0.066285774
201	0x3e56d095	0.20978005
202	0x3e139719	0.14413108
203	0xbe5a42f1	-0.21314599
204	0xbccba8db	-0.02486079
205	0xbe921e25	-0.28538623
206	0xbe3c4bcc	-0.18388289
207	0x3d87bc80	0.066277504
208	0x3d233610	0.03984648
209	0x3c1f77dc	0.009733167
210	0xbd0d3afe	-0.034480087
211	0x3e61f44d	0.2206585
212	0xbe06a5d2	-0.13149193
213	0x3d8c1f19	0.06841869
214	0x3e0ed488	0.13948262
215	0xbc73dfc1	-0.01488489
216	0xbe027ace	-0.12742159
217	0xbddf9abe	-0.109181866
218	0x3db6d70d	0.089277364
219	0x3e0579b7	0.13034712
220	0xbe0eb9d5	-0.13938077
221	0xbe60a926	-0.21939525
222	0x3d13fa50	0.03612739
223	0xbd607dba	-0.054807402
224	0xbdbd41a3	-0.09241035
225	0xbd9cd1bd	-0.07657192
226	0xbdc2ca8c	-0.09511289
227	0xbdc4166e	-0.095745906
228	0x3e48cb56	0.19608817
229	0x3d414470	0.047184408
230	0xbcbdf088	-0.023185983
231	0xbe0928f2	-0.13394526
232	0xbe154662	-0.1457763
233	0xbe7fa9fd	-0.24967189
234	0xbe2cfd90	-0.16893601
235	0xbe51fb2a	-0.20505968
236	0x3e859489	0.26089886
237	0x3e0c73b6	0.13716015
238	0x3e2b8afe	0.1675224
239	0x3da4cd9e	0.08047031
240	0xbe1d19dd	-0.15341897
241	0x3d9d968f	0.076947324
242	0x3a50437e	0.00079446274
243	0xbcb33d1c	-0.021879725
244	0x3e63dc2d	0.22251959
245	0xbe3142c8	-0.17310631
246	0x3e321235	0.17389758
247	0xbde49f67	-0.11163216
248	0xbe362530	-0.17787623
249	0xbe2f7397	-0.17133938
250	0xbe80d324	-0.25161088
251	0xbe3b0493	-0.18263464
252	0x3dac5c3a	0.08416028
253	0x3dd2981a	0.10282917
254	0xbe779d2c	-0.2418105
255	0xbc1b70fe	-0.009487389

lstm1.bias_ih_l0 f4 [60]
0	0x3e1bd021	0.15216114
1	0x3dd7ac00	0.10530853
2	0xbcd20813	-0.025638616
3	0xbddd3bc8	-0.10802418
4	0xbe038038	-0.1284188
5	0xbd5373d6	-0.05162414
6	0x3e25b43c	0.16182035
7	0x3e32392b	0.1740462
8	0x3e638bd2	0.22221306
9	0x3de311aa	0.110873535
10	0xbe796fb5	-0.24359019
11	0x3e087897	0.13327251
12	0xbdfcfffe	-0.12353514
13	0x3e080c2b	0.13285892
14	0x3e293d93	0.16527395
15	0xbd770682	-0.06030894
16	0xbe49d414	-0.19709808
17	0x3da127e1	0.078689344
18	0x3d2ffb8f	0.042964514
19	0xbe393763	-0.18087535
20	0xbe3548b2	-0.17703512
21	0xbdbefb95	-0.09325329
22	0x3d551fc7	0.05203226
23	0xbe8903c9	-0.267607
24	0x3e0f4853	0.13992433
25	0x3da3d552	0.07999672
26	0x3c274d16	0.01021125
27	0xbe38964d	-0.18026085
28	0xbe006b37	-0.12540899
29	0x3df218c8	0.11821133
30	0x3e343b77	0.17600809
31	0x3cb2d17e	0.02182841
32	0xba7238a1	-0.0009240006
33	0x3e59038f	0.21192764
34	0xbdc98f51	-0.098417886
35	0xbd9f19d3	-0.077685975
36	0xbbb613ea	-0.005556573
37	0xbe0a7ef9	-0.13524999
38	0x3eaeff2e	0.34179062
39	0x3ce0b816	0.027431529
40	0x3c37858b	0.011201273
41	0xbe4c63e7	-0.19959985
42	0x3cc9809e	0.024597462
43	0xbda64af7	-0.08119767
44	0xbba434ff	-0.0050112004
45	0x3dd5e254	0.10443559
46	0x3e1fc080	0.15600777
47	0x3ddb3c54	0.10704866
48	0x3e02cb3b	0.12772839
49	0x3c06397f	0.008192419
50	0xbd35282c	-0.044227764
51	0x3d065a4a	0.03280095
52	0xbcefabdc	-0.029256754
53	0xbdbaacec	-0.091150135
54	0xbe160250	-0.1464932
55	0xbca6d8c0	-0.020367026
56	0x3d1b6113	0.037934374
57	0xbdae3d84	-0.08507827
58	0x3ce4a10b	0.027908823
59	0x3e1f6102	0.1556435

lstm1.bias_hh_l0 f4 [60]
0	0x3e038016	0.1284183
1	0x3e670240	0.22559452
2	0xbe198d98	-0.1499542
3	0xbd2c6315	-0.04208668
4	0xbe37be99	-0.17943801
5	0xbe73da66	-0.23813781
6	0x3b547db2	0.0032423553
7	0xbccb7a67	-0.02483864
8	0xbc962c31	-0.018331619
9	0x3d2addb5	0.041715343
10	0xbdd123b4	-0.10211888
11	0xbe61870d	-0.22024174
12	0xbe5355cd	-0.20638199
13	0xbe53ebab	-0.20695369
14	0xbe41c49a	-0.18922654
15	0xbe18368d	-0.1486456
16	0x3da37a13	0.07982268
17	0xbe94270e	-0.28936046
18	0xbe4c60ae	-0.19958755
19	0x3cccb8bb	0.02499043
20	0xbe343b11	-0.17600657
21	0xbe56d753	-0.20980577
22	0xbe85ce58	-0.2613399
23	0xbe08ccca	-0.13359371
24	0x3d8d4580	0.06898022
25	0xbde5a5ec	-0.11213288
26	0xbd195734	-0.03743668
27	0xbe2821bd	-0.1641912
28	0xbd24ff4b	-0.04028253
29	0xbe180f16	-0.14849505
30	0xbe5a526c	-0.21320504
31	0x3e09547a	0.13411132
32	0xbd13c3fb	-0.036075573
33	0xbdf92bfa	-0.12166591
34	0xbe01d4c1	-0.12678815
35	0xbe8adbe5	-0.2712089
36	0x3e54811d	0.20752378
37	0xbcbf3309	-0.023339765
38	0x3dfe793e	0.12425469
39	0xbe63dde9	-0.22252621
40	0x3b29986b	0.0025878202
41	0x3e5f1ba6	0.21787891
42	0xbd26031b	-0.040530305
43	0x3d2afa52	0.04174263
44	0x3e2f7378	0.17133892
45	0x3d69bde4	0.05706586
46	0x3df062c5	0.11737589
47	0xbe271a89	-0.16318716
48	0xbdb930ef	-0.090425365
49	0xbe1240ab	-0.14282481
50	0x3e63077c	0.22170824
51	0x3d8f94c6	0.07010798
52	0xbd9a2333	-0.07526245
53	0x3dbf29db	0.09334155
54	0x3e4bbf3f	0.19897173
55	0xbd970335	-0.073736586
56	0x3db3956d	0.08768735
57	0x3e137032	0.14398268
58	0x3e070289	0.13184561
59	0xbcc457f7	-0.023967726

lstm1.weight_ih_l1 f4 [60, 20]
0	0x3e987543	0.29776964
1	0x3db3ae75	0.087735094
2	0x3cbad545	0.022806773
3	0xbe809b67	-0.25118563
4	0xbea095bc	-0.31364238
5	0x3e06f999	0.13181151
6	0xbe1b3052	-0.15155151
7	0x3e80e736	0.251764
8	0xbe8b2a1f	-0.27180573
9	0x3ea4ba46	0.32173365
10	0x3e5794e8	0.21052897
11	0xbdb3fb4b	-0.08788165
12	0x3df70323	0.12061145
13	0xbe21b676	-0.1579226
14	0x3e011c7f	0.12608527
15	0xbe93953e	-0.288248
16	0xbd903242	-0.07040836
17	0xbe40e44f	-0.18837093
18	0xbc49f30a	-0.012326011
19	0xbe51ad1b	-0.20476191
20	0x3c189022	0.009311708
21	0x3daee38f	0.08539497
22	0x3dd2368f	0.102643125
23	0xbdc4553e	-0.09586571
24	0xbe01e3d1	-0.12684561
25	0x3da393f2	0.07987203
26	0x3e3191df	0.17340802
27	0xbe65b88f	-0.22433685
28	0x3c0e0230	0.008667514
29	0x3c673c64	0.014113519
30	0x3e16b004	0.14715582
31	0xbe496a7c	-0.19669527
32	0x3cd8eca8	0.026480034
33	0xbd446b93	-0.047954153
34	0xbd4d4919	-0.05011854
35	0x3e342ffa	0.17596427
36	0xbe4b14da	-0.19832173
37	0x3d8eab41	0.06966258
38	0x3dc0371e	0.09385513
39	0xbe5fd7fc	-0.21859735
40	0xbdc91a4e	-0.0981947
41	0x3d5577e5	0.052116293
42	0xbe6476ed	-0.22310992
43	0xbe0e24d5	-0.13881238
44	0x3e15ce65	0.14629515
45	0xbd93a4d1	-0.072091706
46	0xbe513117	-0.20428883
47	0xbde22564	-0.11042288
48	0x3d806026	0.06268339
49	0xbda9f562	-0.08298756
50	0x3dfe705b	0.12423774
51	0xbdf8e453	-0.121529244
52	0x3ded266d	0.11579595
53	0xbe10b67a	-0.1413211
54	0xbd7ce7f8	-0.06174466
55	0x3ccfdbad	0.025373304
56	0xbe570f01	-0.21001817
57	0xbe86f43b	-0.26358208
58	0x3d8c3d40	0.0684762
59	0x3e48cb14	0.19608718
60	0xbe1af5ac	-0.15132779
61	0xbe189fa6	-0.14904651
62	0xbd9c9835	-0.07646219
63	0xbdb2130b	-0.086950384
64	0x3d180efd	0.03712367
65	0xbe14ab41	-0.14518453
66	0x3e0bc6fe	0.13650128
67	0xbde013ff	-0.10941314
68	0x3d5959db	0.05306421
69	0xbe2c6e97	-0.16839062
70	0x3ce827ad	0.028339231
71	0xbcf51851	-0.029918822
72	0x3e5cae91	0.21550967
73	0x3e2a0374	0.1660288
74	0x3e12a4e9	0.1432072
75	0xbe4a9eb3	-0.19787101
76	0x3d931014	0.07180801
77	0xbd9e968d	-0.07743559
78	0x3e130410	0.14357018
79	0x3e093834	0.13400346
80	0xbc80496e	-0.015660014
81	0xbdda0e10	-0.106472135
82	0xbcb95349	-0.022622721
83	0xbe85f174	-0.26160777
84	0xbdb0baf6	-0.0862941
85	0x3d3f1159	0.046647403
86	0x3db04340	0.08606577
87	0x3eceb777	0.40374348
88	0xbe3a5171	-0.1819513
89	0x3e3028c0	0.17203045
90	0x3df9370b	0.12168702
91	0x3e30b16f	0.17255186
92	0xbe1a963f	-0.15096377
93	0xbe3354fc	-0.17512888
94	0xbd879ede	-0.066220984
95	0xbed5b1f1	-0.4173732
96	0xbcf116be	-0.02942979
97	0xbe8faab4	-0.28059924
98	0xbc46d7e4	-0.012136433
99	0xbe6e2004	-0.232544
100	0xbd53b049	-0.05168179
101	0xbbc8857c	-0.006119428
102	0x3e605835	0.21908648
103	0x3c8076d6	0.015681665
104	0x3ea45552	0.32096344
105	0x3cedf2bc	0.029046409
106	0x3db35ae2	0.08757569
107	0xbe502c6b	-0.20329444
108	0x3d3aec8c	0.045635745
109	0x3e070d14	0.13188583
110	0x3e1b7489	0.15181173
111	0xbdacebbe	-0.08443402
112	0x3da4d9dd	0.080493666
113	0x3e8c1ded	0.27366582
114	0x3e58e226	0.21180019
115	0xbd5a2205	-0.0532551
116	0x3e19992f	0.14999841
117	0xbe1f71e8	-0.15570796
118	0x3e7ab596	0.24483332
119	0xbdd09ac9	-0.10185773
120	0xbd5035e3	-0.05083264
121	0xbb3c3aea	-0.002872164
122	0x3cc1b198	0.023644254
123	0xbd581d05	-0.05276205
124	0x3ea520aa	0.32251483
125	0xbdb733ed	-0.08945451
126	0xbc583045	-0.013195102
127	0xbe0ef5f0	-0.13961005
128	0xbd3f1760	-0.04665315
129	0x3d116752	0.035498925
130	0xbe4eae2a	-0.20183626
131	0xbd64ea1b	-0.055887323
132	0xbdd833cb	-0.10556754
133	0x3db59a7c	0.08867356
134	0x3e33b015	0.17547639
135	0x3e899463	0.26871023
136	0x3e4edea2	0.20202115
137	0x3cd0b13b	0.025475135
138	0x3ea8aa07	0.3294222
139	0x3e75faba	0.24021426
140	0x3dcc7ee1	0.09985138
141	0xbddc6673	-0.10761728
142	0xbe88a72a	-0.26690036
143	0xbe2879bc	-0.16452688
144	0x3d53e937	0.051736083
145	0x3dae9c64	0.08525923
146	0xbd6c4f99	-0.057693098
147	0x3e368a32	0.17826155
148	0x3da6e51c	0.08149168
149	0x3ea49124	0.32141984
150	0xbd69e218	-0.057100385
151	0x3c33a4c9	0.010964581
152	0xbe83283f	-0.25616643
153	0x3dbf1349	0.0932985
154	0x3e401dc4	0.18761355
155	0x3d823ca8	0.063592255
156	0xbe83b483	-0.25723657
157	0xbe3ac19b	-0.18237917
158	0xbe5d03d1	-0.21583487
159	0xbe3fa79e	-0.18716285
160	0xbe3dc4ac	-0.18532056
161	0xbd26ecbe	-0.04075312
162	0x3de19397	0.11014479
163	0x3df0320b	0.11728295
164	0x3cdc17d9	0.02686684
165	0x3d87ea36	0.06636469
166	0x3dec242f	0.11530339
167	0xbe28e2da	-0.16492787
168	0xbbf30600	-0.0074164867
169	0x3e0944ff	0.13405226
170	0xbdb2bb2f	-0.08727109
171	0xbe5f50a2	-0.21808103
172	0xbe3f1f32	-0.18664244
173	0x3e80ac44	0.25131428
174	0xbe021466	-0.12703094
175	0x3e72acf1	0.23698784
176	0x3db8ef27	0.0902999
177	0x3dfa729d	0.12228892
178	0x3e8d3f11	0.27587178
179	0x3e5a577e	0.21322438
180	0xbd882495	-0.066476025
181	0x3afeeb21	0.0019448736
182	0xbe338253	-0.17530183
183	0xbd77e830	-0.060524166
184	0x3e707bd8	0.23484743
185	0xbdd4f07a	-0.1039743
186	0x3cae0ea6	0.02124722
187	0xbd9ab25e	-0.07553552
188	0xbd93ea33	-0.07222404
189	0xbdce7220	-0.10080361
190	0x3dc0626b	0.09393772
191	0xbd2988be	-0.041390173
192	0x3d39a192	0.0453201
193	0xbc2d51cc	-0.010578584
194	0xbd998c29	-0.074974366
195	0xbca4ff9c	-0.020141415
196	0x3cc31cea	0.023817498
197	0xbe2e99bb	-0.17050831
198	0xbde687db	-0.11256381
199	0xbdbdd247	-0.09268623
200	0x3cd8e2d9	0.026475357
201	0xbd6cafc3	-0.057784807
202	0xbdd2ec64	-0.10298994
203	0x3c1a984a	0.009435723
204	0x3ce36992	0.0277603
205	0x3e0a58f9	0.13510503
206	0x3e138b35	0.14408572
207	0x3d8d52c8	0.06900555
208	0xbdb367f6	-0.08760063
209	0xbcd4d18e	-0.02597883
210	0x3d66f6f8	0.05638787
211	0x3d688336	0.056765758
212	0x3db1dcf8	0.086847246
213	0x3e626166	0.22107467
214	0xbd4a00ac	-0.049317047
215	0xbdde6464	-0.10858992
216	0x3be63f82	0.0070266137
217	0xbe912806	-0.28350848
218	0x3e90d7b4	0.28289568
219	0xbe8e73d6	-0.2782275
220	0xbe127940	-0.14304066
221	0xbd9504da	-0.07276316
222	0xbdc9be4e	-0.09850751
223	0x3d08672f	0.03330153
224	0x3cd09ba9	0.02546485
225	0x3df6ac4e	0.12044583
226	0x3d339175	0.04383989
227	0xbdc2efca	-0.095183924
228	0x3e438fc6	0.19097814
229	0xbe327e6e	-0.17431042
230	0x3ddf8c91	0.10915483
231	0x3c8fd6e5	0.017558524
232	0x3d23daa0	0.04000342
233	0x3e74a85e	0.23892352
234	0xbd6982e0	-0.057009578
235	0x3e0f24d5	0.13978894
236	0xbe4626f2	-0.19350794
237	0x3e86765f	0.26262185
238	0x3e4c7a99	0.19968642
239	0x3e06c4b4	0.13160974
240	0x3e883853	0.26605472
241	0x3e21dac9	0.15806116
242	0x3e25e590	0.16200852
243	0xbe445c44	-0.19175822
244	0x3e91eb1f	0.28499696
245	0x3e08484b	0.13308828
246	0xbe54dcee	-0.20787403
247	0x3cc2c235	0.023774246
248	0x3e24a3a0	0.16078043
249	0xbe1ae52c	-0.15126485
250	0xbe088cc7	-0.13334952
251	0x3d1561b1	0.03647012
252	0xbb9f5256	-0.00486211
253	0x3e0424bf	0.12904643
254	0x3de041a8	0.10950023
255	0xbe0c4470	-0.13697982

lstm1.weight_hh_l1 f4 [60, 20]
0	0xbd695f41	-0.056975607
1	0xbd329b5f	-0.043605205
2	0xbdd51f19	-0.10406322
3	0x3dfac893	0.12245288
4	0x3de5f0a1	0.11227537
5	0x3e06cdf9	0.1316451
6	0xbdb6e8af	-0.089310996
7	0xbd86d45f	-0.06583475
8	0xbd0cdcb5	-0.03439017
9	0x3d0fc6b4	0.035101607
10	0x3db62d11	0.088953145
11	0xbd7b5668	-0.0613617
12	0xbe6407e8	-0.22268641
13	0x3cf314fc	0.029673092
14	0xbe4b4ad6	-0.19852766
15	0xbd071f20	-0.032988667
16	0x3e19e950	0.15030408
17	0xbdfcda2f	-0.12346303
18	0xbe362918	-0.17789114
19	0x3e08d03e	0.13360688
20	0xbc0ac25f	-0.008469193
21	0xbac873ca	-0.0015293297
22	0x3e22cc64	0.15898281
23	0x3e0e5ca0	0.13902521
24	0x3defd133	0.117098235
25	0x3db56fe2	0.088592306
26	0x3d8ee4e4	0.06977251
27	0xbe30b764	-0.17257458
28	0xbc01ac6d	-0.007914645
29	0x3da95381	0.0826788
30	0xbde3a585	-0.11115555
31	0x3dfc52f4	0.123205096
32	0x3d8e7805	0.06956486
33	0x3cb18477	0.02166961
34	0x3e1165a4	0.14198929
35	0x3d1ae4c4	0.037815824
36	0x3dd9dfa2	0.10638358
37	0xbe0799f9	-0.1324233
38	0xbe2194d8	-0.15779436
39	0x3d60c1e6	0.054872416
40	0xbddb282c	-0.107010216
41	0xbd975bf7	-0.07390588
42	0x3d1ed714	0.038779333
43	0x3cf17482	0.0294745
44	0x3e057986	0.13034639
45	0x3dbebe88	0.09313685
46	0x3c8cb7d0	0.017177492
47	0x3d3557cc	0.044273183
48	0x3da39892	0.07988085
49	0x3dc75242	0.09732486
50	0xbe0a4edd	-0.13506646
51	0x3d895adb	0.067067824
52	0xbe5acdda	-0.21367589
53	0x3e82569e	0.2545671
54	0x3ddbf6e7	0.10740452
55	0x3e21e0df	0.15808438
56	0x3dc820f9	0.09771914
57	0x3cacd647	0.02109827
58	0xbdc25ec9	-0.09490735
59	0xbc481236	-0.012211373
60	0xbe5092f0	-0.20368552
61	0xbe502fcf	-0.20330738
62	0xbe1d619a	-0.15369263
63	0x3d68daec	0.056849405
64	0xbbc60640	-0.0060432255
65	0x3b2e471f	0.0026592684
66	0x3caf045c	0.021364383
67	0xbe30e3bd	-0.17274375
68	0x3db9f13a	0.090792134
69	0x3df7bc3e	0.12096451
70	0xbd81dc1e	-0.06340812
71	0x3cb0d03b	0.021583667
72	0x3e04aa03	0.1295548
73	0xbe504a56	-0.20340857
74	0xbd0226b9	-0.03177521
75	0xbe22ea98	-0.15909803
76	0x3c229672	0.009923564
77	0x3e49e6f6	0.19717011
78	0xbd560db8	-0.052259177
79	0xbd97993f	-0.07402276
80	0xbe1e6431	-0.15467907
81	0x3d86089d	0.065446116
82	0x3d80f044	0.06295827
83	0x3e02b9eb	0.12766235
84	0xbe12f5e2	-0.1435161
85	0x3ea420c3	0.32056245
86	0xbdaa4ff9	-0.08316035
87	0xbe868dd6	-0.26280087
88	0xbd98a1ae	-0.07452713
89	0x3e8812e6	0.26576918
90	0xbd8ba49d	-0.06818507
91	0x3e26f942	0.16306022
92	0x3db19516	0.08671014
93	0x3dfae55c	0.12250778
94	0xbd09a41a	-0.033603765
95	0x3e193ef4	0.14965421
96	0x3dfdf151	0.12399543
97	0xbdc35671	-0.09537972
98	0xbeab6166	-0.33472747
99	0xbe714e29	-0.23564972
100	0xbe025bac	-0.12730283
101	0xbe0dc446	-0.13844404
102	0x3dfaa6be	0.12238835
103	0x3e77b514	0.2419017
104	0x3da45488	0.080239356
105	0x3e14a576	0.14516243
106	0x3e02170e	0.12704107
107	0xbe03b2e6	-0.12861213
108	0x3e4a6f3e	0.19768998
109	0xbd16f606	-0.03685572
110	0xbe2206a3	-0.15822844
111	0xbcab6480	-0.020921946
112	0x3bea8319	0.0071567413
113	0xbdc4412c	-0.09582743
114	0xbd2bc81b	-0.041938882
115	0x3df70291	0.120610364
116	0xbe5f86af	-0.21828721
117	0x3e408693	0.18801336
118	0xbca64379	-0.020295845
119	0x3d9736e3	0.07383516
120	0xbd985321	-0.074377306
121	0x3c131a43	0.008978429
122	0x3c80b318	0.015710399
123	0x3e02e102	0.12781146
124	0xbddbb2f3	-0.10727491
125	0x3b8fb82b	0.004385968
126	0xbd2d03c5	-0.042239923
127	0xbe2b1894	-0.16708595
128	0x3d8b6978	0.06807226
129	0x3d260afa	0.04053781
130	0xbcea732d	-0.028619373
131	0x3c031ea8	0.0080029145
132	0xbd81154a	-0.06302889
133	0xbd04b09a	-0.032394983
134	0xbe093305	-0.13398369
135	0xbe2afa88	-0.16697133
136	0xbd39abce	-0.04532986
137	0x3e82497f	0.25446698
138	0x3dd793e1	0.105262525
139	0xbe1a0413	-0.15040617
140	0x3d0a626d	0.033785272
141	0xbe11cdd0	-0.14238667
142	0xbe60da36	-0.21958241
143	0x3e137854	0.1440137
144	0xbde7d31b	-0.11319562
145	0x3e7abcb2	0.24486044
146	0x3e227bef	0.1586759
147	0x3e46c9f7	0.19412981
148	0xbd5fb413	-0.05461509
149	0x3e5a7b5f	0.21336125
150	0x3dae349f	0.085061304
151	0x3c1cb912	0.009565609
152	0xbe348082	-0.17627147
153	0x3d27d3ff	0.04097366
154	0xbcc0ad71	-0.023520203
155	0xbd47060c	-0.04858975
156	0x3e8ae463	0.2712737
157	0xbd04d14c	-0.032426164
158	0x3cde1422	0.02710921
159	0x3e31f191	0.17377307
160	0xbdeb36ad	-0.11485038
161	0x3dbee98b	0.093218885
162	0xbde70a21	-0.11281229
163	0x3e4b4f90	0.1985457
164	0x3deb487f	0.11488437
165	0xbd43fec4	-0.047850385
166	0x3e33c012	0.17553738
167	0x3e1c364e	0.1525509
168	0xbda4f083	-0.080536865
169	0x3e753de6	0.23949394
170	0xbe13351f	-0.14375733
171	0xbd188959	-0.03724036
172	0xbd89485a	-0.06703253
173	0x3df43fde	0.11926244
174	0xbdb6cf7c	-0.08926293
175	0xbb5b82e1	-0.0033494758
176	0xbe1ebbba	-0.155013
177	0xbcdc8ac1	-0.026921632
178	0xbdfecc13	-0.12441268
179	0x3de98293	0.11401858
180	0xbd007c15	-0.031368334
181	0xbbfc4938	-0.007699158
182	0x3dd3bc69	0.10338671
183	0xbde489c9	-0.11159093
184	0xbe88a255	-0.2668635
185	0xbdf15fa0	-0.11785817
186	0x3db1a04d	0.08673153
187	0x3e3e7107	0.18597804
188	0x3dddc103	0.1082783
189	0x3da6bb0b	0.08141144
190	0xbd2c0d9b	-0.042005163
191	0x3d9b7f4b	0.075926386
192	0xbe2cb9e9	-0.16867794
193	0x3d294d56	0.04133352
194	0x3db15750	0.08659232
195	0xbe20dfd6	-0.15710387
196	0x3ce0fd73	0.027464604
197	0x3c027d74	0.007964481
198	0xbd268ca9	-0.040661488
199	0x3d96db4b	0.073660456
200	0xbd51308b	-0.051071685
201	0xbdba79e9	-0.09105284
202	0x3dc50093	0.0961925
203	0xbcc6ff65	-0.024291703
204	0xbe32dd20	-0.17467165
205	0xbd91e119	-0.07123012
206	0xbd80d705	-0.06291012
207	0xbdd10336	-0.102056906
208	0xbdad2fdd	-0.08456395
209	0x3df5ad98	0.11996001
210	0x3c5bff54	0.013427574
211	0x3d58bf77	0.05291697
212	0x3d9a2d55	0.07528178
213	0x3e5c8d4e	0.21538278
214	0xbe5b2c0e	-0.21403524
215	0x3db6e21b	0.08929845
216	0x3b477468	0.0030434374
217	0xbe13e370	-0.1444223
218	0xbde5420e	-0.111942396
219	0x3d920188	0.07129198
220	0x3de01dda	0.10943194
221	0xbd3201b0	-0.04345864
222	0x3e4ac146	0.1980029
223	0xbd77510e	-0.060380034
224	0xbd8f0291	-0.069829114
225	0xbdbb7fa8	-0.09155208
226	0xbcdcb270	-0.026940554
227	0x3c064fac	0.008197706
228	0x3db8bc0f	0.09020244
229	0x3e2a16b5	0.16610225
230	0xbe5e0d80	-0.21684837
231	0xbe023f6b	-0.12719505
232	0xbd2b4567	-0.041814234
233	0xbe1e4e29	-0.15459503
234	0x3e512cce	0.20427248
235	0x3e25042b	0.16114871
236	0xbcf63d44	-0.03005851
237	0xbe5df010	-0.21673608
238	0x3e2c584c	0.16830558
239	0xbdde5f63	-0.10858037
240	0xbd4b7d3b	-0.049679976
241	0x3d8cab29	0.06868584
242	0x3df63077	0.12020963
243	0x3dde46fa	0.108533815
244	0x3e2620ce	0.16223451
245	0xba315f87	-0.0006766249
246	0xbdb2221b	-0.08697911
247	0x3e03ae7b	0.12859528
248	0xbda8bdbc	-0.08239314
249	0x3cd818aa	0.026378948
250	0x3d291598	0.04128036
251	0xbdd79d0b	-0.105280004
252	0xbd4cbc9c	-0.04998456
253	0x3e7efc58	0.24900949
254	0xbd9476d6	-0.07249229
255	0x3dafd4a7	0.08585482

lstm1.bias_ih_l1 f4 [60]
0	0x3daf16fb	0.08549305
1	0xbe7b90b9	-0.24566926
2	0x3dc2f43a	0.09519239
3	0x3d2251cd	0.039628793
4	0xbd1dd370	-0.03853172
5	0xbd5bb199	-0.053636167
6	0xbe69347b	-0.22773926
7	0x3ddcf931	0.10789717
8	0xbe273d2c	-0.16331929
9	0xbd4a20f9	-0.04934785
10	0xbd4fc377	-0.05072352
11	0x3dc976a7	0.09837084
12	0xbe425241	-0.1897669
13	0x3dbe5356	0.09293239
14	0xbea62876	-0.32452744
15	0x39ec7231	0.00045098507
16	0x3e181030	0.14849925
17	0xbe0801f5	-0.13281997
18	0x3da788a7	0.08180361
19	0xbe2b83e0	-0.16749525
20	0xbeca0a76	-0.39461106
21	0xbd39260b	-0.045202296
22	0xbe1a1d31	-0.15050198
23	0x3d998d12	0.0749761
24	0x3c944a2e	0.018101778
25	0xbea910c8	-0.33020616
26	0x3d5e587e	0.05428361
27	0x3d71170a	0.058859862
28	0xbe244a95	-0.16044076
29	0xbe28341b	-0.16426127
30	0xbee1ef7a	-0.4412802
31	0xb9e90564	-0.0004444524
32	0x3e177a34	0.1479271
33	0x3cb28fd4	0.021797098
34	0x3d946f74	0.072478205
35	0x3d6f887b	0.058479767
36	0x3c0875e3	0.008328888
37	0x3d92f6bf	0.07175969
38	0xbe1d3d67	-0.15355454
39	0x3deac927	0.11464148
40	0x3e6f5d5e	0.2337546
41	0xbc8e66b4	-0.017382957
42	0xbda5ae77	-0.08089917
43	0xbd9bb540	-0.0760293
44	0x3df7fba1	0.12108541
45	0xbe3af581	-0.18257715
46	0xbdabc059	-0.08386297
47	0x3cfe2b9e	0.031026658
48	0xbca1d809	-0.019756334
49	0xbe12a0ff	-0.14319228
50	0xbc3c11f3	-0.011478889
51	0xbc908492	-0.01764134
52	0x3c8d50db	0.017250469
53	0xbdfdb0f0	-0.12387264
54	0x3cb07b9f	0.021543322
55	0xbd97ea94	-0.07417789
56	0xbc758fd5	-0.0149879055
57	0x3c32de80	0.010917306
58	0xbca6fef7	-0.020385249
59	0x3e1b9f09	0.15197386

lstm1.bias_hh_l1 f4 [60]
0	0xbd2e1869	-0.042503748
1	0x3c2e8ea9	0.01065413
2	0xbda3947c	-0.079873055
3	0xbe29824c	-0.1655361
4	0xbe7e038c	-0.2480604
5	0xbcf9b1db	-0.030480316
6	0xbe197db9	-0.14989366
7	0x3d31b89b	0.043388944
8	0x3c5260a3	0.012840423
9	0x3e340918	0.17581594
10	0x3cb54500	0.022127628
11	0x3cb64dd5	0.02225391
12	0xbc6d61d7	-0.014488659
13	0xbd0c9557	-0.03432211
14	0xbcb47d57	-0.022032423
15	0xbdcbc3c8	-0.09949452
16	0x3b3b7c73	0.0028608113
17	0xbdeb1604	-0.114788085
18	0xbbd1dac7	-0.006404254
19	0x3d3a3d7f	0.045468803
20	0xb9fa73b8	-0.00047769933
21	0xbe564148	-0.2092334
22	0x3e322e36	0.1740044
23	0x3e29c59f	0.16579293
24	0xbe8ec4d1	-0.27884534
25	0xbeaaca4f	-0.33357474
26	0x3e6a9199	0.22907104
27	0xbe5efb25	-0.21775492
28	0xbe870ba1	-0.2637606
29	0xbe929c79	-0.28635004
30	0xbd59cdaa	-0.053174652
31	0xbeba18fa	-0.3634718
32	0xbe7b9390	-0.2456801
33	0xbd689a62	-0.056787856
34	0x3e8ed65e	0.27897924
35	0xbe636f4b	-0.22210424
36	0xbea6e3f2	-0.32595783
37	0xbe9cdc3d	-0.30636778
38	0x3d97c55f	0.074106924
39	0x3dd77bb2	0.1052164
40	0xbe1c81f3	-0.15283947
41	0xbe102fc0	-0.14080715
42	0x3e7091d1	0.23493125
43	0x3da1f571	0.07908142
44	0xbc9961f4	-0.018723466
45	0x3c430389	0.011902698
46	0x3da551f0	0.08072269
47	0xbe5a5781	-0.21322443
48	0x3e1194ab	0.14216869
49	0xbe43795d	-0.19089265
50	0x3d99e600	0.07514572
51	0xbdf7f343	-0.12106945
52	0x3d5b3d5b	0.05352531
53	0xbe1347d3	-0.14382868
54	0x3d84153f	0.06449365
55	0xbd8d9294	-0.06912723
56	0x3e97e282	0.29665
57	0xbaf0b08f	-0.0018363165
58	0x3cbb7f07	0.02288772
59	0xbe457847	-0.19284163

lstm2.weight_ih_l0 f4 [60, 5]
0	0xbe55500e	-0.2083132
1	0x3cd809ea	0.026371915
2	0x3ef5df9c	0.48022163
3	0xbea217e8	-0.31658864
4	0x3e9b1806	0.30291766
5	0xbf314f73	-0.69261855
6	0xbf3e9f1a	-0.7446152
7	0xbe2eb053	-0.1705945
8	0xbb0b5fce	-0.002126682
9	0x3e7a2ef7	0.24431978
10	0xbedbccad	-0.42929593
11	0xbecd2763	-0.40069112
12	0xbed507ee	-0.41607612
13	0xbd2cb861	-0.042168025
14	0xbd1f4509	-0.038884196
15	0x3d5db271	0.054125253
16	0x3d740439	0.05957434
17	0x3f03cbd2	0.5148288
18	0xbe890728	-0.26763272
19	0x3e0ee516	0.13954577
20	0x3eae04c8	0.33988023
21	0x3efeebae	0.49789184
22	0xbed1ee4f	-0.41002128
23	0x3d65f62c	0.05614297
24	0xbebd82b8	-0.37013793
25	0x3e93a802	0.28839117
26	0x3c9c59c9	0.019085782
27	0x3e343d18	0.1760143
28	0xbe2b3285	-0.1671849
29	0xbda7f2c9	-0.082006045
30	0xba0d0a27	-0.0005380236
31	0x3d7a0292	0.061037607
32	0x3d46923d	0.048479307
33	0x3daf3f1d	0.0855696
34	0x3dd1ac1d	0.10237906
35	0x3e3491cd	0.17633744
36	0xbd5364be	-0.051609747
37	0xbdf6cb4a	-0.12050493
38	0xbc9ccfe5	-0.0191421
39	0xbe992d28	-0.29917264
40	0x3e48e33f	0.19617938
41	0x3e23d0d2	0.15997627
42	0xbe930e63	-0.28721914
43	0xbd5c0ecf	-0.05372506
44	0xbd919c77	-0.071099214
45	0x3e8e5945	0.27802482
46	0xbdfc7979	-0.123278566
47	0x3dc6522c	0.09683642
48	0xbcee815e	-0.029114421
49	0x3dd319b9	0.103076406
50	0x3d3556c3	0.044272196
51	0x3d9d0e69	0.07668764
52	0x3c69fe5b	0.0142818345
53	0x3d6e7ac9	0.058222566
54	0xbe09bdf4	-0.13451368
55	0xbf0a9e65	-0.5414794
56	0xbe9da9ea	-0.30793697
57	0xbe1a0ae8	-0.15043223
58	0x3bd3d1c1	0.0064642136
59	0x3e008514	0.12550765
60	0x3e8f0d29	0.27939728
61	0xbc76b9db	-0.01505896
62	0xbd95be34	-0.07311669
63	0x3e5d8503	0.21632771
64	0x3dc16de6	0.094447896
65	0xbe5c993a	-0.21542826
66	0xbe2943dc	-0.16529793
67	0x3e6278f5	0.22116454
68	0xbc80248e	-0.01564243
69	0x3daa73f0	0.083228946
70	0x3e3ace0c	0.18242663
71	0x3cb67fc6	0.022277724
72	0x3d048406	0.03235247
73	0xbe95697a	-0.29182035
74	0xbdbd4342	-0.09241344
75	0x3e67411d	0.22583432
76	0x3ea68552	0.3252359
77	0xbb116d46	-0.0022190376
78	0xbe703f57	-0.23461662
79	0x3d830b31	0.06398619
80	0x3f0541ad	0.5205334
81	0x3e36372a	0.17794481
82	0xbdd86a81	-0.10567189
83	0xbd9eeb28	-0.07759696
84	0x3cf7f7a0	0.030269444
85	0x3f296506	0.66169775
86	0x3e97a185	0.29615417
87	0xbe9d4065	-0.30713192
88	0xbe53abfd	-0.20671077
89	0xbe9692e9	-0.2940896
90	0x3d4123de	0.047153346
91	0x3e801a41	0.2502003
92	0xbed3b0fe	-0.41345972
93	0x3e0d00c6	0.13769826
94	0xbe2acd9e	-0.16679999
95	0x3ed414c7	0.41422102
96	0x3e7db592	0.24776295
97	0xbee404c1	-0.44534877
98	0x3d8bb1a5	0.068209924
99	0xbe458ad5	-0.19291241
100	0xbf68eaf1	-0.9098349
101	0xbf2927bb	-0.6607625
102	0xbf4fc483	-0.8115923
103	0xbf8968f4	-1.0735154
104	0xbee15948	-0.4401343
105	0xbedf6c0d	-0.43637124
106	0xbef2a4f5	-0.47391477
107	0xbf5f65f7	-0.8726496
108	0xbf11b056	-0.5690969
109	0xbe1af04d	-0.1513073
110	0xbe8f936d	-0.28042164
111	0xbe1d7a58	-0.15378702
112	0xbf2fd598	-0.68685293
113	0xbf065210	-0.5246897
114	0xbe62cd6f	-0.22148679
115	0xbd2bfe68	-0.041990668
116	0xbe6bf09c	-0.23041004
117	0xbf11bad5	-0.5692571
118	0xbedf39b2	-0.43598706
119	0xbed10a51	-0.40828183
120	0xbf08b5da	-0.53402483
121	0xbf450c68	-0.76972055
122	0xbf718d90	-0.9435663
123	0xbf30d9d7	-0.690824
124	0xbeae7637	-0.34074566
125	0xbd718ee5	-0.058974165
126	0xbe122ce7	-0.14274941
127	0xbda9f6b9	-0.08299012
128	0xbd9e1d9d	-0.07720492
129	0x3d075049	0.03303555
130	0xbe5e0b96	-0.21684107
131	0xbd39e38c	-0.04538302
132	0xbdbd09a2	-0.09230353
133	0xbe3bb481	-0.18330576
134	0xbe4d174f	-0.20028423
135	0x3d6bbad5	0.057551224
136	0xbdb5b590	-0.08872521
137	0xbeaf2f1d	-0.34215632
138	0xbe8d7d14	-0.2763449
139	0xbdd490d6	-0.10379188
140	0xbf196d01	-0.5993195
141	0xbf2f1510	-0.68391514
142	0xbf9339cb	-1.1502012
143	0xbf55716e	-0.83376205
144	0xbeeb5cce	-0.45969242
145	0xbe45cbfb	-0.19316094
146	0xbe4c1515	-0.19929917
147	0xbf11d31e	-0.56962764
148	0xbee94474	-0.45560038
149	0x3c31e6bf	0.010858237
150	0xbe1ca480	-0.15297127
151	0xbd2315d3	-0.039815735
152	0xbed047f6	-0.40679902
153	0xbef1da2a	-0.47236758
154	0x3cb3ba42	0.0219394
155	0xbf0be8f3	-0.5465233
156	0xbf0245bb	-0.5088765
157	0xbf921f4f	-1.1415805
158	0xbf2e780e	-0.6815194
159	0xbf25f6eb	-0.6482989
160	0xbf0b1779	-0.5433269
161	0xbe907780	-0.2821617
162	0xbf0053f3	-0.50128096
163	0xbe2ca52d	-0.16859885
164	0xbeb8c95e	-0.3609113
165	0xbe2b817c	-0.16748613
166	0xbe47cf09	-0.19512571
167	0xbf3b0642	-0.73056424
168	0xbf1fa7dd	-0.62365514
169	0xbd95db5f	-0.07317232
170	0xbf59242c	-0.8482082
171	0xbf5a4fa0	-0.8527775
172	0xbf8149dd	-1.0100666
173	0xbee25dfa	-0.44212323
174	0xbe4fa55d	-0.20277925
175	0x3ead2df6	0.33824128
176	0x3ea1513b	0.31507286
177	0x3c90f86a	0.017696578
178	0xbe0e9567	-0.1392418
179	0x3e67576d	0.22591944
180	0xbeec3e79	-0.46141413
181	0xbf2382c8	-0.6387143
182	0xbf23b597	-0.6394896
183	0xbf0d768c	-0.55259013
184	0xbe70ccc2	-0.23515609
185	0xbf2b6083	-0.6694414
186	0xbef56252	-0.47926575
187	0xbf51397b	-0.81728333
188	0xbf03f46f	-0.5154485
189	0xbe316ad2	-0.17325905
190	0xbe4cf3cd	-0.20014878
191	0xbdd1a3c5	-0.10236315
192	0xbf2c0d0c	-0.6720741
193	0xbe8fdebe	-0.28099626
194	0xbdeb7c52	-0.114983216
195	0xbd891aa5	-0.06694535
196	0x3d1ef50d	0.038807917
197	0xbf5da03b	-0.8657262
198	0xbf0983f9	-0.53717
199	0x3e9b0064	0.30273736
200	0x3f5dcdb6	0.86642015
201	0x3f08ef19	0.53489834
202	0xbe9fb07f	-0.31189343
203	0xbe06f65c	-0.13179916
204	0xbd59d878	-0.053184956
205	0x3f4d951e	0.8030566
206	0x3f14bbfc	0.5809934
207	0x3c873ad0	0.016507536
208	0xbe7eb588	-0.24873936
209	0xbdd40a99	-0.10353584
210	0x3f3e4bab	0.7433421
211	0x3f3be012	0.7338878
212	0x3ed39236	0.41322488
213	0xbd84abbc	-0.06478068
214	0xbe1b7436	-0.1518105
215	0x3f2b20c6	0.66846883
216	0x3eb34c0e	0.35018963
217	0xbe8dae57	-0.27672073
218	0x3b82ebf0	0.003995411
219	0xbbfb3fa6	-0.0076674996
220	0xbf02087f	-0.50794214
221	0xbec7d0f5	-0.3902661
222	0x3d5ce546	0.05392959
223	0x3b8725ac	0.004124364
224	0x3c8f324e	0.017480042
225	0xbb517e96	-0.003196632
226	0xbdabe270	-0.08392799
227	0xbdded5fb	-0.10880657
228	0xbd8eaa0b	-0.06966027
229	0x3e7d22ec	0.24720353
230	0xbd7bcbdb	-0.06147371
231	0x3e0221e4	0.12708241
232	0x3eb47005	0.35241714
233	0xbb00e720	-0.0019669011
234	0x3e4d580e	0.20053121
235	0xbf08e620	-0.5347614
236	0xbef5afcf	-0.47985694
237	0xbd13012e	-0.035889797
238	0x3e274bbc	0.16337484
239	0x3dbdee37	0.092739515
240	0x3f86e779	1.053939
241	0x3f503321	0.81328017
242	0x3c07fed1	0.008300499
243	0x3a5d7862	0.00084484194
244	0x3e3a9d6c	0.18224114
245	0x3eae80b8	0.3408258
246	0x3ea832ba	0.328512
247	0xbede7690	-0.4344983
248	0x3d802d37	0.06258624
249	0x3e24312b	0.16034381
250	0xbf0acab3	-0.54215544
251	0xbedec062	-0.4350615
252	0x3e21e72b	0.1581084
253	0xbd60617e	-0.054780476
254	0xbde6bc7c	-0.11266419
255	0x3f7b1d8d	0.98091966

lstm2.weight_hh_l0 f4 [60, 20]
0	0xbdeb63b0	-0.11493623
1	0xbe41389b	-0.1886925
2	0x3df7aa4a	0.12093027
3	0xbdce54f3	-0.100747965
4	0x3e53ee6e	0.20696422
5	0x3da6d645	0.081463374
6	0x3defe105	0.11712841
7	0x3e2286ff	0.1587181
8	0x3d22fd99	0.03979263
9	0xbe784c48	-0.24247849
10	0x3e58c6e0	0.21169615
11	0xbd58b9e7	-0.052911665
12	0xbcebb1bf	-0.02877128
13	0x3ea0cd7a	0.31406766
14	0xbd3ca2da	-0.046053745
15	0xbd4def2c	-0.05027692
16	0x3e263e58	0.1623472
17	0x3e837434	0.25674593
18	0x3e6681ff	0.22510527
19	0x3e725d7f	0.23668478
20	0xbc95f963	-0.018307393
21	0xbe40ab36	-0.18815312
22	0x3e7b8dea	0.24565855
23	0x3e1775bc	0.14791006
24	0x3c8acf4c	0.01694455
25	0x3ce10630	0.02746877
26	0xbb291467	-0.0025799514
27	0xbdcd0088	-0.10009867
28	0x3e69af67	0.22820817
29	0x3e2a6e3d	0.16643615
30	0xbe8bb768	-0.27288365
31	0x3d8dd51c	0.06925413
32	0xbe317bf8	-0.17332447
33	0xbe8f5c9f	-0.28000352
34	0x3df666a2	0.120312944
35	0xbcaf778a	-0.021419305
36	0xbe38d17a	-0.18048659
37	0x3db29017	0.08718889
38	0xbcc49030	-0.023994535
39	0xbe3f48e4	-0.1868015
40	0xbd0d6da5	-0.034528393
41	0xbc8733e2	-0.016504232
42	0x3e03533d	0.12824722
43	0xbc015e25	-0.007895981
44	0x3e39110b	0.18072908
45	0xbd2ad56b	-0.041707437
46	0xbcd1165c	-0.025523357
47	0x3ddb99db	0.10722705
48	0xbe1514dd	-0.1455874
49	0xbd32eada	-0.043681003
50	0x3e0d91a8	0.13825095
51	0x3ddc3462	0.10752179
52	0xbd86a88c	-0.065751165
53	0x3e76e529	0.24110855
54	0x3e5cce29	0.21563019
55	0xbe3aac11	-0.182297
56	0x3de57fbf	0.11206006
57	0x3c52d771	0.012868748
58	0xbd2db13e	-0.04240536
59	0x3d88b0c0	0.066743374
60	0xbb5caf9c	-0.0033674007
61	0x3dd381cf	0.103274934
62	0xbd3fa455	-0.04678758
63	0xbe2a7620	-0.16646624
64	0x3c3af8e5	0.01141188
65	0xbd39ff9a	-0.045409776
66	0xbe84dac2	-0.2594815
67	0xbe521cea	-0.20518842
68	0x3e83c9c3	0.2573987
69	0x3d044268	0.032289892
70	0x3e9161bf	0.28394887
71	0xbc7d3015	-0.015453358
72	0x3d7c5af0	0.061610162
73	0x3d00bbbc	0.031429037
74	0x3e20aeee	0.1569173
75	0x3e1e7eab	0.15478007
76	0xbe5126c7	-0.20424949
77	0xbe3505b2	-0.17677954
78	0xbd10acd7	-0.035321083
79	0x3e22f8c3	0.15915208
80	0x3e8a054d	0.2695717
81	0x3eb7c628	0.3589337
82	0x3e09966f	0.13436292
83	0x3e481e26	0.1954275
84	0x3a908677	0.0011026402
85	0xbe7c9ffd	-0.24670406
86	0xbde19377	-0.11014455
87	0xbe12d80b	-0.14340226
88	0x3ea52edb	0.3226231
89	0x3e3fa224	0.18714195
90	0xbea1a8db	-0.3157414
91	0x3cbc81aa	0.023011047
92	0x3d91bb3b	0.071157895
93	0xbdbbb8be	-0.09166096
94	0xbdf18221	-0.11792398
95	0xbe07da6f	-0.1326692
96	0xbe17b285	-0.14814194
97	0xbcc30e98	-0.02381067
98	0xbebb4a45	-0.365801
99	0xbdc2c354	-0.09509912
100	0xbe710bb8	-0.23539627
101	0xbdafe24c	-0.085880846
102	0x3dac88b3	0.08424511
103	0xbdc8ddd1	-0.09807933
104	0xbddce290	-0.10785401
105	0x3e51929c	0.20466083
106	0x3e13cdd3	0.14433984
107	0xbeae8787	-0.34087774
108	0x3e484dd3	0.19560938
109	0x3e1d9447	0.15388595
110	0x3d8d8bfb	0.06911465
111	0x3d0244d3	0.031803917
112	0x3cfa89f3	0.030583357
113	0x3c590600	0.013246059
114	0xbd6a1b33	-0.057154845
115	0xbddc7799	-0.10764999
116	0xbd741cf5	-0.059597928
117	0xbe643b64	-0.2228828
118	0xbe8d4e78	-0.2759893
119	0x3e43a8bb	0.19107334
120	0xbdf12321	-0.117742784
121	0xbc0895ae	-0.008336468
122	0x3de3813a	0.111086324
123	0xbd8d4386	-0.06897645
124	0xbc3c4794	-0.011491675
125	0xbcfe598b	-0.031048557
126	0x3c9fbb5f	0.019498525
127	0x3c1c9102	0.009556057
128	0x3e287146	0.1644946
129	0xbdbe1189	-0.09280688
130	0xbe86a5a9	-0.26298264
131	0x3d821a73	0.06352701
132	0x3dcde2f8	0.100530565
133	0xba29ed66	-0.00064822135
134	0xbd8a610a	-0.0675679
135	0x3e636dfe	0.22209927
136	0x3e06efa3	0.13177352
137	0x3e05e41e	0.13075301
138	0x3d53faed	0.051752973
139	0xbd971200	-0.0737648
140	0x3d070486	0.0329633
141	0xbcdf0956	-0.027226131
142	0x3e0e2f7c	0.13885301
143	0x3deefb46	0.1166902
144	0xbe0a5e78	-0.135126
145	0xbe3b8bc6	-0.18315038
146	0xbdb5c14f	-0.08874761
147	0xbde2aa7b	-0.11067673
148	0x3d8979fb	0.06712719
149	0x3dde52b9	0.10855622
150	0x3e5c7983	0.21530728
151	0xbea3cb78	-0.31991172
152	0xbda1c620	-0.078991175
153	0xbe1a4a4d	-0.15067406
154	0xbe3bb8da	-0.18332234
155	0x3e1c2f94	0.15252525
156	0xbdea0c6d	-0.11428151
157	0x3b76f8bf	0.0037684885
158	0x3cc5357b	0.024073353
159	0xbdd77042	-0.10519458
160	0xbe6b7260	-0.2299285
161	0xbe21da7e	-0.15806004
162	0xbe2e7363	-0.17036204
163	0xbc580975	-0.0131858485
164	0xbe32049a	-0.17384568
165	0xbdf31c89	-0.11870677
166	0xbe4d143e	-0.20027253
167	0x3d3a9a27	0.045557167
168	0xbd86f83b	-0.06590315
169	0x3d1f7f90	0.038940012
170	0x3d95fcfc	0.073236436
171	0xbe9fd6fd	-0.3121871
172	0x3eb3f641	0.35148814
173	0x3e2a1d86	0.16612825
174	0xbe37c0c6	-0.17944631
175	0xbc047b07	-0.008085973
176	0x3c08b31a	0.008343482
177	0xbe2951b5	-0.16535075
178	0x3dcb807c	0.09936616
179	0x3ec9de18	0.39427257
180	0xbedf6f20	-0.4363947
181	0xbc868c8f	-0.016424445
182	0xbe1bcb30	-0.15214229
183	0xbe4fef56	-0.20306143
184	0x3e7edb80	0.2488842
185	0xbd6477b9	-0.05577824
186	0x3ca2fefd	0.019896979
187	0x3e04fc8b	0.12986962
188	0x3dbca63f	0.092113964
189	0xbe16948b	-0.14705102
190	0x3e76688c	0.24063319
191	0xbda99305	-0.08279995
192	0x3de5d9c5	0.11223177
193	0x3e41ec45	0.18937786
194	0xbe96dc59	-0.29464987
195	0x3d6a056d	0.05713408
196	0x3eaf81cd	0.34278718
197	0xbd139d7b	-0.036038857
198	0x3e38644e	0.18007013
199	0x3ec70bc1	0.38876155
200	0xbe8955ec	-0.26823366
201	0xbe23c4d0	-0.15993047
202	0x3e1bf643	0.1523066
203	0x3e82bbbf	0.25533864
204	0x3e1b4655	0.15163548
205	0x3e0e8a57	0.1391996
206	0xbe8ab7be	-0.2709331
207	0xbe5fd10e	-0.21857092
208	0xbe0b8530	-0.13625026
209	0x3e693091	0.22772433
210	0xbe32fc13	-0.17478971
211	0x3cf41597	0.029795451
212	0xbe915ae2	-0.2838965
213	0x3d58855e	0.052861564
214	0x3c51f23f	0.012814104
215	0xbe39b722	-0.18136266
216	0x3cd40da1	0.025885405
217	0xbdfa5fc2	-0.122252956
218	0x3e3bbe6d	0.1833436
219	0x3e5d8e0a	0.21636215
220	0xbd7f37fc	-0.06230925
221	0xbe31f417	-0.17378269
222	0xbe00f61b	-0.12593882
223	0x3e4c2164	0.19934613
224	0xbe1b5c6c	-0.15171975
225	0x3d987303	0.07443812
226	0xbe266483	-0.1624928
227	0xbda899b3	-0.08232441
228	0x3cc88dea	0.024481732
229	0x3e6a659e	0.22890326
230	0x3ba4a3e6	0.005024421
231	0xbc7a0965	-0.015261029
232	0xbe5fc1d1	-0.21851279
233	0xbdc222a0	-0.094792604
234	0xbdd85d5c	-0.10564682
235	0xbdf83ec5	-0.12121347
236	0x3d29036c	0.04126303
237	0x3d1f149c	0.038838014
238	0xbc6f8a5a	-0.014620388
239	0x3dca9cc6	0.098931834
240	0xbcabd9e3	-0.02097792
241	0xbe3c30d5	-0.18378003
242	0x3e28175f	0.16415165
243	0xbe316960	-0.17325354
244	0xbdba9bcf	-0.091117494
245	0xbe81868b	-0.2529796
246	0xbdf3d4f1	-0.1190585
247	0xbd9f39fb	-0.07774731
248	0x3e2f5dfd	0.17125697
249	0x3ca477ca	0.020076651
250	0x3cf12d8c	0.029440664
251	0x3e49c813	0.19705229
252	0x3e0e6ab1	0.13907887
253	0x3e310a8c	0.1728918
254	0x3ced137c	0.028939955
255	0xbe007a29	-0.125466

lstm2.bias_ih_l0 f4 [60]
0	0xbce00bfc	-0.027349465
1	0xbe63eb13	-0.22257642
2	0x3d1b7538	0.037953585
3	0x3d837bf1	0.06420124
4	0x3d273565	0.040822405
5	0xbe605300	-0.21906662
6	0x3e0423db	0.12904303
7	0xbde2acc9	-0.110681124
8	0x3e1ee3a9	0.15516533
9	0x3e212929	0.15738358
10	0x3da9eb34	0.082968146
11	0xbea36e69	-0.31920174
12	0x3e1a9a89	0.15098013
13	0xbe6a0c9b	-0.22856371
14	0xbca56a2c	-0.020192228
15	0x3d63cb02	0.055613525
16	0xbe3e778b	-0.1860029
17	0xbe7e900e	-0.2485964
18	0xbe5330bf	-0.20624064
19	0xbea4b456	-0.32168835
20	0xbf93e83d	-1.1555248
21	0xbe90b38d	-0.28261986
22	0xbf0a6f3e	-0.5407599
23	0xbee98141	-0.45606425
24	0xbee32680	-0.4436531
25	0xbe316b4b	-0.17326085
26	0xbded842e	-0.11597477
27	0xbe671290	-0.22565675
28	0xbf66a8cd	-0.9010132
29	0xbebbd693	-0.36687145
30	0xbd589717	-0.052878466
31	0xbf4213bc	-0.7581136
32	0xbd892711	-0.066969045
33	0xbf2fe747	-0.68712276
34	0xbf6c884c	-0.9239547
35	0xbc332c70	-0.010935888
36	0xbf37dab5	-0.71818095
37	0xbeeab392	-0.45840126
38	0xbebad368	-0.36489415
39	0xbe68be02	-0.22728732
40	0xbd240a5c	-0.040048942
41	0x3dc176b5	0.0944647
42	0xbc5349c7	-0.012896008
43	0xbd82d361	-0.063879736
44	0xbd537f09	-0.051634822
45	0x3cb48af5	0.022038916
46	0xbcdceeae	-0.02696928
47	0x3d21d6ac	0.039511368
48	0xbc5922d5	-0.0132529335
49	0xbe07d435	-0.13264544
50	0x3e31418b	0.17310159
51	0x3c41835c	0.011811104
52	0x3e2aa5a1	0.16664745
53	0x3cd1b122	0.025597159
54	0x3d7fc2b2	0.062441535
55	0xbcfe98d3	-0.031078732
56	0x3de8100c	0.11331186
57	0x3ca73b7a	0.020414103
58	0x3dc5914b	0.09646853
59	0xbc81465e	-0.015780624

lstm2.bias_hh_l0 f4 [60]
0	0xbe985c5d	-0.29757968
1	0xbe20ddc7	-0.15709601
2	0xbdad0ab5	-0.08449308
3	0xbdf316ff	-0.118696205
4	0xbdef155c	-0.11673996
5	0xbe5f0713	-0.21780042
6	0x3d862b4a	0.065512255
7	0xbe57ed37	-0.21086584
8	0x3e17a4bc	0.14808935
9	0xbcae5e80	-0.021285295
10	0xbe48366c	-0.1955201
11	0x3dabc3c3	0.08386948
12	0x3e44a269	0.1920258
13	0xbe0eb424	-0.13935906
14	0x3d302910	0.04300791
15	0xbe08a2f9	-0.13343419
16	0xbd911885	-0.07084755
17	0xbe5a28a6	-0.21304569
18	0xbe37cf6f	-0.17950223
19	0xbe928ec3	-0.28624544
20	0xbf4a81d6	-0.79104364
21	0xbf0ea6cd	-0.5572327
22	0xbf272b61	-0.65300566
23	0xbe83d815	-0.25750795
24	0xbf1487d6	-0.5801977
25	0xbdeea276	-0.11652081
26	0x3c904cd3	0.017614758
27	0xbeee87ed	-0.46588078
28	0xbf26e515	-0.651933
29	0xbf025e3e	-0.5092505
30	0xbe2870a3	-0.16449217
31	0xbf5299be	-0.8226584
32	0xbe84172d	-0.25798932
33	0xbf29684f	-0.6617479
34	0xbf4ee9d0	-0.8082552
35	0x3eb47fcf	0.3525376
36	0xbeafa707	-0.3430712
37	0xbf60ba06	-0.8778385
38	0xbf12ee60	-0.5739498
39	0xbe38cfd2	-0.18048027
40	0x3e0aca76	0.13553795
41	0xbe3a246d	-0.18177958
42	0xbe1e9871	-0.1548784
43	0xbd7a3b31	-0.061091606
44	0xbd7f4927	-0.062325623
45	0xbe125d9b	-0.1429352
46	0x3b7b7cab	0.0038373868
47	0x3de4fdc4	0.111812145
48	0x3da4ba0d	0.08043299
49	0x3be02377	0.0068401652
50	0xbdfb47a9	-0.122695275
51	0xbe5b26b7	-0.21401487
52	0xbe0ba218	-0.13636053
53	0x3d9fc687	0.07801538
54	0x3c39cd2a	0.011340419
55	0x3db9622b	0.09051927
56	0x3c3adb0c	0.011404764
57	0xbe46478d	-0.19363232
58	0xbd4c2bbd	-0.0498464
59	0xbdb785e9	-0.08961088
