experiments/weights/2_BGRU.pth (torch, 386586 bytes, 105 tensors)

lstm1.weight_ih_l0 f4 [60, 58]
000000 30 04 6f 3f bf 4d e3 be 86 e0 bd be 75 49 37 3d
       0.93365765 -0.44395253 -0.3708536 0.04474779
000010 db 1d 3f 3d 0b 28 16 be 0a 5f 09 3e 7f 67 bf 3d
       0.04665933 -0.14663713 0.13415161 0.09345912
000020 65 50 55 bd 31 24 62 bd b6 bf d2 3d b2 bd 87 be
       -0.052078623 -0.055210296 0.10290472 -0.26511914
000030 18 ec f6 bd a4 52 58 be 8c 8d 27 be cb 49 9c 3d
       -0.1205675 -0.21125275 -0.1636259 0.076312624
000040 64 01 da 3d e0 7a b5 be cb c9 3a 3e 5e 1b 0d be
       0.106447965 -0.3544531 0.1824104 -0.13779971
000050 95 05 f1 bd 8e ed 8a be 09 c1 c5 bd 51 57 28 be
       -0.11768643 -0.27134365 -0.09655959 -0.16439559
000060 cf 97 8d be 36 26 09 be 33 44 f1 bd e6 62 d0 be
       -0.27654883 -0.13393483 -0.11780586 -0.40700454
000070 1d f0 f6 bd 6f a1 38 bd 00 84 b3 be ee 2d 54 bd
       -0.12057517 -0.04507583 -0.35061646 -0.051801614
000080 58 b3 9e be c9 85 d7 bd dd f6 d1 be 9e 76 8f bd
       -0.30996203 -0.10523564 -0.41008654 -0.07005046
000090 3e bc 78 bd 62 5d 7d 3d af dd 89 be 89 26 4b be
       -0.060726397 0.061856635 -0.26926944 -0.19838919
0000a0 1f 09 04 3e 34 79 68 be f9 57 ee bd 59 09 cb bd
       0.12894104 -0.22702485 -0.11637873 -0.09913892
0000b0 79 28 f1 bd ab e0 0a be b0 65 6d be 3e fe 29 bd
       -0.11775298 -0.13562267 -0.23183322 -0.04150223
0000c0 32 ab 28 3e 04 ae 50 3e 04 20 81 3d e3 1c 98 3d
       0.16471556 0.20378882 0.063049346 0.07427385
0000d0 c6 59 b4 3c 8f 0c 82 be 81 7c 7e ba cf 5f 14 3e
       0.022015464 -0.25400206 -0.00097078836 0.14489673
0000e0 39 87 7c bd 61 26 70 be 20 da 46 3f e6 ec 51 3e
       -0.061652396 -0.2345214 0.7767658 0.20500526
0000f0 fa ea 1f bd 35 8c 38 3e 3e 6a ab 3d d8 f2 d0 be
       -0.03904245 0.18022235 0.083698735 -0.40810275
000100 6a 5e a7 bd 4d ac cb 3c 74 62 42 3e 25 d0 81 be
       -0.08172305 0.024862433 0.1898287 -0.25354114
000110 d7 96 e6 3d 31 3b 80 3e 31 81 3e 3b a9 bd 68 3e
       0.11259239 0.2504516 0.0029068703 0.227286
000120 b6 31 e6 3d bd 22 87 bd 6c 4c 45 be ac f5 67 3e
       0.1123995 -0.06598423 -0.19267434 0.2265231
000130 43 05 d1 3e f0 3c c0 3d a8 7b f4 3d 30 17 2d bd
       0.40824327 0.09386623 0.11937648 -0.04225844
000140 bf 62 2c be 7f 1d 3f 3e 73 0b 56 3e 74 76 98 3e
       -0.16834544 0.18663596 0.20902805 0.29777873
000150 66 db b2 3d b2 df 3e 3e 40 95 8e 3c 35 8b 2e be
       0.08733253 0.1864002 0.017405152 -0.17045291
000160 5c 7f b1 be ee 68 d4 bc 9c e0 59 3e ff 28 0a bb
       -0.3466748 -0.02592894 0.21277088 -0.0021081564
000170 36 4f d0 bd 21 df 88 bd b1 3c 83 be e6 1b 56 3e
       -0.10171358 -0.066831835 -0.2563224 0.2090908
000180 ed b1 57 bc 3b cd b7 3e d2 b6 da 3e a6 3e b0 3e
       -0.013164979 0.35898766 0.42717606 0.34422797
000190 68 cf 60 3e d2 43 67 3e f0 1a ce bc 24 2b a9 be
       0.21954119 0.22584465 -0.02515933 -0.33040726
0001a0 7b e5 81 be a4 a8 e5 3d e7 f2 62 be c9 2a f3 3d
       -0.25370392 0.11213806 -0.22162972 0.11873395
0001b0 6b 96 33 3d c0 0f 53 be 63 c2 24 3e 6f e0 c1 3d
       0.04384462 -0.20611477 0.16089778 0.094666354
0001c0 4d 10 01 3e c7 d5 c8 bd 23 1e 01 3e 3e da 6c be
       0.12603875 -0.098064 0.12609152 -0.23130128
0001d0 98 9a 19 3f 2c 4a df 3d 17 c1 5d be fa dc 07 be
       0.60001516 0.10902819 -0.21655689 -0.1326789
0001e0 af dc 99 bd b6 52 5b bc 9a ca 4d bd 88 36 90 3e
       -0.07512795 -0.013386419 -0.050242044 0.28166604
0001f0 9c 87 8d be 18 87 de bd bf 9a 80 3e 87 e6 73 be
       -0.27642524 -0.10865611 0.25118062 -0.23818408
000200 1f 29 bf be f1 6a 81 be c8 49 f8 be 5a 06 b5 be
       -0.3733606 -0.25276902 -0.4849379 -0.35356408
000210 48 53 91 be 5f 02 82 be 56 0a cc be 5c ce aa be
       -0.2838385 -0.25392434 -0.39851636 -0.33360565
000220 55 87 cf be 7e 46 25 bd 14 20 b8 be 79 da 29 be
       -0.40532938 -0.04035043 -0.35961974 -0.16587247
000230 db cc 43 be 4f 12 1f 3e d9 1d 03 3f 05 17 91 bd
       -0.19121115 0.15534328 0.5121742 -0.07084469
000240 9b 1b b1 bb 19 a7 e3 be 5c 32 5c bd 41 b0 18 be
       -0.005404902 -0.44463423 -0.053758964 -0.14910986
000250 87 6f 44 be e0 f9 d8 3d e3 b8 7b 3d 42 ef 61 3d
       -0.1918317 0.10594535 0.06145562 0.055159815
000260 8a 72 77 3e 43 91 9a 3d 65 5e 32 be 5e 49 3d bb
       0.24164787 0.07547238 -0.17418821 -0.0028882842
000270 0f 16 83 bc 7c 89 88 3e 05 fa ab 3d 29 59 6c 3c
       -0.01600173 0.26667392 0.08397297 0.014425554
000280 c1 01 fa bc f7 b3 ab 3c ab af 98 3d f1 18 3d be
       -0.030518414 0.020959837 0.07455381 -0.18466546
000290 dc 34 7d be 9d fd 6e bd 02 98 8c be 90 74 89 be
       -0.24727196 -0.058347333 -0.27459723 -0.26846743
0002a0 9e d4 08 bd 22 b9 cf be 22 f3 99 be 23 70 df be
       -0.033405893 -0.40570933 -0.30068308 -0.4364024
0002b0 b1 92 e8 be 45 ab 2e 3d 1a 37 72 bf b4 36 7f 3d
       -0.45424417 0.042643804 -0.9461533 0.06230803
0002c0 79 50 04 be 3f 99 c5 bd 6d 6c c5 bd 88 06 47 3d
       -0.12921323 -0.0964837 -0.09639821 0.048590213
0002d0 fa 9b 87 bd 7c 69 a7 3d d8 d0 9d bd a7 8d b1 3d
       -0.06621547 0.081744164 -0.077058494 0.08669596
0002e0 4d ec e0 be 69 60 a1 bc c8 43 91 3e 08 ba d4 3d
       -0.43930283 -0.019699292 0.28372025 0.10387045
0002f0 96 57 a9 3e 8d 03 59 3e bc f5 00 3e 1c 33 52 bd
       0.33074635 0.21192761 0.1259374 -0.051318273
000300 26 60 7c be a2 e8 ce 3d b7 0e 93 3e 70 d9 07 3e
       -0.24646053 0.10102965 0.28722164 0.1326654
000310 69 b9 9e 3d f6 3e 1c be 55 73 10 3d 81 de 94 be
       0.07750208 -0.15258393 0.03526624 -0.29076007
000320 ee c9 20 be 30 12 c8 bd 7d 52 11 be 82 84 ec 3d
       -0.1570203 -0.09769094 -0.14191623 0.11548711
000330 4c 85 7c 3e 91 3f 64 3e 3b bc e2 3d 64 98 3f be
       0.24660224 0.22289874 0.11071058 -0.18710476
000340 8d 66 95 3d 91 47 95 3d 99 e9 11 be 18 32 4b be
       0.07294951 0.07289041 -0.14249267 -0.19843328
000350 7f 1a 83 3d d8 1a c8 bd 84 a3 74 bd 7e 71 ce be
       0.06401538 -0.09770745 -0.059726253 -0.40320963
000360 9e cf a1 3e e1 c2 ea bc dd 25 6f 3d ee d4 cc 3d
       0.31603712 -0.028657379 0.05838572 0.100015506
000370 0f f9 9b 3e 18 bc 73 3d 14 a5 7d bc df 05 88 bc
       0.30463454 0.059505552 -0.015481252 -0.016604362
000380 95 50 34 3e 12 65 6a 3d 7c e7 87 be 04 3a 35 3d
       0.17608865 0.057225294 -0.26543796 0.04424478
000390 f7 1f a7 3d 65 e3 3a 3e b2 a7 3a bd 87 46 e5 3d
       0.08160394 0.18250807 -0.045570083 0.11195093
0003a0 46 fa d5 3e 28 4e 44 3e 7e 4a 69 bc c1 e2 db bd
       0.41792506 0.19170439 -0.014238952 -0.10736609
0003b0 f5 38 eb 3d ee e7 ba 3c a0 49 98 3d 52 85 6c 3d
       0.11485473 0.02281567 0.07435918 0.05774433
0003c0 e5 9d 85 3e bb 17 42 3e 05 9b c6 3e 3e dd f3 3c
       0.26097026 0.18954365 0.38790146 0.029768582
0003d0 d2 e3 9e 3e 78 8d 0a 3e 8b 7b 6e bd d1 4e 82 be
       0.31033188 0.13530529 -0.05822329 -0.25450757
0003e0 5b 98 77 bd f8 5e 12 be f6 2a 40 3d 4e b0 3a be
       -0.060448032 -0.1429404 0.04691597 -0.18231317
0003f0 80 70 81 be 80 0f d3 be 74 90 7c bd 65 93 83 be
       -0.25281143 -0.41222763 -0.0616612 -0.2569839

lstm1.weight_hh_l0 f4 [60, 20]
000000 34 61 02 bf 6c 1c bc bc 0b b4 22 3f ba 1c 8b 3e
       -0.5092957 -0.022962771 0.63555974 0.27170354
000010 c7 4b 3e bd 34 70 b8 bd 04 56 7d 3e ad 1a 02 be
       -0.046458986 -0.09005776 0.24739844 -0.12705489
000020 fb 6d 87 be 49 85 ab 3c 68 6f 89 be d2 5f 00 be
       -0.26451096 0.020937579 -0.2684281 -0.12536553
000030 81 ae fd 3d 2f 9b 4a be cc 27 45 3e d4 ec 3b be
       0.123867996 -0.1978576 0.19253463 -0.18352062
000040 93 d8 f3 3d 00 f2 6d 3d 80 fc e1 bc 07 b9 84 3e
       0.11906543 0.058092117 -0.027586222 0.25922415
000050 23 a7 e4 3c d2 86 93 be ba 27 db bd e0 f4 df bb
       0.027911728 -0.28813797 -0.107009366 -0.0068346113
000060 dd 80 50 3e 08 6d 71 bc 7b 8f e2 bd 3c 9c 0b bb
       0.20361657 -0.014735468 -0.11062523 -0.002130284
000070 5f 5e 39 3e 21 82 bb bd 9a 69 b4 3d 84 32 47 be
       0.18102406 -0.091556795 0.088092044 -0.19452864
000080 b4 cc 95 3e 03 c2 16 bd 77 7b e9 3a c5 03 96 bc
       0.2925774 -0.036806118 0.0017813285 -0.018312344
000090 c4 fc 7e 3e b8 3c df 3d ca bb 8a 3e 7c 82 06 be
       0.2490111 0.10900253 0.27096397 -0.13135713
0000a0 53 6b ca 3c c5 8a 04 3d fe 22 80 3e 88 c8 34 3e
       0.02470938 0.032358903 0.25026697 0.17654622
0000b0 60 4b 90 3d a8 59 e5 ba 94 b1 58 3e 8c 61 94 3d
       0.07045627 -0.0017498033 0.2116149 0.07245168
0000c0 20 41 6e bd 18 5a f5 3d f8 6f 82 be 93 f9 64 bd
       -0.058167577 0.11980075 -0.2547605 -0.055902075
0000d0 0a 0e 2b 3d 30 3a e8 bd c0 6a f8 bc d5 c4 a6 be
       0.041761436 -0.113392234 -0.03032434 -0.32572046
0000e0 99 08 26 bd 41 c8 89 bd f4 57 1d be ed 38 00 be
       -0.040535543 -0.067276485 -0.15365583 -0.12521715
0000f0 df 1e d2 3d 66 17 11 bd dd 3e 4a be 35 a5 da be
       0.102597944 -0.035422705 -0.19750543 -0.42704168
000100 8d 80 fa bd 22 f3 6d be b7 33 71 be ff 54 6a 3d
       -0.1223155 -0.23237279 -0.23554884 0.057209965
000110 9a 26 88 3e 0c f5 29 3e 89 82 c0 bd ad b0 47 bd
       0.2659195 0.16597384 -0.093998976 -0.048752476
000120 09 20 6b 3d 06 f3 c4 3d 47 da 97 3e ce 60 cf 3d
       0.057403598 0.096166655 0.2965872 0.10125886
000130 23 70 f8 bd c4 80 10 3e 1c 67 5b be d7 b5 40 bd
       -0.121307634 0.1411162 -0.21426052 -0.047048416
000140 74 3f 79 3e 74 15 cf bb 67 76 84 be 24 27 61 bc
       0.24340612 -0.006319696 -0.25871584 -0.013742242
000150 73 a9 bd 3e da 12 63 3d 21 af 55 3e b7 72 08 be
       0.37043342 0.0554379 0.20867588 -0.1332501
000160 de 24 db bd 27 a7 78 3d 26 ed 44 3d 4d f0 8b 3c
       -0.10700391 0.060706284 0.048077725 0.017082358
000170 9f ed 18 3e d2 ed 8f 3e 5d 33 9c 3d 14 4e c3 bd
       0.14934395 0.2811113 0.07626984 -0.095363766
000180 85 3f d2 3c 45 45 0a be 59 19 95 3e b2 a2 69 bd
       0.025665054 -0.13502987 0.291209 -0.057039924
000190 64 ef a9 bd 4c 82 41 3e d8 12 f9 bc 0d c4 49 3d
       -0.08297613 0.1889736 -0.030404493 0.049259234
0001a0 70 b9 3e be 63 64 fc 3e 52 cf 64 be 98 fd 6e 3d
       -0.18625426 0.4929534 -0.22344711 0.058347315
0001b0 82 5c 8e bd 3e 25 e8 bd 2a d1 8b bd 10 ba ea 3c
       -0.06951238 -0.113352284 -0.06827004 0.028653175
0001c0 50 c9 ef bd 48 bd 38 3e 8f bd 3e 3d 88 43 35 3e
       -0.11708319 0.18040955 0.046567496 0.17701542
0001d0 c7 f2 a9 3d d7 10 0e 3e ea cc 0c be 2a 04 39 be
       0.08298259 0.13873611 -0.13750044 -0.18067995
0001e0 2e 8e 62 3e d6 1e 39 be 22 6a 4f 3e ac e4 6a 3d
       0.2212455 -0.18078169 0.2025533 0.057346985
0001f0 49 44 13 3c 9c a4 37 be a4 ad 19 bd 69 77 6f be
       0.008988448 -0.17933887 -0.037519112 -0.23385395
000200 1a 81 46 3d 33 c9 c4 bd 0d 02 5d be 91 2b ba 3d
       0.048462965 -0.09608688 -0.21582814 0.09090341
000210 bf a9 bb bd 7d ac 31 3e d1 f6 3f be 5e a8 8c bd
       -0.09163236 0.17350955 -0.18746497 -0.06868051
000220 a0 51 9a 3e e9 e3 f7 bc eb 70 6a be d3 5d 5e 3e
       0.301404 -0.030260043 -0.22894637 0.21715479
000230 4d 25 3b be fe fa 8a be 63 47 b8 3d 09 70 73 be
       -0.18275948 -0.27144617 0.08997991 -0.23773207
000240 21 25 d8 3d 19 6e 6e be 4e ac 8d 3e 7b 4f fb be
       0.10553957 -0.23284186 0.2767052 -0.49084076
000250 f7 3d 82 3d e1 97 c6 3e f0 5b 8d be 2c a5 d7 3d
       0.06359475 0.3878775 -0.27609205 0.10529551
000260 41 f1 48 3e 46 52 8a 3d 68 f0 84 bc a0 2a 3c 3d
       0.19623281 0.06753974 -0.016227916 0.045939088
000270 81 bf d2 bd 4c 75 04 be da a1 ee bd 5a ba 6c 3e
       -0.10290433 -0.1293537 -0.116519645 0.23117962
000280 57 88 6e 3c 1a ce 79 be e9 a2 97 3e 31 69 f2 bd
       0.014558873 -0.24395028 0.29616478 -0.1183647
000290 06 b7 b5 3d 33 5c 74 be 0a 84 78 3e d9 06 27 be
       0.088727996 -0.23863296 0.24269119 -0.16311206
0002a0 72 5e 74 be 63 41 33 3e ae ab fa 3d f9 77 ab 3c
       -0.23864153 0.17505412 0.122397766 0.02093123
0002b0 da 5a fe 3d 85 58 c4 be d9 7a 87 bd 27 bd a2 bd
       0.12419672 -0.38348785 -0.06615228 -0.07946234
0002c0 b0 68 2c be 84 5b af bd 93 5d 47 3d dc 63 f5 3d
       -0.1683681 -0.08562377 0.048673224 0.11981937
0002d0 ff 7d 02 3e 5d 19 e0 ba 2b 91 7f bc e5 95 b7 3e
       0.12743376 -0.0017097403 -0.015598576 0.35856548
0002e0 7a 7d 27 be 96 4d 3f 3e 0a d1 39 3e 60 5f 0a 3e
       -0.1635646 0.1868194 0.18146148 0.13512945
0002f0 5b 1d 13 3d 1f c7 18 be 4d 7f b0 bc f0 97 f6 bd
       0.035916667 -0.14919709 -0.021545077 -0.120406985
000300 b6 3d 79 be b4 42 9b 3e be 89 b3 bd 88 07 1b 3e
       -0.24339947 0.30324328 -0.087665066 0.15139592
000310 10 51 99 bd a6 8a 0b 3d dd 05 68 3d ec ad 48 3e
       -0.074861646 0.034067772 0.056646217 0.19597596
000320 3a 9a 90 bd f8 ba a3 be ca 36 af 3d b4 9a 22 3d
       -0.070606664 -0.31978583 0.08555372 0.039698318
000330 e3 95 14 3e 2a 1c 81 3d b4 fe cb bd 04 05 f8 3c
       0.14510302 0.063042 -0.0996069 0.03027583
000340 28 b3 30 be 9e e3 b3 bd d4 b3 75 3b 01 b0 49 3e
       -0.17255843 -0.08783649 0.003749122 0.19696046
000350 13 8d 0e bd 2a 32 49 be ac 62 04 3e 1d e7 24 3b
       -0.034802508 -0.19648042 0.12928265 0.0025162168
000360 cf 19 77 3c a2 45 c1 bd 19 3d 6b be a4 c9 00 3e
       0.015081837 -0.094371095 -0.22972526 0.1257692
000370 84 43 81 bd b3 81 bf 3d a2 20 97 3e fb 72 ba 3e
       -0.06311706 0.0935091 0.29517084 0.36415848
000380 fa 91 85 be 47 0f 0e be af d8 63 3e 3b 37 f8 3d
       -0.26087934 -0.13873015 0.22250627 0.121199094
000390 04 78 83 be 51 da d8 3e b9 55 7e be 99 6f 35 3e
       -0.25677502 0.42354062 -0.24837388 0.17718352
0003a0 a3 1a c2 bc ad 24 29 be a5 c2 ee 3d 10 66 8d be
       -0.023694342 -0.16517897 0.11658219 -0.2761693
0003b0 de 8b 3b be 08 fd a9 bd 8b 31 13 bd 9e 5a 5f bd
       -0.18315074 -0.08300215 -0.03593592 -0.05452978
0003c0 2a d3 b3 3d b1 cf 0a 3e 3d ac 4e be dc f8 d6 be
       0.08780511 0.1355579 -0.20182891 -0.4198674
0003d0 3b 0a c7 3d 7b 58 11 3e 6c 8f 8f 3c 21 0c 80 be
       0.09718748 0.14193909 0.017524444 -0.25009254
0003e0 a4 e5 7b 3e bd 97 96 bc 2d 36 18 3e a0 b8 99 be
       0.2459932 -0.018382901 0.14864416 -0.3002367
0003f0 3a 27 c6 be cc 79 57 3d ad ce 33 3e b9 74 a2 3c
       -0.38701802 0.05260639 0.1755931 0.019831048

lstm1.bias_ih_l0 f4 [60]
000000 ea 6a 96 be c3 ac 7d bd 01 05 e6 bd 7e 97 5c 3e
       -0.29378444 -0.061932337 -0.11231423 0.21542165
000010 0c 9d a0 3e 8e 90 53 3e 64 da c0 bd 34 1e 53 be
       0.31369817 0.20660612 -0.09416655 -0.2061699
000020 5b 0b ec be da 1c 5d be 17 e7 79 be e3 76 a5 be
       -0.46102414 -0.21593037 -0.2440456 -0.32317266
000030 d3 db 59 3e 36 bb 40 be 4b 86 fb 3d 0a 3a 70 3c
       0.21275263 -0.18821415 0.12281474 0.014662275
000040 13 ae ea bd 69 62 20 be 8f 95 98 be 92 08 5c 3e
       -0.11458983 -0.1566254 -0.29801604 0.21487644
000050 a5 39 8f be 2f 5b c1 3d 13 ba 8a 3c 42 5c 86 3e
       -0.27973667 0.0944122 0.01693443 0.26242262
000060 6e c2 50 3e 12 8b 60 3d 3c c5 0b 3c 8d 27 82 3e
       0.20386669 0.054820128 0.008530911 0.254208
000070 64 64 01 be 6c e5 f3 bd d3 19 67 bc 03 b6 67 3d
       -0.12635952 -0.11908993 -0.014105278 0.056570064
000080 cf d7 e7 be 4b e0 60 3d a7 97 22 be 25 08 80 be
       -0.45281836 0.054901402 -0.15878163 -0.25006214
000090 2b 8c 86 3e b8 57 f7 be 8b f7 a7 bd 43 e8 69 3e
       0.26278815 -0.48309112 -0.08201512 0.22842507
0000a0 a1 a9 96 3d af 67 cf bd 6a 3d b5 3c e8 d9 2d bd
       0.07356573 -0.10127198 0.022124011 -0.04244414
0000b0 bc 8c f2 3d 4f e1 a4 bb 68 aa ca bc dc 27 4b bd
       0.11843249 -0.0050317417 -0.02473946 -0.04959856
0000c0 33 69 dd bd 7e fd f1 bd d3 0e ef bd 6d 05 85 bd
       -0.10811081 -0.11815928 -0.11672749 -0.064951755
0000d0 6a 5d f7 3b 36 42 19 3c bb e0 1a 3e 4a b4 16 be
       0.0075489776 0.009354165 0.1512479 -0.14717212
0000e0 c8 6a b2 bd b1 fc 04 3e bb 4e c9 bd 31 51 66 3d
       -0.08711773 0.12987019 -0.0982947 0.056229774

lstm1.bias_hh_l0 f4 [60]
000000 82 a9 a5 be 55 56 11 3e 94 93 7d be ff e6 76 3e
       -0.32355887 0.1419309 -0.24763328 0.24111556
000010 72 d9 2e 3e e6 db 5b 3e 62 1f c7 3d 2a c6 e3 bd
       0.17075136 0.21470603 0.09722783 -0.11121781
000020 ce 1e 66 be 19 c0 28 3c f4 b7 ed bd c2 e4 68 bd
       -0.22472689 0.010299706 -0.11607352 -0.056858785
000030 75 86 d8 3c 35 19 ed bd 77 da da bb 1b e5 b8 3d
       0.026431302 -0.115770735 -0.006678875 0.090280734
000040 07 2d ff 3c 56 f3 a5 3d 2d 8a 60 3d 5a 54 99 bd
       0.0311494 0.08103053 0.054819275 -0.07486792
000050 9f 7b 87 bc 56 25 b9 3d 6f a2 86 3b f3 6f 3a 3e
       -0.01653844 0.090403244 0.004108719 0.18206768
000060 46 e7 81 3e b6 c4 38 3e 16 28 39 be f6 55 28 3d
       0.2537176 0.1804379 -0.18081698 0.041097604
000070 36 45 cb bd 6f 3b 05 3e 63 80 ed 3d 4b 00 82 3e
       -0.0992531 0.13010953 0.115967534 0.2539085
000080 32 0f 71 be d5 23 7a be 69 d5 02 3e 53 7f db be
       -0.23540953 -0.24427731 0.12776722 -0.42870578
000090 a0 94 4e 3e d8 9a 23 be ea f9 14 3e 38 ee 78 3d
       0.20173883 -0.15977037 0.1454846 0.060774058
0000a0 2a 63 27 3e da 94 0d 3e 05 77 1b bd e4 06 3f 3e
       0.16346422 0.13826314 -0.037955303 0.18654972
0000b0 9d 6e c8 bc e6 86 0b be 34 0a 64 3d e2 cf 87 3d
       -0.024466807 -0.13625678 0.055673793 0.066314474
0000c0 14 5f 26 3c 88 97 e1 3d 1d 3a 8a 3d 5d 6e 86 3b
       0.010154504 0.110152304 0.067493655 0.004102512
0000d0 4b 9b 7b 3e 46 16 a4 3b d4 dc 5a bd 9c 66 01 3e
       0.24570958 0.005007538 -0.053433254 0.12636799
0000e0 16 da 3c 3c 8f fd fa bc be e6 1a 3e e6 89 7b 3e
       0.011526605 -0.030638484 0.15127084 0.24564323

lstm1.weight_ih_l0_reverse f4 [60, 58]
000000 c6 f2 0d be c8 cb 7d be d9 ae 21 be 1d 4a a0 be
       -0.13862142 -0.24784768 -0.15789355 -0.31306544
000010 7d 74 2e be 6f d6 30 3e f8 a9 2b 3e 3d a6 ff 3c
       -0.17036624 0.172693 0.16764057 0.031207198
000020 06 7a 11 be 4b 22 68 be 1f 7f 6c be c6 c3 3c bc
       -0.14206704 -0.22669332 -0.23095368 -0.011521285
000030 5d 6c 50 3e 49 3f 01 3e eb 07 41 3d 96 4a e6 3b
       0.20353837 0.12621798 0.04712669 0.0070279343
000040 07 b4 72 be 3d 5a c8 3d 53 c1 36 3c ca 84 b9 3d
       -0.23701487 0.097828366 0.0111544905 0.09058531
000050 d7 8d d9 bd 83 f6 a8 be 2b 9e 06 be 44 d6 48 bd
       -0.10622757 -0.33000574 -0.13146274 -0.049032465
000060 a7 a1 aa be d6 4a 8e be 29 f2 80 bd 8b 36 bb bd
       -0.33326456 -0.2779147 -0.062961884 -0.091412626
000070 25 30 bc be 11 a5 6b 3d 2e e9 c5 3b 73 2d 20 be
       -0.3675548 0.057530466 0.00603976 -0.15642338
000080 7f fa 00 3e 39 7a 37 3d 4c 7c 08 be bd 9c ed 3d
       0.12595557 0.044794295 -0.13328665 0.11602161
000090 89 00 33 3e 2b d4 45 be 91 be 60 bd cb 6b ed 3d
       0.17480673 -0.19319217 -0.05486924 0.115928255
0000a0 6d a4 39 be e6 11 53 be ca 6b 86 bd 18 f5 71 3e
       -0.1812913 -0.20612296 -0.06563528 0.23628652
0000b0 c8 e8 59 3e fd 20 c8 3e 12 62 48 3d 21 41 0d be
       0.21280205 0.39087668 0.048921652 -0.13794376
0000c0 0f 78 50 ba c5 ca 18 3e c4 92 01 be 40 7c 44 3e
       -0.00079524604 0.149211 -0.12653643 0.19188023
0000d0 9d 08 92 3d c9 f6 3a 3e 95 c1 42 be 51 40 ec bd
       0.07130549 0.18258204 -0.19019158 -0.11535705
0000e0 97 c4 f5 3c fd 99 03 3e c5 eb 08 bc c5 29 ad be
       0.030000968 0.1285171 -0.008356993 -0.3382093
0000f0 75 03 3c be ee 9a ef bc 3f e1 0b bd 06 6a fd 3d
       -0.18360694 -0.02924868 -0.03415036 0.12373738
000100 44 40 76 3d 0e f3 e6 bd 43 c3 9b bd b7 40 e2 bd
       0.060119882 -0.11276828 -0.076056026 -0.110474996
000110 c9 a2 d0 3d 5a 61 44 be 89 b4 2a be f4 14 3b 3e
       0.10187299 -0.19177762 -0.16670431 0.18269712
000120 1d f9 5e be 33 39 b5 be 34 23 d1 3b 0f f9 89 be
       -0.21774717 -0.35395202 0.0063823704 -0.2694783
000130 9b 03 fb be 33 a7 94 be 42 22 07 3e ea 18 5d be
       -0.49026188 -0.29033813 0.13196662 -0.21591535
000140 7f 71 40 3d 62 82 9f bd 95 fd c2 bd 1d 36 88 be
       0.04698324 -0.077885404 -0.09521023 -0.26603785
000150 7e aa 70 3e 9e 37 03 3e 7f ee 84 3c d8 83 7a be
       0.23502538 0.12814185 0.016227005 -0.24464357
000160 dd 0a 23 be a1 13 9f be dc 39 5d be 08 95 01 be
       -0.15922113 -0.31069663 -0.21604103 -0.12654507
000170 72 ee 7a be 98 ef 93 bd bd 7d 0f be 2f 6c 04 bf
       -0.24505022 -0.07223433 -0.14012809 -0.51727575
000180 66 42 02 bf 1c 44 ca be 99 b5 87 be 65 96 93 3e
       -0.50882566 -0.39505088 -0.26505736 0.2882568
000190 9f 4c f1 3e fb 57 be 3c 01 1c 4c be d7 34 7f 3e
       0.4712877 0.023235312 -0.19932558 0.249225
0001a0 02 4c 83 3d 62 34 bf be 20 3d 49 3d 59 07 67 3e
       0.06410982 -0.37344652 0.04913056 0.22561397
0001b0 06 da 0d 3e 2f 3d 05 3e 1f a4 99 3e 17 64 58 bd
       0.138527 0.13011621 0.30008027 -0.052829828
0001c0 a4 94 45 be b6 47 a0 3d 45 1e 32 bd 36 c9 89 be
       -0.19294983 0.07826178 -0.0434859 -0.26911324
0001d0 25 dd 3f bf 02 9b de bd 9a ae 29 be c1 04 42 bd
       -0.74946815 -0.10869409 -0.16570511 -0.047367815
0001e0 5f a5 ac bc 6c 87 ab 3d c4 fd f4 3d 37 99 93 3e
       -0.021074949 0.08375439 0.119624645 0.2882783
0001f0 f9 8e 3f be 85 9a db 3d 15 63 4d 3e 02 c9 64 3e
       -0.18706883 0.10722832 0.20057328 0.22342303
000200 5b 3d c5 3d 26 d9 95 3e 32 6d af 3d ac 16 b3 3c
       0.09630843 0.29267234 0.08565749 0.021861397
000210 be f0 10 be eb 65 9c 3c 18 d6 97 3d fe b7 77 be
       -0.14154336 0.019091567 0.07413882 -0.24191281
000220 f1 a1 90 bd fe 73 cb 3d 9c b1 e9 bd 34 69 0a 3c
       -0.07062138 0.09934233 -0.114108294 0.008447934
000230 9d 06 6b bd 1c dd 94 bd 58 15 2b bd db 75 ee bd
       -0.057379354 -0.07268736 -0.0417684 -0.11643573
000240 09 e0 44 bc de 2c 30 be 4b e4 dd bc 60 37 e7 bd
       -0.012016305 -0.17204615 -0.027086398 -0.11289859
000250 07 df 95 3d 76 a6 45 be e1 0b 2b be 18 11 17 be
       0.0731793 -0.19301781 -0.1670375 -0.14752614
000260 0c 77 e0 3d 8a a0 96 bd 5c be 18 be 9b 87 3a be
       0.109602064 -0.07354839 -0.14916366 -0.18215792
000270 e5 06 76 be a7 95 aa be a9 75 4a be f9 40 a1 3d
       -0.24026068 -0.333173 -0.19771446 0.07873721
000280 69 ac f8 3c cf 4e 9e bd de 99 ee bd a1 6b bf bd
       0.03035565 -0.07729875 -0.116504416 -0.093467005
000290 88 87 48 3e dc 24 d0 bc 1a d6 31 3e b7 cf 1f be
       0.19582951 -0.0254082 0.1736683 -0.1560658
0002a0 00 42 d1 bd 2d c0 41 be 12 ea 06 3d 79 7a 02 3e
       -0.102176666 -0.18920965 0.03293807 0.12742032
0002b0 01 80 08 be 78 80 21 3d ef bb 49 3f a8 6c e7 bd
       -0.1333008 0.039429158 0.7880239 -0.113000214
0002c0 4e 94 65 3e de 90 3f 3e 56 dc 00 be bd 02 de 3c
       0.22419855 0.18707606 -0.12584051 0.027100915
0002d0 b2 67 12 3d c4 79 0a 3f ce 7a 8e 3e 75 4f a2 3e
       0.035743423 0.5409205 0.27828068 0.31701246
0002e0 5d b3 b9 be fa 43 94 3e da 49 c4 3e 68 61 88 3e
       -0.36269656 0.28958112 0.38337594 0.26636815
0002f0 64 0e 4c 3e 75 20 89 bd 45 6a d5 3d f1 b8 c1 3b
       0.19927365 -0.06695644 0.1042066 0.0059119393
000300 19 eb 33 bc 52 27 d4 3d 71 b0 53 3e cd 0e b2 3e
       -0.010981345 0.10359062 0.20672776 0.34776917
000310 07 54 99 3d f0 fa 5f 3e 9e 32 07 3d 1f 14 76 be
       0.0748673 0.21873069 0.033007257 -0.24031113
000320 50 7a f7 3c 04 25 75 3e 73 eb fd 3d ad db 62 be
       0.03020969 0.23939902 0.12398424 -0.22154112
000330 e4 e9 f9 3d bf 9d 96 bd ed 6a 4b 3d 64 7f 1c 3d
       0.12202814 -0.073543064 0.04966252 0.038207427
000340 c8 7f 6a 3d e5 bd 07 be 48 6d 81 bd 5f 72 57 3e
       0.057250768 -0.13256033 -0.06319672 0.21039723
000350 0f c0 66 be ac 47 c5 3d f1 84 b8 3b 44 ac 3d be
       -0.22534202 0.09632811 0.005631082 -0.18522745
000360 7a e5 46 3e 91 50 77 3e 72 89 34 3e 62 a8 eb 3e
       0.19423476 0.24151827 0.17630556 0.46026903
000370 93 ab 80 3e e1 1c 00 3f 5d 84 57 be 95 37 5b 3e
       0.251309 0.50044066 -0.21046586 0.21407922
000380 ae 08 81 3e 41 97 3f bc 7c e3 8c 3c 63 e5 f6 3d
       0.25201935 -0.011693777 0.017198317 0.12055471
000390 4d a1 04 3e c1 0f 65 be 41 a6 4f 3e b1 7b 45 3b
       0.12952156 -0.22369291 0.20278265 0.003013354
0003a0 e8 8b 92 3f 58 46 77 3e bb c6 15 3e 98 40 f9 bc
       1.1448946 0.24147928 0.14626591 -0.030426309
0003b0 12 35 ad bd 55 13 09 be 1e db 21 3e 85 68 9f bb
       -0.08457388 -0.13386281 0.15806243 -0.0048647546
0003c0 8e b6 f5 bb 2c 75 35 3e 48 6d 3a be 78 89 8d bd
       -0.007498569 0.17720479 -0.1820575 -0.06910986
0003d0 96 29 82 bc 3b aa de bd 5b b2 57 3e 63 6b ae bd
       -0.01588897 -0.10872313 0.21064131 -0.08516576
0003e0 ec 56 83 be 9b 75 37 be 9e be 0b be 50 1f 80 be
       -0.25652254 -0.17915957 -0.13646933 -0.2502389
0003f0 a9 cb 32 be 77 b2 7e be 45 ff 67 be a7 de ff be
       -0.17460503 -0.24872766 -0.22655971 -0.49974558

lstm1.weight_hh_l0_reverse f4 [60, 20]
000000 ca 86 ae 3d 14 e3 85 be a5 ee 12 be 22 45 2d 3e
       0.08521803 -0.2614981 -0.14348848 0.16920903
000010 ea 05 1c be 12 57 87 3e 77 32 da 3d 3c 8d 43 be
       -0.15236631 0.26433617 0.10654157 -0.19096845
000020 82 82 5c be a7 03 da bd bf ac 23 bb 1e 6f 79 3d
       -0.2153416 -0.10645228 -0.002497479 0.060896985
000030 2d 96 89 be ba b9 f2 bd 0b cb d1 3d 91 24 f7 bd
       -0.26872388 -0.11851831 0.102438055 -0.12067521
000040 65 f7 81 3d 8c e5 17 bc 4e ac 3b 3e a4 d1 1d be
       0.06346015 -0.009271037 0.18327448 -0.15412003
000050 c7 5a e2 be d1 d0 f3 bc 4b 45 3b 3e 6b a4 da 3d
       -0.44209883 -0.029762657 0.18288152 0.106758915
000060 1c 1e 2f 3e b9 64 ff bd 47 e5 00 3f 09 72 45 be
       0.1710133 -0.12470383 0.5034985 -0.19281782
000070 66 07 d7 bd 02 86 b1 3e c5 db a0 3e e6 80 25 3e
       -0.10499458 0.34672552 0.3141767 0.16162452
000080 6a 07 04 3e f7 c8 d2 3d a5 e2 17 bd 7b 19 2d be
       0.12893453 0.10292237 -0.03708138 -0.16904251
000090 32 13 ba be cc ed 0e bf 32 79 c4 3d df f5 1b bd
       -0.3634277 -0.558316 0.09593429 -0.038076278
0000a0 c2 16 6e bd 8c b8 dd bd 89 8c ac 3d 62 56 00 be
       -0.058127172 -0.10826215 0.084252425 -0.12532952
0000b0 69 8f 7e 3e 95 49 8d be dd d2 d5 3d 19 0c 18 be
       0.24859394 -0.275952 0.104406096 -0.14848365
0000c0 74 ca ca 3d 03 96 a5 3e 26 b4 bc bd 36 9a da 3e
       0.09901896 0.32341012 -0.09214048 0.4269578
0000d0 8a ae 70 3c 1b 18 ef 3d 3e 5d c4 3d c4 61 42 3e
       0.014690051 0.1167452 0.09588097 0.18982607
0000e0 63 d2 0f bd 89 15 84 be 6a 6e 3d 3e 2e ae 60 3d
       -0.03511275 -0.2579768 0.18499151 0.05485361
0000f0 7f ac 94 3e 81 43 eb 3d d5 61 6c be 82 83 38 be
       0.29037854 0.11487485 -0.23084195 -0.18018916
000100 60 6d 80 be 93 e7 4d be 72 98 69 be b2 da 80 be
       -0.25083447 -0.2010787 -0.2281206 -0.2516685
000110 41 0e 08 3e 0e 53 0d bf a1 5e 29 be bd 8c 61 bd
       0.13286687 -0.55204856 -0.16540004 -0.05506586
000120 91 6d 82 bd bd 8e 60 be 46 bc 8b 3e b2 8d b2 3e
       -0.063685544 -0.2192945 0.2729208 0.3487373
000130 29 24 63 3e 1d 8c e3 3e 0c 4b 30 3e 82 0f 22 3e
       0.22181763 0.44442835 0.17216128 0.15826228
000140 99 10 93 3e 68 2e 14 3e af 5d 14 be 2d 25 31 3e
       0.287236 0.14470828 -0.14488862 0.17299338
000150 db 62 3f bd 3b 0b 6c 3d 61 b8 08 be 28 5d 86 3c
       -0.046725135 0.057627898 -0.13351585 0.016401842
000160 94 24 26 3e cf d1 3c be c0 9a 03 be 78 d4 d4 be
       0.16224891 -0.1843941 -0.12852001 -0.4156835
000170 f4 31 68 3e 1f 6c 21 be 07 5e 6d bd 41 13 50 3e
       0.22675306 -0.15763901 -0.057951 0.20319845
000180 9f 9e 11 bd 21 6e 76 3e b6 c7 0b be 46 62 b4 3d
       -0.035551663 0.24065448 -0.13650402 0.08807807
000190 83 cf 9a be b6 02 6d be f8 d1 78 3e 76 b2 e2 bd
       -0.30236444 -0.23145565 0.24298847 -0.11069195
0001a0 d2 6e 51 be 45 27 ad 3d cb 18 4d be fd f7 d8 bc
       -0.20452431 0.08454756 -0.20028989 -0.026485438
0001b0 1d bf ae 3c e5 85 2f 3e 66 ad a6 3d 83 a2 2a 3e
       0.021331364 0.1714092 0.08138542 0.16663556
0001c0 c9 a4 06 3e 97 fb d7 3d 2f 9e d5 bc de b3 5c 3d
       0.13148798 0.10546034 -0.026076404 0.053882472
0001d0 1c 70 66 3e 9a 53 ff bb fa 1f 1a 3d 13 27 03 be
       0.22503704 -0.0077919485 0.03762815 -0.12807874
0001e0 80 57 3f 3d 74 41 08 be 7f 51 10 bc c1 5b 55 bd
       0.046714306 -0.13306218 -0.008808493 -0.052089456
0001f0 59 9c c1 bc 53 54 69 3e 7d 49 a5 3e b8 28 b1 3d
       -0.023634123 0.22786073 0.3228263 0.086503446
000200 02 22 f6 3d 2a ab 7b 3e 91 51 82 3e 9d fd 1e bc
       0.12018205 0.24577013 0.25452855 -0.009704021
000210 39 81 a4 3e 48 98 9b 3e 77 a8 d9 3d 1b d1 91 bd
       0.3212984 0.3038962 0.10627835 -0.07119962
000220 a2 ae 88 be fa fd 80 3c be c1 21 bd 3c 97 ec bc
       -0.26695734 0.015746105 -0.039491408 -0.028880708
000230 59 f8 2e bd 71 a4 83 be 95 da 1f 3e 78 5d 89 3d
       -0.04271731 -0.25711396 0.15610726 0.06707281
000240 9d 8a 12 3d 9a 70 af be f6 87 4b 3e 4f 7a be bd
       0.035776723 -0.34265596 0.19876084 -0.09300672
000250 16 0f d0 be 9e e9 6c 3d 95 98 19 be f6 fd b4 3c
       -0.4063651 0.057839982 -0.14999612 0.022093754
000260 b6 32 a0 bd fc 8b ae 3e 5f e3 b8 bd fa 50 91 be
       -0.07822172 0.34091175 -0.090277426 -0.28382093
000270 8d 38 52 be 5d 38 4c be 32 70 d7 3a 35 38 b1 bd
       -0.20529385 -0.19943376 0.0016436635 -0.08653299
000280 de 43 a0 bd 0a 52 a0 3c b0 f1 0c 3e a7 55 c6 3d
       -0.07825445 0.01957037 0.13764071 0.09684306
000290 7f 0e e1 3d fd f8 07 be 94 61 1c bd de b9 84 be
       0.10989093 -0.13278575 -0.038178995 -0.25923055
0002a0 8f ae 04 bd 58 0b 4f 3e 16 e4 ab 3d 34 1a 07 3e
       -0.032393035 0.20219171 0.08393113 0.1319359
0002b0 f5 a3 34 bd a3 f6 e6 bc 72 f0 3c 3e e5 1c 92 bd
       -0.044101674 -0.028193777 0.18451098 -0.071344174
0002c0 dd 89 0f be f1 76 fe bd e8 96 86 bd 4d a4 f4 3d
       -0.14017434 -0.1242503 -0.06571752 0.119454004
0002d0 d6 06 4e be 4e de b9 be 94 b4 8d 3e 51 22 9a 3e
       -0.20119795 -0.36302418 0.27676833 0.30104306
0002e0 15 73 4a bc d8 b6 27 be a1 54 a0 3e 10 7c 7b 3d
       -0.012356539 -0.16378343 0.31314567 0.061397612
0002f0 8a ec 14 bd 72 a4 d7 3d e4 c4 ac 3d 3f b9 75 3e
       -0.036358394 0.10529412 0.084359914 0.23996447
000300 af f1 a1 3e 27 00 a9 bd a3 87 da bd 49 30 21 3d
       0.31629702 -0.08251982 -0.10670402 0.03935269
000310 04 c3 2e be 5d 6d 2d be 6a f4 18 3d 13 e1 72 bd
       -0.1706658 -0.1693625 0.037342466 -0.05929668
000320 20 20 02 be b7 bc 31 3e 12 35 02 be 4c 8e 8c be
       -0.12707567 0.17357145 -0.12715557 -0.27452314
000330 39 07 82 be 91 68 62 3e 78 8c 6c be 50 2a 80 3e
       -0.25396135 0.22110201 -0.2310046 0.25032282
000340 66 80 d1 3e d9 b3 92 be f2 2b a7 3d d4 a4 5a be
       0.40918273 -0.28652838 0.08162679 -0.2135194
000350 10 64 27 be 31 dd e9 bd f6 9e 0b 3e d4 6c 0e be
       -0.16346765 -0.11419142 0.13634858 -0.13908702
000360 3e 85 31 3e 22 a2 20 3e 2d 5f 94 3e 4a 62 84 3b
       0.17335984 0.15686849 0.28978863 0.0040400373
000370 a9 5a dc bd 20 38 33 3e 0f 42 28 bd b1 93 a2 3e
       -0.107594796 0.17501879 -0.041078623 0.31753305
000380 61 be 12 3f 81 58 ba be b1 87 92 3d 8f 47 6f bb
       0.57321745 -0.36395648 0.07154787 -0.0036511158
000390 50 37 55 3e 8d 57 46 be 85 39 3f 3e 9f 0a 02 be
       0.20821881 -0.19369335 0.18674286 -0.12699364
0003a0 e0 5c 85 3e b3 52 4a ba d3 af 5f be 63 9c 96 bd
       0.2604742 -0.00077180116 -0.21844415 -0.07354047
0003b0 9e 16 e0 be 02 c4 a0 bd 49 47 e7 3d 53 70 5a bd
       -0.43767256 -0.078498855 0.112928934 -0.053329777
0003c0 0c 83 39 bd f3 c9 f0 3e a8 33 04 be d6 45 99 3d
       -0.04529099 0.47029075 -0.1291033 0.07484023
0003d0 3d d6 b9 bc 74 bc 3f be 25 7c 19 3e b2 dc 9e 3e
       -0.022685165 -0.18724233 0.14988764 0.31027752
0003e0 f5 97 bf 3d 5d 8e b7 be 1b b1 c8 3d c0 96 e0 be
       0.093551554 -0.35850802 0.09799405 -0.43865013
0003f0 f3 93 bf 3e 0a 79 07 3d 3c a5 1d be 57 9d db bd
       0.37417564 0.033074416 -0.15395063 -0.107233696

lstm1.bias_ih_l0_reverse f4 [60]
000000 da 62 38 bd d7 30 54 be b0 a6 07 3d 0c fe 1f 3e
       -0.045016147 -0.20721756 0.03311795 0.15624255
000010 86 92 1c 3e 03 49 54 3e ee 4b 8d bd 86 af 35 3e
       0.1529027 0.20730977 -0.06899248 0.17742738
000020 f2 f4 d4 3d d8 73 c9 be c1 ec f4 bd a2 0c 2e bf
       0.10398282 -0.39346194 -0.1195922 -0.67988026
000030 dd 15 04 3e a0 f7 89 be e5 8c b6 bb 33 71 70 be
       0.12898965 -0.26946735 -0.005570995 -0.23480682
000040 df 96 31 3e a5 ed b4 be d2 84 21 bc fb ab 51 3e
       0.17342709 -0.35337558 -0.009858327 0.20475762
000050 a4 65 a1 be 14 74 39 be 00 96 7c 3e 28 53 aa be
       -0.31522858 -0.18110687 0.24666595 -0.33266568
000060 4a 08 5d be 2b bb 3d 3d 66 70 ad 3e 46 6a e1 3c
       -0.21585193 0.046321075 0.33874816 0.027516495
000070 7b e2 7b be 01 5b 38 3d f1 6e 11 3d 08 10 a6 bc
       -0.24598114 0.045008663 0.035506193 -0.020271316
000080 44 f7 12 3e 22 24 c8 3e fc 94 16 3e a9 73 36 3d
       0.14352137 0.39090067 0.1470527 0.044543896
000090 71 2f 39 bc af dd 18 3e f5 f3 85 3e 3b c7 0a 3d
       -0.011302815 0.14928316 0.26162687 0.033881407
0000a0 93 6b fe 3c a0 17 57 be 40 94 6c bd 8d cc 75 bd
       0.031057155 -0.21005106 -0.05775857 -0.060009528
0000b0 2d 77 04 bd 81 36 a4 bd 16 b9 3d 3e fb 88 7d 3d
       -0.032340217 -0.08018208 0.18527636 0.061898213
0000c0 a0 02 70 3d 2b a4 fe bc 16 d3 d9 3b 0e 95 c3 3d
       0.058596253 -0.03108414 0.006647478 0.09549914
0000d0 9a 7b c6 3d 2f d8 e6 3d 12 5c 37 bd 14 82 60 bc
       0.09691544 0.112717025 -0.04476554 -0.013702888
0000e0 29 ff c0 bd a1 c5 b0 bd ba e9 ac bd 45 94 a3 bc
       -0.09423668 -0.08631445 -0.08443017 -0.019968161

lstm1.bias_hh_l0_reverse f4 [60]
000000 c8 e6 73 3e b1 f4 a5 bc fc 4a 74 3d 73 c4 d6 3e
       0.23818505 -0.02025828 0.059641823 0.41946754
000010 17 81 89 be b5 67 43 3e 97 7d 54 be 41 42 37 3e
       -0.268563 0.1908253 -0.20751034 0.17896368
000020 d4 f5 39 3e 1d 91 84 be 38 fd b3 be 7c 3b f1 be
       0.18160182 -0.25891963 -0.35154128 -0.47115695
000030 1d 69 6c 3d 57 0b 78 be 56 16 3d be 54 83 9e be
       0.05771743 -0.24223076 -0.18465552 -0.3095957
000040 96 2b a4 3e 9e f2 b2 be d3 8f ff bc 15 c1 24 3e
       0.32064503 -0.34950727 -0.03119651 0.1608928
000050 ca 88 bf bd a1 76 a9 bd 97 22 ed bc 28 b9 48 be
       -0.09352262 -0.0827458 -0.028947158 -0.19601882
000060 39 47 91 bd ec 52 2e 3e 0a a9 6b 3e c8 06 0f be
       -0.07093663 0.1702382 0.23013702 -0.1396743
000070 65 01 de 3b ed 41 9b 3e 83 f4 62 3d 65 3a 7f be
       0.0067750686 0.30323735 0.055408966 -0.2492462
000080 b2 01 93 bd 18 e0 df 3e 87 f2 b3 bd 26 3d 95 3e
       -0.07178058 0.43725657 -0.08786493 0.29148215
000090 bc ba eb 3d 7c 9a 48 3e 2a 7d 03 3f ac a1 ba 3d
       0.11510226 0.19590181 0.5136286 0.09112868
0000a0 60 23 04 be 54 54 9a 3d 38 45 1e 3e a5 ae 46 be
       -0.1290412 0.075356156 0.15456092 -0.19402559
0000b0 db b5 b9 bd fa e2 54 be a9 9d f5 bd 6e 05 35 be
       -0.09067889 -0.2078971 -0.11992962 -0.17677853
0000c0 94 8f 0e be ff 8e e2 3c bd aa 77 3c 4c a6 23 bd
       -0.13921958 0.027656076 0.015116391 -0.039953515
0000d0 b2 5e 4b be fa 63 80 be f2 06 d5 3d 57 ea d6 3d
       -0.19860342 -0.25076276 0.10401715 0.104939155
0000e0 07 66 0f 3e f3 e0 5e 3d 30 7d 49 3e 58 9e 3d 3e
       0.14003764 0.054413747 0.19676661 0.18517435

lstm1.weight_ih_l1 f4 [60, 40]
000000 54 7b b1 be 8f 1d c2 be 4f 49 79 3e f1 50 fd bd
       -0.34664404 -0.37913176 0.24344371 -0.12368954
000010 6a 8a 17 b7 62 77 1a 3e c6 f3 bf bc b2 41 12 3e
       -9.032528e-06 0.15084603 -0.02343167 0.14282873
000020 5f 28 aa 3c c1 3c da 3d 8e 5f 91 bc a8 e5 33 bc
       0.020771204 0.10656119 -0.01774576 -0.010980047
000030 db 96 8f bd 1d bb 98 bd 85 1d 4e 3d 6f 91 25 be
       -0.07011195 -0.07457564 0.05032112 -0.1616876
000040 4c df 34 3d 7e 62 01 3e 0d 55 cf 3d 42 21 b7 3e
       0.044158265 0.12635228 0.10123644 0.3576756
000050 d4 1e 61 be c5 d1 c0 bd 15 bb 9d 3e 48 cc ce 3e
       -0.21984416 -0.0941501 0.30806795 0.4039023
000060 9f 21 15 3d 8a 3c 42 bd b4 cb d8 3e e9 ce 66 3e
       0.036409017 -0.047421016 0.42342913 0.22539867
000070 b7 a7 cc 3c a6 e2 16 3e 46 a9 ad 3e c2 9a 9c 3e
       0.024982316 0.14734897 0.33918208 0.3058682
000080 0b 58 e2 3e 20 1b 39 be 6f 1f 4a be c1 60 af be
       0.44207796 -0.18076754 -0.19738553 -0.34253505
000090 5c 30 b8 bd f3 7e b2 be a4 fd 80 3c 9c 9a 28 bd
       -0.08993599 -0.3486248 0.015745945 -0.041163072
0000a0 59 07 2e be 14 91 51 be 1c 29 9d 3e a6 39 68 bb
       -0.1699499 -0.20465499 0.30695426 -0.0035434752
0000b0 59 a5 78 3d 70 ad 2a 3e fe 51 0a 3e 76 0b d8 bd
       0.060704563 0.16667724 0.1350784 -0.10549061
0000c0 64 ba f8 bd c3 c2 21 3e 89 f8 ef 3d dc a0 c8 3d
       -0.12144926 0.15796952 0.11717326 0.097963065
0000d0 39 6b 26 be 61 6f af be 30 ae bd bd 18 92 eb 3d
       -0.1625184 -0.34264663 -0.09261739 0.115024745
0000e0 d2 51 5f 3e fd db b5 bd 25 89 1a 3e 59 38 1b 3e
       0.21808556 -0.0887985 0.15091379 0.15158214
0000f0 62 2f 84 3e 19 7c 1a be 9b aa b4 3e 8b 77 80 3e
       0.258174 -0.15086402 0.35286412 0.25091204
000100 87 9b 04 3d 3d 52 c3 be 12 56 64 3e eb 24 14 be
       0.032374885 -0.3814868 0.22298458 -0.14467208
000110 00 a9 15 be 0b df 65 3e ba 55 8e bd ff 6a 80 3e
       -0.1461525 0.22448365 -0.06949945 0.25081632
000120 d8 ad ab 3d 40 04 a4 3d d1 ef 04 3d 45 63 20 be
       0.083827674 0.08008623 0.03245527 -0.15662868
000130 e7 b6 50 be f0 b4 3f be 63 e4 69 3e f8 75 2b 3e
       -0.20382272 -0.18721366 0.22841029 0.1674422
000140 a0 c9 87 be 5d 8c af bd 63 ed de 3d 5f e4 16 be
       -0.26521015 -0.08571694 0.10885122 -0.14735554
000150 12 3e c8 3d a2 a1 68 3d 0e c8 eb bd b3 bf 5b be
       0.09777464 0.05679477 -0.11512767 -0.21459846
000160 16 1d 9b be 37 15 2a 3e b3 c7 71 bd fc 2f 7f 3d
       -0.30295628 0.16609655 -0.05902834 0.06230162
000170 79 3a a7 3d 06 d6 68 bd 7b 65 87 be 3e 1f 30 be
       0.0816545 -0.056844734 -0.2644461 -0.17199418
000180 66 ec 2e 3b 8c 75 1b bd d2 73 95 3a 99 11 59 bd
       0.0026691197 -0.0379539 0.0011402315 -0.052995298
000190 7f 65 c1 be 13 dd b9 bd 9d ea d2 bd fd bd 17 be
       -0.37772748 -0.0907537 -0.10298655 -0.14818569
0001a0 5b 52 27 3e 93 ff 5a 3e c4 0a 8c bd ed 0e 3a be
       0.1634001 0.21386556 -0.06837991 -0.18169756
0001b0 79 41 6b 3e e9 60 10 3d c3 c3 ab 3e f8 b6 35 be
       0.22974195 0.03524867 0.33547792 -0.17745578
0001c0 56 9b 8d 3e 92 5d 47 3d ac b0 a6 be 47 bc dc bd
       0.27657574 0.04867322 -0.32556665 -0.107780986
0001d0 ca bb 8b be a1 26 b7 bd 88 11 e0 bd 04 b3 20 3d
       -0.2729171 -0.08942915 -0.10940844 0.039233223
0001e0 5b 33 1f be 08 3c fe bd 58 3c 59 3e 49 7a 72 3e
       -0.15546934 -0.12413794 0.21214426 0.2367946
0001f0 36 c5 a5 bd 13 d7 8a be 73 10 02 3b be 2f f7 bd
       -0.080942556 -0.27117214 0.001984623 -0.12069653
000200 c8 fd bc 3c 18 d4 5d be 08 6b e2 bd d1 af 71 3e
       0.023070231 -0.21662939 -0.11055571 0.23602225
000210 00 2d c5 3c 1b 25 14 be 10 3e 77 3c a3 32 1d 3d
       0.02406931 -0.1446728 0.01509048 0.03837837
000220 39 f6 2d 3e c2 93 4a 3e 88 99 7e be 92 8f c2 3e
       0.16988458 0.19782928 -0.24863255 0.3800016
000230 da 62 15 be fb dc dc be 06 96 a3 3e 86 1d 8a 3e
       -0.1458849 -0.43137345 0.31950396 0.2697565
000240 09 dd 43 bd b1 38 d2 bd c2 59 7a 3e 99 75 2a 3d
       -0.047818217 -0.10264719 0.24448302 0.041616056
000250 d6 0e 8d be 22 93 91 3e 88 27 5b 3e 86 38 ac 3e
       -0.2755038 0.28432566 0.21401799 0.33636874
000260 ef bb 70 3e 4c f0 47 3e ec ac b8 be 19 eb ce bd
       0.23509191 0.1952526 -0.3606943 -0.10103435
000270 01 79 8f be d4 cc 5e be c6 f5 61 be 10 52 82 3e
       -0.28022006 -0.21757823 -0.22066411 0.25453234
000280 ad c0 9f be 5d 38 77 3d 3a 77 45 3c 37 04 67 3e
       -0.31201687 0.060356487 0.012052352 0.22560202
000290 ec ca ad be 92 09 d6 bd 71 12 0b be c9 24 53 3e
       -0.3394388 -0.10451044 -0.13581254 0.20619501
0002a0 5c 22 a1 be 44 67 f4 3d f7 78 1a be 8c 8f 0f 3f
       -0.31471527 0.11933759 -0.15085207 0.5607841
0002b0 eb 15 b8 3e 0b 3f 09 bf 9f 4a 72 be 35 d3 6d 3c
       0.35954222 -0.5361182 -0.23661278 0.014515688
0002c0 19 ee bd 3e de 2b 33 3e 94 5c e0 bd c6 38 a5 3e
       0.37095717 0.17497203 -0.10955158 0.32269877
0002d0 61 2b f7 bc fa 40 f5 be 65 8d fc 3e 26 19 aa 3e
       -0.030172052 -0.47901136 0.49326625 0.33222312
0002e0 50 fd 56 3e 24 74 ca be 98 c4 2f 3e e6 3a 8c bd
       0.20995069 -0.39541733 0.17164838 -0.068471715
0002f0 30 42 af be fb aa 0b 3f 0b 50 54 bc 4c 68 f8 3e
       -0.34230185 0.5455777 -0.012958537 0.48517072
000300 e7 49 04 3e 56 aa 0d 3f 10 d2 8c be 8f 88 a8 be
       0.12918817 0.55338037 -0.27504015 -0.32916686
000310 bb e9 00 3e e3 31 e6 be 8b 98 1b bd d4 6f a4 3e
       0.12589161 -0.44959936 -0.037987273 0.32116568
000320 38 a0 4d be 0f 81 58 bc a9 89 07 be 29 22 4b 3e
       -0.2008065 -0.013214364 -0.13236107 0.1983725
000330 8d 00 0f 3e ed b8 1e be 13 c9 53 3e 37 04 2a 3e
       0.13965054 -0.15500231 0.20682172 0.1660317
000340 6b 84 78 bd b0 fc 9e 3c 0d d7 ff 3d 6f ed 03 3e
       -0.06067316 0.0194076 0.124921896 0.12883542
000350 7a 62 b2 bd 87 25 b7 bc de 21 0e 3e a5 41 d3 3c
       -0.08710189 -0.022356762 0.13880107 0.025788138
000360 9f d0 46 be 17 b5 1a be 2c 7d af bd 3f a1 de bd
       -0.1941552 -0.15108143 -0.085687965 -0.10870599
000370 06 21 1e be d2 34 18 3d 0e d4 12 3e a2 50 84 3e
       -0.15442285 0.03715975 0.14338705 0.25842768
000380 f6 17 07 3e e3 18 0b bd 34 a6 a1 3e 1e 37 c2 3e
       0.13192734 -0.03395928 0.31572115 0.37932676
000390 23 b5 7f 3e 9c 7e 68 be 8b e2 04 3f d3 c6 04 be
       0.24971442 -0.22704548 0.5190818 -0.1296647
0003a0 f3 b7 8e 3d 13 1f 2f bd f0 c2 99 3d 5b 57 55 be
       0.06968679 -0.042754244 0.075078845 -0.20834105
0003b0 55 6a 8c be 45 d5 10 be a3 48 b0 bd c3 b1 df bd
       -0.27424875 -0.14143856 -0.08607604 -0.10922577
0003c0 53 02 17 3d 6c 76 b3 bd ba 5e 28 3e 92 25 4a be
       0.03686745 -0.087628216 0.16442385 -0.19740894
0003d0 2b 4b 6d be ea 36 04 3d 38 ff 9b bd 6c f2 87 3e
       -0.23173206 0.032278933 -0.076170385 0.2655214
0003e0 22 f3 dc 3d 66 e9 aa bd 8d c3 16 be e4 75 d6 bd
       0.107885614 -0.083452985 -0.14723034 -0.104717046
0003f0 54 c9 54 3e cb e9 f7 bd 6c 3f 3d be 67 9b da 3d
       0.20779926 -0.12105139 -0.18481225 0.10674172

lstm1.weight_hh_l1 f4 [60, 20]
000000 78 df 40 bd 22 98 15 be c3 54 3b be 41 27 d5 3c
       -0.047088116 -0.14608815 -0.18294053 0.026019694
000010 31 f1 07 3e 21 f8 14 be cf 22 03 be f0 bc a1 bd
       0.13275601 -0.14547779 -0.12806247 -0.07897365
000020 95 5d 85 3e e6 c3 f0 bd 8a b6 a4 3d aa 27 2f bd
       0.2604796 -0.11756115 0.08042629 -0.042762436
000030 c8 b6 63 3e 3e 72 e6 bd ff f6 84 be 83 86 27 bd
       0.22237694 -0.11252259 -0.25969693 -0.040899765
000040 ef cf c8 3d 48 4a 44 3e 6c e7 84 bd 75 a4 4c 3e
       0.09805285 0.19168961 -0.06489453 0.1998461
000050 23 8b 95 3c 57 06 0c be a3 50 7d 3d 99 f6 1a 3e
       0.018254822 -0.13674293 0.06184448 0.15133132
000060 bc e3 1a 3e 45 ca 2a be 1f 1f da 3a cb 29 ef bd
       0.15125936 -0.16678722 0.0016641355 -0.11677893
000070 15 b5 28 3e 99 72 aa 3d 8c 63 63 3e 3a 0b 19 3d
       0.16475327 0.08322639 0.22205943 0.037364222
000080 f9 18 39 be 41 9b f6 3d 26 41 bd 3d d2 22 3a be
       -0.18075933 0.12041331 0.09240942 -0.18177345
000090 a5 0b 8e 3d 69 2d 40 3e aa 26 06 bd d5 c9 06 3e
       0.06935815 0.18767323 -0.032751717 0.1316293
0000a0 7d d7 4f 3e ec 74 ab 3d 1e 6c a8 bd 4a e4 a5 3e
       0.20297046 0.083719105 -0.08223747 0.32400733
0000b0 56 6b 07 3e c3 a1 80 3e b6 ad c0 3e f5 2c 3c bd
       0.13224539 0.25123414 0.3763253 -0.045941312
0000c0 8a 88 fb 3d 14 63 bb bd 90 57 f9 3b f6 99 f0 3e
       0.12281902 -0.09149757 0.007609315 0.46992463
0000d0 4d 95 c1 3d 66 d7 0e 3d d9 d7 bb be 2c 74 83 be
       0.09452305 0.03487339 -0.36688116 -0.2567457
0000e0 41 10 7b 3d 11 55 f2 3e 98 fe 64 be b5 98 da 3c
       0.061294798 0.47330526 -0.22362745 0.026684145
0000f0 cf 2b d2 3d 0b 04 05 3d d4 42 90 39 49 bd 41 bc
       0.10262262 0.03247456 0.0002751561 -0.011824914
000100 92 de 9d bc d3 06 55 bd 87 c8 08 be ac e2 a1 3d
       -0.019271169 -0.05200846 -0.13357745 0.07904562
000110 a5 cc 2b 3d 38 ae 52 be c6 cc 19 be 87 c8 a0 bd
       0.04194321 -0.20574272 -0.15019521 -0.078507476
000120 ca d5 ac 3e 09 9a 1e 3e 9f a1 76 3c 56 e5 70 bd
       0.33756858 0.15488447 0.015053182 -0.05881246
000130 29 66 01 be f9 95 25 bd 36 eb 5f be 8a 0b 17 be
       -0.12636627 -0.04042623 -0.2186707 -0.14750496
000140 d9 9c 33 3e bc 3b 78 bd e8 22 a6 be 4f e8 08 bd
       0.17540301 -0.060603842 -0.32448506 -0.03342467
000150 5b 34 40 be 3b 73 2e bd 13 e5 2f 3d f5 e2 ed 3d
       -0.18769972 -0.04259036 0.04294307 0.11615554
000160 60 4b b7 bd b1 7a 38 3d 89 8e 5f be 1e d1 7f 3b
       -0.089499235 0.045038883 -0.21831717 0.0039034556
000170 a8 f1 08 3f 61 4b 98 be 23 21 b6 be 74 71 6b be
       0.5349374 -0.2974501 -0.35572156 -0.22992498
000180 67 80 cb be 8d d3 09 be 5a b4 7c 3d e6 2b d2 be
       -0.397464 -0.13459606 0.061695434 -0.41049117
000190 6d a8 20 3e 9e c7 3a 3e d6 f9 9b be 67 e8 ab 3e
       0.1568925 0.1824021 -0.30464047 0.33575746
0001a0 ce 97 ae 3e 08 41 61 be 1d 08 6a 3e 90 84 1f bd
       0.34100193 -0.21997464 0.22854657 -0.03894478
0001b0 3a ba 29 be fc 04 91 3c 54 4f 4d 3e 5f 75 92 3d
       -0.16574946 0.017702572 0.20049793 0.07151293
0001c0 1e ad 9d bd d0 4c 37 3e 82 b2 8c 3c d3 12 c0 bd
       -0.07699035 0.17900395 0.017174963 -0.093785904
0001d0 90 cf aa 3e e8 96 20 3e 5a db 95 be db fd 45 3e
       0.33361483 0.15682566 -0.29268914 0.1933512
0001e0 55 23 2c 3e 93 bb 35 3e b1 04 a2 be 52 a3 ca 3e
       0.16810353 0.17747335 -0.31644204 0.3957773
0001f0 42 b4 6a 3e d8 39 83 3e 84 74 b5 3e 1d df 7a be
       0.22920325 0.2563007 0.35440457 -0.24499173
000200 fb b2 70 3e 22 01 84 be e0 a7 8e 3e e7 e0 ef 3e
       0.23505776 -0.25782114 0.27862453 0.46851274
000210 7d 26 99 be 14 0c 08 3e b0 7b 53 be e2 7d a5 be
       -0.29912177 0.13285857 -0.20652652 -0.32322603
000220 19 e2 9b be df bd 83 3e 2e a3 39 be 09 0a 49 3d
       -0.30445936 0.25730798 -0.18128654 0.049081836
000230 f0 13 99 3d bb a5 60 3e 13 65 ae 3c 05 ee 5f 3d
       0.07474506 0.21938221 0.02128843 0.054670352
000240 29 ff 43 3e 33 09 8d be 46 33 31 bd 74 a7 96 be
       0.19140305 -0.2754608 -0.04326179 -0.29424632
000250 30 9d ab 3d bf e4 0e bc 58 27 05 3e 73 94 c6 bb
       0.083795905 -0.0087215295 0.1300329 -0.006060177
000260 d0 83 b6 3c 86 47 2c 3e 8c 1a 1d 3e 0d ee 27 be
       0.02227965 0.16824159 0.15342158 -0.16399403
000270 86 8a a3 3e f4 53 09 3e bf 39 1c be a2 73 48 be
       0.31941622 0.13410932 -0.15256403 -0.1957536
000280 06 a4 a6 3d 62 3a 01 3d 88 28 0d be da 1d 0a 3e
       0.08136754 0.03154982 -0.13784993 0.1348795
000290 98 68 1b 3e 4d d5 42 3d 50 86 93 3d 7e 23 6f be
       0.15176618 0.0475667 0.072033525 -0.23353383
0002a0 dc bf 8b 3e 87 c0 16 be 1a 24 09 3e 6d 08 87 bc
       0.27294815 -0.14721881 0.13392678 -0.01648351
0002b0 6f 27 51 3d 83 23 6b 3d 0d 6c c7 be 31 a0 3a be
       0.051062997 0.057406913 -0.38949624 -0.1822517
0002c0 06 5a fd 3d f1 14 94 3b c5 5c 40 3e 34 a9 7a 3e
       0.12370686 0.004519098 0.18785389 0.24478608
0002d0 e7 37 0d 3e ae e1 6b 3e e3 0c b8 3d cc b2 e2 bc
       0.13790856 0.23035309 0.08986833 -0.027673148
0002e0 20 f6 b6 3d 6d c5 ef bd 61 16 7e 3e 82 0e 7f 3a
       0.08933663 -0.11707578 0.24813224 0.000972964
0002f0 dd d3 f3 3d 8e 83 86 be bb 92 c2 bd 7a cd 7b 3e
       0.11905644 -0.26272243 -0.09500643 0.24590102
000300 bf 04 42 be e5 b0 ba bd 23 76 44 bd 60 af 36 be
       -0.18947123 -0.09115771 -0.047964226 -0.17840338
000310 8c cc 00 3e b9 dc 52 3e cf 96 20 3e 14 22 1b 3e
       0.12578028 0.20592012 0.15682529 0.15149719
000320 d7 d7 cd bd 45 ce 55 be 90 50 7d 3d 00 46 1c bd
       -0.10050934 -0.20879467 0.06184441 -0.038152695
000330 cd cd 88 3e da 17 95 3d d7 76 e8 bd 8a cd 06 be
       0.26719514 0.0727994 -0.11350792 -0.13164344
000340 60 cf 07 be 84 d7 b8 3c 22 0d 61 bd 3b bf be bc
       -0.13262701 0.022563703 -0.054944165 -0.023284545
000350 ff 8f 84 3e e7 d6 2f be ee 08 0e bd b5 48 51 be
       0.2589111 -0.17171822 -0.034676485 -0.20437892
000360 a6 b1 63 be 86 26 a2 3d d6 fe 1f 3e 20 ae 01 be
       -0.22235736 0.07917504 0.15624556 -0.1266408
000370 08 fb a5 bd 7e e0 d0 bd 08 0a c0 bc 83 50 0b 3d
       -0.08104521 -0.101990685 -0.023442283 0.03401233
000380 d1 1a 5e 3e 95 04 7e 3e 08 d0 a8 3d 99 91 81 bd
       0.21689917 0.24806435 0.08242804 -0.06326599
000390 13 7c b1 3e 4a 83 87 3c 70 d5 a7 3e d7 b5 bb 3a
       0.34664974 0.016542096 0.32780027 0.001432116
0003a0 de aa 66 3a a2 96 b1 bd 25 17 28 be 84 db c7 3d
       0.0008799265 -0.08671309 -0.16415079 0.09758666
0003b0 d7 51 27 3e cf cd b4 bc de 35 66 be 52 d1 3e 3d
       0.16339813 -0.022070793 -0.22481486 0.046586342
0003c0 67 e2 a1 bd dc 65 0a be c0 ef 6f be 31 b0 73 be
       -0.07904511 -0.13515419 -0.23431301 -0.2379768
0003d0 29 8f 01 3b 95 4e cd bd ee 64 45 be 02 a5 0c 3e
       0.0019769168 -0.10024754 -0.19276783 0.1373482
0003e0 f2 66 4a 3e e3 ec 8d 3d 14 70 1b 3d d7 fb 35 3e
       0.19765833 0.06929948 0.037948683 0.1777185
0003f0 c4 5d 53 be 23 5d 51 3d 0f 40 21 be 1f 3b 3f 3e
       -0.20641237 0.051114213 -0.15747093 0.18674897

lstm1.bias_ih_l1 f4 [60]
000000 e7 9d d9 3c 30 18 ad 3d fc ec 01 be 65 9e 18 3e
       0.026564552 0.08451879 -0.12688059 0.14904173
000010 29 ae bc 3d db 4c 10 be 0c 70 72 be 7d 54 83 3d
       0.09212906 -0.14091818 -0.23675555 0.06412599
000020 01 98 5d be 01 0c 2a bd 96 0a 57 bd 76 c2 8f bd
       -0.21640016 -0.041515354 -0.05250033 -0.07019512
000030 b7 ab cd 3d d3 8b d4 3d 3f e9 ea 3d 05 d6 c9 bc
       0.10042518 0.10378232 0.114702694 -0.024638185
000040 28 c7 b9 bd 2f 5c 15 be e9 ac d8 3d 6d eb f8 bd
       -0.09071189 -0.14585947 0.10579855 -0.12154279
000050 4d ac 27 3d 8a 59 6b 3e d9 2b 4a 3e 82 35 b9 bc
       0.040935803 0.22983375 0.19743289 -0.022608522
000060 1e 0e 8a 3d c2 d5 05 bc 15 84 ad 3d 9c e5 a5 be
       0.06740974 -0.00816864 0.08472458 -0.3240174
000070 ac 9f 40 be 16 56 61 bd 30 ef ab bc f5 23 93 3e
       -0.1881091 -0.05501374 -0.020988077 0.2873837
000080 ba 19 f4 be 30 ba 2a be f6 e8 4d 3e bc be ab 3e
       -0.47675878 -0.16672587 0.20108399 0.33543956
000090 c8 e5 fd bd 4d af 32 3e 33 7a d1 3d 2e a9 1e bf
       -0.12397343 0.17449684 0.10228386 -0.619769
0000a0 45 1b 0d be e7 bd 71 bd d2 a9 8f 3d 1a d8 e9 bd
       -0.13779934 -0.059018996 0.070148125 -0.11418171
0000b0 0b 13 de bd 61 df 05 be 0f 71 6e bd ca 13 c6 3a
       -0.10843476 -0.13073494 -0.05821329 0.0015112099
0000c0 4e 66 3e bd c6 3d 6c bd 97 68 90 bd 68 24 2d be
       -0.046484284 -0.0576761 -0.07051199 -0.16908419
0000d0 d8 86 9a 3d 95 62 ac bd 35 68 c3 3d 69 e7 97 3d
       0.07545251 -0.084172405 0.0954136 0.07417185
0000e0 6b 12 28 bd c6 92 0f be fa 95 2b 3e 2d 27 18 be
       -0.04103319 -0.14020833 0.1675643 -0.14858694
