experiments/weights/2_BRNN.pth (torch, 165978 bytes, 105 tensors)

lstm1.weight_ih_l0 f4 [20, 58]
-1.9003735 -0.092676006 0.044474415 -0.06548956 0.0035806138 -0.14650153 -0.12122367 -0.24818975
-0.012611708 0.18869106 0.11086383 -0.10697502 0.1305083 0.08778989 0.07508388 0.05507219
-0.06762544 0.24709243 0.2778561 0.009015286 0.009893029 0.043300323 0.13027686 0.04103238
0.15308481 0.1991839 0.06729292 0.101647526 0.11896047 0.32633254 0.12166269 0.018128276
0.11281226 -0.03269823 0.12792465 0.13995464 0.17213115 0.07490517 0.032426544 0.08090151
0.027479934 0.07089093 -0.064243004 -0.076399006 -0.09234773 -0.036906574 -0.11324083 -0.03424325
-0.02091196 -0.015543232 0.08397437 -0.050215732 0.05755543 0.074245706 0.008671332 0.06806967
0.17761514 0.04589284 -1.151118 -0.029326472 -0.10326428 -0.046808515 0.05494426 -0.057886295
-0.1848015 0.0015094397 0.099672124 0.15868391 -0.04852336 0.09092328 -0.16213769 -0.22977048
-0.2077487 -0.12605275 0.109828465 -0.19890162 -0.19028589 0.06304798 0.10062145 -0.016845182
-0.041661896 -0.075050846 -0.26714724 -0.23873965 -0.07844486 0.012542867 -0.16105476 -0.15622808
-0.0590877 -0.14118595 0.08150527 -0.15432079 -0.2152587 -0.07216859 -0.052852437 -0.07454194
0.122310095 0.08026667 -0.0055759014 0.0063061244 -0.055268764 0.13685328 0.02687795 -0.09155002
0.10972879 0.08440301 0.12217652 -0.08146525 -0.107190266 0.051763956 -0.024410538 -0.1093459
-0.0762779 -0.031686682 -0.034397118 -0.07566811 1.2167451 -0.13111511 -0.047182873 -0.16454507
-0.16011402 -0.11183327 -0.0061028926 -0.10188557 -0.09246149 -0.20163427 -0.0077770646 -0.17787945
0.0546869 -0.015613989 -0.21410835 0.12333312 -0.044026367 -0.021945322 -0.13509268 -0.009317304
0.010045605 -0.050364487 -0.07174345 0.049035586 -0.14023857 -0.0782082 -0.21742661 0.0922546
0.080100246 -0.120605744 0.09262346 -0.09974309 0.00976717 -0.22132535 0.1216272 0.120507315
0.19832821 0.0058836937 -0.22194329 0.073414005 -0.2036314 -0.043045633 -0.20637503 -0.07094567
-0.051262032 -0.0021484578 -0.1764801 -0.05762844 0.13816701 -0.15521385 0.015494594 -0.07926074
-0.04387536 0.13390099 -0.025948199 -0.09567048 0.17458501 -0.10752777 -1.2122066 -0.09948293
0.0039206785 -0.07343876 -0.030805156 -0.045309898 0.029226536 0.046520133 -0.03738593 -0.119726
0.13007809 -0.07811028 0.12698072 -0.052109018 0.09524611 0.03916025 0.0050576706 0.08118782
-0.06533444 -0.11768555 0.1361849 0.00707148 0.050082833 0.13955201 0.09454567 0.17001802
0.0032409194 0.15762636 0.30728346 0.07407508 -0.027998405 0.06318042 -0.07616471 0.07360274
-0.010495113 0.057518974 0.16527462 0.17914353 0.14209443 -0.04606727 0.071432546 -0.07478097
-0.056837197 0.0031324788 0.21189836 -0.03138009 -0.016017891 -0.072705075 0.06523425 0.056838736
0.072781295 0.13235787 0.034448877 0.07214408 0.20930666 0.20885406 0.0493752 0.15302977
-0.38664988 0.18068367 -0.08102022 0.13926844 0.046314847 0.14640701 -0.110722296 -0.017901536
-0.1379298 0.010249767 0.13365039 0.058960207 -0.11864617 0.050825663 -0.086676836 0.1256941
0.20571667 0.09560162 0.3252945 -0.0032645874 -0.048143327 0.043955687 -0.07864228 0.037528932
00000000: 703f f3bf ebcc bdbd ce2a 363d 641f 86bd
00000010: bba8 6a3b 7f04 16be 1e44 f8bd 7425 7ebe
00000020: 56a1 4ebc 3b38 413e 930c e33d b815 dbbd
00000030: f8a3 053e 30cb b33d 94c5 993d 6093 613d
00000040: 357f 8abd cc05 7d3e 2843 8e3e dab4 133c
00000050: 5f16 223c ae5b 313d 4c67 053e 9211 283d
00000060: 44c2 1c3e ddf6 4b3e dfd0 893d 942c d03d
00000070: 8ca1 f33d 0f15 a73e 4a2a f93d c081 943c
00000080: 1d0a e73d 94ee 05bd aefe 023e 4550 0f3e
00000090: 2643 303e e267 993d b2d1 043d b1af a53d
000000a0: 991d e13c 442f 913d d691 83bd 1577 9cbd
000000b0: cf20 bdbd 592b 17bd cfea e7bd a642 0cbd
000000c0: 8f4f abbc 0aa9 7ebc c1fa ab3d 03af 4dbd
000000d0: 3ebf 6b3d 220e 983d 3412 0e3c 1c68 8b3d
000000e0: bee0 353e 21fa 3b3d d657 93bf 123e f0bc
000000f0: 397c d3bd 49ba 3fbd 3b0d 613d 2e1a 6dbd
00000100: 9b3c 3dbe 64d8 c53a e620 cc3d 097e 223e
00000110: 6ec0 46bd fc35 ba3d 6c07 26be f448 6bbe
00000120: 13bc 54be f913 01be bfed e03d deac 4bbe
00000130: 4eda 42be 4d1f 813d 9e12 ce3d e8fe 89bc
00000140: aaa5 2abd 42b4 99bd 86c7 88be 2b78 74be
00000150: b3a7 a0bd 9980 4d3c 8aeb 24be 41fa 1fbe
00000160: f205 72bd 0d93 10be 3cec a63d 4506 1ebe
00000170: c76c 5cbe 20cd 93bd cc7b 58bd 72a9 98bd
00000180: b77d fa3d da62 a43d 0db6 b6bb 9ba3 ce3b
00000190: 8061 62bd 4423 0c3e 262f dc3c 947e bbbd
000001a0: 7db9 e03d 7cdb ac3d af37 fa3d 41d7 a6bd
000001b0: 9286 dbbd 7106 543d 9cf8 c7bc bef0 dfbd
000001c0: 9637 9cbd e5c9 01bd fee3 0cbd e2f7 9abd
000001d0: 4ebe 9b3f 0a43 06be d442 41bd 817e 28be
000001e0: eef4 23be d708 e5bd c6fa c7bb 62a9 d0bd
000001f0: 735c bdbd 3779 4ebe bfd6 febb 0826 36be
00000200: 5fff 5f3d d1d1 7fbc 383f 5bbe 1396 fc3d
00000210: fe54 34bd adc6 b3bc bc55 0abe 9ba7 18bc
00000220: 5296 243c fe4a 4ebd 3bee 92bd 8ad9 483d
00000230: b39a 0fbe 9f2b a0bd 15a5 5ebe fbef bc3d
00000240: 990b a43d 2500 f7bd 5eb1 bd3d 1b46 ccbd
00000250: 7b06 203c 1da3 62be ae17 f93d 8acc f63d
00000260: 8d16 4b3e 00cc c03b 1a45 63be 155a 963d
00000270: c084 50be 9e50 30bd fa53 53be f74b 91bd
00000280: 23f8 51bd 24cd 0cbb 33b7 34be cd0b 6cbd
00000290: a77b 0d3e 61f0 1ebe 0add 7d3c 7453 a2bd
000002a0: a6b6 33bd 571d 093e 5191 d4bc e2ee c3bd
000002b0: 6ac6 323e 8537 dcbd 9629 9bbf b5bd cbbd
000002c0: 0979 803b 1067 96bd 185b fcbc df96 39bd
000002d0: 7d6c ef3c e58b 3e3d fd21 19bd e832 f5bd
000002e0: 3133 053e 48f8 9fbd 3c07 023e 4470 55bd
000002f0: 6410 c33d 8066 203d d1ba a53b cd45 a63d
00000300: 10ce 85bd 1f05 f1bd 0e74 0b3e e0b7 e73b
00000310: a823 4d3d b9e6 0e3e 29a1 c13d 3419 2e3e
00000320: 9b65 543b ce68 213e 4254 9d3e adb4 973d
00000330: e95c e5bc bc64 813d 3efc 9bbd 09bd 963d
00000340: b2f3 2bbc 0499 6b3d c03d 293e 6771 373e
00000350: 3481 113e 09b1 3cbd 3a4b 923d c426 99bd
00000360: 1fce 68bd 464a 4d3b e2fb 583e 6988 00bd
00000370: f437 83bc 66e6 94bd 8999 853d bccf 683d
00000380: 5c0e 953d d288 073e 441a 0d3d 47c0 933d
00000390: 7c54 563e d7dd 553e a63d 4a3d d6b3 1c3e
000003a0: f9f6 c5be 2405 393e eeed a5bd 639c 0e3e
000003b0: a3b4 3d3d b8eb 153e 5fc2 e2bd 3ea6 92bc
000003c0: 783d 0dbe a4ee 273c a6db 083e 4280 713d
000003d0: c3fc f2bd 922e 503d a083 b1bd f4b5 003e
000003e0: 64a7 523e c8ca c33d 008d a63e b0f2 55bb
000003f0: f031 45bd e10a 343d 340f a1bd f0b7 193d

lstm1.weight_hh_l0 f4 [20, 20]
-0.32752144 -0.01968122 0.39107323 -0.24148795 0.12993692 -0.24738128 -0.030901588 -0.22897388
-0.072975084 -0.0053306925 0.097546384 -0.02817045 -0.06279445 0.18150917 0.1330359 -0.03960895
-0.0149707 0.11529626 -0.015681526 -0.05955944 0.25025442 -0.2586078 0.19581795 -0.028227499
0.11613173 0.09061713 -0.08037559 -0.15307134 -0.073777966 -0.14458588 -0.132319 -0.21570975
0.17049618 0.07975535 -0.12338949 0.0687935 0.18336238 -0.029470759 0.07510205 0.07678939
0.025817715 -0.1194148 0.08581651 0.2079989 0.2850695 -0.101951584 -6.7971145e-05 0.06385009
-0.008732413 -0.097877525 0.04791548 0.28072196 0.019633222 0.025753865 -0.07457704 -0.16577329
-0.052892398 -0.20121759 0.113246545 0.41971377 0.000738805 -0.029890921 -0.17710076 -0.088391155
0.122342594 0.0074520954 -0.18069541 0.24989496 0.13348892 0.00075639057 0.010120781 0.25914574
-0.1595454 -0.0886475 0.05250401 0.035945356 0.034404866 -0.12532379 -0.08975902 0.10878917
-0.41390726 -0.15723684 0.06753095 -0.24377078 -0.2714392 0.056306653 -0.0833481 -0.18900539
0.0644988 -0.054820687 -0.26509222 0.12024941 -0.13053069 0.17849317 0.11030109 0.11805569
0.01698292 -0.11138415 0.06852493 -0.20772476 0.16978365 0.09499547 -0.026642285 0.1802807
0.034262944 -0.0017178025 0.19539589 0.0771713 -0.12740827 0.2500813 0.15243518 0.19836856
0.083670534 -0.17733061 -0.23164849 0.15002736 0.19872737 0.13153663 0.25856856 0.09402937
0.45687732 -0.17194219 0.06641521 0.20820576 0.03048936 -0.16372837 -0.18758826 0.18989365
0.11784041 0.057731204 -0.111095704 -0.011164275 -0.2163536 0.041293025 -0.08055193 -0.12945297
-0.19453526 -0.1382739 0.14870237 0.09375233 0.13186127 0.20651622 0.02945348 0.10287964
-0.13638043 0.1625156 0.25668618 0.15012391 0.041049663 0.013482028 -0.24687943 0.09434245
-0.038462065 -0.09457365 -0.37581798 -0.10618791 -0.116101466 -0.049587905 0.042280797 0.16413625
-0.20188105 0.02034666 0.12370161 -0.06551656 0.013460143 -0.036928028 -0.168898 0.101711825
-0.19805378 -0.07472532 -0.068778574 -0.15171215 -0.013072074 0.14515904 0.06739201 0.2879971
-0.016794015 0.000274671 -0.04191676 -0.05416416 0.22118947 0.10008609 0.11553244 0.18925783
-0.03695467 0.002601791 -0.15935203 0.07324316 0.07089496 -0.071733564 0.30652016 0.044277396
-0.12409291 0.01242078 -0.0757187 -0.05908829 0.058203258 -0.05026395 0.09090757 0.047563076
-0.00691312 0.0067169312 0.13874084 0.001560704 0.23306938 -0.087479256 0.2020357 0.117499724
0.079880655 -0.17699914 -0.09633732 -0.18487918 -0.094886385 0.00515497 0.23189925 -0.1302043
0.013198263 -0.04069534 -0.051239513 -0.034441724 0.020554293 -0.09360663 -0.22074632 0.07569211
-0.15686457 0.011424902 0.119651124 0.080313645 0.07527514 0.0619879 -0.00022225008 0.031868894
0.055460583 -0.07991889 -0.1422946 -0.09240255 -0.14831722 0.12919784 -0.070397854 0.07373173
0.20406352 -0.15085179 0.06277671 0.113887034 0.09599438 -0.02083133 0.05940301 -0.16726787
0.014466097 0.15444136 -0.054857336 0.029823925 -0.29479668 0.17913139 0.2011736 -0.019267073
00000000: e4b0 a7be 833a a1bc c03a c83e 9e48 77be
00000010: 2f0e 053e 8551 7dbe 5425 fdbc 2178 6abe
00000020: f673 95bd 17ad aebb 66c6 c73d b7c5 e6bc
00000030: 609a 80bd 8add 393e 903a 083e ff3c 22bd
00000040: ab47 75bc 7220 ec3d 8b76 80bc 99f4 73bd
00000050: 5921 803e 3e68 84be 8084 483e 5b3d e7bc
00000060: 79d6 ed3d 7995 b93d f59b a4bd bcbe 1cbe
00000070: e718 97bd 520e 14be a27e 07be 04e3 5cbe
00000080: 8d96 2e3e c656 a33d a1b3 fcbd 9be3 8c3d
00000090: 59c3 3b3e a96c f1bc 1bcf 993d c143 9d3d
000000a0: ac7f d33c bf8f f4bd 91c0 af3d aafd 543e
000000b0: a1f4 913e fecb d0bd bb8b 8eb8 d6c3 823d
000000c0: 6512 0fbc 0374 c8bd 0643 443d caba 8f3e
000000d0: dad5 a03c c5f9 d23c d9bb 98bd 79c0 29be
000000e0: b3a5 58bd fc0b 4ebe ceed e73d b9e4 d63e
000000f0: 5dac 413a cedd f4bc e759 35be 6c06 b5bd
00000100: c18e fa3d b530 f43b 3808 39be 77e4 7f3e
00000110: 52b1 083e 8348 463a a2d1 253c c0ae 843e
00000120: df5f 23be d28c b5bd 720e 573d 703b 133d
00000130: 1eec 0c3d e154 00be 94d3 b7bd dbcc de3d
00000140: a7eb d3be b202 21be ab4d 8a3d 0c9f 79be
00000150: 14fa 8abe cea1 663d 69b2 aabd a18a 41be
00000160: f217 843d a88b 60bd 2bba 87be 5345 f63d
00000170: d6a9 05be eac6 363e 8ae5 e13d 2ec7 f13d
00000180: c41f 8b3c 601d e4bd cc56 8c3d cdb5 54be
00000190: c4db 2d3e fc8c c23d ec40 dabc 819b 383e
000001a0: 4d57 0c3d e327 e1ba dc15 483e fd0b 9e3d
000001b0: 5077 02be a80a 803e f817 1c3e 2121 4b3e
000001c0: 755b ab3d 2896 35be 4335 6dbe c6a0 193e
000001d0: 307f 4b3e 8ab1 063e 1963 843e 7892 c03d
000001e0: d3eb e93e 9d11 30be b304 883d e433 553e
000001f0: d3c4 f93c 69a8 27be 2317 40be 7b73 423e
00000200: 5056 f13d 8e77 6c3d 2586 e3bd 5dea 36bc
00000210: cc8b 5dbe e022 293d 69f8 a4bd 528f 04be
00000220: 4034 47be ac97 0dbe 6f45 183e 3901 c03d
00000230: a406 073e fd78 533e 6d48 f13c 90b2 d23d
00000240: 50a7 0bbe 7d6a 263e 5f6c 833e 15ba 193e
00000250: b123 283d b9e3 5c3c f6cd 7cbe 9d36 c13d
00000260: 668a 1dbd d4af c1bd 376b c0be 0c79 d9bd
00000270: 9bc6 edbd b01c 4bbd a12e 2d3d 5513 283e
00000280: e8b9 4ebe 0aae a63c 4557 fd3d 8c2d 86bd
00000290: ee87 5c3c d841 17bd 99f3 2cbe 4a4e d03d
000002a0: 9cce 4abe 9709 99bd c8db 8cbd 6e5a 1bbe
000002b0: 412c 56bc 92a4 143e d204 8a3d 5b74 933e
000002c0: 9a93 89bc b801 9039 e9b0 2bbd 3ddb 5dbd
000002d0: 7e7f 623e f0f9 cc3d 469c ec3d cecc 413e
000002e0: c85d 17bd cf82 2a3b 2e2d 23be 8300 963d
000002f0: 6031 913d 0ce9 92bd 36f0 9c3e 375c 353d
00000300: 6c24 febd 8780 4b3c 6812 9bbd 9006 72bd
00000310: 8a66 6e3d 92e1 4dbd c02d ba3d 80d1 423d
00000320: 7487 e2bb b419 dc3b 1412 0e3e 8990 cc3a
00000330: bda9 6e3e 5328 b3bd 72e2 4e3e b2a3 f03d
00000340: 7898 a33d 433f 35be 804c c5bd f850 3dbe
00000350: cb53 c2bd 06eb a83b ff76 6d3e 4754 05be
00000360: 873d 583c 28b0 26bd 86e0 51bd c412 0dbd
00000370: 7a61 a83c d5b4 bfbd 530b 62be 7704 9b3d
00000380: 1ba1 20be 832f 3b3c a60b f53d 7b7b a43d
00000390: da29 9a3d 06e7 7d3d cd0b 69b9 f588 023d
000003a0: a32a 633d 84ac a3bd adb5 11be 8c3d bdbd
000003b0: 78e0 17be 704c 043e c02c 90bd a900 973d
000003c0: 07f6 503e e478 1abe 1391 803d 9b3d e93d
000003d0: b498 c43d 77a6 aabc 9250 733d 4548 2bbe
000003e0: 3503 6d3c e025 1e3e 16b2 60bd 4e51 f43c
000003f0: 97ef 96be 386e 373e 7400 4e3e fbd5 9dbc

lstm1.bias_ih_l0 f4 [20]
0.012290538 0.019003272 0.009874739 0.0024755911 0.08157497 0.13241386 0.09241657 0.27081108
-0.09450085 0.1257198 0.22503027 -0.10158319 0.2589558 0.018053709 0.07631518 -0.110427976
0.07639283 0.06808723 -0.1521548 0.048790485
00000000: 415e 493c c0ac 9b3c a8c9 213c 873d 223b
00000010: c710 a73d 8097 073e e644 bd3d c0a7 8a3e
00000020: a989 c1bd b1bc 003e 566e 663e d90a d0bd
00000030: db95 843e 5fe5 933c 224b 9c3d 1028 e2bd
00000040: d873 9c3d 5171 8b3d 78ce 1bbe 88d8 473d

lstm1.bias_hh_l0 f4 [20]
0.11449711 0.17590009 0.074475795 0.13452238 -0.08508233 -0.11513642 0.021892888 -0.024933547
0.074853525 -0.009283637 -0.02072863 0.08866889 -0.05279153 -0.081810355 0.038493916 0.01706942
-0.11240965 -0.044871725 0.017863782 -0.005903383
00000000: 767d ea3d 271f 343e c486 983d 3cc0 093e
00000010: a53f aebd a5cc ebbd b758 b33c 7041 ccbc
00000020: ce4c 993d 651a 18bc 16cf a9bc 0998 b53d
00000030: ee3b 58bd 308c a7bd ccab 1d3d 2bd5 8b3c
00000040: 0837 e6bd 6acb 37bd 1157 923c 2a71 c1bb

lstm1.weight_ih_l0_reverse f4 [20, 58]
-0.7460879 -0.057512652 0.06672216 0.030236537 0.094974875 -0.047986683 0.097042665 0.07058231
0.15859628 0.21344142 -0.18803528 -0.096948974 -0.020421276 -0.0885557 -0.042284247 0.11184701
0.19815081 0.22246577 -0.13257279 0.021308655 0.058063567 0.09813494 0.11046716 0.091929935
-0.07375527 0.25819573 -0.27586862 0.15582187 0.018553277 0.1303456 -0.11664309 0.14410558
0.04984186 0.008745228 0.075656325 -0.048794042 -0.04994916 -0.120873734 -0.060272973 0.10333582
0.17699069 0.160158 -0.10554882 0.15505955 0.028686943 0.00518363 0.070620686 0.09538959
0.1876012 0.041495897 0.037766743 -0.06364696 -0.005639046 0.17071715 0.104852386 0.08065458
0.22367786 0.035252634 1.2760669 -0.13744318 0.049438626 -0.22074942 0.090366594 -0.18731107
-0.18906312 0.062951446 0.11194202 -0.015688872 -0.047086608 -0.081376195 -0.20560083 -0.0741847
0.093057066 -0.17518435 -0.0005368323 -0.06061948 -0.012278849 -0.078163095 -0.21278052 0.10618717
-0.00756667 -0.12897114 -0.29396063 -0.05013878 -0.3159638 -0.3173191 -0.029417463 -0.04677896
-0.18451893 -0.0053577824 -0.09706916 -0.21255858 0.031039776 -0.06323991 -0.30597004 -0.059239436
-0.16753334 -0.14374359 0.03259729 -0.19535208 -0.13208278 -0.0067970958 -0.040006053 -0.0012737722
-0.029355071 0.07537011 0.0726611 -0.014224646 -0.11964362 -0.16553167 -0.073965244 -0.14014488
-0.032845836 -0.05109868 0.02889431 -0.15575585 -0.16792093 -0.12633544 0.038676485 -0.011986766
-0.17897968 0.052510742 0.14194266 -0.043531194 -0.06411276 -0.050108843 0.046663325 -0.046337586
-0.15302217 0.042074244 0.18802027 0.2305726 0.15338378 -0.020321198 -0.063446276 -0.07546923
-0.06371147 0.09039692 0.08071253 0.26790568 -0.0035655713 0.13203387 0.090872616 -0.008676698
-0.011685915 0.084384784 -0.06004657 0.123171225 -0.034278136 -0.058452744 -0.14981136 -0.018966062
0.048660703 0.05150969 -0.044260234 0.06431556 0.18894272 0.17686255 0.0909834 0.14100453
-0.08715462 0.014681601 0.021709146 0.035649166 -0.009853206 0.012601093 0.047494695 0.050335616
-0.042083282 0.16604726 0.035474196 0.082362086 0.031162098 -0.017320363 -0.24680871 -0.14292769
-0.14010687 -0.16765837 -0.14119029 -0.17934425 0.18429974 0.09611105 0.066948615 -0.14219931
-0.11819401 -0.06458363 0.15022404 -0.05010205 -0.05188682 0.007351242 0.038821522 0.021952506
0.11415159 -0.20233458 -0.09904685 -0.008589001 0.054693755 0.09814069 0.1214471 0.084173806
0.008117343 0.09654084 -0.0617379 -0.05181212 -0.021614607 -0.12621044 0.11665291 -0.025425846
0.0019993733 0.034230653 0.022304533 0.036650073 0.009229743 -0.17987859 0.13451432 -0.03826654
-0.057156615 0.065106675 0.054933555 0.0027452828 0.027223758 -0.011016344 -0.049034886 -0.19371098
0.047810677 -0.15669613 -0.12887675 -0.019431356 -0.15921324 0.015067527 0.06939558 0.17823432
-1.0797782 0.16203816 0.008099477 -0.07335562 0.17520282 -0.02100726 0.03836735 0.14235447
0.0296955 -0.13888574 0.1604265 0.037758652 0.016161008 0.14778407 0.21042362 -0.09338788
0.14041431 -0.0019828584 -0.07900673 0.040319957 0.08335048 0.0035029876 -0.12602001 0.07210145
00000000: 9eff 3ebf 6392 6bbd a1a5 883d 9db2 f73c
00000010: 3082 c23d af8d 44bd 4ebe c63d 758d 903d
00000020: 1067 223e 6390 5a3e 528c 40be 2f8d c6bd
00000030: 854a a7bc b15c b5bd 3f32 2dbd 0c10 e53d
00000040: 0ce8 4a3e 11ce 633e 29c1 07be 7d8f ae3c
00000050: 10d4 6d3d f9fa c83d 9b3c e23d c345 bc3d
00000060: 010d 97bd 3b32 843e a73e 8dbe c58f 1f3e
00000070: 0bfd 973c 5179 053e 93e2 eebd 6a90 133e
00000080: fa26 4c3d 2548 0f3c b4f1 9a3d 43dc 47bd
00000090: 7e97 4cbd a68c f7bd cbe0 76bd bba1 d33d
000000a0: 0c3d 353e 7500 243e fb29 d8bd eec7 1e3e
000000b0: e100 eb3c 71db a93b 94a1 903d 9e5b c33d
000000c0: 871a 403e 9af7 293d 4db1 1a3d 5659 82bd
000000d0: bfc7 b8bb 7ad0 2e3e d9bc d63d 3a2e a53d
000000e0: cf0b 653e 1165 103d 2956 a33f e8bd 0cbe
000000f0: 2880 4a3d 230c 62be 1f12 b93d 79ce 3fbe
00000100: c399 41be b0ec 803d dc41 e53d f385 80bc
00000110: e3dd 40bd 90a8 a6bd 0689 52be 26ee 97bd
00000120: b494 be3d 8763 33be 35ba 0cba 224c 78bd
00000130: 3a2d 49bc f913 a0bd 23e3 59be a978 d93d
00000140: d4f1 f7bb 0311 04be 0282 96be 525e 4dbd
00000150: 02c6 a1be a677 a2be e4fc f0bc 4b9b 3fbd
00000160: 88f2 3cbe 5690 afbb 32cc c6bd f5a8 59be
00000170: 2147 fe3c ed83 81bd 1ba8 9cbe 0da5 72bd
00000180: dc8d 2bbe 8531 13be bc84 053d 600a 48be
00000190: b540 07be 2cba debb 63dd 23bd b4f4 a6ba
000001a0: 0c7a f0bc a55b 9a3d 58cf 943d 7d0e 69bc
000001b0: b707 f5bd 2281 29be 177b 97bd 2482 0fbe
000001c0: 5b89 06bd d94c 51bd c3b3 ec3c 767e 1fbe
000001d0: 77f3 2bbe 145e 01be 3c6b 1e3d 2464 44bc
000001e0: 7346 37be 8115 573d 6b59 113e c44d 32bd
000001f0: 8d4d 83bd ee3e 4dbd 0b22 3f3d 7bcc 3dbd
00000200: d8b1 1cbe 0b56 2c3d 6388 403e 391b 6c3e
00000210: a310 1d3e a478 a6bc 1ff0 81bd 9d8f 9abd
00000220: 297b 82bd 0522 b93d 9c4c a53d ef2a 893e
00000230: 5cac 69bb e333 073e 6c1b ba3d b628 0ebc
00000240: 4876 3fbc eed1 ac3d 64f3 75bd 3241 fc3d
00000250: 3b67 0cbd 256c 6fbd 2668 19be b75e 9bbc
00000260: 7250 473d d3fb 523d 384a 35bd e0b7 833d
00000270: 337a 413e 751b 353e 8155 ba3d 7e63 103e
00000280: 1f7e b2bd 198b 703c 61d7 b13c dc04 123d
00000290: 576f 21bc d174 4e3c cc89 423d b82c 4e3d
000002a0: 855f 2cbd 4b08 2a3e 644d 113d 74ad a83d
000002b0: a847 ff3c 6fe3 8dbc 6cbb 7cbe a35b 12be
000002c0: 2d78 0fbe a3ae 2bbe 3094 10be 05a6 37be
000002d0: 12b9 3c3e dfd5 c43d 5b1c 893d b29c 11be
000002e0: b30f f2bd 6c44 84bd 55d4 193e cf37 4dbd
000002f0: 4687 54bd b0e2 f03b 5103 1f3d bed5 b33c
00000300: 4fc8 e93d cc30 4fbe 13d9 cabd e2b8 0cbc
00000310: 8f06 603d fcfd c83d 42b9 f83d 5163 ac3d
00000320: 9bfe 043c 34b7 c53d e1e0 7cbd f238 54bd
00000330: 1e11 b1bc 4f3d 01be b9e7 ee3d dd49 d0bc
00000340: eb07 033b 7135 0c3d ffb7 b63c 631e 163d
00000350: 5938 173c 1832 38be 1fbe 093e 60bd 1cbd
00000360: 0e1d 6abd a656 853d 0202 613d 34ea 333b
00000370: 5c04 df3c e57d 34bc ced8 48bd 2c5c 46be
00000380: 21d5 433d f374 20be 44f8 03be 822e 9fbc
00000390: cc08 23be cadd 763c 451f 8e3d 0f83 363e
000003a0: 2c36 8abf 55ed 253e abb3 043c 793b 96bd
000003b0: 5e68 333e 6b17 acbc 1527 1d3d 5fc5 113e
000003c0: fa43 f33c 1038 0ebe d846 243e d1a8 1a3d
000003d0: 1764 843c b554 173e 4a79 573e 2542 bfbd
000003e0: c5c8 0f3e d8f2 01bb 48ce a1bd 8a26 253d
000003f0: a8b3 aa3d 6192 653b 640b 01be eda9 933d

lstm1.weight_hh_l0_reverse f4 [20, 20]
0.11445026 -0.32091329 -0.084031224 -0.16378553 0.06889753 0.30947432 -0.23797855 -0.15262765
-0.043913182 0.04585124 0.022837954 0.07393895 -0.20342472 -0.09097835 0.13802111 0.16739473
-0.023084657 -0.19768998 -0.070353575 0.014406155 -0.23299687 0.035510052 0.017173668 0.05239841
0.0886134 0.0871165 -0.013344179 0.29637754 -0.049767856 0.10339308 -0.17081574 -0.07221862
0.097470365 -0.33474103 -0.015500717 -0.064704455 0.16652866 -0.065880865 -0.18010277 -0.15936396
0.048645295 0.16955696 -0.2698602 0.14954503 -0.0026980683 0.065474816 0.12495286 -0.11959872
0.07934796 0.11527856 0.06541022 0.09812314 0.1874472 0.15656282 -0.13030665 0.03850623
0.13538855 -0.029126296 -0.06822805 0.17019497 0.16819327 0.032368787 -0.10497481 0.048929524
-0.098890744 0.22203086 -0.028781934 -0.0625159 -0.048321724 -0.10883944 0.11969311 -0.09321749
0.038422704 -0.07318038 0.13354409 -0.22633834 -0.0704182 0.15767747 -0.1371105 -0.1512425
-0.07735956 -0.1761677 0.035317186 0.055465017 -0.19425812 0.051536966 -0.099128194 -0.188333
0.1549297 -0.10795909 0.014696528 -0.15160896 -0.028064074 0.11155262 -0.02284589 0.08613067
-0.028844064 0.084234394 -0.12621628 0.028458748 -0.041878454 0.10743731 -0.20558605 0.110189356
0.06333622 -0.28030622 -0.19830042 0.064215355 0.014416742 0.08566901 -0.07251527 0.21491092
0.010795412 -0.13659535 0.05839393 -0.2523263 0.16476175 0.2660232 0.027058449 0.09958775
-0.0126162665 0.014346045 -0.0074777547 -0.024722852 0.081172414 0.03325631 -0.09539038 0.028382635
0.12782174 -0.15950678 0.28376052 -0.23603673 0.077461794 0.18377766 -0.0009723665 0.053770952
-0.07974689 0.16898532 0.15084133 -0.0472553 -0.0118671 -0.18593305 0.06527544 0.11320141
0.002392608 0.15657945 -0.020715596 -0.14261982 0.011858505 0.11587244 -0.051208317 0.12871578
-0.070342936 -0.02900385 -0.06066994 -0.0104492875 -0.13083377 0.23208417 0.19980477 0.14442044
0.14590223 0.06012188 -0.07323623 0.0957908 -0.11324784 -0.09327159 0.06168204 0.008135318
-0.28236383 0.084470086 -0.0981451 -0.24333225 0.18147609 0.054193202 0.059922513 0.038659107
0.1367978 0.014826789 0.054905787 0.04889612 -0.10720374 -0.107450984 -0.1337193 0.10412032
0.27710927 0.0744292 -0.055152476 0.0064147343 -0.10085221 -0.21044149 -0.05630758 0.10541255
0.13774942 -0.032414064 0.055711776 -0.16712403 0.1293181 -0.0894207 -0.09948121 0.0414413
-0.10841168 0.037469167 0.13137764 -0.06448475 0.07439072 0.0318143 -0.09433948 -0.11359048
0.026870018 0.20509599 -0.27186772 -0.07645304 0.13009325 -0.08728384 -0.008884666 -0.07420853
0.056300804 -0.047499266 -0.10002152 -0.12272701 0.019058192 -0.22768554 -0.15241393 -0.14705722
0.2592315 -0.08565433 0.26513562 0.019213395 0.019619973 0.032293934 0.12738644 0.06982524
-0.025930705 0.0049114097 -0.07837955 -0.07439508 0.049879294 -0.093897395 0.08719311 0.114696905
0.10450936 0.089560755 -0.06147303 0.085969776 0.14806843 0.042349137 -0.11094926 0.29491544
-0.15496373 0.12915623 -0.04043496 0.00620174 -0.1334386 -0.105791084 -0.15450047 0.10136121
00000000: e664 ea3d bf4e a4be 9018 acbd 65b7 27be
00000010: 261a 8d3d 6b73 9e3e a6b0 73be 6c4a 1cbe
00000020: 4fde 33bd 83ce 3b3d a916 bb3c 4e6d 973d
00000030: 924e 50be db52 babd 6855 0d3e 8669 2b3e
00000040: 091c bdbc 3e6f 4abe 8915 90bd cb07 6c3c
00000050: bb96 6ebe fd72 113d cbaf 8c3c b79f 563d
00000060: f17a b53d 236a b23d 8ba1 5abc ccbe 973e
00000070: 61d9 4bbd c0bf d33d 52ea 2ebe 5be7 93bd
00000080: 8b9e c73d 2d63 abbe b8f6 7dbc c583 84bd
00000090: 7d86 2a3e 8cec 86bd dc6c 38be 4e30 23be
000000a0: 4a40 473d 57a0 2d3e 1e2b 8abe 5522 193e
000000b0: 13d2 30bb a917 863d 49e7 ff3d 2cf0 f4bd
000000c0: 2f81 a23d 2a17 ec3d cbf5 853d c9f4 c83d
000000d0: 29f2 3f3e 0152 203e 1b6f 05be b5b8 1d3d
000000e0: 4ca3 0a3e 459a eebc 26bb 8bbd 9747 2e3e
000000f0: db3a 2c3e 2295 043d 08fd d6bd 536a 483d
00000100: 3b87 cabd 0f5c 633e 17c8 ebbc 5608 80bd
00000110: 00ed 45bd 36e7 debd a921 f53d d0e8 bebd
00000120: 2061 1d3d 98df 95bd c8bf 083e 3dc5 67be
00000130: 6b37 90bd 3476 213e b266 0cbe 50df 1abe
00000140: b06e 9ebd 4e65 34be c1a8 103d 492f 633d
00000150: 9aeb 46be 6d18 533d b903 cbbd 5eda 40be
00000160: e4a5 1e3e a819 ddbd b5c9 703c 613f 1bbe
00000170: a1e6 e5bc b375 e43d 4e27 bbbc 4765 b03d
00000180: 634a ecbc 1583 ac3d d73e 01be 5222 e93c
00000190: be88 2bbd 1808 dc3d 2685 52be f5aa e13d
000001a0: 6cb6 813d 4c84 8fbe 440f 4bbe 5783 833d
000001b0: 3334 6c3c 3c73 af3d e382 94bd 9c11 5c3e
000001c0: 3ddf 303c a7df 0bbe 792e 6f3d ea30 81be
000001d0: 4eb7 283e 3134 883e aea9 dd3c aaf4 cb3d
000001e0: 75b4 4ebc ad0b 6b3c f407 f5bb 9487 cabc
000001f0: b93d a63d c537 083d 085c c3bd b382 e83c
00000200: b4e3 023e bf55 23be 0f49 913e 9db3 71be
00000210: 4aa4 9e3d 3630 3c3e 69e6 7eba ee3e 5c3d
00000220: 5652 a3bd 7d0a 2d3e 2676 1a3e c68e 41bd
00000230: 3a6e 42bc 3c65 3ebe 21af 853d 24d6 e73d
00000240: 4dcd 1c3b 5d56 203e c1b3 a9bc ee0a 12be
00000250: 2d4a 423c 884e ed3d d0bf 51bd 12ce 033e
00000260: f50f 90bd 7b99 edbc 0b81 78bd 7d33 2bbc
00000270: 4af9 05be 79a7 6d3e 9f99 4c3e f4e2 133e
00000280: 6567 153e 5c42 763d e0fc 95bd f82d c43d
00000290: 7cee e7bd 2d05 bfbd 4fa6 7c3d ff49 053c
000002a0: fe91 90be a7fe ac3d 4c00 c9bd 172c 79be
000002b0: ded4 393e b1f9 5d3d 4f71 753d 0359 1e3d
000002c0: b914 0c3e 0fec 723c e4e4 603d 4c47 483d
000002d0: a28d dbbd 430f dcbd b6ed 08be 093d d53d
000002e0: 44e1 8d3e 566e 983d 90e7 61bd b132 d23b
000002f0: 9a8b cebd f97d 57be c7a2 66bd 89e2 d73d
00000300: 2f0e 0d3e 9cc4 04bd 0832 643d 9022 2bbe
00000310: f76b 043e 3322 b7bd cebc cbbd 5abe 293d
00000320: f106 debd 4579 193d dc87 063e 9510 84bd
00000330: 295a 983d b64f 023d 0f35 c1bd 20a2 e8bd
00000340: 831e dc3c af04 523e 3f32 8bbe 6993 9cbd
00000350: 2a37 053e dfc1 b2bd fd90 11bc a4fa 97bd
00000360: ac9b 663d 978e 42bd 15d8 ccbd 4c58 fbbd
00000370: ed1f 9c3c 6626 69be 6612 1cbe 2b96 16be
00000380: feb9 843e 8a6b afbd dbbf 873e 6965 9d3c
00000390: 11ba a03c a546 043d 9771 023e 8900 8f3d
000003a0: a16c d4bc e4ef a03b 7585 a0bd 735c 98bd
000003b0: 3b4e 4c3d 474d c0bd 4d92 b23d 36e6 ea3d
000003c0: 0109 d63d a16b b73d 25cb 7bbd ec10 b03d
000003d0: 409f 173e 4a76 2d3d 5e39 e3bd 28ff 963e
000003e0: d0ae 1ebe 8841 043e 219f 25bd f737 cb3b
000003f0: 21a4 08be ffa8 d8bd 5f35 1ebe 7796 cf3d

lstm1.bias_ih_l0_reverse f4 [20]
0.05503382 -0.2107959 0.094659686 -0.13374245 -0.0325429 0.038145836 -0.026001524 -0.1501548
-0.17017859 -0.062012814 0.11626804 0.2337295 -0.32048413 0.035807155 0.11977569 -0.03903174
-0.056903217 -0.14595616 -0.028198175 -0.04438988
00000000: 256b 613d e1da 57be f0dc c13d c8f3 08be
00000010: b44b 05bd cf3e 1c3d 2601 d5bc 2ec2 19be
00000020: 4c43 2ebe 2601 7ebd f01d ee3d c956 6f3e
00000030: 7f16 a4be 86aa 123d f54c f53d bfdf 1fbd
00000040: 5913 69bd 8875 15be dcff e6bc 2ad2 35bd

lstm1.bias_hh_l0_reverse f4 [20]
0.103941575 -0.0784089 -0.009806369 0.18331863 0.13731806 -0.16260934 0.08263772 -0.25696138
0.020585285 0.029766992 0.022780176 -0.08256397 -0.022268495 -0.02322029 0.069913514 0.019741282
0.024246626 0.18887363 0.007931608 0.28224385
00000000: 52df d43d d894 a0bd e5aa 20bc e1b7 3b3e
00000010: 1b9d 0c3e 1083 26be f73d a93d 7190 83be
00000020: 79a2 a83c e8d9 f33c 7e9d ba3c 4c17 a9bd
00000030: 6b6c b6bc 7a38 bebc d12e 8f3d 78b8 a13c
00000040: dca0 c63c 1768 413e 93f3 013c 4482 903e

lstm1.weight_ih_l1 f4 [20, 40]
-0.1950048 0.076185316 0.26241648 -0.096131384 0.059875537 0.0014827566 -0.11213809 -0.124636255
0.12016151 0.16030854 0.05479068 -0.09180795 0.08521374 0.26001915 0.047745463 -0.09645103
-0.10740389 0.19350445 -0.12598968 -0.07723192 -0.17198153 0.14904241 0.09320394 -0.07801536
0.0070433477 0.0204477 -0.0049566366 0.061753225 -0.001298089 0.0038065964 0.111340016 0.06362266
0.043009546 0.054250013 -0.099732935 0.042833973 -0.10639032 -0.09440121 -0.1513834 -0.087346256
0.24347883 0.28058904 -0.013975707 0.08284795 -0.056917395 0.088114955 -0.19991003 0.072480716
-0.1311652 0.10202405 -0.019178485 0.051995575 -0.084353335 -0.18920507 0.07650126 0.06989302
-0.08491816 0.0028287808 -0.1061149 0.17309266 -0.03748009 -0.10484291 -0.121654846 0.17251317
0.041858934 0.22342266 -0.2369827 0.18760936 -0.1003166 -0.10808387 -0.123468556 0.06287215
-0.108529575 0.08626195 0.022711277 0.057789378 -0.104951665 0.026809353 -0.055683564 0.09235295
-0.214689 -0.1644161 0.18453653 0.08849918 0.16378826 -0.17792663 -0.18868935 -0.026796358
0.047987815 -0.0965157 0.084095865 -0.08864758 -0.06522676 0.05415908 0.16140927 -0.09880265
-0.059599865 0.0723086 0.0859122 -0.089287065 -0.13824031 0.18928619 -0.13372229 -0.049656726
0.017661659 -0.07520442 -0.04362578 -0.022005552 0.03824981 -0.028134549 0.12456858 -0.1542702
0.024370775 -0.07484551 -0.12517583 -0.06720903 -0.07117646 -0.11718052 0.026697757 -0.048771705
0.14180377 -0.03760133 -0.09699884 0.29753223 -0.061896387 0.03770286 0.17144836 0.050237134
-0.0076078456 0.012078991 0.07835846 -0.023237575 -0.07200376 -0.02107398 -0.043341853 -0.06992054
0.04224176 0.14738716 -0.020006023 0.10754593 0.065504536 0.029403785 -0.010818788 0.07135947
0.052560072 0.059456874 -0.23856634 0.22033152 0.0042289547 0.06132988 -0.07280075 -0.008141443
-0.041960042 -0.12105712 -0.024626715 -0.0003449508 0.10880871 -0.05730043 0.032747753 0.06406403
-0.2400972 -0.15646657 0.13897713 -0.10761505 0.18840256 0.026102701 -0.05117058 -0.041117053
-0.024500694 -0.026287155 -0.027956292 -0.23351106 0.11702996 -0.052354384 -0.1288347 0.12576339
-0.013013527 -0.17387876 0.12727082 -0.27027422 0.06678419 -0.08512561 0.23724464 0.060206674
-0.0055980254 -0.012852184 0.052158747 0.10201215 0.08823788 -0.16972952 0.061375353 -0.037143815
-0.029526945 -0.02324501 -0.19411814 0.048179995 0.09201922 0.020394322 0.10415999 -0.047395486
-0.076796964 0.019444102 -0.101899594 -0.01044721 -0.13141577 0.0515714 0.08723776 -0.25815007
-0.0041978806 -0.29535413 0.06158757 -0.18297094 -0.106629774 -0.031688407 -0.056960087 0.012457986
0.18959585 -0.15375581 0.021361573 0.23213427 -0.37570354 0.030619727 -0.011180947 -0.23113634
0.044943146 0.14443107 0.04890493 -0.12796907 -0.018863183 0.1362661 -0.044237774 -0.07545485
0.06877995 0.1172499 -0.19067682 0.1589941 -0.01779268 0.111476704 0.11288394 0.011514326
0.26693162 0.14519353 -0.1475005 0.11924677 -0.19907327 0.020491835 -0.039718136 0.27755973
0.0912591 0.27983305 0.046252765 0.1487729 -0.039271925 -0.056195762 -0.11029105 -0.046750497
00000000: 57af 47be 0c07 9c3d 745b 863e 88e0 c4bd
00000010: 0d40 753d 0e59 c23a a8a8 e5bd 4b41 ffbd
00000020: 3d17 f63d ec27 243e 316c 603d ce05 bcbd
00000030: 8b84 ae3d 3b21 853e bf90 433d 1e88 c5bd
00000040: 92f6 dbbd 0826 463e 7003 01be c52b 9ebd
00000050: ed1b 30be 939e 183e b5e1 be3d 84c6 9fbd
00000060: e2cb e63b ef81 a73c 486b a2bb f3f0 7c3d
00000070: a424 aaba 1778 793b 3c06 e43d 994c 823d
00000080: c72a 303d 4335 5e3d c840 ccbd ad72 2f3d
00000090: 2be3 d9bd 6c55 c1bd 4004 1bbe 98e2 b2bd
000000a0: 8452 793e 5ea9 8f3e 5dfa 64bc 30ac a93d
000000b0: 3722 69bd 9d75 b43d 37b5 4cbe c570 943d
000000c0: 2c50 06be fcf1 d03d 331c 9dbc 50f9 543d
000000d0: 71c1 acbd f9be 41be b1ac 9c3d 1224 8f3d
000000e0: 93e9 adbd 1163 393b c552 d9bd 343f 313e
000000f0: b984 19bd e1b7 d6bd 2d26 f9bd 4ba7 303e
00000100: 4674 2b3d e9c8 643e 98ab 72be ab1c 403e
00000110: ca72 cdbd 135b ddbd 15dd fcbd 1dc3 803d
00000120: c144 debd 1baa b03d 000d ba3c 8eb4 6c3d
00000130: e6f0 d6bd 4a9f db3c 7314 64bd 8b23 bd3d
00000140: 6fd7 5bbe b25c 28be 25f7 3c3e 0f3f b53d
00000150: 1cb8 273e 6632 36be c837 41be 0984 dbbc
00000160: df8e 443d 06aa c5bd 743a ac3d dd8c b5bd
00000170: 9c95 85bd e9d5 5d3d 7948 253e 0b59 cabd
00000180: fd1e 74bd 8816 943d bcf2 af3d 23dc b6bd
00000190: de8e 0dbe 3dd4 413e 7fee 08be da64 4bbd
000001a0: 2faf 903c c604 9abd f2b0 32bd fd44 b4bc
000001b0: d5ab 1c3d 6d7a e6bc d01d ff3d 02f9 1dbe
000001c0: 38a5 c73c 9a48 99bd 182e 00be e3a4 89bd
000001d0: f7c4 91bd 57fc efbd 41b5 da3c d7c4 47bd
000001e0: 0235 113e da03 1abd 54a7 c6bd 2556 983e
000001f0: 1187 7dbd 506e 1a3d 2990 2f3e 74c5 4d3d
00000200: 3c4b f9bb f6e6 453c 667a a03d ba5c bebc
00000210: b576 93bd 57a3 acbc 3a87 31bd 8032 8fbd
00000220: b205 2d3d a9ec 163e ace3 a3bc 0a41 dc3d
00000230: 3e27 863d 35e0 f03c 4941 31bc ea24 923d
00000240: 3b49 573d 0d89 733d bc4a 74be 969e 613e
00000250: 0b93 8a3b 0a35 7b3d 8f18 95bd b063 05bc
00000260: 4bde 2bbd ccec f7bd f7bd c9bc 83da b4b9
00000270: 1ad7 de3d dbb3 6abd 8222 063d 0134 833d
00000280: 0adc 75be c638 20be 0550 0e3e 4865 dcbd
00000290: 9aec 403e 55d5 d53c 3e98 51bd 5b6a 28bd
000002a0: aeb5 c8bc 2958 d7bc 9804 e5bc 861d 6fbe
000002b0: 67ad ef3d 8d71 56bd 3eed 03be 1ec8 003e
000002c0: b036 55bc 460d 32be 4853 023e 6261 8abe
000002d0: 26c6 883d 5656 aebd 42f0 723e 469b 763d
000002e0: a46f b7bb f791 52bc 69a4 553d bfeb d03d
000002f0: 10b6 b43d 93cd 2dbe b964 7b3d 1d24 18bd
00000300: 7ee2 f1bc 526c bebc e8c6 46be 6358 453d
00000310: 9374 bc3d fe11 a73c d551 d53d c521 42bd
00000320: ba47 9dbd 3d49 9f3c bcb0 d0bd c62a 2bbc
00000330: db91 06be 883c 533d b6a9 b23d 3f2c 84be
00000340: 608e 89bb a838 97be 3f43 7c3d bc5c 3bbe
00000350: b660 dabd b4cb 01bd fb4e 69bd 951c 4c3c
00000360: 6a25 423e 2a72 1dbe 77fe ae3c 9bb4 6d3e
00000370: 375c c0be 39d6 fa3c 4a30 37bc 01af 6cbe
00000380: 4e16 383d bde5 133e 8950 483d 530a 03be
00000390: f686 9abc 5789 0b3e ab32 35bd 1388 9abd
000003a0: 81dc 8c3d b720 f03d c940 43be 59cf 223e
000003b0: f4c1 91bc e64d e43d b22f e73d 95a6 3c3c
000003c0: 43ab 883e 9dad 143e 5f0a 17be a737 f43d
000003d0: ddd9 4bbe 7ede a73c 7caf 22bd 4f1c 8e3e
000003e0: 0de6 ba3d 4746 8f3e 8a73 3d3d ec57 183e
000003f0: 99db 20bd 872d 66bd 46e0 e1bd 737d 3fbd

lstm1.weight_hh_l1 f4 [20, 20]
-0.25177333 0.0043811165 -0.176633 0.2284519 0.015129193 -0.04329367 -0.12673548 -0.12680452
-0.021242334 0.06826255 -0.020216586 -0.11602526 0.043547925 -0.11789542 -0.15841141 -0.120996736
0.18012674 -0.134489 -0.16455546 0.06621552 0.0986378 -0.29182315 -0.017370135 -0.02840328
0.082972676 -0.016508536 0.15437731 -0.22589539 -0.12991206 0.060497724 -0.14765514 0.16003622
-0.001994169 -0.043307837 0.11937804 -0.017914856 0.008138027 0.022022597 0.22417398 -0.08466803
0.17219323 0.17058437 -0.13512094 0.06265395 0.12828614 -0.069539085 0.11841402 -0.1052618
0.18910228 -0.24835454 -0.17287572 -0.21672773 0.062472522 0.23535633 0.11334034 -0.33889025
-0.033055216 -0.018496353 0.23205838 -0.1561145 -0.17185605 -0.014933088 -0.13217351 -0.3283257
0.046245303 0.10887134 -0.04075875 0.01991651 0.04934129 0.15680793 0.07690393 0.091791995
0.11977469 0.03419728 -0.033968978 0.14152047 0.0065700067 -0.021445537 -0.082533196 -0.22300851
-0.06921629 0.1939122 -0.1372712 0.016055716 -0.15749903 0.13417946 -0.05005094 -0.083192594
-0.01828503 0.011060163 -0.058292698 -0.01505286 0.01778557 -0.18240207 0.13897759 -0.039498083
0.13292737 -0.121077575 0.09698229 -0.06642443 0.17590798 -0.113254264 0.093693994 -0.12369674
-0.13479877 -0.22361486 -0.03530866 0.032024104 0.095779404 -0.13888456 0.10777842 0.118588574
0.111097805 0.14546949 0.06860439 -0.07691076 -0.18319336 0.011343995 -0.057779383 -0.12256804
0.13199398 0.13408965 -0.020518998 0.0756374 0.11006355 0.12386986 -0.40262687 0.074597694
-0.11894239 0.031201944 0.015439983 0.030723669 0.072111875 -0.15148547 0.095460705 0.088080004
0.10140434 0.18803544 0.025907772 -0.10138537 0.041270915 0.07897268 -0.019248938 -0.14580339
0.02334956 -0.21491021 -0.115410864 -0.07192514 0.2513096 -0.15441634 -0.17381826 0.14014876
0.16067868 0.0939459 -0.14883451 0.24772191 0.06390082 0.051065527 -0.14479771 0.09913132
0.025557399 0.01143869 0.14359814 0.008428045 0.091182545 0.13508755 0.17166872 -0.14148106
-0.2377155 0.015959637 0.04326932 0.17987238 -0.13980663 -0.027995812 0.10668294 0.10803849
-0.16268943 -0.09060933 0.19216166 0.0057512014 -0.03882195 -0.2293013 0.17851132 -0.21430165
0.042782504 0.07859885 -0.13084014 0.27899522 -0.003725606 -0.17535187 0.29722595 0.035819244
0.0019805778 -0.24423662 -0.17459403 0.07114961 0.17387342 0.02252111 0.15266939 -0.112371646
-0.1184626 0.19886121 0.0015754879 -0.116001196 0.14804342 -0.06986096 -0.012422361 0.29331884
0.04987255 -0.023985444 -0.36630908 0.2808245 -0.06563695 -0.14360078 0.21918024 0.043668583
0.050563376 0.09560666 0.16569237 0.027057372 0.014065781 -0.21630608 -0.10205995 -0.13929377
0.051640633 0.11624752 0.1013983 -0.055596787 0.052963607 -0.012445961 0.031926963 -0.16419567
0.08355442 0.2331544 -0.1606587 -0.0958877 0.028787363 0.102827914 -0.17437832 -0.2767957
0.10724381 0.008533158 -0.034412824 -0.05669428 0.082566835 0.07449616 -0.07175204 0.121328376
0.17684004 -0.0035951778 0.15361531 -0.13898595 -0.3437353 -0.053532407 -0.20772907 -0.065101884
00000000: 6fe8 80be 788f 8f3b 48df 34be 4bef 693e
00000010: 6fe0 773c b454 31bd f2c6 01be 0bd9 01be
00000020: 6704 aebc 3ccd 8b3d 419d a5bc a79e edbd
00000030: 4f5f 323d 2773 f1bd 9a36 22be 23cd f7bd
00000040: 2573 383e 7cb7 09be 3a81 28be 019c 873d
00000050: 9d02 ca3d d869 95be d04b 8ebc ffad e8bc
00000060: 94ed a93d e93c 87bc 1615 1e3e 1f51 67be
00000070: ab07 05be 76cc 773d e932 17be 89e0 233e
00000080: 9bb0 02bb 8f63 31bd 797c f43d 2dc2 92bc
00000090: 5c55 053c bc68 b43c dd8d 653e 6f66 adbd
000000a0: 6c53 303e abad 2e3e 255d 0abe b750 803d
000000b0: 715d 033e 826a 8ebd 0d83 f23d 8093 d7bd
000000c0: 07a4 413e a750 7ebe 5506 31be e0ed 5dbe
000000d0: 30e3 7f3d 4001 713e fb1e e83d 0683 adbe
000000e0: e864 07bd aa85 97bc b6a0 6d3e 7bdc 1fbe
000000f0: 08fb 2fbe e9a9 74bc 7e58 07be 4e1a a8be
00000100: b76b 3d3d f0f7 de3d a6f2 26bd f327 a33c
00000110: 181a 4a3d 4292 203e cf7f 9d3d 71fd bb3d
00000120: 6f4c f53d 7212 0c3d 0e23 0bbd beea 103e
00000130: 3649 d73b 8dae afbc 2a07 a9bd 585c 64be
00000140: 45c1 8dbd eb90 463e d290 0cbe 4787 833c
00000150: 6d47 21be 5766 093e 3702 4dbd e160 aabd
00000160: 7dca 95bc b035 353c 53c4 6ebd 45a0 76bc
00000170: 0bb3 913c 9cc7 3abe 2450 0e3e bec8 21bd
00000180: 1d1e 083e 85f7 f7bd a79e c63d 8809 88bd
00000190: 3921 343e daf1 e7bd a3e2 bf3d b754 fdbd
000001a0: b008 0abe 4bfb 64be d09f 10bd b52b 033d
000001b0: fe27 c43d c137 0ebe efba dc3d 91de f23d
000001c0: 3f87 e33d f4f5 143e 7580 8c3d 6383 9dbd
000001d0: 0a97 3bbe 2adc 393c 13aa 6cbd f404 fbbd
000001e0: 6e29 073e cc4e 093e 7517 a8bc c8e7 9a3d
000001f0: 0069 e13d 7baf fd3d 1c25 cebe adc6 983d
00000200: 1198 f3bd 389b ff3c fcf7 7c3c 34b0 fb3c
00000210: 64af 933d 021f 1bbe e780 c33d 4a63 b43d
00000220: 14ad cf3d 5d8c 403e 893c d43c 22a3 cfbd
00000230: b10b 293d 6ebc a13d f3af 9dbc 7c4d 15be
00000240: 9447 bf3c 6c11 5cbe 885c ecbd 7d4d 93bd
00000250: a7ab 803e 511f 1ebe 6afd 31be 2883 0f3e
00000260: f488 243e b566 c03d 1368 18be d0aa 7d3e
00000270: 6fde 823d 162a 513d da45 14be 5d05 cb3d
00000280: c05d d13c 5869 3b3c 640b 133e c815 0a3c
00000290: eabd ba3d 6454 0a3e edc9 2f3e 69e0 10be
000002a0: b16b 73be c9bd 823c 2c3b 313d 7730 383e
000002b0: 7829 0fbe 7957 e5bc 967c da3d 4943 dd3d
000002c0: 0f98 26be 6291 b9bd 07c6 443e 9374 bc3b
000002d0: c403 1fbd f6cd 6abe accb 363e e471 5bbe
000002e0: b53c 2f3d 6ff8 a03d f5fa 05be 76d8 8e3e
000002f0: 4c29 74bb 718f 33be 002e 983e 33b7 123d
00000300: 95cc 013b 2a19 7abe c7c8 32be e3b6 913d
00000310: e00b 323e 317e b83c 5d55 1c3e 1b23 e6bd
00000320: 859c f2bd 46a2 4b3e 9a80 ce3a 0992 edbd
00000330: b298 173e 4313 8fbd 2987 4bbc e32d 963e
00000340: 2947 4c3d 1f7d c4bc dd8c bbbe 3bc8 8f3e
00000350: aa6c 86bd 150c 13be c970 603e d4dd 323d
00000360: 8b1b 4f3d 6dcd c33d 43ab 293e 6ca7 dd3c
00000370: 2974 663c 577f 5dbe cf04 d1bd 07a3 0ebe
00000380: 2185 533d 2e13 ee3d e9a9 cf3d 75b9 63bd
00000390: 5ef0 583d 25ea 4bbc d9c5 023d e922 28be
000003a0: 941e ab3d 07c0 6e3e b783 24be c560 c4bd
000003b0: 7ad3 eb3c 7197 d23d 3b90 32be 2ab8 8dbe
000003c0: a5a2 db3d a9ce 0b3c 76f4 0cbd 4338 68bd
000003d0: cd18 a93d 7191 983d bcf2 92bd 037b f83d
000003e0: 8e15 353e 139d 6bbb 554d 1d3e 5552 0ebe
000003f0: 13fe afbe cc44 5bbd eeb6 54be 2354 85bd

lstm1.bias_ih_l1 f4 [20]
0.17309447 0.073592074 0.09739902 -0.07580931 0.011846731 -0.097874194 -0.03941533 -0.029817648
-0.20214355 -0.17725286 0.045639567 0.051969755 0.07740569 -0.12902479 -0.040903643 0.07838754
-0.1000591 0.046676677 0.030284911 0.02653694
00000000: ad3f 313e 71b7 963d 2379 c73d e941 9bbd
00000010: cb18 423c 4472 c8bd f871 21bd 2444 f4bc
00000020: b8fe 4ebe c681 35be 8ef0 3a3d 3dde 543d
00000030: e086 9e3d 131f 04be 948a 27bd a689 a03d
00000040: c9eb ccbd 0b30 3f3d 1018 f83c ff63 d93c

lstm1.bias_hh_l1 f4 [20]
0.17212088 -0.16632459 -0.04952312 -0.03983685 0.24538879 -0.14702757 0.047654938 0.0039189258
0.049010385 0.05101685 -0.07824733 -0.10050169 -0.0010165162 0.038272835 0.029460646 -0.026250038
-0.10348134 0.022171656 0.20569484 -0.20767885
00000000: 7540 303e fe50 2abe c1d8 4abd f72b 23bd
00000010: 3347 7b3e 658e 16be d331 433d 556a 803b
00000020: 1dbf 483d 0bf7 503d 2340 a0bd d4d3 cdbd
00000030: a03c 85ba fac3 1c3d 7457 f13c 520a d7bc
00000040: 06ee d3bd 55a1 b53c aba1 523e c4a9 54be

lstm1.weight_ih_l1_reverse f4 [20, 40]
-0.027941082 0.11169266 -0.028548304 -0.15411821 0.12737112 -0.27244928 -0.02803453 -0.148872
-0.16118383 -0.10878474 0.07615078 -0.15774463 -0.03466087 0.098784745 0.03986424 0.0004758738
0.15889704 -0.023424314 0.0666978 -0.03164504 0.009961176 0.15166637 0.18273254 -0.092710756
-0.050542112 -0.05025542 -0.093679786 0.08094277 0.13955784 0.09800523 0.0021154007 -0.07124127
0.00032296096 -0.03888791 0.1577456 -0.16818301 0.17883341 0.0894177 -0.20656487 0.12507206
0.3305622 -0.03685011 -0.054150663 -0.062257383 -0.21134305 0.16170354 -0.012633615 0.01468443
0.09213531 0.11240142 0.13973676 0.0014056722 -0.16991414 -0.22422428 -0.114912786 -0.032102656
0.045983095 0.026314069 -0.015537525 0.22810468 0.12515202 -0.10149183 -0.11115926 -0.013235658
0.038952805 0.024325294 -0.06873036 -0.033680324 -0.17761166 -0.072375886 0.023434684 0.112100236
-0.02757535 0.033591278 -0.07187609 0.05958252 -0.10044222 -0.16210826 0.015761053 -0.05501823
0.037405524 0.0988512 0.09712053 -0.03688465 0.04555887 0.12655589 -0.26723942 -0.18008651
0.07704249 0.05441058 -0.03646953 -0.17848924 -0.11128984 0.07121249 -0.07955743 0.014583951
0.15237711 0.12430898 -0.13930637 0.04747278 -0.25663656 0.16936365 -0.03750968 0.028470948
-0.1332169 0.025121467 -0.07383273 0.090638235 0.006123623 0.08446075 -3.7176058e-05 0.07035826
0.107154846 0.17732045 -0.15793382 0.1474053 -0.12592414 0.04441124 -0.03593131 0.14992894
-0.3008425 -0.078286916 0.008222075 0.014015817 -0.08893737 0.17882848 -0.08105926 0.13926932
-0.05993973 0.08252448 0.024910092 -0.007404395 0.0065767276 0.045073096 -0.026971444 0.012816093
0.015668109 -0.06732866 0.08324616 -0.14386441 -0.1296041 -0.11719553 -0.0058990815 -0.06032095
0.11620226 -0.13303828 -0.067781545 0.04299417 -0.030107703 0.014370298 0.023509389 0.0831435
-0.02985689 -0.023508972 0.09158947 0.030372098 -0.059440196 -0.07127816 0.053362805 0.1102252
-0.49063262 -0.33876765 0.26671037 0.06754432 0.11797948 0.08806283 0.013946705 0.027187038
-0.30476785 -0.1437894 -0.16086343 0.08755168 -0.11448802 -0.022300161 0.11658707 0.27596894
0.11902142 -0.11665552 0.21842963 -0.3229169 -0.16231753 0.07842574 -0.022122322 -0.08654824
0.053157575 0.17833051 0.033057038 -0.0922953 0.018181028 -0.021069475 0.047111813 -0.14907545
0.07024969 -0.11366241 -0.23105028 0.05017857 -0.14778152 -0.036935754 -0.028749375 -0.19904532
-0.10458608 -0.13333136 -0.00041096314 -0.20773625 0.159622 -0.01831401 -0.050709035 -0.06809763
-0.041595686 -0.17323501 -0.1818252 -0.11214429 -0.030941144 0.15137973 -0.08250664 0.1657461
0.12195759 0.04716387 0.07845704 -0.048956994 0.13435565 0.14682028 -0.16606289 0.18386799
0.03767338 0.17513378 0.17285644 -0.0055984305 -0.11480041 -0.021874268 -0.07032846 -0.1602127
0.09952674 0.008441671 -0.067072906 0.09900161 -0.10087198 -0.17060414 0.14060614 -0.075247556
-0.26090866 0.033049803 -0.012365372 -0.10036692 -0.048456255 -0.06618307 -0.022685379 -0.15344688
0.12831965 -0.08528756 0.007289668 -0.09102012 0.027459616 0.11971347 0.13244992 -0.009423428
00000000: b2e4 e4bc 1fbf e43d 22de e9bc 2ad1 1dbe
00000010: 936d 023e 797e 8bbe aca8 e5bc e771 18be
00000020: 600d 25be 89ca debd f1f4 9b3d cf87 21be
00000030: 8ef8 0dbd a84f ca3d af48 233d b37e f939
00000040: e8b5 223e 59e4 bfbc db98 883d 3b9e 01bd
00000050: 3334 233c 6e4e 1b3e 3d1e 3b3e 23df bdbd
00000060: 3f05 4fbd a1d8 4dbd 30db bfbd 53c5 a53d
00000070: 40e8 0e3e f7b6 c83d 89a2 0a3b f1e6 91bd
00000080: 1653 a939 ee48 1fbd 1088 213e 2b38 2cbe
00000090: 1b20 373e a120 b73d be85 53be e412 003e
000000a0: 733f a93e 24f0 16bd 16cd 5dbd 9901 7fbd
000000b0: 506a 58be 9d95 253e 39fd 4ebc f796 703c
000000c0: 70b1 bc3d b732 e63d 2717 0f3e 883e b83a
000000d0: f9fd 2dbe 0d9b 65be 6557 ebbd 137e 03bd
000000e0: c558 3c3d 9a90 d73c 1a91 7ebc 4694 693e
000000f0: da27 003e f3da cfbd 77a7 e3bd 60da 58bc
00000100: fa8c 1f3d d745 c73c 81c2 8cbd 61f4 09bd
00000110: d5df 35be cf39 94bd 18fa bf3c cf94 e53d
00000120: b3e5 e1bc 0297 093d c533 93bd cd0c 743d
00000130: a7b4 cdbd b5ff 25be 531d 813c cc5a 61bd
00000140: 8936 193d 7f72 ca3d 21e7 c63d 5c14 17bd
00000150: f09b 3a3d de97 013e 9bd3 88be 9968 38be
00000160: 74c8 9d3d a1dd 5e3d 1361 15bd e2c5 36be
00000170: edeb e3bd dbd7 913d 02ef a2bd 86f1 6e3c
00000180: bf08 1c3e b595 fe3d 54a6 0ebe d172 423d
00000190: de65 83be aa6d 2d3e c0a3 19bd e83b e93c
000001a0: 036a 08be 89cb cd3c 9d35 97bd 8aa0 b93d
000001b0: aca8 c83b c2f9 ac3d 7ded 1bb8 fe17 903d
000001c0: 0074 db3d 7e93 353e 67b9 21be 6af1 163e
000001d0: 42f2 00be 8fe8 353d b62c 13bd f986 193e
000001e0: 0708 9abe e454 a0bd e2b5 063c 99a2 653c
000001f0: cc24 b6bd d01e 373e 6602 a6bd 9e9c 0e3e
00000200: 5d83 75bd 9802 a93d 4010 cc3c 91a0 f2bb
00000210: 9781 d73b 919e 383d 38f3 dcbc 97fa 513c
00000220: 685a 803c 9ce3 89bd f67c aa3d 3151 13be
00000230: f0b6 04be 3604 f0bd 154d c1bb 1a13 77bd
00000240: 73fb ed3d 303b 08be 0dd1 8abd a81a 303d
00000250: 6ea4 f6bc 6671 6b3c c396 c03c 2447 aa3d
00000260: 7096 f4bc e395 c0bc 4393 bb3d e8ce f83c
00000270: 9077 73bd 49fa 91bd f592 5a3d c0bd e13d
00000280: 3334 fbbe f472 adbe 438e 883e ad54 8a3d
00000290: 3a9f f13d 495a b43d b880 643c 5ab7 de3c
000002a0: 880a 9cbe 873d 13be 62b9 24be 4c4e b33d
000002b0: b278 eabd d4ae b6bc 34c5 ee3d cd4b 8d3e
000002c0: 81c1 f33d 17e9 eebd 04ac 5f3e 5d55 a5be
000002d0: 9136 26be ad9d a03d df39 b5bc 3440 b1bd
000002e0: c2bb 593d 469c 363e d166 073d 5105 bdbd
000002f0: 61f0 943c e499 acbc 51f8 403d 3ca7 18be
00000300: 12df 8f3d d6c7 e8bd 7298 6cbe 0b88 4d3d
00000310: 0a54 17be f249 17bd cf83 ebbc 89d2 4bbe
00000320: 3a31 d6bd 0488 08be 8a76 d7b9 d0b8 54be
00000330: f373 233e 4307 96bc 47b4 4fbd c576 8bbd
00000340: 3d60 2abd 8564 31be 6330 3abe e8ab e5bd
00000350: 4878 fdbc 4a03 1b3e 3ef9 a8bd 58b9 293e
00000360: e7c4 f93d e72e 413d 16ae a03d 2187 48bd
00000370: 8794 093e 0e58 163e 640c 2abe e447 3c3e
00000380: 674f 1a3d 4556 333e 4701 313e 0a73 b7bb
00000390: 7a1c ebbd aa31 b3bc 5e08 90bd cc0e 24be
000003a0: add4 cb3d ef4e 0a3c 855d 89bd 5bc1 ca3d
000003b0: f895 cebd dab2 2ebe 0efb 0f3e 641b 9abd
000003c0: d295 85be 3b5f 073d 2198 4abc 2c8d cdbd
000003d0: 117a 46bd fd8a 87bd b0d6 b9bc 2e21 1dbe
000003e0: 3a66 033e 3fab aebd 2bde ee3b c268 babd
000003f0: fdf2 e03c 562c f53d f4a0 073e b964 1abc
