experiments/weights/2_LSTM.pth (torch, 213447 bytes, 57 tensors)

lstm1.weight_ih_l0 f4 [80, 58]
0	0x3f7ba986	0.9830555
1	0x3d7899ec	0.060693666
2	0xbd3f7c22	-0.04674924
3	0xbe56d5a3	-0.20979933
4	0xbd9f4cdf	-0.07778334
5	0x3d43979f	0.04775202
6	0x3c09a3c4	0.008400861
7	0xbd421270	-0.047380865
8	0xbda33cf2	-0.07970609
9	0xbe4c1569	-0.19930042
10	0x3ea0e129	0.31421784
11	0x3d9904ed	0.07471643
12	0xbe0bf884	-0.1366902
13	0xbe47472e	-0.19460747
14	0x3d761851	0.060081784
15	0xbead31d8	-0.3382709
16	0xbea0f7a2	-0.3143893
17	0xbf1e31e6	-0.6179489
18	0xbed26be0	-0.41097927
19	0xbde8ac4e	-0.113609895
20	0xbd3ecf71	-0.04658455
21	0x3ea75e95	0.32689348
22	0xbe4064dc	-0.18788475
23	0xbe174b29	-0.14774765
24	0xbd6c421e	-0.05768024
25	0x3d11f6a3	0.0356356
26	0x3e908daf	0.28233096
27	0xbe8251ec	-0.25453126
28	0xbd2ad6a1	-0.041708592
29	0x3ee8f890	0.45502138
30	0x3eae65c4	0.34062016
31	0xbd978aa9	-0.07399494
32	0x3e72bf50	0.23705792
33	0xbe16250b	-0.14662568
34	0x3e65c9f2	0.22440317
35	0xbd647624	-0.05577673
36	0x3eb8d62e	0.36100906
37	0xbe0bd4ed	-0.13655443
38	0xbded7aac	-0.115956634
39	0xbe35aba1	-0.17741252
40	0xbe07e3f6	-0.13270554
41	0x3e7ada10	0.24497247
42	0x3e731717	0.23739277
43	0xbcc2cb52	-0.023778591
44	0x3ecb0719	0.39653853
45	0xbe26551b	-0.16243403
46	0xbe38b44b	-0.18037526
47	0xbe25ad02	-0.16179278
48	0x3dd1eaaf	0.102498405
49	0xbe15be2d	-0.14623328
50	0xbe2df82c	-0.16989201
51	0x3d783410	0.060596526
52	0xbe5d51a7	-0.21613179
53	0xbe8dab53	-0.27669773
54	0xbeb46234	-0.35231173
55	0x3d62312c	0.055222675
56	0xbd0b9aaa	-0.034083046
57	0xbe802365	-0.25027004
58	0x3f123f08	0.5712743
59	0xbe9e473c	-0.30913723
60	0xbe811336	-0.2520997
61	0xbd417973	-0.047234964
62	0xbdcce2f4	-0.100042254
63	0xbe356f32	-0.17718199
64	0xbd065fa3	-0.03280605
65	0x3e459490	0.19294953
66	0xbc602082	-0.0136796255
67	0xbe78d104	-0.24298483
68	0xbddcb471	-0.10776604
69	0x3da24d95	0.07924954
70	0x3df23148	0.11825806
71	0xbdff3ff7	-0.12463372
72	0x3daa6c9b	0.08321496
73	0xbbad596b	-0.0052902005
74	0xbd2d2fb3	-0.042281818
75	0xbc15645e	-0.009118168
76	0x3d7170a3	0.05894531
77	0xbe42655d	-0.1898398
78	0xbe7a1cd9	-0.24425067
79	0xbe04bcfe	-0.1296272
80	0xbda2489f	-0.079240076
81	0xbe319bdc	-0.17344612
82	0x3d4e97b9	0.050437663
83	0xbe416b20	-0.18888521
84	0xbe1488af	-0.14505266
85	0x3e26ddd4	0.16295558
86	0xbe5ee5e5	-0.21767385
87	0xbe6c6137	-0.2308396
88	0xbe5a5112	-0.21319988
89	0x3d3f3bb7	0.046687808
90	0xbe8cf83f	-0.27533147
91	0xbd9949d9	-0.074847884
92	0xbe9ceb3c	-0.3064822
93	0xbe86259a	-0.26200563
94	0x3d216b72	0.03940911
95	0x3cc89f45	0.024490008
96	0xbcd8e064	-0.026474185
97	0x3d9ea5a6	0.07746439
98	0xbe8d9533	-0.27652892
99	0x3d7c2fba	0.061568953
100	0xbd7cc39f	-0.061709996
101	0x3efa905c	0.48938262
102	0x3eb5d750	0.35515833
103	0xbcfd7c7f	-0.030943153
104	0xbe16b114	-0.14715987
105	0xbe3cc284	-0.18433577
106	0x3d87dc64	0.06633833
107	0xbe49f086	-0.19720659
108	0xbe75a87f	-0.23990057
109	0x3c098127	0.008392609
110	0xbe2dd8dd	-0.16977258
111	0xbd894a59	-0.06703634
112	0xbdb08725	-0.08619527
113	0xbe8a0eb4	-0.26964343
114	0xbd48f0a1	-0.049057607
115	0x3c1c9410	0.009556785
116	0xbe1eb2d3	-0.15497904
117	0xbdb546b1	-0.08851374
118	0xbbeb256e	-0.007176093
119	0x3dd73da0	0.10509801
120	0xbda30402	-0.07959749
121	0xbd822dfd	-0.06356428
122	0x3cf639fa	0.030056942
123	0xbe0236e5	-0.12716253
124	0x3e142f99	0.14471282
125	0xbdf9cf44	-0.12197736
126	0x3df42b6e	0.11922346
127	0x3e0a3b85	0.13499267
128	0x3e6e2e2c	0.232598
129	0xbd756ac5	-0.059916276
130	0x3e8a8f7c	0.27062595
131	0x3e80727f	0.25087354
132	0xbd8181f3	-0.06323614
133	0xbda08718	-0.07838267
134	0x3df232c7	0.11826091
135	0x3e68eb4e	0.22746012
136	0x3e9a3edc	0.30126083
137	0x3eb8b1a2	0.36073023
138	0x3e8099b1	0.25117257
139	0x3d783877	0.060600724
140	0x3d9b45b7	0.075816564
141	0x3e937bb8	0.28805327
142	0xbe012089	-0.12610067
143	0x3da8cf7d	0.082427
144	0xbe6ba69e	-0.23012778
145	0xbe81d06c	-0.25354326
146	0xbcae8f22	-0.021308485
147	0x3d506a20	0.05088246
148	0x3ec96f09	0.39342526
149	0x3e0edd84	0.13951689
150	0x3d66d52d	0.056355644
151	0x3df0acaf	0.11751687
152	0x3dec6160	0.1154201
153	0xbdbe32f3	-0.092870615
154	0x3c004bba	0.007830555
155	0x3e900ee4	0.2813636
156	0x3dd9ee34	0.10641137
157	0x3e6e9396	0.23298487
158	0xbcd85249	-0.026406424
159	0x3eb7d759	0.35906485
160	0x3db92c01	0.09041596
161	0x3dc3ee8f	0.09566986
162	0x3dfecb42	0.12441112
163	0x3e79d112	0.2439616
164	0x3e2b3fc7	0.16723548
165	0x3eab7316	0.3348624
166	0xbd0c3115	-0.034226496
167	0x3c2352f3	0.009968507
168	0x3de0b8ad	0.10972724
169	0x3da4aa60	0.08040309
170	0x3e64e03c	0.22351164
171	0xbd041d68	-0.032254606
172	0x3e73e60a	0.23818222
173	0x3e5a669f	0.2132821
174	0x3f5324b4	0.8247788
175	0x3e52358d	0.2052824
176	0x3ebebba6	0.3725254
177	0x3e37746d	0.17915507
178	0x3e9e683b	0.30938897
179	0xbd24493a	-0.040108897
180	0xbded3711	-0.11582769
181	0xbd686b82	-0.056743152
182	0xbdb629fe	-0.08894728
183	0xbbd85b69	-0.006602694
184	0x3eb64340	0.35598183
185	0x3e9dd4d3	0.30826434
186	0x3d2376b6	0.039908133
187	0xbe881673	-0.26579627
188	0xbe721de4	-0.23644215
189	0xbf1e287d	-0.6178053
190	0xbe205fc4	-0.15661532
191	0xbeae7abe	-0.3407802
192	0xbec3ac76	-0.38217515
193	0xbec77ce5	-0.38962474
194	0xbf243e9d	-0.6415804
195	0xbeca164f	-0.39470145
196	0x3dbb79d1	0.09154094
197	0xbcb880cd	-0.022522354
198	0x3de7450e	0.11292468
199	0x3e9b2017	0.3029792
200	0xbe1d7f73	-0.1538065
201	0x3e03784a	0.12838855
202	0x3e835e23	0.25657758
203	0x3f1630ae	0.5866803
204	0x3e87d446	0.2652914
205	0x3d813f2b	0.063108765
206	0x3e32b725	0.17452677
207	0x3e42fad5	0.19040997
208	0xbe31b38b	-0.17353646
209	0xbe20e3f8	-0.15711963
210	0x3dddc3c0	0.10828352
211	0xbe17b000	-0.14813232
212	0xbb926e07	-0.0044686827
213	0xbe8f3eb6	-0.27977532
214	0x3d98da11	0.07463468
215	0xbe0029d3	-0.12515955
216	0xbad388b2	-0.0016138761
217	0x3ec7e7d0	0.39044046
218	0xbe5338b7	-0.20627104
219	0x3d834723	0.064100526
220	0x3ec5b846	0.38617152
221	0x3cccb851	0.024990233
222	0xbe97c9b1	-0.29646066
223	0x3d90cf44	0.07070783
224	0x3b7ca58f	0.003855083
225	0x3e03b3a8	0.12861502
226	0x3e25bd24	0.16185433
227	0xbe864d6b	-0.2623094
228	0xbe9bf11a	-0.30457383
229	0xbe63c13e	-0.22241685
230	0x3e1590e9	0.1460606
231	0x3edb60a5	0.4284717
232	0x3e4f4457	0.20240913
233	0x3e6be6a3	0.230372
234	0x3df702c3	0.12061074
235	0x3e3ac777	0.18240152
236	0x3cff5662	0.03116912
237	0x3cc484f0	0.02398917
238	0x3e645012	0.2229617
239	0xbd144113	-0.036194872
240	0x3d94294d	0.0723444
241	0x3eb76ba4	0.3582431
242	0xbe12ce9e	-0.1433663
243	0x3e7a1a2b	0.24424045
244	0x3f129674	0.57260823
245	0x3e149a54	0.14511997
246	0x3e9ce41c	0.30642784
247	0x3de976b7	0.11399596
248	0x3e9c9382	0.3058129
249	0x3dd08314	0.10181251
250	0xbe433c83	-0.19066052
251	0x3d16b34e	0.036792092
252	0x3d8df860	0.069321394
253	0x3d6f4640	0.058416605
254	0xbe9c46fd	-0.3052291
255	0xbf16334b	-0.58672017

lstm1.weight_hh_l0 f4 [80, 20]
0	0x3e0784ae	0.13234207
1	0x3d9f0435	0.07764474
2	0xbd6b6b4a	-0.057475366
3	0xbda37f86	-0.079833075
4	0xbd21dd2a	-0.03951756
5	0x3ddc07bd	0.107436635
6	0xbcc0c7bf	-0.023532746
7	0xbdd6aea8	-0.10482532
8	0x3e0d39a4	0.1379152
9	0x3e412b07	0.1886407
10	0xbe3a7675	-0.1820925
11	0x3d473444	0.04863383
12	0xbe1b8744	-0.15188318
13	0x3ec4d8b8	0.38446593
14	0x3e5a8069	0.21338047
15	0xbd5fb426	-0.054615162
16	0x3e034b05	0.12821586
17	0xbc5f379c	-0.013624098
18	0x3e986c27	0.29770014
19	0x3e4afef5	0.19823821
20	0xbd1bb1cd	-0.03801136
21	0x3dd5da9b	0.10442086
22	0xbe98d493	-0.2984968
23	0x3ea7c3aa	0.32766467
24	0xbddd94e5	-0.10819415
25	0xbf18afc1	-0.5964318
26	0xbf024a4b	-0.5089461
27	0xbe256344	-0.16151148
28	0xbcc53814	-0.024074592
29	0xbe866aff	-0.26253507
30	0xbe5c4dcd	-0.21514054
31	0x3dff633a	0.12470098
32	0xbeab72b9	-0.33485964
33	0xbe2cfc80	-0.16893196
34	0x3e51f195	0.20502312
35	0xbe1a3d92	-0.1506255
36	0xbeb80fac	-0.35949457
37	0xbdf8c1aa	-0.121463135
38	0xbe241943	-0.16025262
39	0xbeae007d	-0.33984748
40	0x3cc9820b	0.024598142
41	0xbd8dbf67	-0.06921273
42	0x3e99bd4a	0.3002723
43	0x3e91459e	0.28373426
44	0x3dad8530	0.08472669
45	0x3d90fe56	0.07079761
46	0x3e0bff3b	0.13671581
47	0x3e66c19b	0.22534792
48	0x3dd9b2c5	0.10629801
49	0x3c37abb5	0.011210372
50	0x3e0bba1c	0.13645214
51	0xbdc72533	-0.09723892
52	0x3ec1514e	0.37757343
53	0x3ec4c921	0.384347
54	0xbdffb46d	-0.12485585
55	0xbda44398	-0.08020705
56	0x3e801f8f	0.25024077
57	0x3d937f30	0.072019935
58	0x3e5294fb	0.20564644
59	0xbd53d466	-0.05171623
60	0x3e43e7d2	0.19131401
61	0xbcd2d3a5	-0.025735686
62	0x3dfc5e61	0.12322689
63	0x3ca5c7af	0.020236818
64	0xbd8fd8ec	-0.070237964
65	0xbe8b0fd3	-0.2716051
66	0x3eb06a4b	0.34456095
67	0xbe57d4c0	-0.21077251
68	0x3de13dfc	0.10998151
69	0xbe080175	-0.13281806
70	0xbde9d488	-0.1141749
71	0xbdad008e	-0.084473714
72	0xbe34dcee	-0.17662403
73	0x3de4fa6b	0.11180576
74	0x3e66e971	0.22549988
75	0x3ccb55e2	0.024821226
76	0xbd72576e	-0.05916541
77	0x3e07c3bf	0.13258265
78	0xbdd5c541	-0.10438014
79	0xbdec0f72	-0.115263835
80	0xbe60819c	-0.21924442
81	0xbea3e81e	-0.3201303
82	0xbe120641	-0.14260198
83	0x3df555fb	0.1197929
84	0xbe948663	-0.2900878
85	0xbe2975a4	-0.16548783
86	0x3d0124ea	0.031529345
87	0x3dba4a62	0.09096219
88	0xbd88d2b1	-0.06680811
89	0xbd697f68	-0.05700627
90	0x3e6e8494	0.23292762
91	0x3d9cd3c5	0.07657579
92	0x3ea3417b	0.31885895
93	0xbe02e988	-0.12784398
94	0xbc1dfe29	-0.009643116
95	0x3dae60fb	0.08514591
96	0x3e3d62e6	0.18494758
97	0xbee48d6f	-0.44639155
98	0xbeb5e642	-0.35527235
99	0x3ddf2190	0.108950734
100	0x3ebd6370	0.36989927
101	0x3d09556b	0.033528727
102	0x3d470343	0.048587095
103	0x3df7b189	0.12094409
104	0x3deaa246	0.114567325
105	0x3cbc8a57	0.023015184
106	0x3e69c986	0.22830781
107	0x3edcf51d	0.43155757
108	0x3df216ee	0.1182078
109	0x3e73f41a	0.23823586
110	0xbdc54ded	-0.09634004
111	0xbea87e3f	-0.32908818
112	0x3ea2c0ea	0.31787807
113	0x3f097b8b	0.53704137
114	0x3df5635e	0.119818434
115	0x3e31b3cf	0.17353748
116	0x3e99c1f7	0.30030796
117	0x3e9b7fc9	0.3037093
118	0xbd95a3c0	-0.073066235
119	0xbccf3381	-0.025293114
120	0xbe15e58b	-0.14638345
121	0xbe23f033	-0.16009597
122	0xbda0b37b	-0.07846733
123	0xbde0a909	-0.10969741
124	0xbed44a86	-0.41463107
125	0xbec1249c	-0.37723243
126	0xbea32c20	-0.31869602
127	0xbebeddc5	-0.37278572
128	0x3e61485f	0.22000264
129	0xbec969db	-0.39338574
130	0xbe5eebdc	-0.2176966
131	0xbdbfeb8e	-0.093711
132	0xbeb15102	-0.34632117
133	0xbe11e976	-0.14249215
134	0xbe4be237	-0.19910513
135	0x3e9b807d	0.30371466
136	0xbe18af08	-0.14910519
137	0xbe43c9b5	-0.19119914
138	0xbe59f759	-0.21285762
139	0xbe65a478	-0.22426021
140	0x3da4471f	0.08021378
141	0x3e9fca13	0.31208858
142	0x3e22be37	0.15892874
143	0x3ba6d589	0.0050913733
144	0xbdcf27ee	-0.10115038
145	0x3e474a25	0.19461878
146	0x3e8642d1	0.26222852
147	0x3dbe6ce2	0.092981115
148	0x3d6195ca	0.05507449
149	0x3e1b35f5	0.15157302
150	0xbe007f22	-0.12548497
151	0xbd9604f2	-0.07325162
152	0x3e1c04d0	0.15236211
153	0xbed4c646	-0.4155752
154	0xbe070f51	-0.13189436
155	0xbd000b97	-0.031261053
156	0x3d023434	0.031788066
157	0xbe8a459b	-0.2700623
158	0xbe6e5ebb	-0.23278324
159	0xbd5606be	-0.052252524
160	0x3dc45bda	0.09587832
161	0xbe1fb71f	-0.15597199
162	0xbe9229ca	-0.28547508
163	0xbe074b8b	-0.13212411
164	0xbe9414be	-0.28922075
165	0xbe103707	-0.14083491
166	0x3d979451	0.07401336
167	0xbe49fa7a	-0.19724455
168	0x3e5db174	0.21649724
169	0xbe6ae702	-0.22939685
170	0xbed816d6	-0.42204922
171	0x3e1115a1	0.14168407
172	0xbe26f57b	-0.16304581
173	0xbc918d63	-0.017767614
174	0x3e06d2a7	0.13166295
175	0x3bf65c13	0.0075183003
176	0xbe1f84cb	-0.15578
177	0x3e977a0b	0.295853
178	0x3e191a78	0.14951503
179	0xbe68e4dd	-0.22743554
180	0xbccb5259	-0.02481954
181	0xbe6ddb0c	-0.23228091
182	0x3e895a1e	0.26826566
183	0x3df0ba6a	0.11754306
184	0x3eb15fa1	0.34643272
185	0x3ea83147	0.32850096
186	0x3dc082d0	0.093999505
187	0x3e89fb47	0.26949522
188	0x3e6c614e	0.23083994
189	0x3df5bae7	0.119985394
190	0x3e678f1f	0.2261319
191	0xbd6dc785	-0.058051605
192	0x3e1c2a8c	0.15250605
193	0x3dc841ab	0.0977815
194	0xbc6076de	-0.013700215
195	0x3e423fb0	0.18969607
196	0xbd769e5c	-0.060209617
197	0xbe511913	-0.20419721
198	0xbcabf761	-0.020991983
199	0x3dc340f2	0.09533872
200	0xbd9e7ef1	-0.07739056
201	0xbde9b6ef	-0.11411845
202	0x3ebce15a	0.3689068
203	0xbe4f5418	-0.20246923
204	0x3dd77eb6	0.10522215
205	0x3e301529	0.17195572
206	0x3e6dba81	0.23215677
207	0x3e8adad1	0.2712007
208	0xbe72e2a3	-0.23719268
209	0x3e023861	0.1271682
210	0x3ea72c2c	0.32650888
211	0x3d4446f4	0.04791923
212	0x3e3464db	0.17616598
213	0xbe30709e	-0.1723046
214	0xbe51cd8c	-0.20488566
215	0x3e9d90cc	0.30774534
216	0x3eb0bb59	0.34517935
217	0xbea6bb6d	-0.3256487
218	0xbd2c8bd0	-0.042125523
219	0x3ce86976	0.0283706
220	0xbdbfdfad	-0.09368835
221	0x3e666df8	0.22502887
222	0xbdbd6160	-0.092470884
223	0xbf0a186e	-0.53943527
224	0xbcf9bc8f	-0.03048542
225	0xbe261cb3	-0.16221885
226	0xbdae4f23	-0.08511188
227	0xbe1174ec	-0.14204758
228	0xbdb4c4db	-0.0882661
229	0x3d35102c	0.044204876
230	0xbe351be2	-0.17686418
231	0x3e18ed10	0.14934182
232	0xbea00a0c	-0.31257665
233	0xbf1d1825	-0.61364967
234	0xbecfa7ee	-0.40557808
235	0xbe6a81b8	-0.22901046
236	0xbe48198c	-0.19540995
237	0xbe6d7f9b	-0.23193209
238	0xbd84c999	-0.06483764
239	0x3df33d47	0.11876922
240	0xbe52f170	-0.20599914
241	0xbe1f673b	-0.15566723
242	0xbd7d246b	-0.06180231
243	0xbd6a96bf	-0.05727267
244	0xbdf91014	-0.1216127
245	0x3c5e75e3	0.013577911
246	0xbd60d2cc	-0.05488853
247	0xbe192ec4	-0.14959246
248	0x3e00b6db	0.12569754
249	0x3daf5fcc	0.08563194
250	0xbe805b9a	-0.25069886
251	0x3e8c6824	0.27423203
252	0xbe4e3d6d	-0.2014062
253	0xbedff531	-0.43741754
254	0x3dd76afe	0.10518454
255	0xbe1f1d69	-0.15538563

lstm1.bias_ih_l0 f4 [80]
0	0xbddcb04e	-0.10775815
1	0xbe37dea3	-0.17956023
2	0x3e9c699b	0.3054932
3	0xbdab057f	-0.08350658
4	0xbd9f891a	-0.07789822
5	0x3e8a77c3	0.27044496
6	0x3e775493	0.24153356
7	0xbcdcb602	-0.026942257
8	0x3dad9908	0.08476454
9	0x3e36ad4e	0.17839548
10	0x3e0c1fbe	0.13683984
11	0x3d400ced	0.046887327
12	0x3d7e91e6	0.06215086
13	0xbde4b1a3	-0.11166694
14	0xbcd04c18	-0.02542691
15	0x3e525d5d	0.20543428
16	0x3d11439c	0.035464868
17	0x3ea418cf	0.32050177
18	0xbd8c583e	-0.06852768
19	0x3d85ac56	0.06527011
20	0xbe8bc5b7	-0.27299282
21	0x3db081d1	0.086185105
22	0x3e878a1e	0.26472563
23	0xbe35984e	-0.17733881
24	0x3cfb9373	0.030709958
25	0x3df07042	0.117401615
26	0x3d059f76	0.032622777
27	0xbdca7c5c	-0.09887001
28	0xbdb08a96	-0.08620183
29	0x3e47d769	0.19515766
30	0x3dd1dd38	0.10247272
31	0xbcf65ecf	-0.030074505
32	0xbd76c33a	-0.060244776
33	0xbdad318c	-0.08456716
34	0x3e71eddf	0.23625897
35	0xbe8e8877	-0.2783849
36	0x3e463e59	0.19359721
37	0x3dbee7dc	0.093215674
38	0xbe9837b4	-0.29729998
39	0xbce32629	-0.027728157
40	0x3d19c543	0.03754164
41	0x3da46c70	0.08028495
42	0x3da8b1e9	0.08237059
43	0x3d185973	0.03719468
44	0x3db11576	0.086466715
45	0x3e5646db	0.20925467
46	0xbd911458	-0.070839584
47	0x3e563f8e	0.20922682
48	0xbc59cffe	-0.013294218
49	0x3d06fc75	0.032955606
50	0x3eadb2ff	0.33925626
51	0xbe6c6df9	-0.23088826
52	0x3e0ff9ae	0.14060089
53	0xbda1cc52	-0.07900299
54	0xbe5e183a	-0.21688929
55	0x3de4da35	0.11174432
56	0x3e156669	0.14589848
57	0xbe32aa22	-0.17447713
58	0xbe43e931	-0.19131924
59	0x3e3a873a	0.18215647
60	0x3d8f3539	0.06992573
61	0x3d2ac460	0.041691184
62	0xbdc69f3c	-0.0969834
63	0xbdea744c	-0.11447963
64	0x3d5aba9e	0.05340063
65	0x3e3d270f	0.18471931
66	0xbcc265b1	-0.02373013
67	0x3d4cdf17	0.050017443
68	0xbe95e82e	-0.29278702
69	0xbdda1087	-0.106476836
70	0x3e39a15c	0.1812796
71	0xbe19aee7	-0.15008126
72	0xbd9bdd3d	-0.07610557
73	0xbe90af93	-0.28258952
74	0x3dd6a77b	0.10481163
75	0xbdfd4bda	-0.12367983
76	0xbdb05eac	-0.08611807
77	0x3e9e9cff	0.30979154
78	0xbdc0ed70	-0.094202876
79	0x3e5be622	0.21474507

lstm1.bias_hh_l0 f4 [80]
0	0x3d9cdc1e	0.076591715
1	0xbe37ebf2	-0.179611
2	0x3dbd1b1f	0.092336886
3	0x3e88cf1f	0.2672052
4	0x3b9bd3f2	0.0047554905
5	0x3e70177d	0.2344646
6	0xbdff7142	-0.12472774
7	0xbd79ab7e	-0.060954563
8	0xbe73a15e	-0.23792025
9	0x3e41ff8d	0.18945141
10	0x3e8821a0	0.26588154
11	0xbdb06978	-0.086138666
12	0xbd1a2a6d	-0.037638117
13	0x3ce46e42	0.027884606
14	0xbcef43de	-0.029207166
15	0x3e326b10	0.17423654
16	0x3e33f477	0.17573725
17	0x3eb2207c	0.3479041
18	0xbe7ad479	-0.24495114
19	0x3e2155a8	0.15755332
20	0xbebd9e58	-0.3703487
21	0x3d95b3ed	0.07309709
22	0x3d133452	0.03593857
23	0xbe14b64a	-0.14522663
24	0xbcff7ec8	-0.031188384
25	0x3dfa4f6c	0.1222218
26	0x3e8e0831	0.27740625
27	0xbe28f672	-0.16500261
28	0xbdefea75	-0.11714641
29	0x3e49cb90	0.19706559
30	0x3e61cdb1	0.22051121
31	0xbe9e813e	-0.3095798
32	0xbeb236d5	-0.3480746
33	0xbd102461	-0.035190944
34	0xbdd9fd49	-0.106440134
35	0x3de8e097	0.11370962
36	0xbe08830e	-0.13331243
37	0xbdf6aeaf	-0.12045037
38	0xbe103ed2	-0.14086464
39	0x3de6030e	0.112310514
40	0xbe13fd8a	-0.14452186
41	0xbdcfd1d4	-0.101474434
42	0x3d8fedc0	0.07027769
43	0xbe07ca5a	-0.13260785
44	0x3da86836	0.08223002
45	0x3e919341	0.28432658
46	0x3e4e2beb	0.20133941
47	0x3ec6777a	0.38763028
48	0xbc03def2	-0.00804876
49	0x3df38ab3	0.11891689
50	0x3e207df3	0.15673046
51	0xbe37bf58	-0.17944086
52	0xbdcb47c2	-0.09925796
53	0x3df4e96f	0.119585864
54	0x3da0dd96	0.07854764
55	0x3d6b4170	0.057435453
56	0x3e88f208	0.26747155
57	0x3ddf2447	0.10895591
58	0xbe116d98	-0.14201963
59	0x3d342908	0.043984443
60	0x3c89aa7a	0.016804922
61	0x3ccc3f7e	0.02493262
62	0x3d0f9aa9	0.035059605
63	0x3e84abe8	0.25912404
64	0x3d8a46ff	0.06751823
65	0x3e9ca04c	0.30591047
66	0x3e0de265	0.13855894
67	0xbe7cdf84	-0.2469464
68	0xbe0b6d35	-0.13615878
69	0xbe160f70	-0.14654326
70	0x3e1d2135	0.15344699
71	0xbe124ff2	-0.14288309
72	0xbc477b86	-0.012175446
73	0xbddb7158	-0.10714978
74	0x3e1bb2dd	0.1520495
75	0xbd0328ee	-0.032021455
76	0x3aa83809	0.0012834083
77	0x3d3009d7	0.042978134
78	0xbe8544ef	-0.26029155
79	0x3c624a06	0.013811594

lstm1.weight_ih_l1 f4 [80, 20]
0	0x3e598284	0.21241194
1	0xbce9c8ee	-0.028538194
2	0xbe8316f6	-0.25603455
3	0xbe6504bb	-0.22365086
4	0xbe9ca3f3	-0.30593833
5	0xbe7f1f00	-0.2491417
6	0xbe35788c	-0.17721766
7	0xbe2b8f2d	-0.16753836
8	0xbda57a09	-0.08079917
9	0xbe3e9f92	-0.18615559
10	0xbeef410a	-0.46729308
11	0x3e53d2bf	0.20685862
12	0xbd5232dd	-0.05131804
13	0x3d4a08e3	0.04932488
14	0x3d71e653	0.059057545
15	0xbe47d04d	-0.19513054
16	0xbe947b76	-0.29000443
17	0x3dde9c80	0.10869694
18	0x3e746aca	0.23868862
19	0xbed1c461	-0.40970138
20	0x3e1bee72	0.15227678
21	0x3aa8affd	0.0012869831
22	0xbe38b380	-0.18037224
23	0x3e347d1b	0.17625849
24	0xbd29dcfe	-0.04147052
25	0xbc364f6e	-0.011127336
26	0xbe3155c2	-0.1731787
27	0x3cdf9123	0.027290886
28	0xbdf24f12	-0.11831488
29	0xbe48d641	-0.19612981
30	0x3d27a824	0.040931836
31	0x3ea8f5da	0.3300007
32	0xbcb3c31b	-0.02194362
33	0xbe026db6	-0.12737164
34	0x3ec24093	0.3793989
35	0xbe1ae565	-0.1512657
36	0xbe4fe763	-0.20303111
37	0x3dccf637	0.10007899
38	0x3e5c6cad	0.21525832
39	0xbc2b0bbc	-0.010439809
40	0x3ea4cc82	0.32187277
41	0x3e236b9a	0.15959015
42	0xbe084edf	-0.13311337
43	0x3e57ddfc	0.21080774
44	0x3e009b98	0.12559354
45	0xbe0ad00b	-0.13555925
46	0xbe8e27d5	-0.27764764
47	0xbe81c178	-0.25342917
48	0x3ddcd82f	0.10783421
49	0xbecafd66	-0.39646453
50	0xbdf7f5da	-0.12107439
51	0x3d9fec14	0.078087
52	0x3da06907	0.078325324
53	0x3e9cc019	0.3061531
54	0x3e6a5935	0.22885592
55	0x3d860398	0.06543654
56	0xbebc12bd	-0.36733046
57	0x3f1b1c5a	0.60590136
58	0x3eec3f8b	0.4614223
59	0xbe632646	-0.22182569
60	0x3ddc93d4	0.107703835
61	0xbe803a2c	-0.25044382
62	0xbf0f7827	-0.5604271
63	0x3e58fdb9	0.21190538
64	0xbe55700e	-0.20843527
65	0xbf088328	-0.5332513
66	0xbe0113d3	-0.12605219
67	0xbe93b9c8	-0.28852677
68	0x3e06133a	0.13093272
69	0xbe8c72cc	-0.27431333
70	0xbf21fe93	-0.63279074
71	0x3c33a05c	0.010963526
72	0xbf089d8d	-0.53365403
73	0x3b8e3d5e	0.0043408116
74	0x3ef7c8ab	0.48395285
75	0x3d301e06	0.042997383
76	0xbee0e4da	-0.439246
77	0x3ea24d8a	0.31699783
78	0x3c67461a	0.014115835
79	0xbee40423	-0.44534406
80	0x3e246dd5	0.16057523
81	0x3e6a9a56	0.22910437
82	0xbe91e753	-0.284968
83	0x3e9e6d83	0.30942926
84	0xbcf7826a	-0.030213553
85	0xbe8233fc	-0.25430286
86	0x3e4e95f0	0.20174384
87	0xbe9a3c29	-0.30124024
88	0xbe6ccf54	-0.23125964
89	0xbeb1fed6	-0.34764737
90	0xbe9fbb94	-0.31197798
91	0x3e236935	0.15958102
92	0xbe6fd663	-0.23421626
93	0xbc028db4	-0.007968355
94	0x3e3ad14f	0.18243907
95	0xbe9daa41	-0.30793956
96	0x3d5b20d3	0.0534981
97	0x3daecfe2	0.08535744
98	0x3da6356e	0.0811566
99	0x3e254ad8	0.16141832
100	0xbb91e6a7	-0.0044525447
101	0x3d2895dd	0.041158546
102	0xbdb50db8	-0.08840507
103	0x3e1708e5	0.14749487
104	0xbee5d5b1	-0.44889596
105	0xbdecad75	-0.11556522
106	0xbda098ab	-0.07841619
107	0xbeeeb993	-0.46625957
108	0xbdf163ba	-0.117865995
109	0xbec22f8c	-0.379269
110	0xbdffd074	-0.12490931
111	0x3d8f690e	0.070024595
112	0xbeedf167	-0.46473238
113	0x3d993a17	0.07481783
114	0x3e44eae9	0.19230236
115	0x3dacdbec	0.08440384
116	0xbc859989	-0.016308563
117	0xbcbe944f	-0.023264078
118	0xbe286be3	-0.16447406
119	0x3c6a49e5	0.014299844
120	0xbe08655d	-0.13319917
121	0x3d25056b	0.04028837
122	0xbe2cf77f	-0.16891287
123	0x3e80548f	0.25064513
124	0xbda90e53	-0.08254685
125	0xbea53fa3	-0.32275113
126	0xbe48458d	-0.19557782
127	0x3d94dda1	0.07268835
128	0xbe5d6439	-0.21620263
129	0xbe49cf8b	-0.19708078
130	0xbefbebd3	-0.49203357
131	0x3ddc7560	0.10764575
132	0xbddebe64	-0.10876158
133	0xbdeba28a	-0.11505611
134	0xbd6eb70a	-0.05828003
135	0x3d31f764	0.04344882
136	0xbe9f14d0	-0.31070566
137	0x3e23deec	0.16003007
138	0x3e1f0238	0.1552819
139	0x3d11380e	0.03545385
140	0xbccd9fa7	-0.025100542
141	0x3d07437f	0.033023354
142	0xbe7a82a9	-0.24463905
143	0x3de45da5	0.11150674
144	0x3c5c6306	0.013451343
145	0xbe9e48f9	-0.3091505
146	0xbe5be3f2	-0.21473673
147	0xbdfb840e	-0.12281047
148	0x3de105ea	0.10987456
149	0xbeb4ff9f	-0.35351273
150	0xbe59651b	-0.21229975
151	0xbd86df15	-0.06585518
152	0x3e00e57f	0.12587546
153	0x3a620a16	0.0008622719
154	0x3f07ddfe	0.5307311
155	0xbde24593	-0.110484265
156	0xbe76f6fa	-0.24117652
157	0x3eac07a4	0.3359958
158	0x3eac0660	0.33598614
159	0xbddb7493	-0.10715594
160	0xbe1485de	-0.14504191
161	0xbdfa6958	-0.12227124
162	0xbddcca4a	-0.10780771
163	0x3ee1d35f	0.44106576
164	0xbe0e2432	-0.13880995
165	0xbe24814d	-0.1606495
166	0xbdfb150a	-0.12259872
167	0x3dd9d4d0	0.10636294
168	0x3e32a9a6	0.17447528
169	0xbe29a892	-0.1656821
170	0xbec9c395	-0.3940703
171	0x3d830d6f	0.06399047
172	0xbe45f091	-0.1933005
173	0x3ec90b15	0.39266267
174	0x3e9f83ff	0.31155393
175	0x3e063821	0.13107349
176	0xbe4f408b	-0.20239465
177	0x3e12907e	0.14312932
178	0x3e8c97bd	0.27459517
179	0xbe3b1280	-0.18268776
180	0xbd050dd4	-0.03248389
181	0x3dc1bd3e	0.09459923
182	0xbe87ec51	-0.26547483
183	0x3e761798	0.24032438
184	0xbe48963e	-0.19588563
185	0xbe84e4e7	-0.2595589
186	0xbe0cf757	-0.13766228
187	0xbd6b38e1	-0.05742729
188	0x3e1a9ef5	0.150997
189	0xbe6be36b	-0.23035972
190	0xbeb7d760	-0.35906506
191	0x3e67a522	0.22621587
192	0xbe1cb55a	-0.15303555
193	0x3e5941c2	0.21216491
194	0x3e6b79e1	0.22995712
195	0x3daecf60	0.085356474
196	0xbe0c5b60	-0.13706732
197	0x3e2f480f	0.17117332
198	0xbd93e462	-0.07221295
199	0xbdd4cbfc	-0.103904694
200	0x3e6c117d	0.23053546
201	0x3e187b6e	0.14890835
202	0xbe5914ad	-0.21199293
203	0x3db77243	0.089573406
204	0xbda4163f	-0.080120556
205	0x3c8c66c3	0.017138844
206	0xbe361b3c	-0.17783827
207	0x3c7108e2	0.0147115905
208	0x3e26a84c	0.16275138
209	0xbe62008f	-0.22070526
210	0xbeabc164	-0.33545983
211	0xbe894459	-0.26809958
212	0x3e8434fc	0.25821674
213	0x3e13447d	0.14381595
214	0x3ec69395	0.3878447
215	0x3cccaf5f	0.024985967
216	0x3dc4157f	0.095744126
217	0x3e78bf06	0.2429162
218	0x3e8408bb	0.2578791
219	0xbe1f1895	-0.15536721
220	0xbe77fa6a	-0.24216619
221	0x3e1215d1	0.14266135
222	0xbeea72d5	-0.45790735
223	0xbd979458	-0.07401341
224	0xbe2cbd41	-0.1686907
225	0xbeaaf058	-0.33386493
226	0x3c491c24	0.012274776
227	0xbefecd43	-0.49765977
228	0x3dde383d	0.1085057
229	0xbed4f488	-0.41592813
230	0xbef0acf2	-0.47006947
231	0xbe7dbec5	-0.24779804
232	0xbe6f7508	-0.23384488
233	0x3d6a181a	0.05715189
234	0xbd93389c	-0.07188532
235	0x3db91b4c	0.090384096
236	0xbe939a3b	-0.28828606
237	0xbe0c573c	-0.13705152
238	0xbe09fcbd	-0.13475318
239	0xbe390414	-0.18067962
240	0x3d836255	0.0641524
241	0xbd349537	-0.044087615
242	0xbd9eb8f5	-0.077501215
243	0x3e93305c	0.28747833
244	0xbe8d79b1	-0.27631906
245	0xbe8a92ed	-0.2706522
246	0x3e7d82b3	0.24756889
247	0xbe3d782d	-0.18502875
248	0xbe0932c6	-0.13398275
249	0xbe0bfa17	-0.1366962
250	0xbf023763	-0.50865763
251	0x3dc528cb	0.09626921
252	0xbead343a	-0.33828908
253	0xbe0eca71	-0.13944413
254	0x3ceb0caf	0.028692571
255	0xbe286d47	-0.16447936

lstm1.weight_hh_l1 f4 [80, 20]
0	0xbd741ebc	-0.059599623
1	0x3e7037b9	0.23458757
2	0x3d538dc8	0.051648885
3	0x3e503c26	0.20335445
4	0xbe81f4cb	-0.25382075
5	0xbd6a2ad1	-0.05716974
6	0xbde616c7	-0.11234813
7	0x3dba7551	0.091044076
8	0xbd68a8b6	-0.05680152
9	0xbd4e834b	-0.05041818
10	0x3e1feeb4	0.15618402
11	0xbd01e8b9	-0.031716082
12	0x3c6d9bb3	0.014502454
13	0xbe048616	-0.12941775
14	0xbbb5eaf8	-0.005551692
15	0x3c9bdbf6	0.019025784
16	0x3da33112	0.07968344
17	0x3e5281af	0.20557283
18	0xbe4199d7	-0.18906341
19	0xbe22fde6	-0.15917167
20	0xbe40b23a	-0.18817988
21	0x3e1cfb10	0.15330148
22	0xbca40ea1	-0.020026507
23	0xbdf7d0c6	-0.12100367
24	0xbe1ff9e6	-0.15622672
25	0x3e523c9c	0.20530933
26	0x3e8f7cda	0.28024942
27	0x3e501ab2	0.20322683
28	0xbe126947	-0.14297973
29	0xbd30dbb3	-0.04317827
30	0xbe071d98	-0.13194883
31	0x3e37bf44	0.17944056
32	0x3e388927	0.1802107
33	0xbd8dabba	-0.0691752
34	0x3dcffcdb	0.1015565
35	0xbe74095f	-0.238317
36	0xbd36322a	-0.044481434
37	0xbc788d90	-0.01517047
38	0xbdd50fb9	-0.104033895
39	0xbe88ad28	-0.26694608
40	0xbe55e3a4	-0.2088762
41	0x3e399f42	0.18127158
42	0xbcf8c5f3	-0.030367827
43	0x3de8646b	0.11347278
44	0x3e5d85bd	0.21633048
45	0xbe3dda90	-0.18540406
46	0x3be9b08f	0.007131643
47	0x3dfeb2c3	0.1243644
48	0x3a389269	0.000704086
49	0x3e1dda2f	0.15415262
50	0x3da2918f	0.07937919
51	0xbdd7dfe3	-0.1054075
52	0xbda77ed6	-0.08178489
53	0x3d3534c1	0.044239763
54	0x3e7e7dc7	0.24852668
55	0x3ea4472f	0.3208556
56	0xbdf1a94e	-0.117998704
57	0xbd0ea2ae	-0.034823112
58	0xbe0e19a2	-0.13876966
59	0x3ea42258	0.32057452
60	0xbded890e	-0.11598407
61	0x3e915d1b	0.28391346
62	0xbe65e9f1	-0.22452523
63	0x3d889bff	0.06670379
64	0xbdfd9b6e	-0.123831615
65	0x3c225c4e	0.009909702
66	0xbe050084	-0.12988478
67	0x3e29d3fa	0.16584769
68	0xbe8828db	-0.2659367
69	0xbe1f882b	-0.15579288
70	0x3d8ab1fd	0.0677223
71	0x3e1d020f	0.15332817
72	0x3dab6440	0.083687305
73	0x3e12c357	0.14332329
74	0xbdd8e1ce	-0.10589944
75	0xbca9eb9c	-0.02074223
76	0x3c1cd7d7	0.009572945
77	0x3d2b201a	0.04177866
78	0x3e866caf	0.26254794
79	0xbd06dc5c	-0.032924995
80	0xbe1a16f4	-0.15047818
81	0x3e9f3aea	0.31099635
82	0x3e8d17df	0.27557275
83	0x3d7dc05a	0.06195102
84	0x3e86b2e8	0.2630837
85	0x3e59764e	0.21236536
86	0x3e1bc355	0.15211232
87	0x3ddbcc10	0.10732281
88	0xbaa343b2	-0.0012456088
89	0x3e54adc9	0.20769419
90	0xbda1f88d	-0.079087354
91	0xbd6bab8c	-0.057536647
92	0xbe331db8	-0.17491806
93	0xbe200d2c	-0.15630025
94	0xbe504ed9	-0.20342578
95	0x3e103646	0.14083204
96	0xbe862cf5	-0.26206174
97	0x3bb3a9a4	0.005482869
98	0x3db4b623	0.08823802
99	0x3d84d783	0.06486418
100	0xbe0fe27d	-0.14051242
101	0x3d00eedd	0.031477798
102	0x3b9d9bea	0.004809846
103	0xbe21f944	-0.15817744
104	0xbe0bb1c9	-0.13642038
105	0x3e43f225	0.1913534
106	0x3dba0217	0.0908243
107	0x3da27883	0.07933142
108	0x3e0d3d3d	0.13792892
109	0x3d8f1201	0.06985856
110	0xbcbfae3e	-0.023398515
111	0xbe21bcd1	-0.15794684
112	0xbaf7b688	-0.0018899003
113	0xbc39b9fe	-0.011335848
114	0x3e099107	0.1343423
115	0xbe7b8fb5	-0.24566539
116	0xbdb1b051	-0.08676208
117	0xbe1a90b9	-0.1509427
118	0x3e29ce20	0.16582537
119	0x3e0d74c1	0.1381407
120	0x3d3b3c2e	0.04571169
121	0x3da19cbd	0.078912236
122	0x3df494de	0.11942457
123	0xbd0b0d3b	-0.033948164
124	0x3e019ef7	0.12658297
125	0xbe00cc94	-0.1257804
126	0x3d120f10	0.035658896
127	0xbe11ec0d	-0.14250202
128	0x3ddef787	0.10887056
129	0x3e30a5a4	0.17250687
130	0x3c277a1c	0.010221984
131	0x3ce15f5c	0.027511291
132	0x3e3bb0c0	0.18329144
133	0xbe0b3afc	-0.1359672
134	0xbe330167	-0.17481004
135	0x3e6b539c	0.22981113
136	0x3e462dee	0.19353458
137	0x3ea394a7	0.3194935
138	0xbe4a37f9	-0.19747914
139	0x3e0d0568	0.13771594
140	0xbda71d57	-0.08159893
141	0xbb2eb2b3	-0.0026656806
142	0xbe538ef9	-0.20660008
143	0xbe3ec4eb	-0.18629806
144	0xbb8e3611	-0.0043399413
145	0x3e0122ee	0.12610981
146	0xbdfb8c90	-0.122826695
147	0x3e38ce9a	0.18047562
148	0x3e335bb3	0.17515449
149	0xbdbbc0f2	-0.09167661
150	0xbd5dd163	-0.054154765
151	0xbd069bf4	-0.032863572
152	0x3e33d01d	0.17559858
153	0x3e2774d3	0.16353159
154	0xbe21122d	-0.1572959
155	0x3e3e4bac	0.18583554
156	0x3e09133a	0.1338624
157	0xbe0cbbc2	-0.13743499
158	0xbdb7781e	-0.089584574
159	0xbd10dd6e	-0.03536742
160	0xbe458207	-0.19287883
161	0x3e56f8c6	0.20993337
162	0x3e3a1f61	0.18176033
163	0x3ccf9271	0.025338383
164	0xbb9c8c8c	-0.0047774967
165	0x3e850463	0.2597991
166	0x3db86aae	0.090047225
167	0xbdf7cd92	-0.12099756
168	0x3e5bfd8e	0.21483442
169	0x3dd55f2b	0.104185425
170	0x3db5fdda	0.08886309
171	0xbe81db5d	-0.25362673
172	0xbe529ba6	-0.20567188
173	0xbdc68f33	-0.09695282
174	0xbda55461	-0.080727346
175	0xbe82b20c	-0.25526464
176	0xbe1ab312	-0.15107372
177	0xbdea9c17	-0.11455553
178	0x3dcf09c0	0.101092815
179	0x3e3e60da	0.18591633
180	0x3bbe210b	0.005802279
181	0x3ee82230	0.45338583
182	0x3e52f2e7	0.20600472
183	0x3d455365	0.048175234
184	0xbdb36a0d	-0.08760462
185	0xbe7bfe48	-0.2460872
186	0x3e24a3f0	0.16078162
187	0x3d3458a4	0.044029847
188	0xbec1570d	-0.37761727
189	0xbe0e8b80	-0.13920403
190	0x3e02fbf7	0.1279143
191	0xbe46848b	-0.19386499
192	0x3cae0353	0.02124182
193	0x3de9607f	0.11395358
194	0xbd567119	-0.052353952
195	0x3c8b04ef	0.016970126
196	0xbe5643c3	-0.20924287
197	0x3dbe77b4	0.09300175
198	0xbe109ac2	-0.14121535
199	0xbd5030da	-0.05082784
200	0x3d9764a2	0.07392241
201	0xbe59296c	-0.21207207
202	0xbe37e850	-0.17959714
203	0xbd827191	-0.06369317
204	0x3da76e56	0.08175342
205	0x3e0839bc	0.13303274
206	0xbe3c8033	-0.18408279
207	0xbe18d82b	-0.14926212
208	0x3dba4aa9	0.090962715
209	0xbda67297	-0.08127325
210	0x3eb0962b	0.3448957
211	0xbe3c98d4	-0.18417674
212	0xbd433ec7	-0.04766729
213	0xbddb43dc	-0.107063025
214	0xbd580b49	-0.052745137
215	0x3e082cb7	0.13298307
216	0x3e2413ce	0.1602318
217	0xbdf5589c	-0.119797915
218	0x3d92977f	0.07157802
219	0xbdd33f2b	-0.10314783
220	0x3d936a2b	0.07197984
221	0x3d8788aa	0.066178635
222	0xbd40f495	-0.04710825
223	0xbc253e1f	-0.010085612
224	0xbe250289	-0.16114248
225	0xbe25f2a3	-0.1620584
226	0xbeb5f88c	-0.3554119
227	0x3e12269a	0.14272538
228	0x3e0a5fe4	0.13513142
229	0xbe7de608	-0.24794781
230	0x3e23d76f	0.1600015
231	0x3e7182e6	0.2358509
232	0xbe7dd90b	-0.24789827
233	0xbe94a91a	-0.29035264
234	0xbd889bdb	-0.06670352
235	0xbda4badd	-0.08043454
236	0x3eb6db66	0.35714263
237	0xbcd1d607	-0.025614752
238	0x3e4fa7bd	0.20278831
239	0x3d2302e4	0.03979768
240	0xbd7847d3	-0.060615372
241	0x3dd3b2b8	0.10336822
242	0x3dafc794	0.085829884
243	0x3ca9ce23	0.020728176
244	0x3e3a0868	0.18167269
245	0x3dcf9fc4	0.10137895
246	0x3e19f920	0.1503644
247	0x3e9a4e72	0.30137974
248	0x3d775c09	0.060390506
249	0xbd8f794c	-0.070055574
250	0xbd8ca27e	-0.068669304
251	0x3e75549c	0.23958057
252	0xbc463aaf	-0.012098952
253	0x3e5739df	0.2101817
254	0x3cd8be71	0.026457997
255	0xbe1c3581	-0.15254785

lstm1.bias_ih_l1 f4 [80]
0	0xbe8ad643	-0.27116594
1	0xbe55faaa	-0.20896402
2	0xbe107774	-0.14108068
3	0x3d0eade3	0.0348338
4	0xbdee266d	-0.11628423
5	0xbe906834	-0.282045
6	0xbe360dc8	-0.17778695
7	0xbbcf120d	-0.0063192905
8	0x3be6536b	0.007028987
9	0x3d655dc7	0.055997636
10	0xbd1d313f	-0.038377043
11	0xbe909e02	-0.2824555
12	0xbe936214	-0.28785765
13	0x3dc1213a	0.094301656
14	0x3d42c1ba	0.047548033
15	0x3df6e0d6	0.12054603
16	0xbe108e3a	-0.14116755
17	0xbdc1d0c1	-0.09463645
18	0xbda41975	-0.08012668
19	0x3e1fe247	0.15613662
20	0xbe7f3b4e	-0.24924967
21	0xbd8c9ace	-0.06865464
22	0x3d9da3de	0.07697271
23	0xbe9d1bed	-0.30685368
24	0xbdd2cba0	-0.10292745
25	0xbe8e060a	-0.27738982
26	0xbf032e88	-0.51242876
27	0xbd70af8f	-0.058761176
28	0xbecc3307	-0.3988268
29	0xbdbfd995	-0.09367672
30	0xbe10dd89	-0.14147009
31	0xbe883cda	-0.26608926
32	0xbdc4b167	-0.09604149
33	0xbe6c32e7	-0.23066293
34	0xbea26ff5	-0.3172604
35	0x3c884dc1	0.016638638
36	0xbe74af69	-0.23895039
37	0xbec2b2d2	-0.38027054
38	0xbd8c8616	-0.06861512
39	0xbe7b380b	-0.24533097
40	0x3e49e361	0.19715644
41	0x3dfa12f0	0.12210643
42	0xbe157ac3	-0.14597611
43	0xbe3e724e	-0.18598291
44	0x3e255735	0.16146548
45	0xbd205823	-0.039146554
46	0xbe0934fc	-0.13399118
47	0x3e4fa1b0	0.20276523
48	0xbc8bd160	-0.017067611
49	0xbe5f559f	-0.21810006
50	0xbdca0808	-0.09864813
51	0xbd5919d8	-0.053003162
52	0xbc936b84	-0.017995603
53	0xbe103ebe	-0.14086434
54	0xbd024378	-0.031802624
55	0xbdc73dd0	-0.09728587
56	0x3e024537	0.12721716
57	0xbe198d11	-0.14995219
58	0x3ead9db2	0.33909374
59	0x3db21461	0.08695293
60	0xbbe77a72	-0.007064157
61	0xbcad99b3	-0.021191454
62	0xbce3b725	-0.027797291
63	0xbe133ab3	-0.1437786
64	0xbe167123	-0.14691596
65	0xbdb4430f	-0.08801853
66	0xbedb34a0	-0.42813587
67	0xbe96b97b	-0.29438385
68	0xbe8f4633	-0.27983245
69	0xbdbb9aa4	-0.09160355
70	0xbe3eb1f2	-0.18622568
71	0x3dc79cdb	0.09746715
72	0xbe4b60a1	-0.1986108
73	0xbdfbac3f	-0.12288713
74	0xbe72da75	-0.23716147
75	0xbe9c7f21	-0.30565742
76	0xbe25810e	-0.16162512
77	0xbed0eb3d	-0.40804473
78	0x3cce31ed	0.02517029
79	0xbe3defa8	-0.18548453

lstm1.bias_hh_l1 f4 [80]
0	0x3c6eecf0	0.0145828575
1	0xbebb212d	-0.3654875
2	0x3c4bf43e	0.012448369
3	0xbe4e9979	-0.20175733
4	0xbe9c0691	-0.3047376
5	0xbe9b88d6	-0.30377835
6	0xbce3a448	-0.027788296
7	0xbd777cd1	-0.06042177
8	0x3e1bd16e	0.1521661
9	0xbc1947f9	-0.0093555385
10	0x3de1a0d8	0.11017007
11	0xbd351704	-0.044211403
12	0x3d698cd7	0.05701908
13	0xbe84cdad	-0.25938168
14	0xbdc0d496	-0.094155475
15	0x3db9dda6	0.09075479
16	0xbde262ff	-0.11054038
17	0xbe1e2bcc	-0.15446395
18	0xbe3c65f2	-0.18398264
19	0xbe33b15c	-0.17548126
20	0xbe3b5b4a	-0.18296543
21	0xbeb8416b	-0.3598741
22	0xbe2cbd6e	-0.16869137
23	0x3d690564	0.056889907
24	0xbea1ce85	-0.31602874
25	0x3ceeb215	0.02913765
26	0xbeac108f	-0.33606383
27	0xbec5d666	-0.38640136
28	0xbe8229be	-0.25422472
29	0xbe9f2ded	-0.31089726
30	0x3d7c01fe	0.061525337
31	0xbe2cccb3	-0.16874962
32	0xbd871d49	-0.065973826
33	0xbdfd129e	-0.123570666
34	0xbe341139	-0.17584695
35	0x3c89529d	0.016763026
36	0xbcbb0c4a	-0.022833008
37	0xbe27bea3	-0.16381316
38	0xbde57150	-0.11203253
39	0xbdf6acac	-0.12044653
40	0xbbb55b20	-0.0055345446
41	0x3cdc8718	0.026919886
42	0xbe464153	-0.19360857
43	0x3e0a43d6	0.1350244
44	0x3d8d17e5	0.06889323
45	0xbc653206	-0.013988977
46	0xbd4051b1	-0.046952907
47	0x3d84adc0	0.06478453
48	0xbda80353	-0.08203759
49	0x3d810a18	0.06300753
50	0x3d88a809	0.06672675
51	0x3e9756a9	0.29558304
52	0xbe16f1de	-0.14740703
53	0x3d61f2ea	0.0551633
54	0xbd1a1ebc	-0.037626967
55	0x3d153000	0.03642273
56	0x3d7b9d92	0.061429568
57	0xbe2bb9e6	-0.16770133
58	0x3caecd6b	0.021338185
59	0x3d8dded9	0.069272704
60	0xbd698b2a	-0.057017483
61	0xbea75220	-0.32679844
62	0xbe447be1	-0.19187881
63	0xbedf1c34	-0.43576205
64	0x3d9cade9	0.07650358
65	0xbe9f2610	-0.31083727
66	0xbe2513cd	-0.16120835
67	0xbdcfba66	-0.101429746
68	0xbea997ef	-0.3312373
69	0xbe9c6f6b	-0.30553755
70	0xbc8fd8fd	-0.017559523
71	0xbe270335	-0.16309817
72	0xbe5b0d2e	-0.21391746
73	0xbdb1de56	-0.08684985
74	0x3deff0b4	0.11715832
75	0x3d294262	0.041323073
76	0x3d52911a	0.05140791
77	0xbe1982d4	-0.14991313
78	0xbe81e955	-0.2537333
79	0x3c9fc1a4	0.019501515

lstm2.weight_ih_l0 f4 [80, 5]
0	0x3f43aee8	0.7643876
1	0x3f59bd7a	0.85054743
2	0x3dfa8bbd	0.12233684
3	0xbd29a48c	-0.04141669
4	0xbd0198b4	-0.03163977
5	0x3fa37830	1.2771053
6	0x3f83def9	1.0302421
7	0x3e7536ac	0.23946637
8	0x3e9559a2	0.29169947
9	0x3de6cdce	0.11269723
10	0x3eabf60a	0.3358615
11	0x3da55309	0.08072478
12	0x3ee0affa	0.4388426
13	0xbe213c42	-0.15745643
14	0xbe88bcd4	-0.26706564
15	0x3f73964b	0.95151204
16	0x3ef81b49	0.48458317
17	0xbf0c2116	-0.54737985
18	0xbe3325f6	-0.1749495
19	0xbe4c0198	-0.19922483
20	0x3f58848d	0.84577256
21	0x3f1f50ce	0.62232673
22	0x3fca9d29	1.5829211
23	0x3e160f35	0.14654239
24	0xbe9397ae	-0.2882666
25	0x3fdab6ed	1.7087075
26	0x3faf1d18	1.3680754
27	0x3e9814a0	0.29703236
28	0xbd9f6d13	-0.07784476
29	0x3d6ca3cd	0.0577734
30	0x3f2ef9ab	0.68349713
31	0x3f11a47e	0.5689162
32	0x3f3254e7	0.696608
33	0x3e01ee4d	0.12688561
34	0xbb8b1c3b	-0.0042453087
35	0x3fea6525	1.8312117
36	0x3fcdf3ce	1.6090028
37	0x3d8db448	0.069191515
38	0x3e9161e5	0.28395
39	0x3ea117a0	0.31463337
40	0x3fbaa70c	1.4582229
41	0x3fb8bcad	1.4432579
42	0xbe806b90	-0.25082064
43	0xbdf11940	-0.11772394
44	0xbde9431f	-0.113897555
45	0x3f6425fc	0.8912046
46	0x3f85b328	1.0445299
47	0x3d350db0	0.044202507
48	0x3e75768c	0.23971003
49	0x3e56fbce	0.20994493
50	0x3fb0b805	1.3806158
51	0x3fb34363	1.400494
52	0xbdf35d38	-0.118830144
53	0x3e3663f6	0.1781157
54	0xbb743e3a	-0.0037268535
55	0x3e9aba38	0.302202
56	0x3f2235dc	0.6336343
57	0xbe9002bd	-0.2812709
58	0x3e9c13df	0.3048391
59	0x3e2a5619	0.16634406
60	0x3f5af4a9	0.8552957
61	0x3f47fe65	0.7812255
62	0x3e15685e	0.14590594
63	0xbe8673d9	-0.2626026
64	0xbe76f095	-0.24115212
65	0x3fb2f384	1.3980565
66	0x3fa0fb06	1.2576606
67	0x3d6315c3	0.055440675
68	0x3b98042a	0.0046391683
69	0x3c860a29	0.016362267
70	0x3f2c579c	0.6732118
71	0x3f361284	0.71122
72	0x3f6ba408	0.92047167
73	0xbc8d6564	-0.01726026
74	0x3d0b7316	0.0340453
75	0x3e145a3a	0.14487544
76	0x3e5de445	0.21669109
77	0x3f8a66b7	1.0812596
78	0x3cc3ab77	0.023885472
79	0xbb93cd43	-0.004510553
80	0x3fb179fe	1.3865354
81	0x3fa702da	1.3047745
82	0x3f416d0b	0.7555701
83	0xbe45f3d5	-0.19331296
84	0xbd98ab5b	-0.074545585
85	0x3f38a876	0.7213205
86	0x3f166bf9	0.58758503
87	0x3f954243	1.1660846
88	0x3de24117	0.11047571
89	0xbe4af034	-0.19818193
90	0x3fcc84b6	1.5978
91	0x3fc11215	1.5083643
92	0x3e90f8e1	0.2831488
93	0x3e568168	0.20947802
94	0x3eaf9c50	0.34298944
95	0x3fb177ee	1.3864725
96	0x3faa51ef	1.3306254
97	0x3ea18871	0.3154941
98	0xbe1054c2	-0.14094833
99	0xbdced91c	-0.10100004
100	0x3f1acf76	0.6047281
101	0x3efa9ff0	0.48950148
102	0xbebf6e7d	-0.37388983
103	0x3c1dec24	0.00963882
104	0xbe0c9e59	-0.1373228
105	0x3ef94196	0.4868285
106	0x3f556144	0.8335154
107	0x3cfc7685	0.030818233
108	0xbdf0930c	-0.11746797
109	0xbd7739a1	-0.060357694
110	0x3ea085d2	0.31352097
111	0xbdb546cc	-0.08851394
112	0x3f016fcc	0.50561213
113	0xbea07418	-0.31338573
114	0xbe1ce8cd	-0.15323181
115	0x3ec695fd	0.38786307
116	0x3ed3475a	0.41265374
117	0xbe70cec2	-0.23516372
118	0xbe58013b	-0.2109422
119	0xbe9548c9	-0.29157093
120	0x3e95c432	0.29251248
121	0x3eee1118	0.46497416
122	0x3f16578a	0.58727324
123	0xbe4d8d0e	-0.2007334
124	0x3cec9124	0.028877802
125	0x3f87a29d	1.0596501
126	0x3f93a682	1.1535189
127	0x3df48a20	0.11940408
128	0xbe6c7720	-0.23092318
129	0xbdd62cc6	-0.104577586
130	0x3dd787f9	0.105239816
131	0x3ec74cf8	0.3892591
132	0x3f3896de	0.72105205
133	0xbdd3ac93	-0.1033565
134	0xbe943b93	-0.28951702
135	0x3f9441fd	1.1582638
136	0x3f5a2ecb	0.8522765
137	0xbe373145	-0.17889889
138	0xbe6839fd	-0.22678371
139	0xbde633c7	-0.112403445
140	0x3f01cf1e	0.5070666
141	0x3f3ba2c6	0.7329525
142	0xbebd86ab	-0.37016806
143	0xbe4473ed	-0.19184847
144	0xbe168389	-0.14698614
145	0x3f5ba6a7	0.85801166
146	0x3f1b6230	0.606967
147	0xbed783c6	-0.42092723
148	0x3e2f426c	0.17115182
149	0xbdace752	-0.08442558
150	0x3f7e4fb7	0.99340385
151	0x3f144468	0.5791688
152	0xbf11630b	-0.5679175
153	0xbc1420f1	-0.009041057
154	0xbe37557b	-0.17903702
155	0x3ee901c4	0.4550916
156	0x3e6f4554	0.2336629
157	0xbed37718	-0.413018
158	0x3d98de79	0.07464308
159	0xbe3d1d28	-0.18468153
160	0x3ef287db	0.47369274
161	0x3e88b7f3	0.26702842
162	0xbe4a5c02	-0.1976166
163	0xbe8ea1c9	-0.27857807
164	0xbe8b3a02	-0.27192694
165	0x3f85b3e6	1.0445526
166	0x3f907f23	1.1288799
167	0xbe07a6db	-0.13247244
168	0xbdeb6922	-0.11494662
169	0xbe2e2a51	-0.1700833
170	0x3f1d6472	0.6148139
171	0x3f1e6a36	0.61880815
172	0x3ef3f0da	0.47644693
173	0xbd3fa8a6	-0.046791695
174	0x3e08f4db	0.13374655
175	0x3ea12fc4	0.31481755
176	0x3e38d01f	0.18048142
177	0x3f49e7b7	0.78869194
178	0x3de24339	0.11047978
179	0x3dce9976	0.10087864
180	0x3f791c8b	0.9730918
181	0x3f52635c	0.8218286
182	0x3e14e6ca	0.14541164
183	0xbc8cc832	-0.017185304
184	0xbe74775e	-0.2387366
185	0x3f168b1f	0.5880603
186	0x3eea9c42	0.4582234
187	0x3df51b06	0.11968045
188	0xbc5a5f5d	-0.0133284
189	0xbf01fe08	-0.50778246
190	0x3f73e389	0.95269066
191	0x3f0e7a9f	0.55655855
192	0xbe9a3557	-0.3011882
193	0xbe11968a	-0.14217582
194	0xbdd44d7a	-0.1036634
195	0x3f9841df	1.1895102
196	0x3f7bad20	0.9831104
197	0x3dcefa0a	0.10106285
198	0x3e45a061	0.19299461
199	0xbe65f92e	-0.22458336
200	0xbfb14fe0	-1.3852501
201	0xbf9cfeae	-1.2265222
202	0xbf28f912	-0.6600505
203	0xbdb2c793	-0.08729472
204	0x3e0ec8bc	0.13943762
205	0x3edb5852	0.4284082
206	0x3ed9bf50	0.42528772
207	0xbd907e89	-0.07055385
208	0xbdac01cf	-0.083987825
209	0xbe0f18f7	-0.13974367
210	0x3e9dc6ec	0.30815828
211	0x3df20b5c	0.11818573
212	0xbeeead91	-0.46616796
213	0x3d537af8	0.051630944
214	0x3de96d67	0.1139782
215	0xbc782586	-0.015145665
216	0xbe8a5910	-0.27021074
217	0x3f2c38fc	0.6727445
218	0xbe97da55	-0.29658762
219	0xbda2a730	-0.07942045
220	0x3efc8005	0.4931642
221	0x3eb391a9	0.35072067
222	0xbf19ada1	-0.6003056
223	0xbba3912e	-0.004991672
224	0x3de76795	0.112990536
225	0xbf0055a6	-0.5013069
226	0xbef0e61d	-0.47050563
227	0x3eec51ee	0.46156257
228	0x3e7f8265	0.24952085
229	0xbd0ef16c	-0.034898207
230	0x3e9548f8	0.29157233
231	0x3e950b49	0.29110172
232	0xbef038ac	-0.46918237
233	0xbe10a377	-0.14124857
234	0xbe972b0c	-0.2952503
235	0xbfef3734	-1.8688722
236	0xbfb6000a	-1.4218762
237	0xbc693cb5	-0.014235665
238	0x3e58dec3	0.21178727
239	0xbd32c11c	-0.043641195
240	0x3f46a2c3	0.77592105
241	0x3f359ade	0.70939434
242	0xbe42859e	-0.18996283
243	0x3dca839e	0.09888385
244	0xbe034a84	-0.12821394
245	0x40039e2c	2.056529
246	0x3fc3ef53	1.5307411
247	0x3f844807	1.0334481
248	0x3cfdebaf	0.030996172
249	0xbdc86627	-0.09785109
250	0xbff9fadb	-1.952968
251	0xbfb33840	-1.4001541
252	0x3e2c17d1	0.1680596
253	0x3de0bab9	0.109731145
254	0x3d340caa	0.04395739
255	0x3f69e838	0.9136996

lstm2.weight_hh_l0 f4 [80, 20]
0	0xbd9caccf	-0.07650148
1	0xbf0e5ecb	-0.5561339
2	0x3e3c0dfb	0.18364708
3	0x3f14f5eb	0.5818774
4	0x3e2c58bc	0.16830724
5	0xbda426d8	-0.08015221
6	0x3eae2160	0.34009838
7	0x3efb4f98	0.49084163
8	0xbefde3af	-0.4958777
9	0xbd454866	-0.048164748
10	0x3eb87adf	0.36031243
11	0x3f15b8eb	0.5848529
12	0x3d7c1d2a	0.06155125
13	0x3e946a98	0.28987575
14	0x3cd0fcf2	0.025511239
15	0x3da32941	0.07966853
16	0xbd9469b8	-0.07246727
17	0x3dfc6817	0.12324541
18	0xbf0c2792	-0.5474788
19	0xbe0ddd2f	-0.13853906
20	0xbe1f1e65	-0.15538938
21	0x3e0c5237	0.13703237
22	0x3ecbc3ae	0.3979773
23	0x3ecd33c9	0.4007857
24	0xbe7a288c	-0.2442953
25	0x3cc3f2a5	0.023919413
26	0xbe7b1107	-0.24518214
27	0x3c6f441d	0.014603642
28	0xbac6cfc4	-0.001516812
29	0xbe83e902	-0.25763708
30	0xbd947edf	-0.07250761
31	0x3ed9527a	0.42445737
32	0xbdfbce5c	-0.12295219
33	0x3dff1124	0.12454441
34	0xbdfb9ba2	-0.12285544
35	0xbe43380d	-0.1906435
36	0xbe0f43cd	-0.13990708
37	0x3d94d319	0.07266826
38	0xbf0bab6b	-0.5455844
39	0xbd4b5608	-0.049642593
40	0xbe8969c2	-0.268385
41	0x3e01c4e1	0.1267276
42	0xbe24d81a	-0.16098061
43	0x3dd96646	0.1061521
44	0xbeaa8067	-0.33301088
45	0x3e9f58ea	0.31122524
46	0x3e8a1db6	0.26975793
47	0xbde16767	-0.110060506
48	0xbe0ef862	-0.13961938
49	0x3d0222ba	0.0317714
50	0xbebf79fd	-0.37397757
51	0x3e7bdbe3	0.24595599
52	0xbe68faea	-0.22751966
53	0xbe31a40c	-0.17347735
54	0xbce429f6	-0.02785204
55	0x3d1b7bfb	0.037960034
56	0x3dd04bb8	0.10170692
57	0x3cdb9378	0.026803717
58	0x3dc8f335	0.09812013
59	0x3e795b57	0.2435125
60	0x3dfd3118	0.123628795
61	0xbe5eea36	-0.21769032
62	0x3d95f0c2	0.073213115
63	0x3c63aa36	0.013895562
64	0x3dd4fed4	0.10400167
65	0x3d89aa45	0.067219295
66	0x3e9164ec	0.2839731
67	0xbe65be40	-0.22435856
68	0xbe349717	-0.17635761
69	0x3d985483	0.07437994
70	0xbd208d02	-0.039196976
71	0x3d512969	0.051064882
72	0x3d54a246	0.05191257
73	0xbe025322	-0.12727025
74	0x3e0d112b	0.1377608
75	0xbdc748c1	-0.097306736
76	0xbe7c325f	-0.2462859
77	0xbdb8bd58	-0.090204895
78	0xbde55add	-0.111989714
79	0x3e737c3c	0.2377786
80	0xbed2f787	-0.41204473
81	0x3e649385	0.22321899
82	0x3e5d8845	0.21634014
83	0xbdfc5836	-0.123215124
84	0x3e3779aa	0.17917505
85	0xbdf71357	-0.12064236
86	0xbba07e6d	-0.0048978836
87	0xbdaafdce	-0.08349191
88	0xbe99f3bf	-0.30068776
89	0xbda90d41	-0.08254481
90	0xbd9b13b2	-0.07572116
91	0x3ee7ea75	0.45296064
92	0x3e7010c1	0.23443891
93	0x3d7b7f7c	0.061400875
94	0x3e344a03	0.17606358
95	0x3e5a0e9a	0.21294633
96	0xbdb3e03c	-0.08783004
97	0x3ebdc221	0.3706217
98	0xbe43dc51	-0.19127013
99	0xbda17a23	-0.07884624
100	0xbd10df91	-0.03536946
101	0x3e1a6fe5	0.15081747
102	0xbd4a1135	-0.049332816
103	0x3ea55d35	0.32297674
104	0xbe76f314	-0.24116164
105	0x3e892f3c	0.2679385
106	0x3e54acc6	0.20769033
107	0xbda2054e	-0.07911168
108	0xbd5330fc	-0.051560387
109	0xbdff2029	-0.12457306
110	0x3da2eb8d	0.07955084
111	0x3df52ef8	0.11971849
112	0x3db4d2ec	0.08829293
113	0x3e94efbf	0.29089162
114	0xbe573d66	-0.21019515
115	0x3e7ce1ec	0.24695557
116	0xbe80297a	-0.25031644
117	0xbd1beb73	-0.03806634
118	0xbe7d3f22	-0.24731115
119	0xbe1abb5b	-0.15110533
120	0xbaa4a5c8	-0.0012561614
121	0xbd835419	-0.06412525
122	0xbde38b25	-0.11110524
123	0x3e9fc028	0.3120129
124	0xbcced168	-0.025246337
125	0xbec0485b	-0.37555203
126	0x3e0d89dd	0.13822122
127	0x3e0924e2	0.13392976
128	0xbe6b943e	-0.23005769
129	0xbd6e45f1	-0.05817217
130	0xbcac4d02	-0.021032814
131	0x3e4ded74	0.20110112
132	0x3cd34086	0.025787603
133	0xbc81f7b1	-0.015865179
134	0xbdbbb3cf	-0.09165155
135	0xbdabdadd	-0.08391354
136	0x3d01e734	0.031714633
137	0x3dbc1645	0.09183935
138	0xbe845df1	-0.25852922
139	0xbdb46897	-0.088090114
140	0x3cba29f1	0.022725077
141	0x3d265a18	0.040613264
142	0xbce2baa6	-0.027676892
143	0x3e250389	0.1611463
144	0x3bdace7b	0.0066774464
145	0x3e271da7	0.16319905
146	0xbe757f08	-0.2397424
147	0x3dc3a732	0.09553374
148	0xbc0c09c4	-0.00854725
149	0xbd93e1e4	-0.072208196
150	0x3e1107a8	0.14163077
151	0xbe77d0c8	-0.24200737
152	0x3d7c77e4	0.061637774
153	0xbe765dff	-0.24059294
154	0xbeb2d6b0	-0.3492942
155	0xbe00c359	-0.12574519
156	0xbe28877d	-0.16457935
157	0xbf1be57f	-0.6089706
158	0x3d4ded9a	0.050275423
159	0xbea152e2	-0.31508547
160	0x3e16f3a0	0.14741373
161	0xbef857b2	-0.48504406
162	0x3e557dd8	0.20848787
163	0x3e6b1f7c	0.22961229
164	0x3d7def09	0.06199554
165	0x3e98be3a	0.2983263
166	0x3e13b3ca	0.14424053
167	0x3e87a9cc	0.26496732
168	0xbde9473f	-0.11390542
169	0xbda67d1a	-0.0812933
170	0x3e70202f	0.23449777
171	0x3e352be3	0.17692523
172	0xbb892065	-0.00418477
173	0x3e6d86a7	0.23195897
174	0xbd326e40	-0.043562174
175	0xbcff8605	-0.031191835
176	0xbeb7efb0	-0.35925055
177	0xbe94d5e8	-0.29069448
178	0xbdb9ee50	-0.090786576
179	0xbe8121e4	-0.2522117
180	0x3ddf4da9	0.109034844
181	0xbe1b7f4b	-0.15185277
182	0x3ee21665	0.4415771
183	0x3eeaa67e	0.45830148
184	0x3e706784	0.23476988
185	0xbd71e990	-0.059060633
186	0x3d9f29cb	0.07771643
187	0x3e815235	0.2525803
188	0xbe0151f6	-0.12628922
189	0x3d9ca11e	0.07647918
190	0x3e9a937c	0.30190647
191	0xbd9f5145	-0.07779173
192	0x3e87d25f	0.26527688
193	0x3dd76a4e	0.10518323
194	0xbe24fe92	-0.16112736
195	0xbde51a10	-0.11186612
196	0x3de20238	0.110355794
197	0x3cf6c39e	0.030122574
198	0xbeceae7d	-0.403675
199	0xbec366fd	-0.3816451
200	0x3e88fd77	0.26755878
201	0xbd9d93ad	-0.076941825
202	0xbce45cbf	-0.027876256
203	0x3ea77167	0.32703707
204	0xbe821197	-0.25404045
205	0x3eb5ee71	0.3553348
206	0xbe828ca8	-0.25497937
207	0x3dc72bad	0.09725127
208	0xbc9ac107	-0.01889087
209	0xbe502606	-0.20327005
210	0xbd5126fb	-0.051062565
211	0xbe6bdc3e	-0.23033234
212	0xbc87ad18	-0.01656203
213	0x3e705806	0.23471078
214	0xbef98104	-0.48731244
215	0xbe2c6a3e	-0.16837403
216	0xbe7cb7c4	-0.24679476
217	0xbe4657c9	-0.19369425
218	0xbe03e3f8	-0.12879932
219	0x3e831052	0.2559839
220	0x3d107c4b	0.035274785
221	0xbd58d386	-0.0529361
222	0x3e0afdce	0.13573381
223	0xbd5208bb	-0.051277857
224	0xbe51ee29	-0.20501007
225	0x3e3c50a3	0.18390135
226	0xbbe1efd1	-0.0068950434
227	0x3eab0ab6	0.3340661
228	0xbd06d39a	-0.032916643
229	0xbf00237d	-0.5005415
230	0x3e77d52d	0.24202414
231	0xbdb0af04	-0.086271316
232	0xbea04b0e	-0.31307262
233	0x3e139ded	0.14415713
234	0x3deb704e	0.1149603
235	0x3d305836	0.043052875
236	0xbe58a73e	-0.21157548
237	0xbe34bba0	-0.17649698
238	0xbdc35392	-0.09537424
239	0x3d62bead	0.055357624
240	0x3e278936	0.16360936
241	0xbe90d989	-0.28290966
242	0x3e4d07b7	0.20022474
243	0x3e84b9f4	0.2592312
244	0x3e83a687	0.25712988
245	0x3dde68b0	0.10859811
246	0x3eb0a445	0.34500328
247	0xbda1f4f8	-0.07908052
248	0xbeb718a8	-0.35761
249	0x3d595792	0.05306203
250	0x3ea68fbc	0.32531536
251	0xbe10873b	-0.14114086
252	0xbd85fad5	-0.06541983
253	0x3e56d0c4	0.20978075
254	0xbe1fd408	-0.15608227
255	0x3e45fb5d	0.19334169
