experiments/weights/2_RNN.pth (torch, 76862 bytes, 57 tensors)

lstm1.weight_ih_l0 f4 [20, 58]
-0.41423082 -0.022584872 0.03907575 -0.033729136 -0.030880624 0.12301116 -0.32425854 0.22847289
0.05484587 -0.07155207 0.21257892 0.24095128 0.19671516 0.004851957 0.15455976 -0.13331261
0.011015737 0.014723583 -0.07482829 -0.049822513 0.0949708 -0.08291409 -0.10500573 0.004423603
-0.18012905 -0.11378309 0.06433997 0.093893215 0.03615511 -0.100505985 -0.03605525 -0.06126808
-0.18919623 -0.080836 -0.116688915 -0.13115577 0.06385714 -0.009193406 -0.16998494 -0.0011680218
-0.0785492 0.07714834 0.1359867 -0.01805614 0.33468112 -0.100329295 -0.061011534 -0.1165035
-0.081471555 0.09154941 -0.062570415 0.07376747 0.18330257 -0.12505506 0.049381215 -0.12201315
-0.043864917 0.032029215 -0.5419757 -0.057828408 0.049255457 -0.032893706 -0.10507851 0.09767311
-0.035611715 0.11944402 -0.029834803 0.07290155 -0.023713563 0.0065908474 0.21810764 -0.018915556
0.014613841 -0.09078863 -0.05661058 -0.24302211 -0.077931404 0.032492176 -0.11279243 -0.10056667
0.079550356 0.0073995534 0.06358404 -0.048410494 0.27224377 -0.094628334 -0.13605344 0.051661443
-0.02704203 -0.11555005 -0.012408254 0.038167696 0.03566232 0.20829009 -0.024883274 0.07742253
-0.03141945 -0.06781727 0.081088856 0.014685009 0.05157723 -0.027139356 0.07194227 -0.048844688
-0.03172145 -0.0675695 0.07540666 -0.08841024 -0.0662826 0.11304928 -0.18320596 0.07209122
-0.054942116 -0.01396189 -0.050075658 0.1970612 -0.7593477 -0.11225594 -0.033640854 -0.07144421
-0.18429111 0.05560519 0.11377762 -0.006254932 0.22742753 -0.028709272 0.09351708 -0.0949931
-0.04866549 -0.10132129 -0.06497021 -0.07490994 -0.06420605 0.1595837 -0.11065618 0.100709036
-0.14435129 -0.1287709 -0.20453611 -0.077865995 0.06614734 0.15950115 -0.004445855 -0.095692426
-0.039495453 -0.10204827 -0.085801385 -0.086502835 -0.062546335 0.046810493 0.020882579 -0.036105145
-0.19165286 -0.0023475594 0.08934651 -0.013648121 0.109000795 0.17470904 0.041669816 -0.00835332
-0.081346594 -0.032096192 -0.1427232 -0.13954756 0.082120664 -0.06476491 0.14179882 -0.012959017
-0.1494526 -0.023166513 -0.01364013 -0.08670278 -0.053453606 -0.058122516 -1.3943745 -0.0659974
0.028434016 0.0636261 -0.19415918 0.16958572 0.036898874 0.12309636 0.19535573 0.15715683
0.010740045 0.13481133 -0.00028032062 0.03931945 0.03857602 -0.1678474 -0.14268897 -0.12556744
-0.20032007 -0.16659243 -0.17778528 -0.14995687 0.066131555 0.056944974 -0.036895413 -0.09379557
-0.15967119 0.10735534 -0.17529103 -0.048201717 0.13398075 -0.0110312905 -0.1298127 -0.07625757
0.046291903 -0.10377815 -0.14384563 0.104793586 0.15404074 0.24520865 0.10703663 -0.013542241
-0.11037921 0.1282987 -0.07021042 -0.15986414 -0.015031723 -0.06141717 0.03093117 0.061670322
-0.09598413 -0.18943879 -0.087346315 0.1339657 -0.068066746 0.023766566 0.2103015 0.061453555
1.0784484 -0.012731645 0.05199917 0.0075464468 -0.12516052 0.07513262 -0.26160607 -0.0191031
0.07158963 -0.096953385 -0.007885905 0.054106306 0.12908377 -0.1421856 -0.14528699 0.013946348
0.069618806 0.046204958 0.019019106 -0.17224425 -0.13328446 0.02346407 -0.15170202 -0.013469998
00000000: 1016 d4be e903 b9bc e50d 203d 9027 0abd
00000010: 5df9 fcbc 46ed fb3d 3705 a6be ccf4 693e
00000020: 10a6 603d e489 92bd 4aae 593e efbb 763e
00000030: b36f 493e 2afd 9e3b ea44 1e3e 1a83 08be
00000040: 5a7b 343c 2f3b 713c 933f 99bd b112 4cbd
00000050: 0d80 c23d ddce a9bd 3f0d d7bd dff3 903b
00000060: c073 38be 1c07 e9bd adc4 833d 164b c03d
00000070: 6117 143d 15d6 cdbd abae 13bd 3df4 7abd
00000080: a8bc 41be 588d a5bd 99fa eebd b34d 06be
00000090: 88c7 823d f19f 16bc 8810 2ebe 4f18 99ba
000000a0: 67de a0bd f3ff 9d3d 1940 0b3e 78ea 93bc
000000b0: 535b ab3e 7279 cdbd 3be7 79bd 6399 eebd
000000c0: 8fda a6bd 427e bb3d eb24 80bd 6613 973d
000000d0: abb3 3b3e 6f0e 00be f543 4a3d 08e2 f9bd
000000e0: b3ab 33bd 1131 033d ebbe 0abf 7bdd 6cbd
000000f0: 17c0 493d 8dbb 06bd 6733 d7bd d708 c83d
00000100: 97dd 11bd 119f f43d 1e68 f4bc 684d 953d
00000110: f242 c2bc 09f8 d73b 9c57 5f3e ccf4 9abc
00000120: e46e 6f3c 64ef b9bd 7fe0 67bd cada 78be
00000130: 809a 9fbd 8416 053d b8ff e6bd e6f5 cdbd
00000140: 4ceb a23d f477 f23b 5938 823d 154a 46bd
00000150: 8963 8b3e 80cc c1bd 9851 0bbe f39a 533d
00000160: 3f87 ddbc 81a5 ecbd fd4b 4bbc bb55 1c3d
00000170: a712 123d ff49 553e 02d8 cbbc b48f 9e3d
00000180: aeb1 00bd c8e3 8abd ea11 a63d 6499 703c
00000190: a542 533d 5b53 debc 7856 933d 5e11 48bd
000001a0: 5aee 01bd e161 8abd cf6e 9a3d 6e10 b5bd
000001b0: 2cbf 87bd 6286 e73d 589a 3bbe 90a4 933d
000001c0: fc0a 61bd 69c0 64bc 221c 4dbd 69ca 493e
000001d0: 9c64 42bf 71e6 e5bd feca 09bd 5851 92bd
000001e0: cfb6 3cbe 45c2 633d 3e04 e93d 2cf6 ccbb
000001f0: c3e2 683e b52f ebbc e285 bf3d be8b c2bd
00000200: 7755 47bd 8981 cfbd 1a0f 85bd 626a 99bd
00000210: 767e 83bd e969 233e b59f e2bd 8a40 ce3d
00000220: d3d0 13be 85dc 03be ea71 51be 3578 9fbd
00000230: 4278 873d 4554 233e 89ae 91bb 64fa c3bd
00000240: fcc5 21bd affe d0bd a3b8 afbd 6628 b1bd
00000250: 4b18 80bd 5cbc 3f3d f111 ab3c fde2 13bd
00000260: a640 44be 83d9 19bb 4efb b63d 5e9c 5fbc
00000270: cf3b df3d ede6 323e f8ad 2a3d 5ddc 08bc
00000280: 0b99 a6bd 4c77 03bd 0826 12be 8ee5 0ebe
00000290: e12e a83d 77a3 84bd b633 113e 0f52 54bc
000002a0: 1a0a 19be b3c7 bdbc da7a 5fbc 3a91 b1bd
000002b0: 2bf2 5abd e011 6ebd dd7a b2bf a529 87bd
000002c0: 74ee e83c 674e 823d aad1 46be e1a7 2d3e
000002d0: 4623 173d f219 fc3d 550b 483e b8ed 203e
000002e0: 04f7 2f3c fb0b 0a3e fff7 92b9 6e0d 213d
000002f0: e401 1e3d 30e0 2bbe 0f1d 12be c094 00be
00000300: b420 4dbe 3597 2abe 580d 36be 4b8e 19be
00000310: fb6f 873d 223f 693d a51f 17bd e417 c0bd
00000320: d880 23be 1edd db3d 7e7f 33be 2a6f 45bd
00000330: 4032 093e 96bc 34bc 9fed 04be ee2c 9cbd
00000340: 949c 3d3d a489 d4bd 454c 13be 059e d63d
00000350: dbbc 1d3e fa17 7b3e 0536 db3d 47e0 5dbc
00000360: 7f0e e2bd bc60 033e 7bca 8fbd 6db3 23be
00000370: 9e47 76bc 9290 7bbd 5d63 fd3c 059a 7c3d
00000380: 5493 c4bd 3efc 41be a0e2 b2bd 4e2e 093e
00000390: 9466 8bbd 1ab2 c23c 4759 573e b9b6 7b3d
000003a0: 990a 8a3f 6498 50bc 15fd 543d 2f48 f73b
000003b0: 142a 00be 22df 993d 3bf1 85be 1b7e 9cbc
000003c0: 959d 923d 7f8f c6bd e233 01bc 939e 5d3d
000003d0: 892e 043e 1a99 11be 1dc6 14be 397f 643c
000003e0: 4e94 8e3d 6941 3d3d f5cd 9b3c cc60 30be
000003f0: b97b 08be b937 c03c c657 1bbe 44b1 5cbc

lstm1.weight_hh_l0 f4 [20, 20]
-0.37186307 0.09129774 -0.08628184 -0.2068417 -0.17468579 0.27092806 -0.18031262 -0.06178946
-0.025736474 -0.039194714 0.10238616 -0.13794221 -0.15088119 0.14742249 -0.003480193 0.13090368
-0.072251484 0.15304808 -0.06004224 -0.120876215 -0.16118154 -0.2784447 0.10488966 0.20708092
0.2605725 -0.2053927 -0.017120326 -0.118880555 -0.10924626 0.09346875 -0.08903518 -0.014534154
-0.1346145 -0.23825285 0.083164856 0.19639917 0.24416298 0.021914179 -0.018266976 0.08746827
-0.040392403 -0.054719016 -0.27443588 0.11425472 0.059630875 0.0031564892 0.12754995 -0.19011512
0.13679513 -0.004901058 0.19863154 0.039490584 -0.02420913 0.15759605 0.22613338 -0.27916047
-0.14701347 -0.21591556 0.2922729 0.070334785 0.027621277 0.07716506 0.1385419 -0.26749662
-0.11548928 0.07204447 -0.22430687 -0.035436217 -0.13466044 -0.081249736 0.018608829 -0.078754865
-0.058659278 0.13467956 -0.057530038 0.023445446 -0.07870199 0.1258847 -0.008009943 0.08650562
0.048915222 -0.20588906 -0.0559043 0.068087764 0.13169834 -0.05159957 0.20830576 -0.18365692
0.23979498 -0.12538853 -0.02059052 -0.24572141 -0.0410598 -0.14484854 -0.06877003 0.15925172
-0.12889284 -0.034134526 -0.12255992 -0.012960019 0.13499294 0.12598267 -0.17285666 -0.1928643
0.15200028 0.107245706 -0.038050935 0.034872334 0.2570594 -0.14919919 0.16018409 -0.15340187
-0.034635607 0.10706294 -0.11397354 0.33636042 -0.0015989997 0.07290757 0.022825392 -0.047112238
-0.08203399 -0.20156474 0.005056597 0.19650474 -0.04387742 -0.22928762 -0.1004343 0.16085441
-0.03366518 0.051178616 0.008366949 -0.041485455 0.00810049 -0.067997135 0.14785343 0.23035166
0.035443116 -0.10214243 0.008712123 0.10271567 -0.06474852 0.21580008 -0.028366147 -0.052041914
0.03067047 -0.08745027 -0.111561924 -0.29481947 0.11215562 -0.18409415 0.17108652 -0.108342975
0.08109139 -0.05401843 -0.2000911 0.14233765 0.13820803 -0.031863976 -0.06403233 -0.14047042
0.0807023 -0.11930773 0.16808845 -0.2442455 0.10961871 0.003623245 -0.17962693 -0.0111226905
-0.14825974 -0.10604411 0.14083964 -0.07288058 -0.07372021 -0.08940408 -0.008714905 0.12272114
-0.052744206 -0.05825082 0.11175794 0.007692393 -0.025933338 0.103683 -0.16023059 0.0859494
0.081125386 0.03778522 0.052756816 -0.2949153 0.10669899 -0.130317 0.14517601 -0.043732103
-0.027619733 0.097749434 -0.226904 -0.044434138 -0.05881562 0.08659713 -0.19878864 0.15306383
0.038373407 0.17708556 -0.07156451 -0.15020604 0.256733 -0.008330424 0.08490728 0.031617448
-0.038993485 -0.27112797 -0.33228588 -0.11955073 0.11398058 -0.04606861 -0.08537451 0.23236145
0.15880731 0.1859122 -0.054545388 -0.1119157 -0.12853277 -0.007197344 -0.01655856 0.062043495
0.16685602 0.066167854 0.049277987 -0.04564231 0.041417684 0.12722087 -0.12087315 -0.16151416
0.26549566 -0.17865124 -0.14284222 0.13354783 0.19682375 -0.13884681 0.10941116 -0.1293622
0.20818886 -0.07903558 -0.19708827 -0.20383275 -0.10708604 -0.011282582 -0.09134511 0.10485942
0.1258491 0.2219254 0.0060721114 -0.22003141 -0.07961744 0.20763999 -0.14299485 0.038821697
00000000: d664 bebe 4ffa ba3d 89b4 b0bd 50ce 53be
00000010: d5e0 32be 15b7 8a3e dfa3 38be f216 7dbd
00000020: 4cd5 d2bc a38a 20bd d6af d13d b940 0dbe
00000030: 9980 1abe ecf5 163e f313 64bb 9d0b 063e
00000040: 96f8 93bd a3b8 1c3e daee 75bd f38d f7bd
00000050: c60c 25be 4e90 8ebe 64d0 d63d 050d 543e
00000060: c269 853e 7752 52be ed3f 8cbc a677 f3bd
00000070: 81bc dfbd 8b6c bf3d 1458 b6bd a920 6ebc
00000080: 62d8 09be 8ef8 73be 5652 aa3d dd1c 493e
00000090: dc05 7a3e 5d85 b33c a0a4 95bc 9022 b33d
000000a0: 8172 25bd 0c21 60bd dc82 8cbe 61fe e93d
000000b0: 813f 743d 1add 4e3b 749c 023e 8aad 42be
000000c0: 0614 0c3e 0e99 a0bb 1166 4b3e e1c0 213d
000000d0: 3a52 c6bc dc60 213e 828f 673e 1fee 8ebe
000000e0: b38a 16be f818 5dbe cba4 953e af0b 903d
000000f0: 0446 e23c b708 9e3d eedd 0d3e 51f5 88be
00000100: a585 ecbd 0d8c 933d b3b0 65be 9125 11bd
00000110: 6de4 09be 4366 a6bd 8b71 983c 3b4a a1bd
00000120: b644 70bd 70e9 093e 9ea4 6bbd aa10 c03c
00000130: 822e a1bd ebe7 003e 233c 03bc dc29 b13d
00000140: 545b 483d 95d4 52be e8fb 64bd 9971 8b3d
00000150: eedb 063e 125a 53bd 1b4e 553e 8f10 3cbe
00000160: d18c 753e da65 00be 73ad a8bc 659e 7bbe
00000170: 522e 28bd 2d53 14be 4dd7 8cbd e212 233e
00000180: 7cfc 03be a5d0 0bbd b200 fbbd 4256 54bc
00000190: 973b 0a3e 9a01 013e 5601 31be 387e 45be
000001a0: f6a5 1b3e a3a3 db3d 4cdb 1bbd 4bd6 0e3d
000001b0: 4a9d 833e acc7 18be 4c07 243e 6115 1dbe
000001c0: 11de 0dbd d143 db3d f66a e9bd 6f37 ac3e
000001d0: 8795 d1ba 9050 953d 51fc ba3c c3f8 40bd
000001e0: 7001 a8bd fd66 4ebe cfb1 a53b 8a38 493e
000001f0: cfb8 33bd 60ca 6abe 80b0 cdbd 05b7 243e
00000200: 80e4 09bd aba0 513d 8715 093c a7ec 29bd
00000210: ebb7 043c 1542 8bbd e466 173e 4ee1 6b3e
00000220: cd2c 113d 0d30 d1bd 4bbd 0e3c 985c d23d
00000230: df9a 84bd b2fa 5c3e 1f60 e8bc e729 55bd
00000240: a340 fb3c 2119 b3bd 947a e4bd 94f2 96be
00000250: d8b1 e53d 2d83 3cbe 4e31 2f3e ece2 ddbd
00000260: 3e13 a63d 6e42 5dbd aee4 4cbe f6c0 113e
00000270: 6886 0d3e cd83 02bd 6223 83bd 7ad7 0fbe
00000280: 3f47 a53d 9c57 f4bd 611f 2c3e 7e1b 7abe
00000290: c67f e03d f773 6d3b 1ff0 37be f23b 36bc
000002a0: 67d1 17be a82d d9bd 4438 103e 6a42 95bd
000002b0: 9ffa 96bd 7c19 b7bd f6c8 0ebc 3955 fb3d
000002c0: 4f0a 58bd 6998 6ebd 59e1 e43d 7810 fc3b
000002d0: 2772 d4bc c157 d43d 7d13 24be 3d06 b03d
000002e0: 1125 a63d adc4 1a3d 8817 583d 23ff 96be
000002f0: 0085 da3d d271 05be 05a9 143e 6f20 33bd
00000300: c742 e2bc db30 c83d 8659 68be 9200 36bd
00000310: a6e8 70bd d659 b13d 408f 4bbe c4bc 1c3e
00000320: 6f2d 1d3d eb55 353e 6a90 92bd 9dcf 19be
00000330: 8272 833e 557c 08bc dee3 ad3d 4c81 013d
00000340: a2b7 1fbd 49d1 8abe 6021 aabe 03d7 f4bd
00000350: a66e e93d 70b2 3cbd d5d8 aebd 29f0 6d3e
00000360: 629e 223e c55f 3e3e fc6a 5fbd 0f34 e5bd
00000370: 189e 03be b3d7 ebbb d1a5 87bc 5221 7e3d
00000380: 4edc 2a3e 0383 873d b7d7 493d 6ef3 3abd
00000390: 97a5 293d 3046 023e 588c f7bd f863 25be
000003a0: 0cef 873e 5af0 36be 3b45 12be c3c0 083e
000003b0: 2a8c 493e dc2d 0ebe f512 e03d 8677 04be
000003c0: 762f 553e 68dd a1bd 82d1 49be 88b9 50be
000003d0: ed4f dbbd 94da 38bc 2513 bbbd 89c0 d63d
000003e0: 96de 003e 6940 633e 90f8 c63b ea4f 61be
000003f0: 780e a3bd 949f 543e 3e6d 12be 8003 1f3d

lstm1.bias_ih_l0 f4 [20]
0.12437251 -0.1430414 -0.1323261 -0.045507267 -0.1326821 -0.03994286 0.030351281 -0.12164056
-0.20242478 0.08977216 -0.14144868 0.0013528604 0.05113043 0.092065774 -0.22768022 -0.21970299
0.014202595 -0.00018002868 -0.009643985 0.1078463
00000000: 04b7 fe3d 7279 12be 7e80 07be d465 3abd
00000010: d1dd 07be 209b 23bd 40a3 f83c b01e f9bd
00000020: 7148 4fbe 77da b73d ecd7 10be 7652 b13a
00000030: 246e 513d fb8c bc3d 0125 69be d2f9 60be
00000040: 00b2 683c 15c6 3cb9 ce01 1ebc 85de dc3d

lstm1.bias_hh_l0 f4 [20]
-0.1367287 0.1436703 0.08788263 0.21720114 -0.112378895 0.038036305 -0.16874568 0.095126726
0.10176125 0.010372712 0.15789527 0.008892271 0.10854613 -0.15202321 0.09284922 -0.14220922
0.053117912 0.05405036 0.13187632 -0.19179748
00000000: 9c02 0cbe 4f1e 133e cffb b33d fa69 5e3e
00000010: e826 e6bd f5cb 1b3d abcb 2cbe cdd1 c23d
00000020: 3468 d03d 4ff2 293c 4caf 213e e3b0 113c
00000030: 6f4d de3d f9ab 1bbe bb27 be3d 4b9f 11be
00000040: 2b92 593d e963 5d3d 960a 073e 8f66 44be

lstm1.weight_ih_l1 f4 [20, 20]
-0.010917273 -0.0753047 -0.1330045 -0.013045023 0.1791307 -0.09412325 0.16145232 -0.13047057
0.14104325 0.15695 0.14731313 -0.11224575 0.14502928 0.08524517 0.059010066 0.12753378
0.17078671 -0.08405581 -0.19666219 0.033775765 0.12615466 0.24259865 -0.2687259 0.003941977
0.13193223 0.087814644 0.13494807 0.033421926 -0.12806404 0.16804859 0.16566376 0.08194646
0.21283089 -0.11393514 -0.022040984 0.18800125 0.015224398 -0.23406588 0.04215118 -0.0837463
0.20553198 -0.14537618 0.020738527 -0.0013373775 -0.07385768 -0.11127988 -0.14487271 0.009925775
0.15767293 0.0037208372 0.08703903 -0.074740194 -0.056544628 0.09677745 0.019419685 -0.285774
-0.109998405 0.110996105 0.23462917 -0.19928704 0.014604445 -0.09362147 0.10223195 -0.15493059
-0.0066904295 0.19477831 0.23158735 -0.06693008 0.16849744 -0.02760304 -0.018742444 0.20793915
0.2064102 0.15256391 0.24587324 0.20411709 0.082330495 0.063062094 -0.120710015 0.105996616
-0.07528433 0.06959041 -0.0040525035 -0.09449545 -0.15002288 0.2428488 0.2083322 0.041828297
0.20227763 0.2659474 0.052512925 0.23643193 -0.07858679 0.05693219 0.045980897 -0.021369841
0.20025353 -0.12145686 0.101612546 0.1826904 -0.07456745 -0.0043435995 -0.041117206 -0.032607805
0.0768954 0.077688396 -0.08293162 -0.109786056 0.050754722 -0.048738584 0.036797542 -0.07018662
0.058680557 -0.047682267 -0.071263604 0.07551864 0.13390774 -0.04829064 -0.047970757 -0.0061643156
0.16104236 0.086228795 0.09841393 0.13785243 0.13972865 0.050395038 0.027750617 0.04133525
0.18102592 -0.18945503 0.14528906 0.010166519 -0.188751 0.06701105 0.02155946 0.017641226
-0.20123097 -0.05604679 0.14745346 0.09013879 -0.03744054 -0.06277919 -0.07250201 0.108624645
0.031905472 -0.063514955 0.02132438 0.049045946 -0.13609627 -0.11397498 0.15067759 -0.19677599
0.12050699 -0.016804906 -0.08022107 -0.22795932 -0.03918763 0.00786075 0.22070377 -0.069095664
0.07271719 -0.042587604 0.1582666 -0.18849605 0.13400316 -0.022089578 0.03264408 0.1809514
0.11303897 0.04899029 -0.02931442 -0.06712968 -0.07311608 0.034386132 0.087858126 0.2866915
0.13354835 -0.20332353 -0.23233935 0.008480669 -0.1892918 -0.103891864 0.091188386 0.121228546
-0.038725965 0.1335268 -0.024828767 0.016448965 0.1604173 0.13561073 -0.090621635 0.0042472957
-0.13296935 -0.11398933 -0.18635769 0.1485714 0.2926861 -0.06280938 -0.1119541 0.08498631
-0.21340942 -0.01723524 -0.08251468 -0.18104513 -0.08861461 0.24745862 -0.015632026 -0.19794351
0.10371846 0.15193266 0.105828695 0.2597337 0.047088295 -0.10681685 0.0040681176 0.1312999
0.08562249 -0.1942111 0.031299267 0.11188269 0.19832112 -0.1013542 -0.07677455 -0.08704573
-0.022148741 -0.047427826 -0.073911004 0.101434425 0.08268255 -0.01165606 0.04775154 -0.20922633
0.019320449 0.12850353 0.050044302 0.15604252 -0.07813781 0.10380893 0.1251944 -0.08162987
-0.008383195 -0.059963446 -0.15953845 -0.20975955 -0.09838344 0.13049403 0.11447137 0.09010608
0.17321862 0.13093904 -0.11347588 0.10209754 -0.062006973 -0.10347774 -0.019352239 0.32265198
00000000: 5dde 32bc 5a39 9abd 5532 08be cbba 55bc
00000010: 0a6e 373e b1c3 c0bd c253 253e 149a 05be
00000020: a46d 103e 80b7 203e 41d9 163e 1ae1 e5bd
00000030: 8e82 143e 0595 ae3d 8ab4 713d 3798 023e
00000040: b6e2 2e3e 7425 acbd d061 49be 7558 0a3d
00000050: b02e 013e c86b 783e 7196 89be b32b 813b
00000060: 3e19 073e 2ad8 b33d d42f 0a3e 6ee5 083d
00000070: 3823 03be ee14 2c3e c3a3 293e 8cd3 a73d
00000080: 57f0 593e d456 e9bd 4b8f b4bc 6683 403e
00000090: c16f 793c f7ae 6fbe b7a6 2c3d 2e83 abbd
000000a0: fa76 523e 7edd 14be d8e3 a93c f14a afba
000000b0: b242 97bd b5e6 e3bd 8359 14be b89f 223c
000000c0: 0375 213e 4ad9 733b 8541 b23d 6311 99bd
000000d0: 579b 67bd 4133 c63d 0816 9f3c f850 92be
000000e0: d846 e1bd ed51 e33d a142 703e e711 4cbe
000000f0: 7b47 6f3c 9dbc bfbd fc5e d13d 20a6 1ebe
00000100: 643b dbbb f773 473e 3c25 6d3e a312 89bd
00000110: 988a 2c3e c51f e2bc c189 99bc 00ee 543e
00000120: 325d 533e b739 1c3e 32c6 7b3e 1204 513e
00000130: e49c a83d b326 813d d036 f7bd c114 d93d
00000140: ac2e 9abd 6b85 8e3d ddca 84bb d586 c1bd
00000150: 999f 19be 5bad 783e 0955 553e 2654 2b3d
00000160: de21 4f3e 422a 883e cb17 573d 361b 723e
00000170: 1cf2 a0bd ba31 693d 7756 3c3d ce0f afbc
00000180: 430f 4d3e 60be f8bd 3d1a d03d 3113 3b3e
00000190: d2b6 98bd c154 8ebb 846a 28bd c38f 05bd
000001a0: 567b 9d3d 181b 9f3d 0ed8 a9bd 83d7 e0bd
000001b0: 2fe4 4f3d 1ca2 47bd 05b9 163d 01be 8fbd
000001c0: 065b 703d 7b4e 43bd a7f2 91bd 84a9 9a3d
000001d0: 1c1f 093e 68cc 45bd fc7c 44bd 07fe c9bb
000001e0: 4ae8 243e b998 b03d 3e8d c93d 3029 0d3e
000001f0: 0715 0f3e 076b 4e3d 4355 e33c 274f 293d
00000200: dc5e 393e 8000 42be a8c6 143e 7991 263c
00000210: f147 41be 173d 893d 779d b03c 5584 903c
00000220: 7e0f 4ebe 5291 65bd 0afe 163e b09a b83d
00000230: 405b 19bd 6092 80bd ef7b 94bd 9976 de3d
00000240: 50af 023d 2114 82bd 77b0 ae3c 67e4 483d
00000250: d25c 0bbe b76b e9bd 3a4b 1a3e a57f 49be
00000260: 5ecc f63d 71aa 89bc f24a a4bd 2b6e 69be
00000270: 3583 20bd 60ca 003c 2b00 623e 0782 8dbd
00000280: c0ec 943d 5770 2ebd a410 223e 1c05 41be
00000290: 2038 093e 34f5 b4bc cdb5 053d 534b 393e
000002a0: fa80 e73d 0baa 483d cb24 f0bc 497b 89bd
000002b0: e2bd 95bd 79d8 0c3d f6ee b33d 3ac9 923e
000002c0: e6c0 083e 0b34 50be 5eea 6dbe 81f2 0a3c
000002d0: b6d5 41be 42c5 d4bd fac0 ba3d ac46 f83d
000002e0: 1e9f 1ebd 40bb 083e b365 cbbc fbbf 863c
000002f0: 6f44 243e 8add 0a3e d697 b9bd e62c 8b3b
00000300: 1e29 08be 3d73 e9bd 8dd4 3ebe 1a23 183e
00000310: f4da 953e 34a2 80bd 3148 e5bd 4d0d ae3d
00000320: 0088 5abe eb30 8dbc 75fd a8bd e563 39be
00000330: 947b b5bd cb65 7d3e bc0e 80bc b4b1 4abe
00000340: 586a d43d 3c94 1b3e b7bc d83d d1fb 843e
00000350: a8df 403d cbc2 dabd d84d 853b 7b73 063e
00000360: d85a af3d 46df 46be a933 003d c022 e53d
00000370: b114 4b3e ca92 cfbd fa3b 9dbd 0845 b2bd
00000380: 4771 b5bc ae43 42bd a75e 97bd dabc cf3d
00000390: 7855 a93d 0ff9 3ebc 1e97 433d 6d3f 56be
000003a0: eb45 9e3c 6e96 033e 41fb 4c3d 9cc9 1f3e
000003b0: b706 a0bd c799 d43d f632 003e 902d a7bd
000003c0: ab59 09bc 3b9c 75bd 0c5e 23be 35cb 56be
000003d0: 427d c9bd 3aa0 053e f76f ea3d 8989 b83d
000003e0: 3960 313e e214 063e 0b66 e8bd 8418 d13d
000003f0: 06fb 7dbd 23ec d3bd 9688 9ebc a432 a53e

lstm1.weight_hh_l1 f4 [20, 20]
-0.07020712 -0.22481294 -0.23388532 0.10471495 0.13064533 -0.019371482 0.07738187 0.18663602
-0.009086364 -0.09411759 0.052700337 -0.166493 0.04409102 0.015357474 0.051353715 0.013509901
-0.03852188 0.14727792 -0.18015105 0.01379463 -0.10657758 -0.11975906 -0.10481639 0.008562884
0.08478541 0.08858602 -0.014624208 0.17990585 -0.14982912 -0.20303486 0.17311718 0.1501482
-0.07190359 -0.046199467 -0.023607401 -0.06627106 0.18010712 0.07049647 -0.06842926 0.08738222
-0.14360228 0.011357013 -0.18632351 0.019890044 -0.27415678 0.031420797 0.21287705 -0.10807942
0.077463634 -0.02685777 -0.07827587 0.14756969 0.08707121 -0.09766861 -0.15118003 -0.07616704
-0.17151807 -0.16582556 0.17423575 -0.05116036 0.030878386 -0.13615976 -0.20552243 -0.09923317
-0.114041686 -0.102977574 -0.073975325 -0.08791075 -0.068836264 -0.20141599 0.045806214 -0.1854727
0.11541565 -0.0068064732 -0.06432184 -0.074003726 -0.18621752 0.10889988 -0.059925005 0.124214344
-0.027608898 -0.011240789 -0.21533598 -0.023788864 0.093255356 -0.11329919 -0.07254488 0.16321437
-0.105283506 0.08458581 -0.051685117 -0.11593909 0.15707104 0.1203837 0.120361604 -0.11715075
0.24059534 -0.2985648 -0.033322357 0.08972004 -0.09722838 0.055088304 0.0663208 0.11032376
0.033934273 -0.1204556 0.086477324 0.08556695 -0.012654082 0.0012483962 0.023911718 0.12118698
-0.13015498 -0.17515016 0.018816682 -0.059612755 -0.16696648 0.15067418 -0.14905836 -0.21088879
-0.006950944 0.03069461 -0.15406822 0.028870674 0.11083086 0.04184876 -0.2965135 -0.12896055
0.054627154 0.04953817 -0.09448748 0.14721674 -0.009507141 -0.0357926 -0.1815478 -0.1402038
-0.008097158 0.05640568 0.20182216 0.21026623 -0.05029771 -0.101872675 -0.16040406 -0.058610454
-0.25613925 0.14004129 0.115271874 -0.22548446 0.13013905 0.13642351 -0.16730571 0.06244869
0.071873836 -0.15382075 0.05535934 -0.07062921 -0.22287962 -0.042241253 0.02722235 -0.012314263
-0.22654982 0.1297885 0.17975348 0.16325544 -0.016681405 -0.17922883 -0.07492542 -0.21935734
-0.27016538 0.013650951 -0.20700434 0.04145113 -0.07328198 0.09584099 -0.04949896 0.059553515
-0.14830631 0.0049880296 0.13064617 -0.050630324 0.12956676 0.055653825 0.14015935 -0.00031878083
-0.026485259 -0.06319397 0.04652629 -0.33902326 0.10114714 -0.008148698 0.10523989 -0.0944674
0.17021254 0.101741545 0.0022869657 0.23172313 0.0057272646 -0.07926603 0.00434905 0.06241998
0.12740123 -0.030717459 0.02573507 -0.15889333 0.32102585 -0.19295359 0.007312675 -0.10942658
0.13462412 -0.09823627 -0.16492836 0.015549476 -0.10728557 -0.005494276 -0.19411623 -0.12655663
-0.09672875 -0.18191878 -0.10885597 -0.22351913 0.113430105 0.17712754 -0.10422985 0.2331752
0.10639788 -0.03958974 -0.16337843 -0.32170388 -0.042648885 0.3061508 0.022695336 0.054477837
-0.27971816 -0.12353939 -0.008169087 -0.062768154 -0.12390003 0.07634455 -0.010979662 0.09913
-0.32797134 -0.13546479 -0.13344969 -0.14968678 -0.037826918 0.107051134 0.11494325 0.110895686
0.095449165 -0.032436423 -0.15820049 0.028501775 -0.2640175 -0.15263322 -0.04953676 0.021343814
00000000: c0c8 8fbd 5d35 66be a27f 6fbe cb74 d63d
00000010: e4c7 053e f1b0 9ebc 637a 9e3d 831d 3f3e
00000020: f9de 14bc b9c0 c0bd 4fdc 573d 247d 2abe
00000030: c998 343d ea9d 7b3c 4658 523d a258 5d3c
00000040: 1ec9 1dbd 06d0 163e 8479 38be df02 623c
00000050: 5945 dabd 3d44 f5bd faa9 d6bd 574b 0c3c
00000060: f9a3 ad3d 966c b53d 609a 6fbc 3d39 383e
00000070: ce6c 19be 5fe8 4fbe a145 313e 73c0 193e
00000080: 3042 93bd a73b 3dbd 4f64 c1bc 1fb9 87bd
00000090: 006e 383e 7460 903d a424 8cbd 73f5 b23d
000000a0: 7a0c 13be c412 3a3c 97cb 3ebe 72f0 a23c
000000b0: 475e 8cbe 18b3 003d 71fc 593e be58 ddbd
000000c0: 41a5 9e3d d304 dcbc 194f a0bd 821c 173e
000000d0: 6452 b23d 7b06 c8bd f0ce 1abe 77fd 9bbd
000000e0: 6fa2 2fbe 2dce 29be db6a 323e 878d 51bd
000000f0: abf4 fc3c 776d 0bbe 7974 52be c33a cbbd
00000100: b08e e9bd e8e5 d2bd 6080 97bd 8d0a b4bd
00000110: 07fa 8cbd fe3f 4ebe 4c9f 3b3d 8eec 3dbe
00000120: 0a5f ec3d d608 dfbb 2bbb 83bd 448f 97bd
00000130: ceaf 3ebe e606 df3d ec73 75bd 1764 fe3d
00000140: 0e2c e2bc 492b 38bc 0981 5cbe dde0 c2bc
00000150: aafc be3d 6809 e8bd 6992 94bd ab21 273e
00000160: e19e d7bd 533b ad3d c6b3 53bd 7971 edbd
00000170: 3bd7 203e bb8b f63d 2580 f63d bbec efbd
00000180: a05e 763e 7cdd 98be 067d 08bd 24bf b73d
00000190: ac1f c7bd 46a4 613d 33d3 873d 6cf1 e13d
000001a0: aafe 0a3d 6db1 f6bd 061b b13d ba3d af3d
000001b0: 1153 4fbc 3aa1 a33a 82e2 c33c e130 f83d
000001c0: 5947 05be 905a 33be 7125 9a3c 812c 74bd
000001d0: 43f9 2abe 554a 1a3e c1a2 18be 3bf3 57be
000001e0: bfc4 e3bb 4373 fb3c 0fc4 1dbe 3182 ec3c
000001f0: 4afb e23d 9b69 2b3d 9ed0 97be 3c0e 04be
00000200: b9c0 5f3d 89e8 4a3d a782 c1bd fcbf 163e
00000210: d7c3 1bbc 439b 12bd abe7 39be 9691 0fbe
00000220: f1a9 04bc a409 673d 78aa 4e3e 0850 573e
00000230: f904 4ebd 9fa2 d0bd f640 24be 8411 70bd
00000240: af24 83be fc66 0f3e a913 ec3d 66e5 66be
00000250: 2c43 053e 9bb2 0b3e 3052 2bbe 33ca 7f3d
00000260: 9732 933d 3083 1dbe 7ac0 623d 0ca6 90bd
00000270: 8e3a 64be 2a05 2dbd 6801 df3c c3c1 49bc
00000280: adfc 67be 47e7 043e 4c11 383e 6f2c 273e
00000290: 71a7 88bc c387 37be 8072 99bd 369f 60be
000002a0: 1e53 8abe 3da8 5f3c f2f8 53be a9c8 293d
000002b0: dd14 96bd 4848 c43d 6cbf 4abd 63ee 733d
000002c0: 9cdd 17be a072 a33b 1cc8 053e be61 4fbd
000002d0: 26ad 043e 44f5 633d ef85 0f3e 0a22 a7b9
000002e0: 9df7 d8bc d76b 81bd 5a92 3e3d 7594 adbe
000002f0: 3b26 cf3d 1e82 05bc 0388 d73d 2078 c1bd
00000300: 324c 2e3e df5d d03d ebe0 153b d448 6d3e
00000310: c7ab bb3b 3a56 a2bd 7a82 8e3b 18ac 7f3d
00000320: 7875 023e 2ea3 fbbc 5bd2 d23c efb4 22be
00000330: 805d a43e a095 45be 2a9f ef3b 0b1b e0bd
00000340: e8da 093e 1930 c9bd fbe2 28be 3bc3 7e3c
00000350: 89b8 dbbd 5409 b4bb 68c6 46be 1098 01be
00000360: b919 c6bd eb48 3abe e1ef debd 33e2 64be
00000370: 0b4e e83d ec60 353e 7676 d5bd 7bc5 6e3e
00000380: 22e7 d93d da28 22bd ad4c 27be 5fb6 a4be
00000390: 99b0 2ebd ccbf 9c3e 92eb b93c 2724 5f3d
000003a0: 3837 8fbe 3802 fdbd a2d7 05bc 978c 80bd
000003b0: 4dbf fdbd 885a 9c3d 0ae4 33bc ab04 cb3d
000003c0: dceb a7be 48b7 0abe 09a7 08be 7e47 19be
000003d0: 66f0 1abd a03d db3d 5e67 eb3d 471d e33d
000003e0: da7a c33d 0edc 04bd 4fff 21be 8e7c e93c
000003f0: 4d2d 87be e24b 1cbe 0fe7 4abd 39d9 ae3c

lstm1.bias_ih_l1 f4 [20]
-0.08267818 -0.0347001 -0.054804742 0.016467974 0.08898373 0.11768062 0.10445172 -0.19753636
0.063736394 0.091229856 0.12747762 -0.15040207 0.04741229 0.016883614 -0.031193841 -0.14342467
-0.081838906 0.24039477 -0.016338965 -0.09638012
00000000: 2d53 a9bd b121 0ebd f07a 60bd d8e7 863c
00000010: 1a3d b63d 8902 f13d c9ea d53d f946 4abe
00000020: 3a88 823d b8d6 ba3d 7e89 023e 0003 1abe
00000030: 6433 423d 814f 8a3c 3a8a ffbc ebdd 12be
00000040: 289b a7bd 0c2a 763e 4bd9 85bc f162 c5bd

lstm1.bias_hh_l1 f4 [20]
0.12369536 0.16092364 -0.20433225 -0.0025152005 -0.047242355 -0.05528679 -0.13482633 -0.12917286
0.14225328 -0.08469945 -0.038695097 0.1437722 0.13731098 -0.023886032 -0.18309595 0.08370699
-0.04712699 -0.018313417 0.042059842 0.20807803
00000000: fe53 fd3d 2bc9 243e 793c 51be 10d6 24bb
00000010: 3381 41bd 6774 62bd ea0f 0abe e445 04be
00000020: d8aa 113e e876 adbd c07e 1ebd 0539 133e
00000030: 409b 0c3e a4ac c3bc 817d 3bbe 926e ab3d
00000040: 3b08 41bd 0506 96bc f146 2c3d 6812 553e

lstm2.weight_ih_l0 f4 [20, 5]
-1.3356764 -0.7431931 -0.10534595 0.18055868 0.21837053 0.7343937 0.21765172 -0.4939495
0.15273811 0.2784423 -1.5613015 -0.83477473 -0.32492754 0.23148876 -0.14563376 1.3134934
0.6744957 -0.35416928 -0.27639297 -0.10922769 -0.4882561 -0.47789285 -0.26092342 0.01606786
-0.013627644 -0.31650943 0.19434144 0.11689755 -0.15385686 -0.10864868 0.14590898 0.38570803
0.5412854 0.115110315 0.040264234 0.71014667 0.552627 -0.40171888 0.0010805534 0.12792921
-0.32605198 -0.27442628 0.2562116 0.16093725 -0.13902226 -0.9720361 -0.06558745 0.4593829
-0.17801967 0.151204 -1.4438769 -0.77602375 0.0077604773 0.033077225 0.023751253 0.35773548
0.21960436 -0.21184485 -0.0896751 -0.030229988 -0.8423277 -0.7482309 -0.4324042 -0.07763354
0.09999535 0.8073186 0.6635475 -0.46717277 -0.36329854 -0.19879623 -0.6413757 -0.31970382
-0.5181932 0.10205662 0.10241603 0.6330989 -0.085674964 -0.20338026 0.016381716 0.029726459
-0.18008193 -0.041526273 0.30454123 0.05579575 -0.02201031 1.2158359 0.8074318 0.5006329
-0.21594326 -0.18530111 -1.4101522 -0.9191173 0.36224043 0.09891951 -0.0068905475 0.41645196
0.57829076 -0.21011792 0.05873409 0.10650425
00000000: 72f7 aabf e741 3ebf 9ebf d7bd 60e4 383e
00000010: 869c 5f3e 3a01 3c3f 18e0 5e3e f3e6 fcbe
00000020: 6167 1c3e fd8f 8e3e bad8 c7bf ccb3 55bf
00000030: e75c a6be 640b 6d3e 0421 15be 8d20 a83f
00000040: c0ab 2c3f ad55 b5be 6183 8dbe c4b2 dfbd
00000050: b4fc f9be 5fae f4be c197 85be bfa0 833c
00000060: 7b46 5fbc 860d a2be 7101 473e fc67 ef3d
00000070: a78c 1dbe 3383 debd 2a69 153e 867b c53e
00000080: ae91 0a3f f5be eb3d 1cec 243d 2ccc 353f
00000090: f778 0d3f 19ae cdbe 5ba1 8d3a e0ff 023e
000000a0: 49f0 a6be 9a81 8cbe 2b2e 833e bccc 243e
000000b0: da5b 0ebe 5cd7 78bf b752 86bd 3c34 eb3e
000000c0: ca4a 36be 39d5 1a3e f5d0 b8bf 7ea9 46bf
000000d0: 9a4b fe3b fc7b 073d fd91 c23c 1b29 b73e
000000e0: f7df 603e dbed 58be 94a7 b7bd e1a4 f7bc
000000f0: caa2 57bf 0f8c 3fbf 1564 ddbe 55fe 9ebd
00000100: 5dca cc3d 6fac 4e3f 40de 293f 4531 efbe
00000110: 4402 babe 3d91 4bbe 3331 24bf 38b0 a3be
00000120: 4fa8 04bf 1003 d13d 7fbf d13d c512 223f
00000130: 5b76 afbd ea42 50be f332 863c e784 f33c
00000140: 6667 38be 7417 2abd d4ec 9b3e 168a 643d
00000150: f74e b4bc 83a0 9b3f dab3 4e3f 7a29 003f
00000160: 3b20 5dbe 93bf 3dbe de7f b4bf 454b 6bbf
00000170: 9477 b93e 5096 ca3d 1aca e1bb 3139 d53e
00000180: dd0a 143f 2729 57be 2893 703d e61e da3d

lstm2.weight_hh_l0 f4 [20, 20]
-0.043676212 0.0008800629 -0.043411423 0.3719225 -0.08934562 0.08285726 0.076546066 -7.7016615e-05
-0.0693408 -0.097745776 -0.07143732 -0.13958901 0.060454756 0.26912898 -0.09627024 -0.02173924
0.12987058 -0.009939879 -0.10533468 -0.06254074 -0.09198287 0.062695034 0.06049832 0.024032626
0.17024894 0.08933546 -0.0366249 -0.28598896 -0.2246919 0.028514719 -0.004204203 -0.34750828
-0.15598029 -0.1271629 0.11576293 -0.24862646 0.107176475 0.22418247 -0.1303277 0.38523635
-0.22127622 0.14866683 -0.020718597 0.07422805 0.13132764 -0.12396646 -0.09897357 0.11544869
-0.105420806 0.17886417 -0.059361145 0.025112012 0.10252524 -0.104181536 0.041229606 0.19177938
0.013772445 0.13023345 -0.061188485 0.011969426 -0.086029455 -0.066824034 -0.20777005 0.07850115
-0.20294976 0.00025613746 0.19437096 -0.078312784 0.021927003 0.1021571 0.10054417 0.10625603
0.1954712 0.09097641 0.02621262 -0.119697 -0.06655086 -0.2730923 -0.14971644 -0.33315518
0.13423179 -0.18889323 -0.053779397 0.23496965 -0.10833543 -0.21427828 -0.1485907 0.1515248
-0.25289744 -0.11204813 -0.060028188 0.007985072 0.16316758 0.011752282 0.08832856 0.13431054
0.44499362 0.15939495 -0.096837796 0.14211965 -0.10877621 -0.020779254 -0.02235784 -0.28489968
0.011327908 -0.32832944 -0.12574229 -0.19605288 0.12936403 -0.17096029 0.26192343 -0.0415981
-0.13635634 0.057295028 -0.09543145 0.03419429 -0.036536917 0.13880944 0.045645878 0.1394791
-0.0136992615 0.031168705 -0.008332336 -0.31763187 -0.16876727 0.25756493 -0.1102431 0.083296426
0.06692589 0.22951455 0.09143524 -0.1947809 -0.23868552 0.1082518 -0.27147615 -0.3603151
-0.065587744 -0.02242952 0.0969837 -0.03893155 -0.16405225 0.26003835 0.096371196 0.059000026
-0.030714137 0.23287633 -0.13358451 -0.2516795 -0.14655584 -0.13416182 0.047523215 -0.11679395
0.14157555 0.09755638 -0.16149785 -0.003886201 -0.03294792 -0.19044696 -0.0026052967 -0.15515497
-0.12372172 0.22820617 0.26334113 0.15328936 0.03953217 -0.15528919 -0.25458515 0.09580751
-0.001991532 0.14549181 -0.0038658946 -0.0348262 0.08919148 -0.01148555 0.1648663 -0.0028284455
-0.066485964 0.12012616 0.09715305 -0.06176256 -0.088351265 -0.14791992 0.029290292 -0.11425054
0.21679333 0.08692773 0.0016236753 -0.045330048 -0.2215638 0.017428203 -0.27414888 -0.20840356
-0.06350422 -0.17461759 0.018996796 -0.08896644 -0.006318193 0.050136022 0.014447001 0.034407135
-0.16042943 -0.010684287 -0.14292161 -0.2456078 -0.074734904 -0.17553096 0.09860222 0.02657044
-0.2160905 -0.07185314 -0.2582768 -0.23070593 -0.12260716 0.11501814 -0.1097973 -0.17369995
0.019225763 -0.089743905 -0.05725385 0.21493441 0.2109821 0.05038234 0.102239184 0.0354927
-0.2259726 0.052356653 0.18292668 0.3262205 0.14436893 0.15871017 -0.060231857 -0.07832301
-0.06520429 0.17058119 -0.013230315 -0.16806798 -0.14602458 -0.045438047 0.2389741 0.1742819
-0.14442036 0.11162425 0.039582595 0.025512842 -0.16442187 -0.24953014 -0.0033458304 0.2117484
0.07073798 -0.36841035 0.11140804 0.31927156 0.00055734836 -0.19670556 0.052062638 0.16235684
00000000: d4e5 32bd 05b4 663a 2dd0 31bd a06c be3e
00000010: d6fa b6bd 11b1 a93d 2fc4 9c3d fb83 a1b8
00000020: 8d02 8ebd f02e c8bd bb4d 92bd 6cf0 0ebe
00000030: 689f 773d 46cb 893e 5529 c5bd 7e16 b2bc
00000040: cbfc 043e e0da 22bc b5b9 d7bd 5c15 80bd
00000050: 8461 bcbd 4166 803d 16cd 773d 12e0 c43c
00000060: bd55 2e3e 82f5 b63d fe03 16bd 256d 92be
00000070: a215 66be b397 e93c 69c3 89bb 9bec b1be
00000080: 4cb9 1fbe fe36 02be 1d15 ed3d ef97 7ebe
00000090: 577f db3d 1790 653e a074 05be b33d c53e
000000a0: 3c96 62be 1e3c 183e 0cba a9bc e004 983d
000000b0: c17a 063e 21e2 fdbd a8b2 cabd 5d70 ec3d
000000c0: dde6 d7bd 2b28 373e ac24 73bd b5b7 cd3c
000000d0: c1f8 d13d 215d d5bd 60e0 283d d061 443e
000000e0: d2a5 613c eb5b 053e c7a0 7abd 691b 443c
000000f0: 3630 b0bd 0adb 88bd acc1 54be 36c5 a03d
00000100: 10d2 4fbe 304a 8639 2e09 473e 7462 a0bd
00000110: 42a0 b33c be37 d13d 1aea cd3d c39c d93d
00000120: 9a29 483e d751 ba3d d9bb d63c b323 f5bd
00000130: d14b 88bd c1d2 8bbe 444f 19be 5193 aabe
00000140: 0f74 093e 3a6d 41be c947 5cbd e29b 703e
00000150: f7de ddbd c46b 5bbe 2928 18be 5129 1b3e
00000160: c67b 81be 7d79 e5bd 1ee0 75bd d2d3 023c
00000170: 6715 273e a58c 403c 9be5 b43d b488 093e
00000180: 34d6 e33e 6e38 233e e552 c6bd d087 113e
00000190: 10c6 debd 4139 aabc ca27 b7bc 5fde 91be
000001a0: b198 393c cc1a a8be 96c2 00be 16c2 48be
000001b0: 0178 043e 3710 2fbe d41a 863e c562 2abd
000001c0: ffa0 0bbe 31ae 6a3d 9071 c3bd 500f 0c3d
000001d0: bca7 15bd 1024 0e3e 2cf7 3a3d 9cd3 0e3e
000001e0: de72 60bc 8355 ff3c 5a84 08bc a5a0 a2be
000001f0: 54d1 2cbe 8ddf 833e 22c7 e1bd 5197 aa3d
00000200: 7110 893d dd05 6b3e 6642 bb3d a574 47be
00000210: fa69 74be 1fb3 dd3d ecfe 8abe 397b b8be
00000220: de52 86bd 1dbe b7bc 649f c63d b076 1fbd
00000230: 50fd 27be bf23 853e 435e c53d 03aa 713d
00000240: 379c fbbc 2277 6e3e 61ca 08be 23dc 80be
00000250: bc12 16be b761 09be b4a7 423d ab31 efbd
00000260: 2ef9 103e a4cb c73d b15f 25be a2af 7ebb
00000270: 66f4 06bd 8704 43be a0bd 2abb f2e0 1ebe
00000280: d061 fdbd e1ae 693e a6d4 863e e3f7 1c3e
00000290: 7cec 213d 2104 1fbe fc58 82be ba36 c43d
000002a0: 5d84 02bb cefb 143e f35a 7dbb eba5 0ebd
000002b0: 06aa b63d e32d 3cbc b6d2 283e 715d 39bb
000002c0: cb29 88bd b404 f63d 2ef8 c63d bdfa 7cbd
000002d0: 82f1 b4bd 5278 17be 32f2 ef3c 30fc e9bd
000002e0: 12ff 5d3e 2a07 b23d 81d1 d43a 00ac 39bd
000002f0: 9fe1 62be 97c5 8e3c 3e5d 8cbe be67 55be
00000300: 800e 82bd f4ce 32be 2b9f 9b3c 0934 b6bd
00000310: d808 cfbb 6e5b 4d3d 1db3 6c3c 7fee 0c3d
00000320: 9d47 24be 260d 2fbc 0b5a 12be 9c80 7bbe
00000330: 9d0e 99bd 63be 33be f6ef c93d 40aa d93c
00000340: d446 5dbe bd27 93bd db3c 84be 2d3e 6cbe
00000350: 7619 fbbd a18e eb3d 68dd e0bd 66de 31be
00000360: 597f 9d3c a7cb b7bd 0383 6abd c417 5c3e
00000370: b10b 583e b65d 4e3d c762 d13d cb60 113d
00000380: 5c65 67be ee73 563d 2251 3b3e 6006 a73e
00000390: 73d5 133e eb84 223e aeb5 76bd d067 a0bd
000003a0: d489 85bd d6ac 2e3e f7c3 58bc 031a 2cbe
000003b0: 7887 15be 3f1d 3abd a0b5 743e f476 323e
000003c0: eee2 13be 419b e43d 5c21 223d 4f00 d13c
000003d0: 355e 28be d484 7fbe b845 5bbb 93d4 583e
000003e0: 13df 903d 48a0 bcbe e629 e43d 9077 a33e
000003f0: 041b 123a 2f6d 49be a23f 553d df40 263e

lstm2.bias_ih_l0 f4 [20]
0.02080779 -0.16260305 0.0672439 -0.18507607 0.056901332 -0.073451474 -0.030872276 -0.050784204
-0.054759383 0.06163034 0.20228401 0.1442301 0.0053987284 0.03341995 -0.083893 -0.030974036
-0.032039918 -0.09991546 -0.13221996 0.004094387
00000000: 1975 aa3c 6a81 26be 2bb7 893d 9584 3dbe
00000010: 5f11 693d ba6d 96bd dbe7 fcbc 1903 50bd
00000020: 604b 60bd 1870 7c3d 8a23 4f3e 0eb1 133e
00000030: d1e7 b03b 5ce3 083d 18d0 abbd 43bd fdbc
00000040: 4a3c 03bd 7aa0 ccbd ab64 07be 352a 863b

lstm2.bias_hh_l0 f4 [20]
-0.01122954 0.039254867 0.00995778 0.2088327 0.005459993 0.1017401 -0.09585822 -0.0072226236
0.032018676 0.0229698 -0.07473607 -0.1445945 0.13847943 0.09518061 0.020530779 0.008071005
0.031385034 0.1221697 0.17234048 -0.078247756
00000000: 1bfc 37bc b6c9 203d f525 233c 3dd8 553e
00000010: bee9 b23b 1d5d d03d 5051 c4bd c2ab ecbb
00000020: 0426 033d 292b bc3c 3a0f 99bd 9510 14be
00000030: 8dcd 0d3e 0dee c23d 2a30 a83c 403c 043c
00000040: 988d 003d 1c34 fa3d 067a 303e 5c40 a0bd

lstm2.weight_ih_l1 f4 [20, 20]
0.17996134 0.05381037 0.16126324 -0.16352907 0.08597217 0.06632401 -0.03760068 -0.07599281
0.08215562 -0.20515583 0.057335053 0.04898385 -0.09776159 0.045540024 0.0043150806 -0.31056806
-0.006144461 -0.16351831 0.0122606885 -0.25276008 0.1779432 -0.178288 -0.054574482 0.060297865
-0.034738403 0.207424 0.0023279437 -0.2134926 0.036887027 0.24767195 0.23102085 -0.15249534
-0.026469778 -0.12650985 -0.12675615 -0.12029152 -0.16836193 -0.012134283 0.033479515 0.047774423
0.08824775 -0.38298237 0.19460993 -0.2469396 -0.25256684 0.0934579 0.13694617 0.018933939
0.013481531 0.09062052 0.18908302 -0.092278965 -0.0290222 -0.33358565 -0.028220719 -0.06310737
0.060776394 -0.07516639 0.23074737 0.15005521 0.042968825 0.113949366 0.069980435 -0.0056520207
0.02902414 0.12109136 0.1444249 -0.015172537 -0.09200337 -0.1425991 -0.17429428 -0.08071528
-0.06459868 0.09051886 -0.077505484 0.21630287 0.18510176 -0.14459969 -0.05611736 -0.020738015
0.015512796 -0.1007724 -0.2634827 0.13184598 -0.03322037 -0.11759869 0.0025600395 0.24479902
-0.137274 -0.24377471 -0.083497554 0.12701808 0.09161928 -0.010393588 0.055034816 0.08303842
0.029259656 -0.027778046 -0.34222445 0.07380531 0.037104674 0.34454474 0.07826317 -0.031245083
-0.010516456 -0.10847242 -0.07278619 -0.13840103 -0.13090087 0.031491674 -0.0670945 -0.33529228
-0.05880969 0.27479357 -0.21340784 0.13574916 0.035292655 -0.11649937 0.08944909 -0.051332146
-0.12211914 0.30709305 -0.072626896 0.25689352 0.35445145 -0.24634022 -0.2740081 0.16459179
-0.07091862 -0.24783756 -0.42362198 -0.13397802 -0.25245288 0.25670108 -0.089142874 0.20060647
-0.06409744 0.2936856 -0.24435303 0.30222666 0.015209444 0.063285016 0.2856368 0.10502081
0.15979157 -0.014265306 -0.0187762 -0.33185005 -0.13812616 -0.042435177 0.30569756 -0.14819822
0.10833359 -0.30877396 0.03427834 -0.043393772 0.060718033 0.15728761 0.2386241 0.0445273
0.3118496 -0.059351567 0.262285 -0.10825893 -0.1659587 0.3524105 -0.13655585 -0.073147826
0.1790813 0.20549384 0.13016047 0.029692484 0.008562357 0.021500751 -0.057371654 -0.16991836
-0.18581243 -0.0032558332 0.094550595 -0.19165699 -0.14555746 0.14817515 -0.09832668 0.18852426
0.09735285 0.07446646 0.03473963 0.21036083 -0.24271381 -0.048273556 -0.35562068 0.07447198
-0.0030227033 0.06273131 -0.062430687 -0.059883837 -0.1029753 0.19211979 -0.32589296 0.064581245
0.17198738 -0.26234406 0.30704245 -0.037174664 0.003043798 0.15419586 0.0768838 -0.20117722
-0.11796525 0.1601608 0.03260017 -0.044266324 0.2240262 -0.08682508 0.1121429 -0.10741072
0.074866965 -0.24450964 0.24519424 -0.081467174 0.24667451 -0.19295192 0.047365982 -0.017478943
-0.046139807 -0.0048411223 0.070765674 -0.09936634 0.20084916 0.14282307 0.3772936 0.22877659
0.031125624 -0.19661379 0.11284675 -0.10630733 0.04427636 -0.0008560677 0.3256215 -0.16164444
0.043649264 -0.1935697 0.15662149 -0.011602892 -0.27438548 -0.10132675 0.0069618216 -0.11431545
-0.115437225 0.13561048 0.27865463 -0.044875782 0.11330898 -0.24738832 -0.0131501835 0.09084847
00000000: c947 383e 4368 5c3d 3122 253e 2a74 27be
00000010: 2d12 b03d e2d4 873d 2c03 1abd 1ea2 9bbd
00000020: 3541 a83d 5f14 52be 29d8 6a3d 4aa3 483d
00000030: 3a37 c8bd 2d88 3a3d 8565 8d3b c702 9fbe
00000040: 7a57 c9bb 5871 27be 0ee1 483c c569 81be
00000050: be36 363e 2191 36be 7e89 5fbd e5fa 763d
00000060: db49 0ebd f566 543e 6a90 183b ce9d 5abe
00000070: da16 173d b79d 7d3e bb90 6c3e bd27 1cbe
00000080: 26d7 d8bc cc8b 01be 5dcc 01be 675b f6bd
00000090: 1267 2cbe dfce 46bc d121 093d 1daf 433d
000000a0: 3dbb b43d 4416 c4be d347 473e bcdd 7cbe
000000b0: 7150 81be db66 bf3d 9e3b 0c3e 591b 9b3c
000000c0: a4e1 5c3c 4097 b93d fb9e 413e c1fc bcbd
000000d0: f7bf edbc bdcb aabe 232f e7bc 703e 81bd
000000e0: abf0 783d d6f0 99bd 0a49 6c3e 13a8 193e
000000f0: 1400 303d 495e e93d e751 8f3d 9634 b9bb
00000100: 09c4 ed3c bffe f73d 1fe4 133e 3c96 78bc
00000110: 436c bcbd 8005 12be 337a 32be 0d4e a5bd
00000120: 504c 84bd f461 b93d 32bb 9ebd 807e 5d3e
00000130: 518b 3d3e f111 14be 51db 65bd c5e2 a9bc
00000140: 6229 7e3c c361 cebd 34e7 86be a202 073e
00000150: 1512 08bd 95d7 f0bd 56c6 273b 98ac 7a3e
00000160: 8e91 0cbe 14a0 79be c400 abbd 0711 023e
00000170: e4a2 bb3d de49 2abc 306c 613d 0c10 aa3d
00000180: f2b1 ef3c c98e e3bc 0b38 afbe 3d27 973d
00000190: 12fb 173d 2b68 b03e 7148 a03d b0f5 ffbc
000001a0: 374d 2cbc ca26 debd ed10 95bd 00b9 0dbe
000001b0: e10a 06be 6afd 003d d768 89bd 6eab abbe
000001c0: 6ee2 70bd beb1 8c3e 9687 5abe d401 0b3e
000001d0: 088f 103d 3997 eebd 1631 b73d a841 52bd
000001e0: 9a19 fabd 4d3b 9d3e 69bd 94bd 8c87 833e
000001f0: a97a b53e 9c40 7cbe ca4a 8cbe c08a 283e
00000200: c83d 91bd 21c9 7dbe fbe4 d8be 8931 09be
00000210: 8141 81be 536e 833e 8a90 b6bd c86b 4d3e
00000220: 8545 83bd f55d 963e ae37 7abe 74bd 9a3e
00000230: 0831 793c 939b 813d fd3e 923e 2715 d73d
00000240: 67a0 233e 08b9 69bc 8cd0 99bc 40e8 a9be
00000250: f270 0dbe 82d0 2dbd 6484 9c3e 46c1 17be
00000260: 00de dd3d 9f17 9ebe 7267 0c3d abbd 31bd
00000270: 79b3 783d 0110 213e e059 743e 4262 363d
00000280: c0aa 9f3e a11a 73bd 384a 863e dcb6 ddbd
00000290: 14f1 29be 266f b43e 4cd5 0bbe 87ce 95bd
000002a0: 1761 373e fa6c 523e c948 053e a73d f33c
000002b0: 2149 0c3c 5822 b03c 8afe 6abd 14ff 2dbe
000002c0: 9d45 3ebe d15f 55bb bea3 c13d bb41 44be
000002d0: 040d 15be 3abb 173e 805f c9bd 810c 413e
000002e0: ee60 c73d df81 983d 244b 0e3d d468 573e
000002f0: f889 78be 7eba 45bd ea13 b6be c484 983d
00000300: 8c18 46bb 4679 803d 52b7 7fbd c148 75bd
00000310: b7e4 d2bd 0dbb 443e 71db a6be 2c43 843d
00000320: 761d 303e f651 86be ab34 9d3e 7644 18bd
00000330: 757a 473b 85e5 1d3e 4175 9d3d 6701 4ebe
00000340: c497 f1bd 3101 243e c187 053d 9b50 35bd
00000350: 2067 653e 59d1 b1bd 2dab e53d 27fa dbbd
00000360: da53 993d bc60 7abe 3314 7b3e 43d8 a6bd
00000370: 3e98 7c3e 3095 45be d502 423d 0030 8fbc
00000380: 18fd 3cbd 47a2 9ebb 98ed 903d 9480 cbbd
00000390: 67ab 4d3e 3640 123e a02c c13e 6944 6a3e
000003a0: 2afb fe3c 2055 49be 321c e73d a8b7 d9bd
000003b0: 215b 353d bb69 60ba dcb7 a63e 1f86 25be
000003c0: 92c9 323d 2337 46be 6261 203e 0e1a 3ebc
000003d0: 417c 8cbe 6684 cfbd fe1f e43b 381e eabd
000003e0: 5a6a ecbd 79dd 0a3e d2ab 8e3e abcf 37bd
000003f0: 8a0e e83d 5d53 7dbe de73 57bc c30e ba3d

lstm2.weight_hh_l1 f4 [20, 20]
-0.15905501 0.043653622 -0.057484612 0.093764775 0.040699404 0.012618732 -0.047465835 -0.0051518967
0.121775664 -0.044810392 0.195283 0.13152964 0.26811868 0.013521836 0.02768612 -0.048649345
-0.039073396 -0.091107786 -0.02378758 0.08555675 -0.11518109 -0.12500313 0.031042604 -0.15917866
0.124613136 -0.29453245 -0.03981719 0.030229634 -0.19490606 -0.07941646 -0.0043194806 0.24805084
-0.23445922 0.10458463 0.18149577 0.029496446 -0.0068714316 -0.1765683 0.20876788 0.06487022
0.13485265 -0.17757782 -0.09241479 0.026346408 0.18777002 0.09284541 0.0663989 -0.19835469
-0.08877502 -0.1468819 0.09187785 -0.06367671 -0.1862481 0.03478229 -0.1774104 -0.012960758
0.076068625 0.15523985 -0.09840252 -0.3499226 0.106279306 0.10572228 0.042583935 -0.18945394
0.066329926 0.097988375 0.30547825 0.09693816 0.022528218 0.2824949 0.15481707 0.10697096
0.03189408 0.02073879 -0.19288374 -0.042529486 -0.0005028515 0.011545637 -0.14760534 -0.081437014
0.031674847 -0.15768124 -0.04556166 0.081024356 -0.1908622 -0.12616509 0.17420584 -0.18571435
0.15626653 -0.15413804 -0.14726365 0.14709663 0.06767076 0.032614447 0.16727918 -0.090851225
-0.15509331 -0.15547124 0.010993372 0.020165412 -0.075625345 -0.005786418 0.055099618 0.11384793
0.15569241 -0.07409774 0.08221337 0.13169801 -0.092701755 -0.09194334 -0.27130297 -0.16449751
0.16957036 0.051317178 -0.107441336 -0.15087676 0.17165133 0.10546887 0.01093305 -0.051979497
0.09274587 -0.07427825 -0.3640086 -0.1037894 0.24750327 0.0607885 0.08560463 -0.017756691
-0.18690804 -0.0451313 0.048994478 0.12552147 0.18703587 -0.2042254 -0.05135389 -0.17854235
-0.12078729 0.18236291 -0.04615662 0.4410516 0.1107294 0.01687525 -0.11516781 0.17237112
0.024010235 -0.04886891 -0.097912565 -0.15620726 0.16479863 0.045145 0.082082845 0.017907403
-0.053574298 -0.045682568 0.20175909 0.096907414 -0.010147305 -0.04609837 0.14398457 0.007868598
-0.22590525 0.097538345 -0.14355402 0.23981896 0.16477972 -0.031978328 -0.18756911 -0.016899124
-0.4002165 0.028159127 0.061319202 0.12528647 0.029461892 0.034290295 0.06373221 0.026356481
0.025048027 0.14699942 -0.030371489 -0.0765076 -0.001377128 0.12096822 0.32237685 -0.06180038
-0.2320108 -0.19645046 0.23308071 0.03916061 -0.13476612 -0.18395111 -0.15506296 0.035975344
-0.15953678 -0.020501459 -0.0026607956 -0.18904561 -0.0801 -0.088707216 0.20186578 0.068200916
-0.17435199 -0.10260284 0.17985661 0.06733744 -0.012466303 0.34744447 -0.08563516 -0.062785946
-0.007936158 -0.030171514 -0.1484933 -0.15052323 -0.019196847 -0.054458592 0.08603143 0.101857215
0.1998192 0.037693504 -0.27752706 -0.089458115 -0.16539428 -0.103689246 0.1484289 0.029151343
-0.03386388 0.37324116 -0.17450373 0.07151257 -0.092937104 0.030993812 0.047282 -0.2202118
-0.052935306 -0.28454703 -0.03706432 -0.1986486 0.1951612 -0.1079109 0.0020194491 0.014324826
0.074045226 -0.038792364 0.07658975 -0.045521952 0.16788624 -0.10615565 -0.041652616 -0.12291088
0.23149669 0.079105236 -0.21371019 0.15106761 -0.30812562 -0.21969895 0.14427985 0.051963244
00000000: 51df 22be 24ce 323d fc74 6bbd bf07 c03d
00000010: 6bb4 263d ccbe 4e3c 896b 42bd 3ed1 a8bb
00000020: 8565 f93d 1a8b 37bd 44f8 473e b5af 063e
00000030: da46 893e b18a 5d3c 00ce e23c 8944 47bd
00000040: 6d0b 20bd b896 babd 2cde c2bc 6138 af3d
00000050: 10e4 ebbd d200 00be 0f4d fe3c bbff 22be
00000060: 2c35 ff3d f5cc 96be 5a17 23bd 23a4 f73c
00000070: 7495 47be 19a5 a2bd 6e8a 8dbb 0a01 7e3e
00000080: 1416 70be 7730 d63d 07da 393e 88a2 f13c
00000090: bf29 e1bb 52ce 34be 3fc7 553e aeda 843d
000000a0: d016 0a3e f6d6 35be f743 bdbd 6cd4 d73c
000000b0: c946 403e bc25 be3d 25fc 873d 7e1d 4bbe
000000c0: adcf b5bd 3568 16be 742a bc3d ef68 82bd
000000d0: d2b7 3ebe e077 0e3d 12ab 35be 5c59 54bc
000000e0: dec9 9b3d 32f7 1e3e 4387 c9bd 0e29 b3be
000000f0: f7a8 d93d ec84 d83d 7e6c 2e3d 3700 42be
00000100: fcd7 873d 21ae c83d a567 9c3e 8487 c63d
00000110: 198d b83c 2ca3 903e 5e88 1e3e 9713 db3d
00000120: 5ea3 023d 65e4 a93c 5183 45be 6633 2ebd
00000130: cbd1 03ba e929 3d3c db25 17be 73c8 a6bd
00000140: 7cbd 013d 3177 21be dd9e 3abd 19f0 a53d
00000150: 6171 43be 6c31 01be 0463 323e e72b 3ebe
00000160: 5504 203e 5dd6 1dbe 48cc 16be 80a0 163e
00000170: f896 8a3d ba96 053d 3c4b 2b3e 3510 babd
00000180: c8d0 1ebe da33 1fbe 8b1d 343c ef31 a53c
00000190: 76e1 9abd fe9b bdbb 23b0 613d 1b29 e93d
000001a0: d56d 1f3e 8ec0 97bd 7c5f a83d d8db 063e
000001b0: 6bda bdbd ca4c bcbd 39e8 8abe 0972 28be
000001c0: daa3 2d3e f631 523d 340a dcbd 707f 1abe
000001d0: 5ec5 2f3e 1000 d83d 8920 333c 74e8 54bd
000001e0: 8cf1 bd3d 321f 98bd 565f babe 898f d4bd
000001f0: 7f71 7d3e 5dfd 783d 7b51 af3d 7b76 91bc
00000200: d264 3fbe 99db 38bd 6fae 483d b388 003e
00000210: 5586 3f3e 7720 51be 7558 52bd ced3 36be
00000220: 545f f7bd 58bd 3a3e b90e 3dbd 84d1 e13e
00000230: 18c6 e23d f73d 8a3c 1add ebbd 0e82 303e
00000240: 1db1 c43c c42a 48bd 6286 c8bd ccf4 1fbe
00000250: f9c0 283e f7e9 383d 0d1b a83d 8cb2 923c
00000260: b970 5bbd a51d 3bbd ef99 4e3e 6577 c63d
00000270: e240 26bc a5d1 3cbd b170 133e 4beb 003c
00000280: b553 67be 2fc2 c73d d3ff 12be 1a93 753e
00000290: 04bc 283e b5fb 02bd 1e12 40be 0870 8abc
000002a0: 2de9 ccbe f8ad e63c d829 7b3d 194b 003e
000002b0: 115a f13c fb73 0c3d 0886 823d 8ce9 d73c
000002c0: 8531 cd3c 0487 163e a1cd f8bc 04b0 9cbd
000002d0: bf80 b4ba 30be f73d 940e a53e 6522 7dbd
000002e0: 3d94 6dbe 4f2a 49be b6ac 6e3e e066 203d
000002f0: 2100 0abe ae5d 3cbe d3c8 1ebe e25a 133d
00000300: 9c5d 23be adf2 a7bc be60 2ebb 2c95 41be
00000310: 780b a4bd 21ac b5bd e7b5 4e3e ecac 8b3d
00000320: 5489 32be 7021 d2bd 552c 383e 36e8 893d
00000330: 773f 4cbc 3ee4 b13e 7d61 afbd eb95 80bd
00000340: a906 02bc 402a f7bc a10e 18be c322 1abe
00000350: b542 9dbc f90f 5fbd 3f31 b03d 849a d03d
00000360: 689d 4c3e 8164 1a3d 0718 8ebe d135 b7bd
00000370: 1e5d 29be 075b d4bd bffd 173e ccce ee3c
00000380: dab4 0abd 7719 bf3e 1bb1 32be 2f75 923d
00000390: cf55 bebd bce6 fd3c c5aa 413d 347f 61be
000003a0: b1d2 58bd 26b0 91be c2d0 17bd 8a6a 4bbe
000003b0: 56d8 473e 6400 ddbd bc58 043b adb2 6a3c
000003c0: 06a5 973d bee4 1ebd 16db 9c3d 3a75 3abd
000003d0: 5fea 2b3e 2268 d9bd ef9b 2abd b3b8 fbbd
000003e0: 780d 6d3e ed01 a23d d8d6 5abe 78b1 1a3e
000003f0: a4c2 9dbe c3f8 60be 19be 133e 69d7 543d

lstm2.bias_ih_l1 f4 [20]
-0.024168076 0.044278394 0.17220323 0.06975643 0.12603535 0.060922418 0.055825178 0.17029327
-0.07151283 0.0038599079 -0.0520272 0.01612773 0.05356987 0.073289774 0.03802954 0.040839713
-0.024479315 0.19436635 0.09525437 0.10979107
00000000: 21fc c5bc 435d 353d 0b56 303e 76dc 8e3d
00000010: 690f 013e c989 793d f1a8 643d 5c61 2e3e
00000020: 5275 92bd 82f6 7c3b 791a 55bd 4d1e 843c
00000030: 146c 5b3d f318 963d ddc4 1b3d 8b47 273d
00000040: d888 c8bc f907 473e b914 c33d 24da e03d

lstm2.bias_hh_l1 f4 [20]
-0.052446213 -0.11610756 -0.04947066 -0.13501555 -0.15554301 -0.0149837835 -0.024943825 -0.13723093
0.03363233 -0.12222355 0.11505708 0.0528753 0.011871122 0.007647034 0.07619792 -0.03165728
0.101640046 -0.18901493 -0.041443344 0.11489376
00000000: d7d1 56bd cdc9 edbd bfa1 4abd 8441 0abe
00000010: ab46 1fbe 8b7e 75bc fe56 ccbc 4486 0cbe
00000020: 0ec2 093d 5750 fabd 0ca3 eb3d c593 583d
00000030: 187f 423c f893 fa3b a80d 9c3d 10ab 01bd
00000040: a828 d03d 218d 41be 7fc0 29bd 6b4d eb3d
